exported_models/policy.onnx (onnx, 6677 bytes, 6 tensors)

actor.0.weight f4 [32, 9]
0.15949321 0.28824857 -0.054819986 0.32525238 -0.08042108 0.05860499 -0.13613902 0.2189265
0.32928693 -0.19913556 0.28473666 0.07931558 0.24310747 0.03661225 0.1490972 -0.060881317
0.2614558 0.06975265 -0.18610576 0.09147522 -0.14427808 -0.03444162 -0.15651831 0.19908465
-0.23482965 -0.15241282 -0.07650907 -0.23150082 0.029760834 -0.3340506 0.30094317 -0.27152243
0.26733002 0.0931103 -0.09015522 0.21995409 0.09197033 0.23099063 0.02717645 -0.103754856
0.11494388 -0.060136456 0.14202568 0.30665705 0.17129485 -0.20081873 0.187984 0.05602001
0.17108367 -0.20874916 -0.3341618 -0.11828904 -0.27485755 0.2967459 0.055780087 0.14592339
0.10224667 -0.0030812959 0.23716113 -0.26418993 -0.00019105786 -0.23789968 0.12831745 -0.1720431
0.12415513 -0.06854226 0.28283164 -0.1781666 -0.17695346 -0.1857034 0.32415596 0.11402419
0.3457799 -0.2736132 -0.33327374 -0.25668633 -0.2098876 0.1511455 0.09001136 0.28624824
-0.17635557 -0.26752502 0.17800014 -0.119273365 0.20718664 -0.104313426 0.16397749 -0.21276204
-0.13821821 0.11523516 -0.00044138587 -0.05941946 0.19181447 0.2269243 -0.2442067 -0.1774235
0.26957053 -0.11167152 -0.062927924 -0.35351002 -0.18636787 0.08475 -0.03444324 -0.27046025
-0.023487693 -0.23110045 -0.28641465 -0.17320688 -0.3314469 -0.20811035 0.32580358 0.07206456
0.07146574 -0.34614387 -0.2367648 -0.106459744 0.062115744 -0.29639968 -0.14916605 -0.20598623
-0.000670215 -0.11840446 -0.017458536 -0.18445289 -0.20186237 -0.17821842 -0.09901232 -0.26019865
0.27588543 -0.0821546 0.286755 0.10332271 -0.29653016 0.21694686 -0.09299375 -0.14940889
-0.2975752 -0.32760406 0.1049083 -0.080410354 0.12341077 -0.24491888 0.27465895 -0.2471121
-0.07619995 0.09051067 0.1771701 0.25708827 0.31361398 -0.2547682 0.07894548 -0.13450128
-0.010670538 -0.26363719 0.29760087 -0.23129639 0.20442744 0.12768342 0.121738836 -0.18242888
0.3276993 0.06603957 0.040251546 -0.31451964 0.12592216 -0.046832968 -0.15464579 0.28560522
0.065642655 -0.1832244 -0.17660013 -0.03453292 0.17974627 -0.08782195 -0.19306557 -0.1252101
-0.26298913 0.09777699 0.2530795 -0.31908533 0.08445205 0.1473833 0.05421021 -0.12582763
0.1688952 0.1701823 0.13342999 -0.056969397 -0.10988729 0.02225448 -0.03740586 -0.100846365
0.19886936 0.2663577 -0.05605011 -0.07186952 0.0046045757 -0.027808243 0.0932176 0.08228116
-0.29948413 -0.13173035 0.26888013 0.113196656 -0.034708507 -0.20616569 -0.21467349 -0.35165632
-0.09741613 0.109301694 0.20914622 0.1566783 -0.2904365 -0.22286302 -0.057652872 0.34415215
0.017880151 -0.05630186 0.12957595 -0.12230696 -0.23715883 0.21922566 -0.13926922 -0.08462244
-0.30401653 0.25966367 0.23070084 0.116545305 -0.23269956 -0.3031295 -0.24114321 0.2533508
0.17596184 0.26062742 0.18202633 0.060485426 -0.010348154 -0.25828037 -0.28587052 -0.3121874
0.13054207 -0.16139247 -0.084226266 -0.14042538 -0.050688185 -0.24108359 -0.23971418 0.13872395
-0.06656143 0.18311343 -0.122037314 -0.25769097 -0.036511574 -0.1335586 -0.11078748 -0.32478386
00000000: 3052 233e 5195 933e ec8a 60bd 7b87 a63e
00000010: cfb3 a4bd c90b 703d 0768 0bbe 452e 603e
00000020: 4c98 a83e 31ea 4bbe 01c9 913e 3570 a23d
00000030: 2af1 783e baf6 153d f0ac 183e b05e 79bd
00000040: 89dd 853e 7ada 8e3d 8292 3ebe 5c57 bb3d
00000050: a2bd 13be a812 0dbd 5646 20be d9dc 4b3e
00000060: 2f77 70be 1b12 1cbe cab0 9cbd 8d0e 6dbe
00000070: fecc f33c ae08 abbe 3915 9a3e fd04 8bbe
00000080: 7bdf 883e 9db0 be3d 4da3 b8bd a53b 613e
00000090: f15a bc3d cf88 6c3e 25a1 de3c 6d7d d4bd
000000a0: b267 eb3d a551 76bd 2e6f 113e 2702 9d3e
000000b0: eb67 2f3e 6da3 4dbe e17e 403e 3d75 653d
000000c0: 8f30 2f3e 57c2 55be 4117 abbe 8641 f2bd
000000d0: 21ba 8cbe 14ef 973e a979 643d f16c 153e
000000e0: b466 d13d 91ef 49bb 5eda 723e e743 87be
000000f0: b456 48b9 f99b 73be a665 033e 112c 30be
00000100: 0b45 fe3d e25f 8cbd 4fcf 903e 4e71 36be
00000110: 4a33 35be 0829 3ebe c5f7 a53e 8485 e93d
00000120: 100a b13e 0817 8cbe dba2 aabe 646c 83be
00000130: c6ec 56be e3c5 1a3e e057 b83d 218f 923e
00000140: 8e96 34be 0af9 88be ab45 363e 9845 f4bd
00000150: bc28 543e 47a2 d5bd b7e9 273e 4bde 59be
00000160: 1389 0dbe 6900 ec3d cf69 e7b9 d261 73bd
00000170: 036b 443e d85e 683e 5211 7abe 82ae 35be
00000180: 2605 8a3e 0ab4 e4bd 5be0 80bd 44ff b4be
00000190: 38d7 3ebe 6891 ad3d 5b14 0dbd c479 8abe
000001a0: 4369 c0bc 99a5 6cbe f1a4 92be 255d 31be
000001b0: 68b3 a9be e11a 55be bacf a63e 9696 933d
000001c0: a15c 923d c539 b1be 7972 72be 9107 dabd
000001d0: 146d 7e3d b3c1 97be fcbe 18be 0eee 52be
000001e0: 5eb1 2fba 0a7e f2bd 3405 8fbc 38e1 3cbe
000001f0: 02b5 4ebe e47e 36be f9c6 cabd c238 85be
00000200: db40 8d3e ac40 a8bd 8dd1 923e db9a d33d
00000210: cdd2 97be 5127 5e3e 8273 bebd a5fe 18be
00000220: c75b 98be b8bb a7be 2ada d63d 2fae a4bd
00000230: c9be fc3d 04cc 7abe 19a0 8c3e f40a 7dbe
00000240: b80e 9cbd a85d b93d 146c 353e 13a1 833e
00000250: 0392 a03e fa70 82be 2bae a13d b4ba 09be
00000260: 7bd3 2ebc 74fb 86be 245f 983e f6d8 6cbe
00000270: 6d55 513e 71bf 023e 3652 f93d a3ce 3abe
00000280: 34c8 a73e c13f 873d cede 243d b808 a1be
00000290: bdf1 003e edd3 3fbd 775b 1ebe d93a 923e
000002a0: a86f 863d 2d9f 3bbe aad6 34be 6472 0dbd
000002b0: 680f 383e ffdb b3bd fbb2 45be 1437 00be
000002c0: 83a6 86be 4d3f c83d a393 813e 275f a3be
000002d0: 32f5 ac3d a6eb 163e 860b 5e3d f5d8 00be
000002e0: ddf2 2c3e 4544 2e3e dfa1 083e be58 69bd
000002f0: 960c e1bd 074f b63c e336 19bd 8a88 cebd
00000300: 69a4 4b3e 0960 883e cd94 65bd 5430 93bd
00000310: fbe1 963b 1dce e3bc dee8 be3d 0683 a83d
00000320: fc55 99be 52e4 06be a8aa 893e a6d3 e73d
00000330: 822a 0ebd 191d 53be 5ed3 5bbe 4c0c b4be
00000340: 1c82 c7bd 91d9 df3d 6d2a 563e 4770 203e
00000350: 18b4 94be 3436 64be 6b25 6cbd b634 b03e
00000360: 6579 923c c79c 66bd 8faf 043e 127c fabd
00000370: c4d9 72be b17c 603e 979c 0ebe 884e adbd
00000380: 0ea8 9bbe a3f2 843e d73c 6c3e 4eaf ee3d
00000390: cb48 6ebe ca33 9bbe 3fee 76be 32b7 813e
000003a0: 572f 343e f570 853e 1c65 3a3e 91bf 773d
000003b0: 4e8b 29bc 533d 84be 9f5d 92be 07d7 9fbe
000003c0: d2ac 053e 1144 25be d27e acbd accb 0fbe
000003d0: 6a9e 4fbd 9ede 76be a277 75be a70d 0e3e
000003e0: 5c51 88bd 1682 3b3e b3ee f9bd 12f0 83be
000003f0: 298d 15bd 96c3 08be 8ce4 e2bd 124a a6be

actor.0.bias f4 [32]
0.27065873 -0.06392274 -0.060070373 -0.12615328 -0.27079445 -0.32857564 0.096581176 -0.16120398
-0.19828385 -0.052776016 -0.110543974 -0.13895799 -0.024282029 -0.06515088 -0.11524482 -0.1660056
-0.26174086 0.29298642 -0.13423471 0.07435004 -0.12053141 0.00404524 0.29412997 0.15776412
-0.31283203 0.16175143 0.31609866 0.12008834 0.2509979 0.32103825 -0.029112559 0.0462321
00000000: c893 8a3e ede9 82bd 5a0c 76bd 532e 01be
00000010: 92a5 8abe 113b a8be 5acc c53d a812 25be
00000020: ec0a 4bbe aa2b 58bd e164 e2bd 014b 0ebe
00000030: 1beb c6bc d36d 85bd 7a05 ecbd 5ffd 29be
00000040: e602 86be 5102 963e d374 09be d544 983d
00000050: 2cd9 f6bd ef8d 843b 3498 963e eb8c 213e
00000060: 852b a0be 2ba2 253e afd7 a13e e0f0 f53d
00000070: cc82 803e 205f a43e 767d eebc df5d 3d3d

actor.2.weight f4 [32, 32]
-0.1900296 -0.115155496 0.1222218 0.0485831 -0.06359845 -0.22781274 -0.09711525 -0.24559154
-0.087173566 -0.10813174 0.08506957 0.06295286 -0.11893056 -0.1714983 0.12061558 -0.1639396
-0.073314965 0.039462067 -0.043499913 0.03734911 0.035900656 -0.10921948 -0.06321769 -0.21834531
-0.099079534 -0.045399524 0.22729498 -0.031175544 -0.059741393 -0.014455103 0.015670953 0.072986946
0.13947041 0.10370208 -0.17695178 0.0095638065 0.09408638 -0.011157623 -0.101222426 0.17162812
-0.09198016 -0.10178158 -0.15805344 0.0033382536 0.08653093 0.048137594 0.03245455 -0.1385543
-0.16110286 -0.0028534827 0.15672033 0.08489866 -0.11571811 -0.02265706 -0.14424369 -0.080319405
0.022166492 0.08360552 0.13197646 -0.18841414 0.101919845 -0.12838976 0.067708746 0.1547053
0.0058671553 0.16218369 -0.16140652 -0.053129 0.106218 -0.03893503 -0.032313824 -0.06997855
0.12027807 0.0911902 0.05782891 -0.093993515 -0.14176312 0.009592707 0.058159884 -0.08102352
-0.046866927 0.13114396 0.021079704 0.008506019 -0.037515726 -0.15685153 -0.17181122 -0.082916744
-0.082161985 0.06057754 -0.0463378 -0.070036866 0.17274544 0.06918684 0.12813993 -0.09861882
-0.10148243 0.025476059 -0.10426645 -0.109813154 -0.0052276696 -0.10333738 -0.12926517 0.075715594
0.15810163 0.019081933 -0.07307242 -0.16250831 -0.057040833 0.05805889 0.08783456 -0.012962875
-0.111631 0.10381557 -0.13670655 0.12605505 -0.06367847 -0.015063801 -0.019811025 -0.0157392
-0.047754355 0.13240717 0.007297461 0.1535625 0.18680744 -0.082269594 -0.17150338 0.15443966
0.12826242 -0.14118883 -0.021996083 -0.18955027 -0.1333152 0.027929775 0.049904056 0.02701457
-0.03790817 0.14700277 0.021443993 -0.09958641 -0.00817805 0.022593021 0.06526249 -0.1444928
0.062411383 -0.1107056 -0.14086881 -0.073776424 0.18187472 0.13754739 0.15897112 0.09940471
0.14219365 -0.013374855 -0.07669661 0.10059028 -0.06871712 -0.14110275 -0.06015596 0.021274315
0.0948694 -0.06874522 -0.11717573 0.02128388 -0.11529913 -0.11574193 0.08939598 -0.025990276
0.13701464 0.17333461 0.051439412 0.05671947 0.037016295 -0.00850758 -0.01879891 -0.0062095844
0.06325071 0.16114923 -0.05199313 -0.11640297 -0.052573852 -0.08281488 0.0121453665 0.12973703
0.13133904 0.07207666 -0.15725514 -0.1216561 -0.079730146 -0.03433044 0.012642382 -0.17405246
0.038785603 -0.1445369 -0.11323695 -0.15168917 0.15125026 -0.17668281 0.12719394 -0.021292813
-0.011310829 0.09638328 -0.023666142 0.106621854 0.12009175 -0.15765464 0.063116804 0.02927176
0.030830257 0.02043825 0.04498362 -0.07817047 -0.02436476 0.15264358 0.12150753 -0.0142931
-0.16819596 0.00524766 -0.118104845 0.15396336 -0.1007721 -0.020985141 -0.0463882 0.027599763
0.1693332 0.015540013 0.09627775 0.1357916 0.12961297 -0.06480257 -0.03977806 0.0874373
-0.06288427 0.08345031 -0.04500223 -0.11963344 0.06991807 0.021614566 0.0777739 0.17127383
0.11490956 0.16591272 0.009472175 -0.17735714 -0.12533915 -0.10866912 -0.16488966 -0.09330304
-0.16251221 -0.1635736 -0.13859357 -0.19026586 -0.13559994 0.06654842 0.14143416 -0.05805534
00000000: 1f97 42be a5d6 ebbd 6c4f fa3d 13ff 463d
00000010: e73f 82bd be47 69be 5ce4 c6bd 597c 7bbe
00000020: 0e88 b2bd 2c74 ddbd f438 ae3d 6eed 803d
00000030: de91 f3bd 409d 2fbe 4d05 f73d c8df 27be
00000040: 2826 96bd faa2 213d f72c 32bd 61fb 183d
00000050: 910c 133d 76ae dfbd 4778 81bd ea95 5fbe
00000060: 36ea cabd daf4 39bd 04c0 683e db63 ffbc
00000070: 64b3 74bd 19d5 6cbc 5f60 803c 2e7a 953d
00000080: 55d1 0e3e c261 d43d d932 35be 83b1 1c3c
00000090: 5cb0 c03d 76ce 36bc b44d cfbd 48bf 2f3e
000000a0: 1860 bcbd dc72 d0bd c3d8 21be 9ac6 5a3b
000000b0: 2137 b13d ed2b 453d 10ef 043d 2ee1 0dbe
000000c0: 26f8 24be 7f01 3bbb 4b7b 203e 59df ad3d
000000d0: 9efd ecbd 4c9b b9bc 9eb4 13be 807e a4bd
000000e0: 8196 b53c 5f39 ab3d d624 073e a3ef 40be
000000f0: 5abb d03d 9b78 03be e2aa 8a3d 116b 1e3e
00000100: 4441 c03b 7b13 263e c047 25be cb9d 59bd
00000110: d388 d93d 577a 1fbd 805b 04bd ea50 8fbd
00000120: 5954 f63d edc1 ba3d 02de 6c3d ac7f c0bd
00000130: 5a2a 11be bb2a 1d3c 0f39 6e3d a9ef a5bd
00000140: 89f7 3fbd 9a4a 063e 58af ac3c d45c 0b3c
00000150: 17aa 19bd b09d 20be 48ef 2fbe 41d0 a9bd
00000160: 8b44 a8bd 2820 783d b4cc 3dbd 7d6f 8fbd
00000170: 2ee4 303e d4b1 8d3d 1d37 033e aaf8 c9bd
00000180: 05d6 cfbd 2bb3 d03c a689 d5bd b8e5 e0bd
00000190: df4c abbb 8ca2 d3bd 175e 04be c710 9b3d
000001a0: 65e5 213e b751 9c3c fea6 95bd 9468 26be
000001b0: a6a3 69bd 29cf 6d3d 9be2 b33d 3d62 54bc
000001c0: cb9e e4bd 429d d43d cdfc 0bbe 9314 013e
000001d0: dc69 82bd 29ce 76bc bb4a a2bc 7fef 80bc
000001e0: 129a 43bd bf95 073e 8a1f ef3b 7d3f 1d3e
000001f0: 734a 3f3e f67c a8bd 959e 2fbe 6e25 1e3e
00000200: 3957 033e ce93 10be 2131 b4bc 7719 42be
00000210: c883 08be fccc e43c 3268 4c3d a94d dd3c
00000220: 9945 1bbd e587 163e 50ab af3c f6f3 cbbd
00000230: 3afd 05bc 0015 b93c 57a8 853d ecf5 13be
00000240: 14a3 7f3d 9eb9 e2bd ea3f 10be 1818 97bd
00000250: 5e3d 3a3e 39d9 0c3e 53c9 223e b294 cb3d
00000260: 369b 113e 3522 5bbc 1d13 9dbd 4702 ce3d
00000270: 90bb 8cbd 3d7d 10be 1966 76bd 7947 ae3c
00000280: e34a c23d 4bca 8cbd d4f9 efbd 885b ae3c
00000290: f321 ecbd 1b0a edbd 3d15 b73d 8fe9 d4bc
000002a0: 914d 0c3e a17e 313e 22b2 523d ad52 683d
000002b0: 669e 173d 6063 0bbc 2c00 9abc c579 cbbb
000002c0: 9789 813d 4e04 253e c0f6 54bd ae64 eebd
000002d0: ae57 57bd d99a a9bd 5cfd 463c c9d9 043e
000002e0: be7d 063e ee9c 933d 7e07 21be d526 f9bd
000002f0: 8f49 a3bd 139e 0cbd fe21 4f3c cf3a 32be
00000300: a7dd 1e3d 7b01 14be c6e8 e7bd 6854 1bbe
00000310: 59e1 1a3e 57ec 34be 213f 023e 446e aebc
00000320: 0e51 39bc 9964 c53d 7fdf c1bc 8f5c da3d
00000330: aaf2 f53d 3870 21be 6243 813d 54cb ef3c
00000340: bc8f fc3c 1e6e a73c bf40 383d d717 a0bd
00000350: 9b98 c7bc 994e 1c3e f1d8 f83d 9b2d 6abc
00000360: 903b 2cbe 90f4 ab3b f4e0 f1bd 92a8 1d3e
00000370: 9a61 cebd 08e9 abbc 8e01 3ebd e618 e23c
00000380: af65 2d3e 8a9b 7e3c 452d c53d f40c 0b3e
00000390: 43b9 043e 36b7 84bd 52ee 22bd 5412 b33d
000003a0: 78c9 80bd ffe7 aa3d 4254 38bd 6102 f5bd
000003b0: 3531 8f3d 0811 b13c ec47 9f3d 6862 2f3e
000003c0: b455 eb3d 06e5 293e 2e31 1b3c 1c9d 35be
000003d0: e858 00be ea8d debd d6d8 28be aa15 bfbd
000003e0: 9a69 26be d67f 27be 79eb 0dbe 0ed5 42be
000003f0: b6da 0abe 8a4a 883d 1ed4 103e 70cb 6dbd

actor.2.bias f4 [32]
0.08564792 -0.103644945 -0.05045228 0.097161256 -0.13669962 -0.04375249 0.0100328745 -0.067209296
0.09937856 0.028460115 0.09443082 0.0063079637 -0.1291489 0.13286775 0.021783384 -0.047958452
-0.077883475 0.026950685 -0.13724227 0.06017159 0.09108162 -0.1301457 -0.12347226 -0.119924374
0.11886671 0.124311745 -0.0038926743 0.18254238 -0.08116154 -0.18278183 0.045844316 0.059020314
00000000: 2d68 af3d cd43 d4bd 0da7 4ebd 7bfc c63d
00000010: fcfa 0bbe d035 33bd ed60 243c 07a5 89bd
00000020: fd86 cb3d 3025 e93c f264 c13d 09b3 ce3b
00000030: 9c3f 04be 7c0e 083e 1173 b23c 1570 44bd
00000040: 5f81 9fbd afc7 dc3c 3d89 0cbe 7c76 763d
00000050: 0089 ba3d ea44 05be 06df fcbd e99a f5bd
00000060: 6470 f33d 2897 fe3d 3d1c 7fbb 64ec 3a3e
00000070: 0538 a6bd 292b 3bbe 40c7 3b3d 49bf 713d

actor.4.weight f4 [2, 32]
0.17605424 0.0032760839 0.13352528 0.12540005 0.10489836 -0.18565169 0.121586464 -0.16158433
0.16043735 -0.04232977 -0.13856314 0.061415218 -0.042952735 -0.17467044 -0.10091761 0.028638218
0.15781708 -0.04453065 0.11901889 0.00825737 0.019913768 0.031564876 -0.12186101 -0.1612198
-0.050813764 -0.16819221 -0.07491487 0.022682635 -0.11123004 -0.06117978 -0.02498902 -0.026274689
-0.09063849 0.008042791 -0.037220143 0.05450849 0.017028462 -0.090148404 -0.05412524 -0.0013320986
-0.115538 0.016494008 -0.003048152 0.07001944 0.036272977 0.13173683 0.0037034191 -0.12785588
0.07675955 -0.11365166 -0.024024555 -0.050979216 -0.056858517 -0.06714773 0.17111707 0.10764035
0.042128008 0.16525033 -0.15839143 0.031846523 0.117035106 0.123972185 -0.13155964 0.064849205
00000000: 9047 343e 91b3 563b daba 083e df68 003e
00000010: f4d4 d63d 7a1b 3ebe 5302 f93d 5d76 25be
00000020: b049 243e fb61 2dbd 7fe3 0dbe 868e 7b3d
00000030: 35ef 2fbd cfdc 32be e4ad cebd b29a ea3c
00000040: cd9a 213e c565 36bd 2dc0 f33d ec49 073c
00000050: 3322 a33c 2c4a 013d 4492 f9bd ce16 25be
00000060: 1822 50bd 943a 2cbe f86c 99bd efd0 b93c
00000070: 93cc e3bd a697 7abd c6b5 ccbc 043e d7bc
00000080: aca0 b9bd e9c5 033c 2674 18bd 4b44 5f3d
00000090: 467f 8b3c ba9f b8bd 6db2 5dbd d099 aeba
000000a0: 309f ecbd 711e 873c 81c3 47bb 5a66 8f3d
000000b0: f992 143d 05e6 063e 10b5 723b a7ec 02be
000000c0: 1c34 9d3d 34c2 e8bd 25cf c4bc 95cf 50bd
000000d0: 7ae4 68bd c084 89bd 5039 2f3e 8b72 dc3d
000000e0: 6b8e 2c3d 6237 293e 5d31 22be 8071 023d
000000f0: 1ab0 ef3d 21e5 fd3d 92b7 06be a9cf 843d

actor.4.bias f4 [2]
-0.07055233 -0.0045555625
00000000: bd7d 90bd d446 95bb
