exported_models/trained_models_V1/mlp_dynamics.pth (torch, 22097 bytes, 6 tensors)

model.0.weight f4 [64, 5]
-0.5212072 0.055670973 0.073987305 0.020875063 -0.06541861 0.06627025 0.15388282 0.22705373
-0.011255706 -0.012838558 -0.15092815 -0.36823273 0.012746077 0.08367093 0.10666829 0.003979366
0.5014854 -0.0302012 0.24858657 0.109897844 -0.25874627 0.029328426 0.19297378 0.15025882
-0.015221475 -0.3293622 -0.12649798 0.327334 -0.12495865 -0.03506684 0.008834508 -0.26215643
-0.011427258 0.33929992 0.2157796 0.32977733 -0.1732996 0.12769982 0.057083637 0.029426299
0.008777258 0.33486488 -0.44371262 -0.008187247 -0.38635153 0.19303492 -0.2724629 0.28701767
0.15087295 -0.07614877 0.112224184 -0.07351468 0.24478069 -0.027460312 -0.20004722 0.39975417
0.41428366 -0.028102497 -0.069437966 -0.013364456 0.11603962 -0.32745376 0.049543694 0.1412334
-0.11418546 0.11435431 0.314043 -0.45739993 0.028027348 0.08715574 0.18990752 0.13534375
-0.3576153 0.13399222 0.05992466 0.14004974 -0.012586109 0.11633238 -0.017354107 -0.08469876
-0.36968836 -0.39055863 0.0052098054 0.07014219 0.017928008 0.36920097 0.14318216 -0.38106063
0.14422664 0.044476394 -0.4387287 0.0012958142 -0.13951017 0.0056651435 0.0004584844 -0.49211678
0.21206325 0.2518543 -0.12391398 -0.09672103 0.3213522 -0.14521576 -0.45648062 0.16611458
0.12197241 -0.35765457 -0.034722153 -0.3226599 0.047010835 -0.0077297855 0.11987062 0.01951092
0.019443255 0.02827095 -0.016336521 0.22808418 -0.027239814 0.110146925 -0.024148032 0.011221304
0.0029343665 -0.48525542 0.3342037 -0.10415362 0.044942014 0.0064701554 0.003935834 0.0004240793
0.10231924 0.013748333 0.026589833 0.10910934 0.13763858 -0.0026136232 0.02591284 0.24147801
0.27256298 0.07195336 -0.018028174 -0.061134383 -0.038972434 -0.25197455 0.30507526 0.04699762
0.30263725 0.20281716 -0.03320871 0.29365543 0.06896201 0.022992708 0.01332294 0.5197181
-0.04339428 0.044495992 0.010442333 0.093856625 0.48953667 -0.264695 0.042751297 0.07818849
-0.31933913 0.3443047 0.047159333 -0.13766532 -0.0648139 0.0767205 0.043953285 -0.3958229
-0.045034967 -0.068604946 0.12194998 -0.101992 0.42085868 0.049829766 0.06758409 -0.07864885
-0.61245877 0.3111749 -0.051914006 -0.09505254 0.028947182 -0.33367804 0.09017326 -0.17174888
-0.048262436 0.0075200354 0.3090866 0.2503016 -0.1066536 0.028026216 0.20186745 -0.46605852
-0.39440235 -0.061665114 0.019749923 0.06891621 0.21348982 -0.20864925 0.1324857 0.12173868
-0.33240682 0.23013553 0.007399348 0.021367291 0.06738875 0.20688254 0.45819634 0.030304587
-0.117124006 -0.14651757 0.29542273 -0.5447975 0.29018646 -0.17293751 -0.11602019 0.07076915
-0.34131333 -0.21196742 -0.00959315 -0.02347277 0.02074205 -0.09774019 0.105573855 -0.013311795
0.14113964 0.029393075 0.033753604 -0.3097928 -0.13960557 -0.08669249 -0.10992581 -0.28416947
0.09559913 0.18011938 -0.029983643 -0.28758907 0.53397024 -0.27678582 0.16100483 0.10922516
0.3401895 -0.39873716 -0.0627855 0.1671384 0.07476349 0.12713598 0.26436704 0.40490612
-0.06740064 0.018676775 -0.24126108 -0.9437436 0.13031182 -0.19302599 0.23061407 -0.026905058
00000000: d66d 05bf 3f07 643d a886 973d 2e02 ab3c
00000010: 31fa 85bd b2b8 873d 7593 1d3e c680 683e
00000020: da69 38bc d158 52bc e98c 1abe 0089 bcbe
00000030: ecd4 503c aa5b ab3d e874 da3d 5765 823b
00000040: 5961 003f 8268 f7bc 7a8d 7e3e 1f12 e13d
00000050: 647a 84be 2b42 f03c eb9a 453e 73dd 193e
00000060: 7e63 79bc 2aa2 a8be b088 01be 5298 a73e
00000070: 52ea ffbd 3fa2 0fbd 9dbe 103c 5e39 86be
00000080: 6539 3bbc b8b8 ad3e 54f5 5c3e 93d8 a83e
00000090: 7375 31be bec3 023e 88d0 693d 6c0f f13c
000000a0: 7dce 0f3c 6973 ab3e 4d2e e3be ce23 06bc
000000b0: decf c5be f2aa 453e 4280 8bbe fbf3 923e
000000c0: 707e 1a3e e3f3 9bbd cbd5 e53d dd8e 96bd
000000d0: caa7 7a3e 73f4 e0bc 2ed9 4cbe 94ac cc3e
000000e0: fd1c d43e 3537 e6bc 7e35 8ebd 97f6 5abc
000000f0: 2ea6 ed3d 05a8 a7be 54ee 4a3d 7d9f 103e
00000100: 11da e9bd 9832 ea3d 3eca a03e 5330 eabe
00000110: 9c99 e53c b57e b23d 1e77 423e 8d97 0a3e
00000120: 5a19 b7be 4235 093e 8f73 753d 3369 0f3e
00000130: f835 4ebc ac3f ee3d 332a 8ebc 8b76 adbd
00000140: cb47 bdbe 4df7 c7be 04b7 aa3b b5a6 8f3d
00000150: c2dd 923c e907 bd3e 589e 123e 611a c3be
00000160: 26b0 133e e12c 363d 0ca1 e0be 4fd8 a93a
00000170: c1db 0ebe aba2 b93b bc60 f039 bbf6 fbbe
00000180: 1c27 593e 0cf3 803e 9dc6 fdbd ad15 c6bd
00000190: 4788 a43e 71b3 14be d4b7 e9be f119 2a3e
000001a0: accc f93d 801e b7be d138 0ebd ae33 a5be
000001b0: 6f8e 403d 244a fdbb ba7e f53d 5dd5 9f3c
000001c0: 7647 9f3c 7b98 e73c 2bd4 85bc e68e 693e
000001d0: 0826 dfbc b694 e13d 18d2 c5bc 8fd9 373c
000001e0: 804e 403b 6673 f8be bf1c ab3e 7e4e d5bd
000001f0: 1e15 383d 9903 d43b 2bf8 803b f656 de39
00000200: c08c d13d b040 613c ecd2 d93c b874 df3d
00000210: 21f1 0c3e 5249 2bbb 2a47 d43c 0346 773e
00000220: 608d 8b3e 495c 933d d2af 93bc 0c68 7abd
00000230: 8fa1 1fbd cf02 81be d332 9c3e 9480 403d
00000240: 45f3 9a3e 4daf 4f3e db05 08bd 015a 963e
00000250: f43b 8d3d 345b bc3c 7648 5a3c 3f0c 053f
00000260: 33be 31bd 6e41 363d 5216 2b3c e737 c03d
00000270: 8da4 fa3e 1a86 87be fc1b 2f3d 4921 a03d
00000280: 6b80 a3be b548 b03e 252a 413d 23f8 0cbe
00000290: 26bd 84bd a31f 9d3d 5c08 343d 4da9 cabe
000002a0: 9676 38bd c080 8cbd e9c0 f93d 2fe1 d0bd
000002b0: ca7a d73e 4c1a 4c3d 8769 8a3d a612 a1bd
000002c0: 19ca 1cbf 5152 9f3e c8a3 54bd e8aa c2bd
000002d0: a422 ed3c d9d7 aabe c2ac b83d f0de 2fbe
000002e0: d5ae 45bd a16a f63b 9940 9e3e 8827 803e
000002f0: 346d dabd 3c97 e53c 57b6 4e3e 399f eebe
00000300: 1bef c9be 8f94 7cbd 97ca a13c f123 8d3d
00000310: 139d 5a3e 26a8 55be 55aa 073e 2152 f93d
00000320: 3a31 aabe a6a8 6b3e 3b76 f23b 750a af3c
00000330: 1d03 8a3d 04d9 533e b698 ea3e 5341 f83c
00000340: b6de efbd b408 16be a641 973e d977 0bbf
00000350: 5293 943e 8816 31be fe9b edbd 6bef 903d
00000360: 9fc0 aebe fd0d 59be 962c 1dbc f749 c0bc
00000370: 3beb a93c 022c c8bd 1b37 d83d b719 5abc
00000380: e986 103e bfc9 f03c 3841 0a3d 299d 9ebe
00000390: c3f4 0ebe d58b b1bd c820 e1bd a97e 91be
000003a0: 7ac9 c33d 3771 383e 42a0 f5bc e03e 93be
000003b0: 46b2 083f dfb6 8dbe 73de 243e 71b1 df3d
000003c0: 512d ae3e 4727 ccbe af95 80bd 5426 2b3e
000003d0: 9a1d 993d ef2f 023e 1e5b 873e db4f cf3e
000003e0: 5909 8abd 0900 993c 250d 77be 2e99 71bf
000003f0: 7670 053e 9ba8 45be 1826 6c3e ff67 dcbc

model.0.bias f4 [64]
0.78967315 -0.3998171 -0.114338815 0.028615683 0.5024107 -0.078810416 0.41649935 0.18712066
-0.27895892 -0.56262165 0.6019086 -0.47057703 0.42504123 0.18155345 0.023020914 0.39408624
0.46169353 0.11155028 0.6896556 -0.44308805 0.5232332 0.15606861 -0.050732825 -0.2667132
0.35879457 0.4193796 0.46333525 -0.32851192 0.27432847 -0.13354363 0.14150883 -0.102553315
0.067614704 0.5628159 0.42605433 0.12111246 0.008077128 -0.0026431114 -0.37834436 -0.21034576
0.38499925 0.14558145 -0.029455466 0.43021923 0.075068 0.4623366 0.12609015 0.016324515
-0.06669617 -0.523865 -0.5010358 0.71728396 -0.36446786 0.4557377 0.117122084 -0.20092624
-0.3627744 0.82023144 -0.08025355 -0.3486832 -0.45503914 -0.10274928 0.3856057 0.4435827
00000000: 0528 4a3f d4b4 ccbe 782a eabd 706b ea3c
00000010: fd9d 003f 5b67 a1bd 673f d53e 8f9c 3f3e
00000020: b4d3 8ebe f907 10bf af16 1a3f 79ef f0be
00000030: 019f d93e 26e9 393e 5b96 bc3c acc5 c93e
00000040: 1863 ec3e 7974 e43d 458d 303f 70dc e2be
00000050: 9cf2 053f 73d0 1f3e 39cd 4fbd a28e 88be
00000060: ecb3 b73e ecb8 d63e 473a ed3e b732 a8be
00000070: c874 8c3e a9bf 08be b1e7 103e 7907 d2bd
00000080: 9479 8a3d b414 103f cb23 da3e cf09 f83d
00000090: ee55 043c 0d38 2dbb 5ab6 c1be e164 57be
000000a0: 9f1e c53e 4e13 153e 974c f1bc b245 dc3e
000000b0: 40bd 993d 62b7 ec3e c71d 013e fdba 853c
000000c0: 0098 88bd 041c 06bf e243 00bf ec9f 373f
000000d0: 889b babe 7456 e93e b4dd ef3d 9cbf 4dbe
000000e0: 91bd b9be b0fa 513f f95b a4bd 9b86 b2be
000000f0: e4fa e8be 376e d2bd 1c6e c53e 461d e33e

model.2.weight f4 [64, 64]
0.04964494 0.0089032035 0.49168023 0.0344586 -0.0315823 0.26704746 0.18881279 0.03714374
0.0054900763 0.033343095 -0.3203758 0.0873414 0.13485873 -0.0005101642 -0.11301879 0.12496932
0.456075 0.038624927 0.054985017 0.2506028 0.13795424 0.33379784 0.017831221 -0.09299373
-0.17048189 -0.058338474 -0.0060051484 0.07672573 0.018880503 -0.13057108 -0.075116456 -0.20595503
-0.23121905 -0.0077809105 -0.14094883 0.33575958 -0.117118366 -0.07129812 0.067616604 0.018116409
0.11960368 -0.044679847 0.022930296 0.020312265 -0.28326577 0.050472185 0.21470816 -0.12558623
0.034955192 -0.025331039 0.29092404 0.28686064 0.079555534 0.061318234 0.07112141 -0.07367408
-0.045595422 -0.040687133 0.10208119 -0.036007494 0.026158273 -0.11132558 -0.07129705 0.06826673
0.032406617 0.055827204 -0.07155476 -0.022342976 0.027913446 0.070993304 0.029020263 -0.0792151
0.020615028 0.06803709 0.13574958 0.1035387 0.16649939 -0.08322059 -0.1662188 0.019842906
0.025086898 -0.16054736 0.29621094 -0.048178233 -0.12091036 -0.06622322 -0.0133018615 0.034619484
0.08168847 0.091856204 -0.08689301 -0.23441243 0.09727739 -0.09801509 0.18622512 -0.17829494
0.004412645 -0.12328925 0.003355447 0.044831347 -0.06199445 -0.059511635 -0.120192476 0.11027607
-0.07752387 -0.018508954 -0.0520052 -0.0035821237 0.076959975 0.04721718 -0.06268656 0.14684007
0.033052374 -0.0093614 0.095506564 0.06988477 -0.10888121 -0.028791534 0.02569765 0.03662844
0.072844185 0.17628337 -0.061069213 -0.1516423 -0.17399517 -0.05701497 -0.0093287835 -0.06838383
0.17242637 0.022037923 -0.045257863 -0.0012114607 0.005027768 0.019078402 0.027043743 0.11036665
0.07130032 -0.080235876 0.051202483 0.038926497 -0.07430857 0.03292771 -0.116205476 -0.0044431468
-0.034460783 0.012814198 -0.1535833 0.033622436 -0.07072931 -0.12236914 0.03939475 -0.08415156
0.056790717 0.03266973 0.049046617 -0.091317154 0.07038273 0.00097247405 0.0021548208 -0.0043083616
0.051246833 0.08288108 0.13856506 -0.051677912 0.08163729 0.082012855 -0.027628139 0.1694572
0.0967148 0.054590937 -0.10372328 0.032035604 -0.020096151 0.15001242 0.11906721 0.12005333
0.031696346 0.015080411 -0.110544674 -0.2210099 -0.095538355 0.15064791 -0.010013653 -0.09043555
-0.071328424 0.07422745 0.11267875 0.09837676 0.072148375 0.09581155 -0.034403805 0.0965696
0.05143926 -0.075026475 0.04718112 0.13432609 0.024530783 0.06961459 -0.009749968 0.0132967895
-0.0908078 0.03322153 0.08196482 -0.057732698 -0.12514286 0.055330887 0.08158076 0.007687358
-0.0020423175 0.106182 -0.08436513 0.14216734 -0.0007868817 0.08006835 0.07843157 0.058463648
0.09501528 0.17784193 -0.031545766 0.029276127 -0.051766552 0.03497005 -0.020323416 0.11401034
-0.05052937 0.046775635 -0.098805964 0.018714754 -0.16197716 0.07918909 0.058515675 0.097459495
0.15683956 0.12178161 0.056838375 0.05175458 0.045283202 -0.060709488 -0.07928521 0.1281072
-0.035837807 -0.08207534 -0.036267158 -0.06378287 0.050850406 -0.055264387 -0.09960399 0.019080276
-0.0147870695 0.12154061 0.16494487 0.091370076 0.05407184 -0.08565761 0.012164158 0.06088625
00000000: 7e58 4b3d bede 113c 83bd fb3e 7624 0d3d
00000010: 715c 01bd 72ba 883e 2458 413e 0924 183d
00000020: 19e6 b33b c592 083d 4c08 a4be 0ce0 b23d
00000030: 6818 0a3e 8abc 05ba 6576 e7bd eaef ff3d
00000040: aa82 e93e 2c35 1e3d f837 613d 034f 803e
00000050: e043 0d3e 8de7 aa3e c812 923c 7f73 bebd
00000060: ce92 2ebe 53f4 6ebd d6c6 c4bb 6122 9d3d
00000070: 49ab 9a3c 6db4 05be a8d6 99bd e0e5 52be
00000080: b0c4 6cbe 02f7 febb e454 10be aee8 ab3e
00000090: c1db efbd c004 92bd 937a 8a3d dd68 943c
000000a0: c6f2 f43d 3702 37bd 51d8 bb3c e865 a63c
000000b0: 3608 91be ecbb 4e3d 75dc 5b3e ad99 00be
000000c0: 2d2d 0f3d 0a83 cfbc fff3 943e 66df 923e
000000d0: 03ee a23d d428 7b3d 1aa8 913d 70e2 96bd
000000e0: 44c2 3abd 8da7 26bd f10f d13d 987c 13bd
000000f0: e049 d63c aafe e3bd 3004 92bd 6dcf 8b3d
00000100: cdbc 043d 11ab 643d 4d8b 92bd 9e08 b7bc
00000110: bdaa e43c f064 913d e7bb ed3c 873b a2bd
00000120: d9e0 a83c 0857 8b3d f001 0b3e 190c d43d
00000130: d17e 2a3e 8f6f aabd 4335 2abe 978d a23c
00000140: 0a83 cd3c 8766 24be f6a8 973e 8a56 45bd
00000150: da9f f7bd 0aa0 87bd 0df0 59bc 29cd 0d3d
00000160: 494c a73d 1b1f bc3d f6f4 b1bd d009 70be
00000170: 5e39 c73d 23bc c8bd ccb1 3e3e f392 36be
00000180: f397 903b 137f fcbd 0fe7 5b3b 13a1 373d
00000190: e4ed 7dbd 79c2 73bd 7927 f6bd 6cd8 e13d
000001a0: d6c4 9ebd 17a0 97bc 6803 55bd 10c2 6abb
000001b0: 319d 9d3d cd66 413d d061 80bd 3e5d 163e
000001c0: ed61 073d 8f60 19bc f298 c33d bf1f 8f3d
000001d0: 1dfd debd 39dc ebbc e183 d23c b407 163d
000001e0: 552f 953d a183 343e b623 7abd 1e48 1bbe
000001f0: ca2b 32be 8788 69bd c1d7 18bc d20c 8cbd
00000200: 8a90 303e e088 b43c 4f60 39bd e0c9 9eba
00000210: fabf a43b 4f4a 9c3c d78a dd3c e907 e23d
00000220: e705 923d b552 a4bd b2b9 513d 6471 1f3d
00000230: 172f 98bd 35df 063d 23fd edbd d197 91bb
00000240: c026 0dbd a4f2 513c f144 1dbe aeb7 093d
00000250: 87da 90bd ac9c fabd 645c 213d a757 acbd
00000260: 629d 683d b2d0 053d 1be5 483d 7d04 bbbd
00000270: d224 903d a1ed 7e3a e537 0d3b 282d 8dbb
00000280: 33e8 513d 8ebd a93d 00e4 0d3e 38ac 53bd
00000290: 7431 a73d 5bf6 a73d 6854 e2bc 3086 2d3e
000002a0: 6912 c63d bf9a 5f3d df6c d4bd c437 033d
000002b0: afa0 a4bc db9c 193e 82d9 f33d 85de f53d
000002c0: 07d4 013d d413 773c 3f65 e2bd 6b50 62be
000002d0: 9da9 c3bd 7243 1a3e 4e10 24bc 4636 b9bd
000002e0: a314 92bd 9004 983d 1ec4 e63d c179 c93d
000002f0: 87c2 933d d938 c43d 01eb 0cbd 48c6 c53d
00000300: f9b1 523d 7ba7 99bd fd40 413d c78c 093e
00000310: c8f4 c83c 1892 8e3d 54be 1fbc c7da 593c
00000320: 71f9 b9bd 4d13 083d 2cdd a73d 1f79 6cbd
00000330: 7325 00be a4a2 623d d013 a73d 3ce6 fb3b
00000340: 67d8 05bb f375 d93d a0c7 acbd 5194 113e
00000350: bd46 4eba e0fa a33d bba0 a03d 9477 6f3d
00000360: 5f97 c23d 321c 363e 2236 01bd 7dd4 ef3c
00000370: 2a09 54bd c13c 0f3d 4b7d a6bc 417e e93d
00000380: e2f7 4ebd cf97 3f3d c85a cabd af4f 993c
00000390: 57dd 25be e42d a23d 22ae 6f3d d898 c73d
000003a0: 8d9a 203e a368 f93d 5bcf 683d 9cfc 533d
000003b0: e17a 393d 83aa 78bd 4960 a2bd 892e 033e
000003c0: aaca 12bd 1e17 a8bd df8c 14bd 98a0 82bd
000003d0: 8448 503d e95c 62bd 2dfd cbbd 3d4e 9c3c
000003e0: 7745 72bc 49ea f83d 4fe7 283e 3c20 bb3d
000003f0: 6f7a 5d3d 426d afbd 2d4c 473c dc63 793d

model.2.bias f4 [64]
-0.31704742 0.2377339 0.2354591 0.19726081 -0.25947464 -0.01487793 0.0998919 0.016530208
0.004017353 0.1324717 0.20524764 -0.1531438 0.28740364 0.2705608 -0.17293635 0.011016788
0.19444524 -0.019894356 0.2783606 0.12371279 0.13124704 0.37086338 -0.058142412 -0.31857976
0.13453516 0.10164258 0.043120816 0.0036344002 0.09779957 0.32768515 0.17696534 0.033896223
0.24033688 -0.21549869 0.22030285 0.6441123 0.060456797 0.013969586 -0.021497246 -0.12583743
-0.21230806 0.15222263 0.06898527 0.004447867 -0.04625544 -0.119676776 0.032797802 -0.021381687
0.037020795 0.0773505 0.098623835 0.09308584 -0.18488854 -0.057394024 -0.3214846 -0.17501369
0.15222253 -0.04078883 0.20984177 0.2077289 0.022715917 0.05862294 0.2689825 -0.0045271595
00000000: 0a54 a2be 8470 733e 311c 713e bdfe 493e
00000010: dcd9 84be 90c2 73bc 2094 cc3d 5c6a 873c
00000020: 00a4 833b a9a6 073e 702c 523e bad1 1cbe
00000030: 9226 933e f286 8a3e 3a16 31be c27f 343c
00000040: a71c 473e 7df9 a2bc 4885 8e3e 225d fd3d
00000050: a065 063e cee1 bd3e bd26 6ebd e31c a3be
00000060: 96c3 093e fc29 d03d 749f 303d 1e2f 6e3b
00000070: 244b c83d 59c6 a73e 6736 353e c4d6 0a3d
00000080: df1a 763e b0ab 5cbe 1297 613e 8be4 243f
00000090: 8ca1 773d b1e0 643c fe1a b0bc 87db 00be
000000a0: 4967 59be 40e0 1b3e 2648 8d3d 6abf 913b
000000b0: 5876 3dbd 1919 f5bd fd56 063d a628 afbc
000000c0: 1ea3 173d f069 9e3d 4bfb c93d caa3 be3d
000000d0: 6c53 3dbe ff15 6bbd a199 a4be ca36 33be
000000e0: 39e0 1b3e 3012 27bd c3e0 563e e2b6 543e
000000f0: bb16 ba3c 9c1e 703d 13b8 893e 9158 94bb

model.4.weight f4 [3, 64]
-0.020638267 -0.07413211 0.14160837 0.0937066 -0.14832251 -0.25049978 0.028356118 -0.026410727
0.046469625 -0.030738983 0.081067674 -0.08751266 0.13148633 0.087965414 0.0024808096 -0.017214324
-0.04950328 -0.07601861 -0.032575138 0.04338961 0.08133193 0.10802721 -0.14004038 -0.004632708
-0.022596976 0.08386363 -0.072327346 0.12042711 -0.0873121 0.10700586 0.083417125 -0.07079745
0.04710215 -0.13579643 0.15269344 0.21000363 0.09352058 -0.026105076 -0.024158891 0.05143894
-0.00586413 0.038692314 0.12286582 0.0328466 -0.12868513 0.0114702685 0.13478996 -0.13140243
-0.2907369 -0.19958961 0.030050954 0.05766675 -0.056420594 0.027924785 -0.056862183 0.08675907
0.13458556 -0.14628574 0.0010869503 -0.023727642 0.12230547 -0.1407818 -0.058377974 -0.15213387
-0.08672591 -0.018156067 0.07377459 0.0991364 -0.14030077 0.3848404 -0.0073704813 0.06808571
-0.06753311 -0.121195346 0.003265867 -0.033095878 -0.07792974 0.0016657616 0.122365415 0.04156896
-0.057952017 0.18565124 -0.07182557 -0.020793999 0.032356676 0.036337737 -0.11584996 -0.076493315
0.043178473 0.18236095 0.08057964 0.043911073 -0.0779666 0.09973421 -0.023873607 -0.09310148
-0.08828199 0.10422408 -0.0600713 0.011302299 -0.09325737 -0.084733784 0.069963105 0.07377917
0.13165285 0.027806768 -0.004226912 5.8290367e-05 -0.10288014 0.090545274 -0.11919955 0.1425083
-0.108661376 -0.06135212 -0.060146794 0.08572216 -0.13687468 0.089421816 0.18689637 -0.17068103
-0.071901485 -0.0937599 -0.11740805 0.0047903657 -0.052134994 -0.18390377 0.11000198 -0.015674165
0.012220787 0.06828561 0.12830849 0.026485369 0.023893554 -0.04694094 0.0037771994 0.034981214
-0.0559162 0.07717328 0.19839312 -0.08995471 0.060072068 0.06976866 -0.008296342 0.064097896
0.06584689 0.13971485 0.12064237 -0.1444824 -0.05308644 0.10222393 -0.08924503 -0.025353119
0.08390951 -0.14714226 0.12340607 -0.11566266 0.1404563 0.19627374 -0.05846589 0.14532919
0.035383344 -0.09837758 0.123535894 0.11134207 -0.017962692 -0.012402123 0.11298532 0.0812077
-0.04688693 0.07000494 -0.042466853 0.058282707 -0.0820425 0.014606581 -0.082774416 0.07746021
0.049344454 -0.05048822 0.11194736 -0.0409483 -0.1270816 -0.0039505973 -0.09571007 0.0034402756
-0.14315793 -0.06373081 0.091646746 0.045439593 -0.17202103 0.008919634 0.057738986 -0.055694677
00000000: 9511 a9bc 93d2 97bd c901 113e 3fe9 bf3d
00000010: dbe1 17be 8241 80be 174b e83c 4f5b d8bc
00000020: ef56 3e3d 52d0 fbbc cf06 a63d d639 b3bd
00000030: 5aa4 063e 3627 b43d 1495 223b 0e05 8dbc
00000040: f4c3 4abd a5af 9bbd 826d 05bd 4eb9 313d
00000050: 5b91 a63d 5f3d dd3d bf66 0fbe f9cd 97bb
00000060: 4b1d b9bc b2c0 ab3d 5c20 94bd 7da2 f63d
00000070: b0d0 b2bd e325 db3d 99d6 aa3d 41fe 90bd
00000080: 2fee 403d 380e 0bbe ab5b 1c3e 310b 573e
00000090: b887 bf3d 50da d5bc dee8 c5bc a3b1 523d
000000a0: e327 c0bb d57b 1e3d 13a1 fb3d 288a 063d
000000b0: 09c6 03be cbed 3b3c 6106 0a3e 5c8e 06be
000000c0: 78db 94be 3861 4cbe 6b2d f63c f833 6c3d
000000d0: 4819 67bd 85c2 e43c 52e8 68bd bdae b13d
000000e0: ccd0 093e eecb 15be 0078 8e3a 7960 c2bc
000000f0: 4a7b fa3d 1b29 10be be1d 6fbd fbc8 1bbe
00000100: 5b9d b1bd 08bc 94bc 2217 973d 0608 cb3d
00000110: 01ab 0fbe cd09 c53e 1484 f1bb 8570 8b3d
00000120: cd4e 8abd 4435 f8bd 2808 563b 8b8f 07bd
00000130: a199 9fbd af55 da3a b89a fa3d 3744 2a3d
00000140: 185f 6dbd 5c1b 3e3e 4919 93bd 2d58 aabc
00000150: 6f88 043d e1d6 143d be42 edbd 87a8 9cbd
00000160: e9db 303d d4bc 3a3e f006 a53d 19dc 333d
00000170: f4ac 9fbd 7341 cc3d 9592 c3bc fdab bebd
00000180: 30cd b4bd 6f73 d53d 530d 76bd 472d 393c
00000190: b8fd bebd e888 adbd d148 8f3d 8919 973d
000001a0: 01d0 063e 05cb e33c e881 8abb ce7c 7438
000001b0: d3b2 d2bd cd6f b93d e51e f4bd b2ed 113e
000001c0: db89 debd 5c4c 7bbd 7c5c 76bd 1a8f af3d
000001d0: e028 0cbe c922 b73d c361 3f3e 02c7 2ebe
000001e0: 1641 93bd 3105 c0bd a273 f0bd 80f8 9c3b
000001f0: 818b 55bd 4551 3cbe b848 e13d 1b67 80bc
00000200: b239 483c 53d9 8b3d 4d63 033e d8f7 d83c
00000210: 6abc c33c 2545 40bd e48a 773b 7648 0f3d
00000220: 6308 65bd 060d 9e3d 9127 4b3e 2d3a b8bd
00000230: 210e 763d dfe2 8e3d 61ed 07bc c245 833d
00000240: bcda 863d 6911 0f3e 5913 f73d 32f3 13be
00000250: 2b71 59bd c85a d13d 19c6 b6bd 58b1 cfbc
00000260: c0d8 ab3d 76ac 16be 52bc fc3d 8be0 ecbd
00000270: c7d3 0f3e fcfb 483e ee79 6fbd 2dd1 143e
00000280: 20ee 103d 2f7a c9bd 6300 fd3d 5007 e43d
00000290: 7f26 93bc 4632 4bbc d964 e73d 3950 a63d
000002a0: 820c 40bd c05e 8f3d b9f1 2dbd d9b9 6e3d
000002b0: e605 a8bd 7150 6f3c a285 a9bd 75a3 9e3d
000002c0: 691d 4a3d bccc 4ebd a844 e53d 68b9 27bd
000002d0: ae21 02be 0374 81bb a403 c4bd 3f76 613b
000002e0: fe97 12be 4d85 82bd 4ab1 bb3d de1e 3a3d
000002f0: 4826 30be a823 123c b77f 6c3d 1a20 64bd

model.4.bias f4 [3]
0.41700852 0.11347664 0.17480986
00000000: 2482 d53e 7166 e83d 5b01 333e
