exported_models/neural_networks/raw_mlp/trained_models_nmpc/mlp_dynamics.pth (torch, 22097 bytes, 6 tensors)

model.0.weight f4 [64, 5]
0	0x3cc4a717	0.024005456
1	0x3e73b27a	0.23798552
2	0x3cd8a75b	0.026446989
3	0xbdafe581	-0.08588696
4	0xbe70f0f8	-0.23529422
5	0x3e8607f2	0.26177937
6	0x3e307b05	0.17234428
7	0x3ef64b11	0.48104146
8	0xbe1ac68e	-0.15114805
9	0xbe90a7b8	-0.2825296
10	0x3d500de6	0.050794505
11	0xbe7c1c65	-0.24620207
12	0x3ecf5306	0.4049303
13	0x3e6d1806	0.23153695
14	0xbe763bfd	-0.24046321
15	0xbeb15a6b	-0.34639296
16	0xbe8673ae	-0.26260132
17	0x3e8048a3	0.25055417
18	0xbbec9fdb	-0.0072212047
19	0xbec269dc	-0.3797139
20	0x3d8a20d2	0.06744541
21	0xbed9b635	-0.42521825
22	0x3ec3a3a3	0.38210782
23	0xbe1f0db8	-0.15532577
24	0x3975982c	0.00023421709
25	0xbd077df2	-0.033079095
26	0xbeae2059	-0.34009054
27	0xbeac58ba	-0.33661443
28	0x3e92aefc	0.28649127
29	0x3e29c9d7	0.16580902
30	0x3ee62a9e	0.4495439
31	0x3ee63485	0.44961944
32	0x3e57e3d3	0.21083002
33	0x3e8dc1e5	0.27686992
34	0x3df67edd	0.12035916
35	0x3e8e0ee0	0.27745724
36	0xbdb898b3	-0.090135
37	0x3ea4733b	0.32119164
38	0xbe694c11	-0.22782923
39	0x3e02e4f6	0.12782654
40	0x3efb6b29	0.49105194
41	0xbb9a0fbf	-0.004701584
42	0xbcab14b5	-0.020883897
43	0x3e29ad75	0.16570075
44	0x3df74f48	0.120756686
45	0xbe1fb363	-0.15595774
46	0xbeda1551	-0.42594388
47	0x3eb608cf	0.35553595
48	0x3e5f557e	0.21809956
49	0x3edd7497	0.43253013
50	0xbeb530f3	-0.35388908
51	0x3ec35ed2	0.3815828
52	0x3f06253e	0.5240058
53	0x3ed98c8d	0.42490044
54	0xbe832148	-0.2561133
55	0xbe9ed6b5	-0.31023183
56	0x3ef47ea2	0.47752863
57	0x3e1b884b	0.1518871
58	0xbc9b64db	-0.01896899
59	0x3cf9640b	0.030443212
60	0x3e82339a	0.25429994
61	0xbf103db9	-0.5634418
62	0xbe8212d1	-0.2540498
63	0xbe88b3b1	-0.26699594
64	0xbe35fd46	-0.17772397
65	0x3e456027	0.1927496
66	0xbe41fd04	-0.18944174
67	0x3e9276b2	0.28606182
68	0xbd9c0f81	-0.07620145
69	0xbc3128a3	-0.010812911
70	0x3e6d8875	0.23196585
71	0x3dd0a604	0.10187915
72	0xbecda900	-0.40168
73	0x3e07c403	0.13258366
74	0xbed804bf	-0.4219112
75	0x3d2abfca	0.04168681
76	0x3df9c58a	0.12195881
77	0xbdee0518	-0.11622065
78	0x3e315013	0.17315702
79	0x3e9f6fd4	0.31140006
80	0xbec404da	-0.3828495
81	0xbc897f48	-0.016784325
82	0x3d916c07	0.07100683
83	0xbc82e6ca	-0.01597919
84	0xbd906054	-0.07049623
85	0xbeaf3a67	-0.34224245
86	0x3e2b0ea2	0.167048
87	0x3ea72fa1	0.32653525
88	0xbe3fcd08	-0.18730557
89	0x3d4b80e1	0.049683455
90	0x3eaf9ac4	0.34297764
91	0x3e9d4ebf	0.3072414
92	0x3e222df7	0.15837847
93	0xbd85b805	-0.065292396
94	0x3e1fd547	0.15608703
95	0xbea0399e	-0.31293958
96	0xbe9551c0	-0.29163933
97	0xbea99036	-0.33117837
98	0x3dc66372	0.096869364
99	0xbe2ec5e6	-0.1706768
100	0xbe7bc9e2	-0.24588731
101	0x3df3ec73	0.119103335
102	0x3ec7f1e0	0.39051723
103	0xbd7f2f58	-0.06230101
104	0xbdeb9771	-0.115034945
105	0x3e78edbc	0.24309438
106	0xbebeb36e	-0.3724627
107	0xbdf2755b	-0.1183879
108	0x3c7198d2	0.014745908
109	0xbcbd787f	-0.023128746
110	0x3ec3f1d8	0.3827045
111	0x3e42ec93	0.19035558
112	0x3e826c8f	0.2547345
113	0xbe6f3d54	-0.23363239
114	0xbeaf3457	-0.3421962
115	0x3d9efd03	0.07763102
116	0xbef016ca	-0.46892387
117	0x3f0173a7	0.50567096
118	0xbe2593e5	-0.16169699
119	0x3ddc5f7c	0.107604
120	0xbe59e4a3	-0.21278624
121	0x3e5ba875	0.2145098
122	0x3e8cea4f	0.27522513
123	0xbe385aab	-0.18003337
124	0xbdf7793b	-0.1208367
125	0x3e849b69	0.2589982
126	0x3e32f9b6	0.1747807
127	0xbe2b6746	-0.16738614
128	0xbd49f063	-0.049301516
129	0x3c416a7b	0.011805172
130	0xbe90fde2	-0.28318697
131	0x3bfc63f2	0.007702344
132	0x3ba37a64	0.0049889553
133	0xbdc9a40e	-0.09845744
134	0xbd8ad852	-0.06779541
135	0xbe80f74f	-0.2518868
136	0x3eacebaa	0.33773547
137	0xbeabb675	-0.3353764
138	0x3de63b73	0.11241808
139	0x3daf51b8	0.085605085
140	0xbd8c385e	-0.06846689
141	0x3ed43314	0.4144522
142	0xbee4026f	-0.44533107
143	0x3e109c89	0.14122213
144	0xbdc5dafb	-0.09660908
145	0xbeaa36b4	-0.3324486
146	0xbe9b312f	-0.30310962
147	0x3e8e5c6c	0.27804887
148	0xbe96da90	-0.29463625
149	0xbe0a05f6	-0.13478836
150	0x3e4a4527	0.19752942
151	0xbd5ae855	-0.053444225
152	0xbeec29f4	-0.46125758
153	0x3d8630b5	0.06552259
154	0x3dcdac6a	0.10042651
155	0x3e1c7d8e	0.1528227
156	0x3ebb9fd5	0.3664538
157	0xbc90b59a	-0.01766472
158	0xbe7f645b	-0.24940626
159	0x3e2cef5f	0.16888188
160	0xbe3ea5f2	-0.1861799
161	0xbd7ad227	-0.061235573
162	0x3e9795e8	0.29606557
163	0xbde20685	-0.110364
164	0x3ead3d39	0.33835772
165	0x3cb04ad1	0.02152005
166	0xbe92ef72	-0.28698307
167	0xbeb8588b	-0.36005053
168	0xbe5a7f23	-0.21337561
169	0x3e8cc5d0	0.2749467
170	0xbe44176f	-0.19149564
171	0x3ecd8e04	0.40147412
172	0xbe6738d2	-0.22580269
173	0x3e273e1e	0.1633229
174	0x3e08d1cf	0.13361286
175	0x3e7d09ab	0.2471072
176	0x3df17af1	0.11791027
177	0x3e3546b1	0.17702748
178	0xbe183637	-0.14864431
179	0xbe61a5d7	-0.22035919
180	0x3e87beac	0.2651266
181	0xbf29208d	-0.66065294
182	0x3eccf0d6	0.40027493
183	0x3dc91180	0.09817791
184	0x3e0276e0	0.1274066
185	0x3eddf5d7	0.43351623
186	0xbe58ad48	-0.21159852
187	0xbed28ea7	-0.4112446
188	0x3e70495b	0.23465483
189	0xbd7fed65	-0.062482256
190	0xbe208c0d	-0.15678425
191	0x3ebc4f09	0.3677905
192	0x3e1476fe	0.14498517
193	0x3e2f754d	0.1713459
194	0x3dd51d06	0.104059264
195	0x3d000e95	0.031263907
196	0xbec441f6	-0.38331574
197	0x3e785910	0.24252725
198	0x3ee32b2d	0.44368878
199	0xbc24e53d	-0.01006442
200	0xbc715b49	-0.014731237
201	0x3e43e79e	0.19131324
202	0x3e885238	0.26625228
203	0x3e213dc9	0.15746225
204	0xbe42ff81	-0.1904278
205	0xbe24996d	-0.16074152
206	0xbeacfebd	-0.337881
207	0xbebdf207	-0.37098715
208	0xbd465844	-0.04842402
209	0xbe8cfc24	-0.27536118
210	0xbf01373a	-0.50474894
211	0x3b8f7444	0.0043778736
212	0x3cb63944	0.022244103
213	0xbe2d1595	-0.16902764
214	0xbdfe3d29	-0.12414009
215	0xbe3c0c5e	-0.18364093
216	0x3ee95131	0.45569757
217	0xbe8d65e5	-0.27616802
218	0xbd8bfe00	-0.06835556
219	0xbdb29eaf	-0.08721673
220	0x3ea775f7	0.32707188
221	0x3ecf1448	0.4044516
222	0xbdfd4946	-0.123674914
223	0xbe3807d4	-0.17971736
224	0xbec0e1f7	-0.37672397
225	0xbdd08586	-0.101817176
226	0xbdc5da09	-0.096607275
227	0x3e1cbce3	0.1530643
228	0x3edf7050	0.43640375
229	0x3e33854c	0.17531317
230	0xbe0641c0	-0.13111019
231	0x3ccf3d70	0.02529785
232	0x3e1086ab	0.14113872
233	0x3d01f0a2	0.031723626
234	0x3c237b23	0.009978089
235	0x3e8111ad	0.25208798
236	0xbe8670ec	-0.26258028
237	0xbec3850b	-0.3818744
238	0xbe9b2dab	-0.3030828
239	0x3e3b676b	0.1830117
240	0x3e8acecc	0.27110898
241	0x3e7a79ba	0.24460497
242	0xbe617a34	-0.22019273
243	0x3e700276	0.23438439
244	0x3dd6f153	0.10495248
245	0x3a64b609	0.0008724635
246	0xbc82b6e0	-0.015956342
247	0x3c5c6678	0.013452165
248	0x3db648bc	0.08900592
249	0xbe377e43	-0.17919259
250	0x3eb4fa36	0.35347146
251	0x3c73a528	0.014870919
252	0xbd86325f	-0.06552576
253	0x3c7c2820	0.015390426
254	0x3d8537fa	0.06504817
255	0xbedb7594	-0.42863142

model.0.bias f4 [64]
0	0x3e9d5b57	0.3073375
1	0xbdb8e398	-0.09027785
2	0x3e47c17b	0.195074
3	0xbe933ebb	-0.28758797
4	0x3c5dcf58	0.013538204
5	0xbd948c4f	-0.07253324
6	0xbe803732	-0.2504211
7	0x3eeed905	0.46649948
8	0xbe8f3dd3	-0.27976856
9	0x3e512af2	0.20426539
10	0xbd72bf0b	-0.059264224
11	0x3e9e5417	0.3092353
12	0x3e9e57c9	0.3092635
13	0x3f01bb05	0.50675994
14	0x3dd755b9	0.10514397
15	0x3ef03265	0.46913448
16	0x3ea94f6b	0.33068404
17	0xbe69fd6d	-0.2285058
18	0x3db4d29f	0.08829235
19	0xbdf1fbf0	-0.118156314
20	0x3e5740a0	0.21020746
21	0xbe773aa4	-0.24143463
22	0x3ec56dec	0.38560426
23	0xbe49bec2	-0.19701675
24	0x3dfed672	0.12443246
25	0x3eaa70b2	0.33289105
26	0x3e20e64a	0.15712848
27	0xbe9af2c0	-0.3026333
28	0x3e2ff609	0.17183699
29	0x3eddc478	0.43313956
30	0xbe543bb2	-0.20725897
31	0x3e85a878	0.26105094
32	0xbd904d2a	-0.07045968
33	0x3ed84248	0.4223807
34	0x3e82bf71	0.25536683
35	0x3e83182e	0.25604385
36	0xbe5f2462	-0.21791223
37	0x3e93286d	0.2874178
38	0xbe4e4a55	-0.20145543
39	0x3d34867e	0.044073574
40	0xbe989fa8	-0.29809308
41	0x3cce3855	0.025173346
42	0x3e93d529	0.28873566
43	0x3e1954e5	0.14973791
44	0x3e1c84c3	0.1528502
45	0x3e99bc8b	0.3002666
46	0x3efdf5ba	0.49601537
47	0x3d1fda72	0.039026685
48	0xbeb1ff94	-0.34765303
49	0xbd9fe192	-0.07806696
50	0xbe9cd11a	-0.30628282
51	0x3e74f8de	0.2392306
52	0xbdcb7c8b	-0.09935864
53	0xbd6ad277	-0.05732962
54	0xbe208f91	-0.15679766
55	0xbee02afd	-0.43782797
56	0xbe7275b1	-0.23677708
57	0x3e8e8621	0.27836707
58	0xbecda759	-0.4016674
59	0xbe912352	-0.2834726
60	0x3eb199b1	0.3468757
61	0xbdc7855f	-0.097422354
62	0xbe2ce463	-0.16883998
63	0x3def2848	0.11677605

model.2.weight f4 [64, 64]
0	0xbe4e3696	-0.2013801
1	0xbc83047d	-0.015993351
2	0x3cfef43f	0.031122325
3	0x3e06e370	0.13172698
4	0x3d05d43d	0.03267311
5	0x3d94eaf3	0.072713755
6	0xbe6770c4	-0.2260161
7	0xbe4d20eb	-0.20032088
8	0xbaa93086	-0.0012908138
9	0xbcdde93a	-0.02708875
10	0xbd2c05df	-0.041997787
11	0x3e24fe97	0.16112743
12	0x3d0c1da8	0.03420797
13	0x3d1b1772	0.037864156
14	0x3db4c58f	0.08826744
15	0x3d2167b8	0.039405555
16	0xbc906839	-0.017627822
17	0xbe04fb48	-0.12986481
18	0x3e328be0	0.1743617
19	0xbd8f9ba2	-0.070121065
20	0x3b0bd8a3	0.0021338842
21	0x3d3278d9	0.04357228
22	0xbe8598e6	-0.26093215
23	0xbd49be3a	-0.04925368
24	0xbdbc9e17	-0.09209841
25	0xbe791c48	-0.24327195
26	0xbd0387f3	-0.032112073
27	0xbcc33386	-0.02382828
28	0x3c86914e	0.016426709
29	0x3bb0de1f	0.0053975726
30	0xbdaf8826	-0.0857089
31	0x3e124c28	0.14286864
32	0x3e16f48c	0.14741725
33	0x3d12a361	0.03580034
34	0xbda3077e	-0.079604134
35	0xbdffaca2	-0.12484099
36	0x3b5e2bd9	0.0033900647
37	0xbd86c98d	-0.065814115
38	0xbc147eee	-0.0090634655
39	0xbd5da110	-0.05410868
40	0xbd89eb1a	-0.06734295
41	0xbc8bee62	-0.017081443
42	0x3da212b6	0.07913725
43	0xbc048201	-0.008087636
44	0x3e7aa138	0.24475563
45	0xbdd23f93	-0.10266032
46	0xbcf60661	-0.030032339
47	0x3c845e7d	0.016158337
48	0x3e1cde94	0.15319282
49	0x3e202380	0.15638542
50	0x3d96de05	0.073665656
51	0xbd20088a	-0.039070643
52	0x3cd66e61	0.02617568
53	0x3d8fcfd0	0.07022059
54	0xbd729de8	-0.059232622
55	0xbdda766d	-0.10667119
56	0xbe4b2efc	-0.19842142
57	0x3c964841	0.018345
58	0xbcf86dc6	-0.030325782
59	0x3d0c8ce5	0.034314055
60	0xbd0280c8	-0.031861097
61	0x3d43c1c5	0.047792215
62	0x3ca141ad	0.019684637
63	0xbf1533c4	-0.58282113
64	0x3c0dfe06	0.008666521
65	0x3dcfed16	0.101526424
66	0x3e14b16f	0.1452081
67	0xbce3910d	-0.027779127
68	0x3e1cf203	0.15326695
69	0xbcd9abc5	-0.026571164
70	0x3dfd1ce2	0.123590246
71	0x3d965147	0.07339721
72	0x3dfbef79	0.12301535
73	0x3d90ff9c	0.070800036
74	0x3d333967	0.043755915
75	0xbd8b5856	-0.06803958
76	0xb8b56595	-8.649674e-05
77	0xbd0ef35b	-0.03490005
78	0xbc0ba7b8	-0.008523874
79	0x3d998d22	0.07497622
80	0xbd20bf9b	-0.03924523
81	0xbcbd35a0	-0.02309686
82	0x3e1a5976	0.15073189
83	0x3d9c16b4	0.07621518
84	0x3da7ac74	0.0818719
85	0x3e0c0565	0.13673933
86	0x3da1f7f1	0.07908619
87	0x3e24cefa	0.1609458
88	0xbc8dc655	-0.017306486
89	0x3d22626e	0.03964465
90	0x3d30c092	0.0431524
91	0x3d92477f	0.07142543
92	0xbda58dfb	-0.08083721
93	0xbc1e20a4	-0.009651337
94	0xbcfafd57	-0.03063838
95	0x3b858009	0.004074101
96	0x3d8a4453	0.06751313
97	0xbda04fa9	-0.07827694
98	0x3e06d646	0.13167676
99	0x3c842e36	0.016135316
100	0x3e5e653d	0.21718307
101	0xbaf0d2e2	-0.0018373395
102	0xbb2159df	-0.0024620218
103	0x3dd214bc	0.10257861
104	0xbcf9dc03	-0.030500418
105	0x3c10ef5c	0.00884613
106	0xbd7f874b	-0.062384885
107	0xbe14d4f7	-0.14534365
108	0x3d09b263	0.03361739
109	0x3dad1d47	0.0845285
110	0xbca48208	-0.020081535
111	0xbbd093a5	-0.006365257
112	0xbce65b13	-0.0281196
113	0x3e0817fe	0.13290402
114	0x3dce49d0	0.10072672
115	0x3d868223	0.0656779
116	0x3d988f67	0.07449227
117	0xbcaea1b6	-0.021317344
118	0x3cdaa583	0.02669025
119	0x3d5b6e5c	0.053572044
120	0x3d1ac725	0.037787575
121	0xbcea70f0	-0.028618306
122	0xbcefbc72	-0.029264662
123	0x3dc747c1	0.09730483
124	0x3e78b821	0.2428899
125	0x3debe073	0.1151742
126	0x3e3b0a7c	0.18265718
127	0xbd1cc607	-0.03827479
128	0x3bd937fb	0.006628988
129	0xbc6d117b	-0.0144695
130	0x3ccc46a5	0.02493603
131	0x3d0a9d3b	0.033841353
132	0x3cf7f809	0.03026964
133	0xbd6a2fbc	-0.05717443
134	0x3e666972	0.22501162
135	0x3dbd19e5	0.092334546
136	0xbd576252	-0.052584
137	0x3d6933a9	0.056934033
138	0x3db0e18c	0.0863677
139	0xbc847b6f	-0.016172139
140	0x3da0edad	0.07857833
141	0xbd5fdc08	-0.054653198
142	0x3d9f7582	0.07786085
143	0x3dc3c987	0.09559923
144	0xbd98efb5	-0.074675955
145	0x3e43975c	0.19100708
146	0xbd0ee301	-0.034884457
147	0xbdb4a260	-0.08820033
148	0xbd0cb626	-0.034353398
149	0xbd9c33d6	-0.076270744
150	0x3dd448cd	0.10365448
151	0xbde5b0c0	-0.11215353
152	0xbd983be9	-0.07433302
153	0xbd549a74	-0.05190511
154	0xbd9b823e	-0.07593201
155	0x3ddef0d8	0.10885781
156	0x3df27eb9	0.11840577
157	0xbd4847f0	-0.04889673
158	0x3d869095	0.065705456
159	0x3d8dab8c	0.069174856
160	0x3d0e95d7	0.034810867
161	0x3d4e5f8e	0.050384097
162	0x3c1059db	0.008810486
163	0x3d437980	0.047723293
164	0xbd9e1812	-0.07719435
165	0xbd7b2c28	-0.061321408
166	0xbceffb83	-0.029294735
167	0x3db1da3c	0.08684203
168	0xbdd5e555	-0.10444132
169	0xbd3f23f6	-0.046665154
170	0x3c26cb83	0.010180357
171	0x3e6e865a	0.23293439
172	0xbbcde443	-0.0062833144
173	0x3dc9698b	0.09834584
174	0x3d8fce92	0.07021822
175	0x3d91caa0	0.07118726
176	0x3d61790a	0.055047072
177	0x3d16b12f	0.03679007
178	0x3d2fdcd4	0.042935207
179	0x3d006e98	0.03135547
180	0xbd8b1db3	-0.06792774
181	0xbdcaaaba	-0.09895845
182	0x3e1fc2d9	0.15601672
183	0xbdf26d3e	-0.118372425
184	0x3ddc31e1	0.10751701
185	0x3e03fa05	0.12888344
186	0x3dcee238	0.101017416
187	0x3cb8283d	0.022480125
188	0xbd6c41b8	-0.05767986
189	0xbc96dc50	-0.0184156
190	0xbd8227c2	-0.063552395
191	0x3daaaa62	0.08333279
192	0x3c2dda0a	0.010611067
193	0x3dee311f	0.11630463
194	0x3de2ae5f	0.11068415
195	0xbb97064d	-0.0046089054
196	0x3e32e7b4	0.174712
197	0xbab092da	-0.00134715
198	0x3df52c9b	0.119713984
199	0xbb8ec511	-0.0043569882
200	0x3e25da80	0.16196632
201	0xbd3c07ae	-0.04590576
202	0xbd99c368	-0.07507974
203	0xbcd1d58a	-0.025614519
204	0x3c53fe6b	0.012939076
205	0xbdef5d16	-0.116876766
206	0x3ac27f6b	0.0014838999
207	0xbd983b3a	-0.074331716
208	0xbcfca6de	-0.030841287
209	0xbd203fe7	-0.039123442
210	0x3d640d29	0.055676613
211	0x3d268dca	0.040662564
212	0xbd0a3512	-0.033742018
213	0x3d08e558	0.033421844
214	0xbc6d3cdd	-0.014479843
215	0xbd56a46d	-0.052402902
216	0x3e1815af	0.14852022
217	0x3dd48176	0.10376255
218	0x3d67091b	0.056405168
219	0x3e13abcf	0.14421009
220	0x3e532402	0.20619205
221	0xbdf0a064	-0.11749342
222	0x3db5ff8a	0.08886631
223	0x3d9f04db	0.07764598
224	0xbd9fe46f	-0.07807242
225	0x3dbaa2a7	0.09113055
226	0x3e00cfcd	0.1257927
227	0xbd295d36	-0.04134866
228	0xbd7bcd58	-0.061475128
229	0x3dfe83a7	0.124274544
230	0x3dc9389e	0.09825252
231	0x3d228332	0.0396759
232	0xbde0a093	-0.10968127
233	0x3c276ad8	0.010218345
234	0x3c8e364d	0.017359877
235	0x3d358a42	0.044321306
236	0xbda76cac	-0.081750244
237	0x3d4a23c2	0.049350508
238	0xbd8dd0dd	-0.06924603
239	0x3e7c7b7a	0.24656478
240	0x3e1b5959	0.15170802
241	0xbb90bd55	-0.0044171014
242	0x3e10f6a5	0.14156587
243	0xbc57fed9	-0.013183319
244	0xbd33304f	-0.043747243
245	0xbdf0f6cd	-0.117658235
246	0x3e59cb45	0.21268947
247	0x3d0d7d16	0.03454312
248	0x3ddddae2	0.10832764
249	0x3df89749	0.1213823
250	0xbd655af4	-0.055994943
251	0xbe1059e8	-0.14096797
252	0xbc7bb6fc	-0.015363451
253	0x3c95e01b	0.018295338
254	0x3cbcbb10	0.023038417
255	0xbc757a6e	-0.014982803

model.2.bias f4 [64]
0	0x3de1a5e4	0.11017969
1	0x3ded2117	0.11578577
2	0xbd7e87d0	-0.06214124
3	0x3de2ca26	0.11073713
4	0xbd9c6f46	-0.07638411
5	0xbdc0acf0	-0.09407985
6	0x3e15c81b	0.14627115
7	0x3e40a798	0.18813932
8	0xbd83d730	-0.06437528
9	0x3ddbe5ea	0.10737212
10	0xbdaf0002	-0.08544923
11	0x3d4ac10b	0.049500506
12	0x3df25b6b	0.11833843
13	0xbd9333b6	-0.071875975
14	0xbdd77dd7	-0.10522049
15	0x3da510f1	0.08059872
16	0x3cc0e5a6	0.023547005
17	0x3e19dc10	0.15025353
18	0x3c5ef7dd	0.0136089
19	0x3e123ad9	0.14280261
20	0x3e142f32	0.14471129
21	0x3d4b3105	0.049607296
22	0x3d0cb036	0.034347735
23	0x3db7eba4	0.08980492
24	0xbdd23846	-0.102646396
25	0x3d4f1f8d	0.0505672
26	0xbdfd6bed	-0.12374101
27	0x3e172f60	0.14764166
28	0x3d883927	0.06651526
29	0x3d9509e4	0.07277277
30	0x3e043ab0	0.12913013
31	0x3c9f6c17	0.019460721
32	0x3d1ae23c	0.03781341
33	0x3d1f3fe0	0.038879275
34	0x3d613336	0.05498048
35	0x3e1ee6bb	0.15517704
36	0xbd9fb3d9	-0.07797975
37	0x3d3c2006	0.045928977
38	0x3da2783f	0.07933091
39	0x3db4e018	0.08831805
40	0x3e0ea165	0.13928755
41	0x3d256a22	0.04038442
42	0x3dce2642	0.10065891
43	0x3b18444b	0.0023234065
44	0xbcf7ffdb	-0.030273369
45	0x3e2b47b5	0.16726573
46	0x3e419844	0.18905741
47	0x3c9586fe	0.018252846
48	0x3dfa7806	0.12229924
49	0x3e27b3e6	0.1637722
50	0xbc8dbb9a	-0.01730137
51	0x3e1a5e14	0.1507495
52	0x3d844cf1	0.06459988
53	0xbd8fbeb8	-0.070187986
54	0x3d39c4c3	0.045353662
55	0xbc145318	-0.009053014
56	0x3c767f0f	0.015044942
57	0xbdd63e2b	-0.10461076
58	0x3e2c054f	0.167989
59	0xba128906	-0.0005589876
60	0x3c60d45c	0.013722505
61	0xbb47b5c2	-0.0030473326
62	0x3d8806de	0.06641935
63	0xbc84441c	-0.016145758

model.4.weight f4 [3, 64]
0	0x3bea46ce	0.007149554
1	0x3e3df438	0.18550193
2	0x3d29962c	0.04140298
3	0x3d606857	0.054787006
4	0xbe605ae8	-0.21909678
5	0x3ddfef6e	0.109343395
6	0xbe43f7cf	-0.191375
7	0x3b7d7b17	0.0038678104
8	0xbe25ef20	-0.162045
9	0x3cae603a	0.021286119
10	0x3b0eb839	0.0021777286
11	0xbdad445a	-0.08460303
12	0x3cd206ef	0.025638072
13	0x3d1a8ca9	0.0377318
14	0xbc26a690	-0.0101715475
15	0x3b50daa5	0.0031868604
16	0x3c11fa57	0.008909783
17	0x3d65ffc7	0.05615213
18	0x3beff6de	0.00732313
19	0xbdf48be3	-0.11940744
20	0xbe506849	-0.20352282
21	0x3e469722	0.1939359
22	0xbdaedd5d	-0.085383154
23	0xbe6be7b0	-0.230376
24	0xbd2913c6	-0.041278623
25	0xbc16f801	-0.009214402
26	0xbbae1c2e	-0.005313418
27	0xbcda3cab	-0.026640257
28	0x3e715d6f	0.23570798
29	0xbe1d5c73	-0.15367298
30	0x3daa6141	0.08319331
31	0x3a40639d	0.0007339062
32	0x3e4d42b6	0.2004498
33	0xbe0bb2d1	-0.13642432
34	0xbd376caa	-0.044781365
35	0xbdda3731	-0.10655058
36	0xbd66d611	-0.056356493
37	0x3e1af851	0.15133788
38	0x3d8fd8ff	0.070238106
39	0x3e470c29	0.19438232
40	0x3ddc3d94	0.107539326
41	0xbe064c59	-0.13115062
42	0x3e5eafc9	0.21746744
43	0x3d6d6ad6	0.057963215
44	0xbcdb63dd	-0.026781017
45	0x3d05cc32	0.03266544
46	0xbd13ac82	-0.03605319
47	0x3df358ae	0.11882149
48	0x3c78909c	0.015171196
49	0xbdaf302f	-0.08554112
50	0x3b82e940	0.0039950907
51	0x3d9f3081	0.07772923
52	0xbd8aff65	-0.06786994
53	0xbb24168c	-0.0025037853
54	0x3d7e6760	0.062110305
55	0x3d7de25b	0.061983448
56	0x3c63b297	0.01389756
57	0xbdae78fa	-0.08519168
58	0xbde645fd	-0.11243818
59	0xbe6bef7a	-0.23040572
60	0x3e4b4eb3	0.1985424
61	0x3e4ad061	0.19806053
62	0xbdeddc32	-0.116142645
63	0x3e780413	0.24220304
64	0x3c22f5ed	0.009946329
65	0xbda18125	-0.078859605
66	0x3e2f4c49	0.17118944
67	0x3d776377	0.06039759
68	0x3e7f71ce	0.24945757
69	0x3dc22d1e	0.09481262
70	0x3e13cac9	0.14432825
71	0xbc811368	-0.015756324
72	0x3e09dc89	0.13463034
73	0xbd4e6354	-0.050387695
74	0x3c9cba3c	0.019131772
75	0x3cf07902	0.029354576
76	0x3c0fd63d	0.008779106
77	0x3dd8c930	0.105852485
78	0xbc09f986	-0.008421307
79	0xbb897e76	-0.0041959835
80	0x3c363104	0.011120085
81	0xbe5a639f	-0.21327065
82	0xbd3f4601	-0.04669762
83	0x3e35588e	0.17709562
84	0x3dd459cb	0.10368689
85	0xbd75f79c	-0.06005059
86	0x3d679cad	0.056545902
87	0xbe783d7a	-0.24242201
88	0x3d1520f4	0.03640838
89	0x3ca43d1b	0.020048669
90	0x3cbd9703	0.023143297
91	0xbce92df5	-0.028464297
92	0xbc657a60	-0.014006227
93	0xbe2c5ba3	-0.16831832
94	0x3e151dbf	0.14562128
95	0xb836f032	-4.361588e-05
96	0xbd925746	-0.07145552
97	0xbe18a52d	-0.1490676
98	0xbd5ebbbf	-0.054378267
99	0x3dcfb97f	0.101428024
100	0xbd53b05b	-0.051681858
101	0xbd9bcd4a	-0.07607515
102	0xbe1dd4ef	-0.15413259
103	0xbc838699	-0.016055392
104	0x3e0330c2	0.12811568
105	0xbd8c9a38	-0.068653524
106	0x3e289948	0.16464722
107	0xbdc75369	-0.09732706
108	0x3c878f99	0.016547965
109	0x3dc11df7	0.094295435
110	0xbe458428	-0.19288695
111	0xbda01113	-0.07815757
112	0x3d6de901	0.058083538
113	0xbe36e0ca	-0.17859188
114	0xbb9e1fda	-0.0048255743
115	0x3da4da16	0.08049409
116	0x3e0d5960	0.13803625
117	0xbc5458d4	-0.012960631
118	0x3e37aa72	0.17936113
119	0xbd224717	-0.039618578
120	0xbd865d00	-0.06560707
121	0xbe044442	-0.12916663
122	0xbda58fa0	-0.08084035
123	0x3d9340d9	0.07190103
124	0xbd2a8332	-0.041629024
125	0x3dd19861	0.10234142
126	0xbd43c03f	-0.047790762
127	0x3e358578	0.17726696
128	0xbd7ef213	-0.06224258
129	0x3de028fd	0.10945318
130	0x3c0412dd	0.008061138
131	0xbe4440ea	-0.19165388
132	0x3ce9cca3	0.028539961
133	0x3db4272e	0.087965354
134	0x3ba372dc	0.0049880575
135	0x3e55433d	0.2082643
136	0x3dc7c460	0.097542524
137	0xbdc3bdd4	-0.09557691
138	0x3e03deb6	0.12877926
139	0xbe3a6cee	-0.18205616
140	0xbe0e06d8	-0.13869798
141	0xbbce44a4	-0.0062948037
142	0x3dd705ec	0.104991764
143	0xbda6f8bc	-0.08152911
144	0x3d4338d9	0.047661636
145	0xbdc48f6a	-0.095976666
146	0x3d4a4645	0.04938342
147	0x3d8779c0	0.06615019
148	0xbe2b45ee	-0.16725895
149	0x3d8d3eb9	0.06896729
150	0x3dc08728	0.09400779
151	0xbc1be1b3	-0.00951426
152	0xbe011b7e	-0.12608144
153	0x3dbedc47	0.09319358
154	0x3dc9f58f	0.0986129
155	0xbde47eda	-0.111570075
156	0xbd60c3ff	-0.054874416
157	0xbd523463	-0.05131949
158	0xbdb7d03d	-0.08975265
159	0x3ccc4839	0.024936782
160	0xbd2f87df	-0.042854186
161	0x3dee1cb0	0.116265655
162	0xbd6261d8	-0.055269092
163	0x3d535daa	0.051602997
164	0xba53c709	-0.000807867
165	0xbdb8e442	-0.09027912
166	0xbd71b00d	-0.059005786
167	0xbad86876	-0.0016510624
168	0xbb4cca57	-0.0031248534
169	0x3df68015	0.120361485
170	0x3bf926f6	0.0076035215
171	0xbd71a420	-0.058994412
172	0xbcb4c0fe	-0.022064682
173	0x3e254a3f	0.16141604
174	0xbe0e99c6	-0.13925847
175	0x3dfbeaab	0.12300619
176	0x3e42ec39	0.19035424
177	0xbbb3baa3	-0.0054848953
178	0x3def7853	0.11692872
179	0x3d8cfa02	0.06883623
180	0x3d633b79	0.05547664
181	0x3d8c95e1	0.06864525
182	0x3c6032c5	0.013683979
183	0xbd1caead	-0.03825252
184	0xbdbc9b5e	-0.092093214
185	0xbcfde255	-0.030991713
186	0xbdc990e0	-0.09842086
187	0xbda14e7e	-0.07876299
188	0xbd0fc75c	-0.035102233
189	0x3c5b3591	0.01337947
190	0x3d98b571	0.07456482
191	0x3c4a0f57	0.012332759

model.4.bias f4 [3]
0	0x3c16371f	0.009168415
1	0xbd8f95e9	-0.07011015
2	0x3ccc3b79	0.024930703
