exported_models/neural_networks/raw_mlp/trained_models/model_epoch_10_batch_64_lr_0001_vs_30_hl_128_128_128_drop_1/mlp_dynamics.pth (torch, 140499 bytes, 8 tensors)

model.0.weight f4 [128, 5]
00000000: ed04 d63d 8813 a5be 0654 8cbe fdb9 f43b
00000010: 9ee7 e1bb dbf9 043e 6351 023f f3d5 aebe
00000020: 900c 5cbb e82a a03a 52c2 d23e 52dd a53e
00000030: ea5c 25be 9b96 1bbb 527a cbba 8186 f13e
00000040: 81c0 ddbe ad50 6fbc 47e9 8cbb e160 0c3b
00000050: f806 a0be 3650 babe 56b5 91be 5d46 8bbb
00000060: 6df9 fd3b d6a5 683e 3577 d0be 5bd0 a03e
00000070: 1330 a83a 9f27 89ba f819 42bd a7b1 fbbe
00000080: d6c7 9b3e 365f 20bb fb4a cd3a d31b d13c
00000090: 6307 683e 6d30 9a3e 3f96 813a 9714 a0bb
000000a0: 2830 843e e48b 013f 731e 63be c9a1 063c
000000b0: 1d04 9639 d51f fb3e 9aed 8e3e 395f 773e
000000c0: dc90 8cba f853 aabb a147 0c3f e931 60be
000000d0: 1b11 11bc 4fad a63b 1999 fa3b 9b09 9cbe
000000e0: 8d9b e9be 2d79 5a3e 77fe 263b 7b8b d13a
000000f0: 1be6 57be 02a4 f03d 22e7 c5be e855 f63b
00000100: 7b20 d4bb 5c83 4d3e d353 70be 23a5 9ebe
00000110: 9396 9e3b 5c31 19ba fdf4 ecbe 17cb 2bbe
00000120: 1348 a93e 1622 d33b 9a3e feba 9b6a 793d
00000130: 5a11 a1bd 265c ad3e 1e95 853b 4e48 113c
00000140: 5d7d 8c3d 21d1 77be fc27 b93e a264 96bb
00000150: 5cdf 803a 4aad 893d 9b4a b6be d07e 0cbe
00000160: 4b80 26bc bdcc 98bb 4a90 c9be a886 98be
00000170: 5ab2 acbe f032 cf3a 72b7 05bb ec9e 17be
00000180: c60d b7be c0fa c9be 2304 95bb 1d49 a03b
00000190: 2ebe b9be 8c32 acbe 186f b3be a805 8dbb
000001a0: 2935 383b c3e6 c3be 904a babe 5d39 62be
000001b0: aa1b 6f3b dbc2 e1ba ef2e eebe 867d 51be
000001c0: a0b8 7c3d ae98 153c a284 2d38 fa26 cbbe
000001d0: 1d09 933e c281 eabe 3219 6fbb efcd f3ba
000001e0: f1ab 0f3e c879 ef3e 3a44 203c 5379 a93b
000001f0: 49ec da3a 9082 963e 9210 003e 0dc7 e8be
00000200: 6c0a 0bbb 1946 b43b b318 f53e 9165 fa3c
00000210: ff69 dcbd bb54 6d3a 0ae3 203b 9123 353d
00000220: 2716 9c3d 8734 abbe 7eec a5b8 d30f 13bc
00000230: a765 f1be f3fb 8a3e 0085 dc3e 4dc2 1ebb
00000240: e7a7 9abb 543f 833e 19f8 c0be d806 08bc
00000250: 3093 efba c4e4 673a d152 de3e 5972 8dbe
00000260: 04af abbe 3f32 93ba 7ecc bfbb f349 b3be
00000270: 740b 313e 79c7 faba edc7 d639 ca7f 23bc
00000280: b929 013f f294 e03e b9d5 f83e ae55 c03b
00000290: 7b08 c5ba 02b7 c63e eb33 fcbd c3d6 a83e
000002a0: d4f5 073b 9bdc de3a 6982 853e 6130 32be
000002b0: eb87 e9be 68d1 e039 409c 973b 30a3 be3e
000002c0: c7b8 7dbd 7edb 7b3d 6aa5 163a 9df1 87bb
000002d0: 3bab ac3d bb19 a5be b606 9cbd ee50 5aba
000002e0: 4f5b 39bb e4bd d6be f69c b43e cccf 463d
000002f0: 9f64 7c3b 9cae 5cbb e0cf 883e efd2 ac3e
00000300: 58ec c2be aa12 0f39 4b03 1c3c 0afe 8dbe
00000310: b10a b93e b6c4 623e 9ea0 0ebc e8bb 69bb
00000320: 633e 943e 9b83 89bd 7fb5 073f c6ba 32bb
00000330: a872 633b d9df c13e 87a9 2abe 8fd9 b33e
00000340: 1124 c1bb f18e 9b3b f52f e9be 2f74 c53e
00000350: b491 a0be 6a21 a93b 3493 5d3c b6d4 7dbe
00000360: 6ad9 f13e 966d 94be 74e0 25bb a6ac 5cbb
00000370: 590f 033f e088 d7be 335f d23c 6455 a43b
00000380: f499 a33a a3db e03e ce30 54bb 17c9 9dbe
00000390: 7c3b acb8 8254 5d3a da88 1cbf ccc9 bb3c
000003a0: a922 483e 39a2 4fb9 c669 8fbc 687b 19be
000003b0: 1048 043f e2eb 3b3e 9607 1b3b 8692 e33a
000003c0: 08ca 0abe fa4a 9fbe 5daa bbbd faf0 e3ba
000003d0: 043a 0c3b f212 ca3e 05a2 5e3e ffb8 cc3e
000003e0: 4a0c f339 4b3a 96bb 604e 853e 495b a53e
000003f0: 746c e03e 50ee 833b 863d 743b 8472 c2be
0.10450158 -0.32241464 -0.27407855 0.0074684606 -0.006894066 0.12985937 0.50905436 -0.34147605
-0.0033576824 0.0012219818 0.4116388 0.32395416 -0.16148725 -0.002374089 -0.0015524125 0.4717293
-0.4331093 -0.014606637 -0.0043002698 0.002142005 -0.31255317 -0.3638932 -0.2845866 -0.0042503313
0.007750681 0.22719511 -0.40715948 0.31408963 0.001283171 -0.0010464079 -0.047388047 -0.49158975
0.304259 -0.0024470813 0.0015662605 0.025525963 0.22659068 0.3011507 0.0009886696 -0.004885267
0.2581799 0.5060408 -0.22179584 0.0082172835 0.00028613294 0.49047723 0.2791565 0.24157418
-0.0010724324 -0.005197998 0.547968 -0.21894039 -0.008854176 0.005086578 0.007647645 -0.30476078
-0.45626488 0.21335287 0.0025481263 0.0015987003 -0.21083872 0.11750032 -0.38652903 0.007517565
-0.0064735985 0.20069641 -0.23469476 -0.30985364 0.004839727 -0.0005843842 -0.4628066 -0.16776691
0.330628 0.0064432723 -0.0019397319 0.060892683 -0.07864638 0.33859366 0.004076614 0.008867336
0.06859849 -0.2420087 0.36163318 -0.004589633 0.0009832191 0.067225054 -0.35603794 -0.1372025
-0.010162423 -0.0046630786 -0.39367896 -0.29790235 -0.3372982 0.0015808027 -0.0020403531 -0.14806718
-0.35752696 -0.3944912 -0.0045476123 0.0048915283 -0.36277908 -0.33632314 -0.35045695 -0.004303653
0.0028107858 -0.38261995 -0.36385012 -0.22092195 0.0036484995 -0.0017224209 -0.46520182 -0.2045804
0.06169951 0.00913064 4.1369938e-05 -0.39678174 0.2871789 -0.45802122 -0.0036483523 -0.0018600802
0.14030434 0.467726 0.0097818915 0.0051719337 0.0016702499 0.29396486 0.12506321 -0.45464364
-0.0021215929 0.0055015204 0.47870407 0.030566009 -0.10762405 0.00090534583 0.0024549388 0.044223372
0.07621413 -0.33438513 -7.911863e-05 -0.008975941 -0.47147867 0.27145347 0.4307022 -0.00242247
-0.0047197226 0.25634253 -0.37689283 -0.008302413 -0.0018278118 0.00088460394 0.4342256 -0.27626303
-0.33531964 -0.0011230184 -0.005853235 -0.35017356 0.17289525 -0.0019132934 0.00040966217 -0.009979198
0.5045429 0.43863636 0.48600557 0.005869589 -0.0015032435 0.388115 -0.1231459 0.3297635
0.002074589 0.0017003001 0.26076058 -0.17401268 -0.4561151 0.0004288063 0.0046267807 0.37233877
-0.061943796 0.06148862 0.00057466945 -0.0041486756 0.08431097 -0.32246193 -0.076184675 -0.00083280995
-0.0028283184 -0.4194175 0.35276002 0.048538014 0.0038512123 -0.0033673411 0.26721096 0.3375468
-0.3807094 0.00013644496 0.0095222695 -0.2773288 0.3614097 0.22145352 -0.008705286 -0.003566498
0.28953847 -0.06714555 0.53011316 -0.002727197 0.0034705792 0.37866095 -0.16666232 0.35126922
-0.005894192 0.0047472646 -0.455444 0.38565204 -0.31361163 0.005161454 0.0135238655 -0.24788174
0.47236186 -0.28989857 -0.0025310786 -0.0033672242 0.51195294 -0.42096615 0.02568016 0.005015062
0.0012481795 0.4391757 -0.0032377723 -0.30817482 -8.212679e-05 0.00084430736 -0.6114632 0.022923373
0.19544472 -0.00019801491 -0.017506491 -0.14988482 0.5167246 0.18351701 0.0023655645 0.0017362393
-0.13553631 -0.3111189 -0.091633536 -0.0017390542 0.0021396885 0.3946758 0.21741493 0.3998489
0.00046357728 -0.004584586 0.26036358 0.32296208 0.43832743 0.004026212 0.0037268116 -0.37977993

model.0.bias f4 [128]
00000000: 2379 5ebe c1e0 86bc 0a90 89be f3ca 9cbe
00000010: 462b 83be a98c 90bd e247 51bd ada3 80be
00000020: 0cec 63be 9692 d2be a800 bdbe 8b4d 34be
00000030: 3d77 a9bd c70b c8bd 770e 82bd 3fa5 34be
00000040: 9f98 0cbd 1bdb 95be f48a d7be 9a66 d5be
00000050: e59d 02be e59a 78be bee7 a8be f986 60bd
00000060: fbd9 1ebe c57d 9fbe 7a10 4ebd 534e 0abe
00000070: a325 82be 99b1 05be 8329 b0be 989d 6dbe
00000080: 0fae e6be 7eee ebbc c7db e2be 5872 9bbd
00000090: 2b8a 893c 9d84 78bc 32e0 b1bd bfa1 7bbd
000000a0: 2126 97be 9382 7cbe c40a 81be 0cff 5abd
000000b0: acff 29be 9320 1fbe a2ab a7be 78ef cfbd
000000c0: 5775 ad3d f4a5 7dbe 2068 febe 7d77 a1bb
000000d0: 5bc5 7cbe f6bf fbbd 777e 97bd 22a0 dbbd
000000e0: c569 c6be 8e76 5c3d b898 8dbe 3cf0 7abe
000000f0: 32df 0ebe ef34 88be 88d6 95be 7a54 06bc
00000100: a0d1 0fbe ab9e 99bd 263e a2bd 76ae 9f3d
00000110: b462 bebe b638 a5be 15f7 babe de67 bcbc
00000120: 0ccc 0cbe 463a 9fbe 2aa4 4cbb 6bb8 c3be
00000130: c0c3 c2bd 96b9 9cbe f4bf 2ebd 0ac4 a53b
00000140: 7066 2abc 280d cdbe 2ddf 29be a3d5 663e
00000150: 03c3 1dbd 0e1e f6bd cd81 fabd a11b b8bd
00000160: 6740 3b3d 1f4b b0bd 4b20 293d 12ac 10be
00000170: 1b76 cabe a6c5 57be 3526 32be 9c3b abbe
00000180: 4059 cfbd 1070 473c 154d d43d 77b8 bebd
00000190: 43e1 2bbe 8495 1d3e fc8e eabc fd99 04be
000001a0: f9fd c5be 20ec afbd ec1e b5be aa9b 9fbd
000001b0: 661f eabe 9030 71bc 86f2 92be 7c38 94be
000001c0: ae90 cc3c 0b12 31bc 08e1 8bbe 2609 cdbe
000001d0: 0c53 f4bd f380 bdbe 03bb 61be 92d4 8abe
000001e0: c1d3 62bd 9fdd a0be 3ca9 a8be 419e 20be
000001f0: b106 a3be d114 e4bd 7108 cbbe 13a7 12bd
-0.21725897 -0.016464593 -0.26867706 -0.30623588 -0.25618953 -0.07058079 -0.051093943 -0.25124875
-0.22258013 -0.4112746 -0.36914563 -0.17607705 -0.08274696 -0.09767871 -0.06350415 -0.17641161
-0.03432524 -0.29268727 -0.420982 -0.4167984 -0.12755544 -0.24277838 -0.32989305 -0.05481622
-0.1551284 -0.31150642 -0.050308682 -0.13506441 -0.2541934 -0.1305603 -0.3440667 -0.23204648
-0.4505467 -0.028800245 -0.44308302 -0.07590169 0.016789516 -0.015168336 -0.0868534 -0.06143355
-0.29521278 -0.24659185 -0.25203526 -0.053465888 -0.16601437 -0.1553977 -0.32748133 -0.10153097
0.084696464 -0.24770337 -0.49688816 -0.004927574 -0.2468466 -0.12292473 -0.07397168 -0.10723902
-0.3875257 0.053824 -0.27655578 -0.24505705 -0.1395233 -0.26602885 -0.29265237 -0.008198852
-0.1404481 -0.07500967 -0.0792201 0.07796948 -0.3718468 -0.3226983 -0.36516634 -0.022998746
-0.13749713 -0.31099147 -0.003122578 -0.38226637 -0.095099926 -0.3061034 -0.04266353 0.00505877
-0.0104004 -0.400491 -0.16589041 0.22542433 -0.038516056 -0.12017451 -0.12231789 -0.08989645
0.045715716 -0.08608078 0.041290563 -0.1412814 -0.39543232 -0.2107149 -0.17397387 -0.33443916
-0.10124445 0.012172714 0.10366265 -0.093125276 -0.1678515 0.15389067 -0.028632633 -0.12949367
-0.38670328 -0.08589959 -0.35375154 -0.077933624 -0.4572708 -0.014721051 -0.28700656 -0.28949344
0.024971332 -0.010807524 -0.27320123 -0.40046042 -0.119299024 -0.37012443 -0.22043996 -0.27115303
-0.055377726 -0.31419083 -0.32941616 -0.15685369 -0.31841043 -0.11136783 -0.39654878 -0.035803866

model.3.weight f4 [128, 128]
00000000: 564f 0f3d 3fc2 ca3c 10ab 983c 7e08 4e3c
00000010: f963 1bbd 4d49 9c3d 9fd7 c23c cd46 413d
00000020: 91e2 653c c27c 933c 981e 383d d6f2 113d
00000030: 108f dbbe 8c70 0f3d d9ff 883a bc18 3d3d
00000040: fb4c 5d3d cad0 323d 8522 04be fa59 93ba
00000050: b61c 2abd 2f70 53bd 1dc1 043d 48ca 9fbd
00000060: b950 cd3c 9ddf 803a 0445 153d 77e1 96be
00000070: d8d2 95bd 8809 5a3b ae30 1d3b 4ba0 efbc
00000080: 8b45 04bd b38d 453d fae4 aa3a 9362 8a3d
00000090: 5a9b a83c 5232 8a3d 4c74 3c3d f15e ad3c
000000a0: c9d5 953d 71eb 6a3c 0bfd 0c3d fccc 823d
000000b0: 7031 81bc e933 f03b 5f09 ac3c c873 e6bc
000000c0: 2b36 06bb 6e03 b13d 9b47 bb3c ad5d 57bb
000000d0: 3d57 0abf 786b 503d 0963 b93d 0be4 dfbd
000000e0: 02a0 5d3c b651 7dbc 2c84 063d b75a 0d3d
000000f0: 912b 85bc 6e37 1d3d 1245 1ebc 4e84 33bd
00000100: 19a3 58bc f637 4abd 8cc4 b63d 404a 1bbd
00000110: b2ee 8dbd 9d07 93bc da74 85be 3bdb f53c
00000120: e40d bc3d 3973 bcbc 652f 72ba 9a64 aa3d
00000130: 1632 ee3d 0bf9 06bd d4c2 ce3b 33c9 90bc
00000140: 6ef3 c3bc 6f45 313d 0bc3 0b3d b375 983d
00000150: e91a 9d3c 57a2 e1bc c747 c53c 01bb 153d
00000160: 0336 c2bd 1476 5cbd 732f a0bb a668 093d
00000170: 152b 67bd cf64 073d 084c cbbb 88da 60bd
00000180: 7c4d 003d 80cd b4bc 9d52 593d 9092 98bd
00000190: 65f8 163d 1bac 9e3c 3bee 49bd 3b26 9e3d
000001a0: c7fc 9fbd c95a ec3c 794a 9f3c 60f8 f13c
000001b0: 0311 953d 1b3a a5bd 7ddb a7bc 612b a1bc
000001c0: aa4b db3c 528b 203d eddc 713d ad36 c93c
000001d0: d78e 063d 878b 833c da4d 2f3d fe61 023c
000001e0: 13de 30bd c530 1bbc 4a34 693d 3922 c83c
000001f0: ab02 35be 35a6 bb3a 8470 643d 42d8 a6bd
00000200: 5e73 3abc cafc 253d 515a 7dbd 96c9 aebd
00000210: 63c6 8d3c a375 90be 1619 c4bd bb77 49bc
00000220: e37c 5d3c b1ae 473d 9110 00bd 5595 c93d
00000230: 13aa 2a3d 5fcf e5bc e72b bfbc 13c5 0d3e
00000240: fb75 c43c 5c04 cebc 9257 5d3d 1ebb b33d
00000250: 8db9 3fbc 995c 193d 0c1d 6f3d 03ab a2bb
00000260: 8f1e f6bd 5774 5f3c 506d 183c 466f 7abd
00000270: 8e2b 3ebe 78c6 97bd 8208 a4bc 98a6 07bd
00000280: 5caf 07bd 64d8 dbbc f753 ab3d bc72 8e3d
00000290: 6527 64bc 8c58 103d 7cc9 a43d f42e 80bd
000002a0: 053e 173e b606 213d fd31 f03b 8e4e 933d
000002b0: 228e 6abd b7c4 b93d f6c9 0c3d f9a6 9d3d
000002c0: 4505 7ebc 6bfb eabc 4dae 8fbd 152b 49bb
000002d0: ddfb c23c 3723 9cbe eb28 8a3c 80fd b63d
000002e0: 96ca 32bd a820 a4bc 27d4 37bd a465 d9bc
000002f0: f83a 72bd 3105 7a3b f7d8 8ebc ed3d c83d
00000300: 130c edbc 3f22 2f3d 3716 3bbb 997c 50bc
00000310: 74ab 8cba 9d59 10bd 3cbe bc3c 7f32 0ebd
00000320: 119d 0b3d 7457 f13c d23f a63c d3e3 b03d
00000330: 435c ec3b 7ff4 983c 68be d83c 4b5c 81bd
00000340: 9f11 153d df66 c23d 936f 8cbb 0205 0bbd
00000350: 03cc 35bd 42db b4bc 8975 123d ac41 263d
00000360: 6903 03bd 74ea 323e 193c 743c 5cf3 1e3d
00000370: 70aa eabc ec47 8c3d b0a6 0f3e f462 743c
00000380: b2cb 31be 34e6 d6bc 9cf9 c9bd 354f 3bbd
00000390: a077 00bc 6d6e 533d 30c2 9cbd 3688 24bd
000003a0: de93 873b 74af 34be 07ff fd3d 77b2 53bc
000003b0: 21ab abbb 8443 6bbc 1bdc 423d 4436 45bd
000003c0: 174e d23c 86e5 0fbd db4c 31bd 48c6 b9bd
000003d0: 4e3e ad3d a9ae 90bd 7c08 2e3c b43e a63d
000003e0: 95c0 983a 1654 f33d 633c 79bd 9cef f33b
000003f0: 7628 a4b9 6c45 fd3c a71b 51bd 2fe8 b8bd
0.03498777 0.024750827 0.018636256 0.012575267 -0.03793714 0.076311685 0.023784457 0.04718666
0.014031068 0.018003825 0.04495105 0.035631977 -0.42882586 0.035019442 0.0010452225 0.046166167
0.054028492 0.043656148 -0.12903793 -0.0011242025 -0.041531287 -0.05162066 0.03241073 -0.07802254
0.025062906 0.0009832267 0.03644277 -0.2946889 -0.07315606 0.0033269841 0.0023985314 -0.029251238
-0.032292884 0.048230838 0.0013038211 0.06757083 0.02058189 0.06747879 0.046009347 0.021163436
0.07316167 0.01433836 0.034421008 0.06386754 -0.015770644 0.007330407 0.021000562 -0.02813138
-0.0020479064 0.08643232 0.022861293 -0.0032862232 -0.54039365 0.05088374 0.090520926 -0.109321676
0.013526918 -0.015461376 0.032840893 0.03451034 -0.016256126 0.03838294 -0.009660022 -0.043827347
-0.013222479 -0.049369775 0.08924207 -0.037912607 -0.06930293 -0.017947966 -0.26065713 0.030011764
0.09182337 -0.023004161 -0.000923863 0.083199695 0.11630647 -0.03295235 0.0063098464 -0.017674064
-0.023919787 0.043279108 0.034121554 0.07444324 0.01917787 -0.02754323 0.024082078 0.036555294
-0.09482958 -0.053823546 -0.004888469 0.033547066 -0.05643757 0.033055123 -0.006204132 -0.054895908
0.031323895 -0.022070646 0.0530573 -0.074498296 0.03685798 0.019369176 -0.04929946 0.07722136
-0.07811885 0.028851883 0.019444691 0.02953738 0.07278635 -0.08067723 -0.020490402 -0.019674005
0.026769478 0.039195366 0.059048582 0.024562204 0.032851066 0.016057743 0.042798854 0.0079579335
-0.043180536 -0.009472077 0.056934632 0.024430381 -0.17676799 0.0014316501 0.055771366 -0.08146717
-0.011380045 0.04052428 -0.06185371 -0.08534543 0.017306512 -0.2821475 -0.09575097 -0.012296612
0.013518545 0.048750583 -0.0312658 0.09842936 0.0416661 -0.028052984 -0.023336364 0.13844709
0.023982039 -0.025148563 0.05403859 0.08775924 -0.011701954 0.037441824 0.05837731 -0.004964234
-0.12017547 0.013638577 0.009303406 -0.061141275 -0.18571302 -0.07410902 -0.020023588 -0.03311786
-0.03312622 -0.026836582 0.083656244 0.069554776 -0.013925408 0.035240695 0.080462426 -0.062589556
0.14769752 0.03931304 0.007330178 0.071927175 -0.057264455 0.090707235 0.034372292 0.07697863
-0.015504186 -0.028684339 -0.07015667 -0.0030695845 0.023801738 -0.30495617 0.016865214 0.0893507
-0.043650232 -0.020035103 -0.04488006 -0.026537724 -0.05913827 0.0038150067 -0.017437441 0.097774364
-0.028936421 0.04275727 -0.0028547177 -0.012725019 -0.0010732249 -0.035241712 0.02303993 -0.034716126
0.034085337 0.029460646 0.020294104 0.08637204 0.007213147 0.018671272 0.02645798 -0.063164316
0.036393758 0.09492277 -0.0042857616 -0.033940323 -0.044384014 -0.022077207 0.03575662 0.040589973
-0.031985674 0.1747225 0.0149069065 0.038806304 -0.028645724 0.068496555 0.1402843 0.01491617
-0.1736286 -0.026232816 -0.09862062 -0.045729835 -0.007841021 0.051618982 -0.07654226 -0.040168963
0.0041375 -0.17645055 0.12402158 -0.012920967 -0.005238906 -0.014359359 0.04757319 -0.048147455
0.025672002 -0.035131 -0.043286186 -0.09071022 0.08459149 -0.07064564 0.01062214 0.081174284
0.0011654074 0.118812725 -0.060848605 0.007444335 -0.00031310663 0.030916892 -0.051051762 -0.090286605

model.3.bias f4 [128]
00000000: 1fbd 4dbd 3d0e f7bb b853 ca3c e97b 023d
00000010: c8a2 29ba c3a5 24bd bc3d 58bc e7ed 4b3d
00000020: 3b01 77bd ed05 e3bd 98fa 55bc 99ee 80bd
00000030: 962d 51bd d61a 0e3d 4d87 d4bd e07b 163d
00000040: 01a7 863b 8664 2abc 7300 913c b8f8 81bd
00000050: 660c 053d 3ebc e73b 2846 60bc 997a 2cbc
00000060: 6db6 733d 165d 07bb 530b 88bd 1a1b 293d
00000070: a50c bebc 967a d9bc 90b3 a73a 04e9 913b
00000080: 1539 283d e32a 12bc 1987 59bd 3317 50bd
00000090: 166a b63c 4d97 ed3c 7926 86ba 5612 55bd
000000a0: 6425 b5bd 5112 5bbc 8b2a 823a 340e 7e3c
000000b0: c6be 20bc 9aba 273d 7a12 d33c b45f 243d
000000c0: 269e a53c 0e5d e3bc 0727 8abd 2433 593b
000000d0: 71f5 cebc d29a 873c 99de 173d d7e6 ec3c
000000e0: c707 3c3c 5fef 82bd 8f14 6a3c 818f 7d3b
000000f0: bff4 b13c 306d b83c c679 b73c 7db0 6abd
00000100: 717d 0a3d 143a df3c 883c 6ebc 931f 0cbd
00000110: 4956 113c 23a9 d9bc 9115 cc3b 13f0 6e3d
00000120: 9aca c03c 172f 87bc 3fbe 293d b92f 323d
00000130: 17a4 99bd a134 2f3d 97de cdbc d3f7 1d3d
00000140: 5e26 ad3c 2b47 7ebd 3738 003d 1eca 1b3d
00000150: cb4c 0e3c cb37 773c 6a2c 86bc 1f04 14bd
00000160: 9f96 dd3c 5345 bc3b 5e68 523d 58cf 2abd
00000170: c764 183d 69d6 4a3d 4ef3 e83b 84cd 153d
00000180: a8ec 933c d1b4 a53c ea5c e43c 88d2 6d3c
00000190: 023b 203d d948 363c bb20 173d 8c29 8b3a
000001a0: e8c9 8bbd 6f97 d63c 661a c23c ba82 243d
000001b0: a09d 463b a3a0 b23d d494 243d b1bc 8b3c
000001c0: 9553 9ebc 38a4 1e3c f074 9cbc b88f 043d
000001d0: 8e4c 543c 773d ec3c 514e d3bb 1976 81bd
000001e0: ed28 733d 5033 6fbd a24a 76bd c71d b4bc
000001f0: 2d88 2e3b 7151 343d 6838 07bd f189 d03a
-0.050229188 -0.007539539 0.024698123 0.03185645 -0.00064710947 -0.040197145 -0.013198312 0.04978743
-0.060303908 -0.11085115 -0.0130602345 -0.06295509 -0.051068865 0.03469356 -0.10377369 0.03673923
0.004109264 -0.010399943 0.01770041 -0.063462675 0.032482527 0.0070720008 -0.013688602 -0.010527276
0.059500147 -0.0020654849 -0.06642785 0.04128561 -0.023199389 -0.026547711 0.0012794603 0.0044528265
0.041070063 -0.008921358 -0.053107355 -0.050803374 0.022267383 0.02900281 -0.0010234854 -0.05201944
-0.08845022 -0.013371066 0.0009930892 0.015506316 -0.009811109 0.04094944 0.025765646 0.040130332
0.020217013 -0.027754333 -0.06745725 0.0033142054 -0.02526352 0.016553316 0.03707752 0.028918667
0.011476464 -0.06393313 0.014287128 0.0038690271 0.02172315 0.022513002 0.022396933 -0.05729722
0.033811036 0.027249373 -0.014540799 -0.0342098 0.00887067 -0.026569908 0.006228157 0.05833442
0.023534108 -0.016501946 0.0414412 0.043502543 -0.07502001 0.0427748 -0.025130553 0.03856642
0.021136459 -0.06207959 0.03130361 0.03803455 0.008685301 0.015088986 -0.0163786 -0.036136743
0.02704936 0.005745569 0.051369064 -0.041701645 0.037205484 0.049520884 0.0071090823 0.036572948
0.018057182 0.020227822 0.027876336 0.014515527 0.039118774 0.011125767 0.03689645 0.001061724
-0.0682562 0.026195256 0.023694228 0.040163733 0.0030306354 0.08722045 0.040180996 0.017057749
-0.019326964 0.0096827075 -0.019098729 0.032363623 0.012957705 0.028837902 -0.006448545 -0.063213535
0.0593652 -0.058398545 -0.06012977 -0.021986855 0.002663146 0.04402298 -0.033012778 0.001591025

model.6.weight f4 [128, 128]
00000000: 865d 993c 979e 5c3d b18e 63bd 5000 2dbd
00000010: d6db e03c 127f 11bd fdea aa3c 6b30 22bc
00000020: afa2 c13d ab6f 663d d142 7dbd 3d1a 0fbc
00000030: 343b 4cbc ded6 06bd ce52 20be a51c 263d
00000040: a3f5 aa3d 3f6c 603d 7329 cb3b 30d7 443c
00000050: aba7 81bd a22a 6fbc 36a0 14bd e105 2cbd
00000060: 5673 5c3d 14f9 8e3c c132 093d 312b 343d
00000070: ec01 263e 405b 743e 9b82 053b 7c30 6e3d
00000080: 3ee8 8cba 6bac 0fbb bf50 90bc fe77 693d
00000090: 222e 433d fb10 4f3d ee9c 72bd d282 a03d
000000a0: fdc3 1cbe d70d b33c 46ec 8a3d c5de 60b9
000000b0: 61b5 303d 43dd b53d 0a3a 57bc 18ae a33c
000000c0: c53a 22bd ae3b 7ebd 1c68 6f3d a43b 1bbe
000000d0: 79c5 af3c 8bb7 7a3d 7766 0d3d 4f06 713c
000000e0: 050a be3d 7f9a dc3c f922 01bc 6594 8bbc
000000f0: d9fd cfbe 6d11 afbc 71cd 593c a3c9 f3bd
00000100: 3ae0 95bc e145 19bb c0dd c13c 0c7b 97be
00000110: d636 0b3d 71b5 5abd 7c6a 1bbd 781d 4a3d
00000120: 5301 d63c 29cf a23d ba83 3bbd a143 6d3d
00000130: 4814 a93d 89e3 d7bc 9286 23bf 1a08 6e3d
00000140: c314 ca3c 6308 623c 6ea1 fcbe 2eb7 47bc
00000150: 3b8a fa3b 60f3 6cbe 04f1 803c 191c 16bc
00000160: 344b 4b3c e5bd d43c f000 d9bc 198a d43c
00000170: 7f61 b13c 7eca 873c cb33 58bc c8c6 babe
00000180: b147 91bd 4f10 8cbd 8617 e4bc c778 9ebc
00000190: cbf2 40bd 91cb 593d 97eb 8f39 11cc 11bd
000001a0: 65b6 253c e26c fabc b7a4 27be 09ef 8d3d
000001b0: bb85 4c3c 1552 c33c 4791 613d 8cf3 1bbf
000001c0: 5a8a 5a3d 0556 20bd 581e 4cbb 81ef e33d
000001d0: 6b28 05bc b0ba 0dbd 1ebf eebc a691 873d
000001e0: 4d7b c8bc a1de 523d 7515 9f3d 0382 763e
000001f0: 38a8 233b 09ef 38bb 6e2a 31bc 6ad5 c5bc
00000200: d71e 76bd 0a58 10bd 1fed 323c 0f82 d73c
00000210: 39de 14bd aa49 233d f874 2bbd 5977 21bd
00000220: d9f8 f3bd 4814 353d 3377 30bd b00d 79bb
00000230: db63 64bc d6d5 823d 8db3 34bd c418 803d
00000240: 2b25 733d 83bc d63a 4da9 b6bd c221 ccbd
00000250: 2061 08bd 010a 82bd cb5b 68bc b185 61bc
00000260: 9307 9bbe 6e40 e73c ce0c 8ebd 7a08 bc3d
00000270: fa29 f23d 030f ad3d 48c4 043d 5de7 3e3d
00000280: 78e0 363d 589c 8d3c 9885 0abe 880f 8b3d
00000290: 8879 bebb 1634 8bbd ed90 aebc 6e79 283c
000002a0: 213f 99bc e71f e6bd 268d 7fbd 85d7 893d
000002b0: db99 523d 1fac eb3a af13 003d 97c1 f43c
000002c0: 6e94 15bd 9fa1 20bc 3745 483d 2ec6 7f3d
000002d0: 1b9e 5ebd 2771 64bc cf44 86bd 751e f9bc
000002e0: 1b43 003d 5a76 bebc 8291 e4bd 1dbb f4bc
000002f0: 651a b63d 4adf 2f3d e1c3 aabb 82fb 22ba
00000300: 6eb6 e53c a32e dc3c 38da 06bd c170 833d
00000310: 143f 4fbd 8ac0 b13d 3b46 7ebb 90e8 3cbd
00000320: 95a4 f5bb 5577 9f3b 3e3d 04be b20c 7bbe
00000330: 7aa9 8f3d d3af 78be 18c2 3439 66fd 1e3d
00000340: 7f2f 48bd 9aef 8b3d 67e3 443d 9c16 f13c
00000350: 6fcd aabc 6e20 943d b639 243d fb92 af3a
00000360: dbab 963b 03e4 ecbe 4fb2 c8bc 3d9a 7d3d
00000370: 8ecb 1a3d 665e 4f3d 5429 f03b af53 193d
00000380: 9752 65bd c4ef 5b3c e8cb 8d3d 3f76 1b3d
00000390: b7a1 773c 4449 be3b 11e9 47bd 85af b33c
000003a0: 53ee 343d 607d c4bb 4476 163d f6a6 78bd
000003b0: 4b52 5d3c bd07 2cbd b6b2 7cbd f8a8 223d
000003c0: 2975 973d 2fc1 c8bd 557c e9bc 2924 373c
000003d0: 0bba ccbc 9bdb 79bd a36e acbd 0624 6dbd
000003e0: f8a4 e9bb 0ba6 543d 9049 253d d4a4 833e
000003f0: 354d ce3c 363a ddbd 0d66 48bc a755 723d
0.018721353 0.05386218 -0.055556003 -0.042236626 0.027448576 -0.035521574 0.020864004 -0.009899239
0.094548576 0.05625884 -0.0618313 -0.008734283 -0.012465287 -0.032919757 -0.15656587 0.04055466
0.08347633 0.05479073 0.0062000095 0.012014195 -0.06330808 -0.014597567 -0.0362856 -0.041997794
0.05382093 0.017452754 0.03349567 0.043986503 0.1621167 0.23862934 0.0020372036 0.058151707
-0.0010750366 -0.0021922837 -0.017616628 0.0569992 0.047651418 0.050553303 -0.05923169 0.07837452
-0.15309139 0.021857185 0.06783347 -0.00021445293 0.043141726 0.08880093 -0.013136396 0.019980475
-0.03960683 -0.062068634 0.058448896 -0.1515947 0.021456467 0.061210196 0.034521546 0.014710977
0.09279255 0.026929138 -0.007881873 -0.017038533 -0.40623358 -0.021370614 0.01329361 -0.119036935
-0.018295396 -0.0023387598 0.023665309 -0.29586065 0.033987843 -0.053395692 -0.03794335 0.04934451
0.026123678 0.07949669 -0.04577992 0.057925824 0.082558215 -0.026353614 -0.63877213 0.058113195
0.024668103 0.013795945 -0.4934191 -0.01218967 0.007645873 -0.23139715 0.015739925 -0.009161972
0.012408067 0.025969455 -0.026489705 0.025944756 0.021652935 0.016576048 -0.013195942 -0.36479783
-0.07093752 -0.06839048 -0.027843248 -0.0193447 -0.047106545 0.05317265 0.00027450614 -0.035595004
0.010114287 -0.030569497 -0.16371427 0.06930358 0.012483056 0.02384285 0.055070188 -0.609185
0.0533546 -0.039144535 -0.0031146016 0.11129666 -0.008127312 -0.034601867 -0.029143866 0.06619577
-0.024472857 0.051481847 0.077677645 0.24073033 0.0024972092 -0.0028218648 -0.010813339 -0.024149615
-0.060088005 -0.03524021 0.010920792 0.026307134 -0.03634474 0.039865173 -0.041859597 -0.03942046
-0.11912698 0.044208795 -0.043082427 -0.0038002543 -0.013939823 0.06388442 -0.044116545 0.06254724
0.059361618 0.0016383085 -0.0891901 -0.09967376 -0.03329575 -0.06349564 -0.014182041 -0.013764785
-0.30279216 0.028228965 -0.06936036 0.09181304 0.11824413 0.08450129 0.03241375 0.046607364
0.044647664 0.017286465 -0.13527524 0.06790072 -0.0058128275 -0.06797044 -0.02130934 0.010282857
-0.01870686 -0.11236554 -0.06239047 0.0673056 0.05141626 0.0017980373 0.03126877 0.029877467
-0.036518507 -0.0098041585 0.048894133 0.06244486 -0.05435 -0.013942993 -0.06556093 -0.03041003
0.031313997 -0.023249794 -0.11160566 -0.029874379 0.08891753 0.042937554 -0.005211339 -0.0006217287
0.02804109 0.026877707 -0.032922953 0.064179905 -0.050597265 0.08679302 -0.0038799185 -0.046120226
-0.0074964263 0.0048665204 -0.12913987 -0.24516562 0.07014747 -0.24285822 0.00017238443 0.03881588
-0.04887342 0.0683281 0.04806843 0.029429726 -0.020849911 0.07232748 0.0400941 0.0013395244
0.0045981235 -0.4626771 -0.024499087 0.06191467 0.03779178 0.050627135 0.0073291454 0.037433323
-0.055986967 0.013423864 0.06923658 0.037954565 0.015114239 0.005807074 -0.048806254 0.02193428
0.044172596 -0.005996391 0.03673388 -0.0607061 0.01350839 -0.041999567 -0.06169387 0.039711922
0.073953934 -0.09802472 -0.028501669 0.011178055 -0.024991056 -0.061000448 -0.0841954 -0.057895683
-0.0071302615 0.051916163 0.040353358 0.2571169 0.0251833 -0.108021185 -0.012231362 0.059163716

model.6.bias f4 [128]
00000000: 53cc c33d 3f78 393e a681 193e 568e 0f3e
00000010: 0df9 723e d467 743e 60ed 093e 71b0 843e
00000020: 776c 393e e45f 633e 97c3 393e e678 253e
00000030: 8ff6 763d 4423 393e 466d 743e deb1 5f3e
00000040: 7ae5 d73d 3d05 4f3e f712 483e c0cd 223e
00000050: f5ec 2a3e b026 873e ab85 123e 10b9 623e
00000060: ee84 1b3e 1727 2c3e c0d9 363e 9af5 d93d
00000070: 3ed7 583e d6cc 2c3e d694 223e 250b e63d
00000080: 354d 4c3e 7f93 313e 2a18 363e d337 a83d
00000090: 7d30 3e3e 2ebc 593e a5cc 323e 642b 423e
000000a0: 75c2 473e 770a 4d3e 05f4 2c3e 8595 193e
000000b0: a1d7 513e 3c54 103e 91b7 4f3e 9b46 4e3e
000000c0: db2c 1f3e 2188 3e3e fb8f 093e a9bd 1e3e
000000d0: 2afe 463e fbc4 3d3e c1b3 153e 5412 2f3e
000000e0: e4e6 7d3e e80d 383e 7646 0d3e e582 c43d
000000f0: c14a 023e 99c3 813e 9f89 323e a13c 613e
00000100: 8480 3f3e 7fff da3d 6bd9 7d3e 99c7 353e
00000110: fad1 233e c813 513e f4b5 773e 296b 2a3e
00000120: 4544 423e b9ce 813e e881 233e 9666 2e3e
00000130: 2a7b 5b3e 7a12 c33d 7699 dd3d e866 333e
00000140: 00f3 9e3d 1480 e03d 9bbd 0f3e 240b 0d3e
00000150: 2fd9 c33d 5b1a 5b3e 0192 773e 624a 323e
00000160: 61e3 523e c0df ba3d b5a2 4b3e 9c36 1a3e
00000170: 2dcf 363e 15fa 5f3e 5d6f 2d3e 8c45 d93d
00000180: 98a4 3e3e 3a8a 263e 6e79 663e ccbc 4f3e
00000190: d251 fd3d 799f 4d3e e076 203e d648 603e
000001a0: 4b1f fd3d ccc7 1a3e 120e 223e b373 e83d
000001b0: a3d9 1f3e 93fd 373e 514f 233e 5133 5b3e
000001c0: 2c30 463e 9f6d 333e 2270 523e 0e89 2a3e
000001d0: 8853 0e3e d96e b0bd 1595 413e 27bd e13d
000001e0: 5aaa 3e3e f3ad 223e 9c7c 333e c7ca 653e
000001f0: f7a5 153e 2e2c 213e 90fe 6f3d 0fa4 fd3d
0.09560456 0.18112276 0.14990863 0.1401914 0.23727818 0.23867732 0.13469458 0.25915864
0.18107782 0.22204548 0.18141018 0.161594 0.06029373 0.18079859 0.2386981 0.21845195
0.10541816 0.20216842 0.19538485 0.158988 0.16691954 0.26396704 0.14308803 0.22140908
0.15187427 0.16811787 0.17856503 0.10642548 0.21175858 0.16875014 0.15877089 0.112325944
0.19951327 0.17341422 0.17782655 0.082137726 0.18573184 0.21263191 0.17460878 0.18961865
0.19507773 0.20023523 0.16889961 0.14998443 0.20492412 0.14094633 0.20284869 0.20144121
0.15544455 0.18606617 0.1343383 0.15502037 0.19432893 0.18532173 0.14619352 0.17096835
0.24795109 0.17974055 0.1379641 0.09595279 0.12723829 0.25344542 0.17435311 0.21995784
0.18701369 0.10693263 0.2478997 0.17751922 0.15998068 0.20417702 0.24190503 0.16642441
0.18971355 0.2535303 0.15967524 0.17031321 0.21433702 0.095250085 0.10820286 0.17519724
0.07761192 0.10961929 0.14037172 0.13773781 0.09562909 0.21396773 0.2417679 0.17411187
0.2059455 0.09124708 0.19886287 0.15059894 0.17852469 0.21872742 0.16937013 0.10608968
0.18617475 0.16263667 0.22507259 0.20286864 0.123691216 0.20080365 0.15670347 0.21902785
0.12359484 0.15115279 0.1582568 0.11350193 0.15610366 0.17967825 0.15948226 0.21406294
0.19354314 0.17522286 0.20550588 0.16653845 0.13899052 -0.086148925 0.18904527 0.11022406
0.18619671 0.15886669 0.17528003 0.22440635 0.14614092 0.1573951 0.05859238 0.12384807

model.9.weight f4 [3, 128]
00000000: 9e92 bcbd 5b7b ce3d 2fb2 75bd 95c6 bb3d
00000010: af74 7abd 950c f93c 524d b13c 661d 303d
00000020: 7e0b 3abd 7588 28bd 095b ab3d 0fce 0b3e
00000030: 500a 403d 04c7 ed3d 4755 2c3d 6700 113c
00000040: ccf9 bfbd 5b42 68bd 815d 4b3d 9c15 723d
00000050: fc72 65bd ba47 a83d 4340 bb3b b475 b63d
00000060: c87f ddbc 6b7f d0bd 0581 d2bc 3ef6 123c
00000070: 8d68 babd 0f92 de3d e869 98bd 3a26 32bd
00000080: 8ed9 a03d 94fe 453d 2c20 c83c e816 8ebd
00000090: 4b37 84bd ecd6 d8bc 2b99 aebd b20d be3d
000000a0: 0b7c 15bd f525 4cbd 7883 69bd a1df 98bd
000000b0: 691e 73bd b797 cf3d 104d 19bd a688 91bd
000000c0: ec81 a63d dccc 963d fdca e33c 285f 063e
000000d0: 7c0b 733d b436 e93c e2b9 f63c 7105 1b3e
000000e0: a827 473d b26c 96bd 258d cdbd 8d7f af3c
000000f0: 8ffa a4bd d686 843d 1073 af3d 3716 08bd
00000100: 1bc6 36bd bf8e 493c cd2a af3b a628 97bb
00000110: 29c3 93bd c7a1 0b3e efdd 37bd ee57 2a3d
00000120: f9cb 063e 78d6 61bd 676c d4bd bec1 a8bd
00000130: 85af 9fbd 6798 53bd 5fb1 94bd 461b d03d
00000140: 30c4 083d ce24 bdbd 24c6 0e3e 49d0 bfbd
00000150: 0c43 d63c b0ac 713d f0b8 34bd 4e57 ee3d
00000160: 4e18 f6bc 2c85 0cbc a51f 883d 303b 15bd
00000170: 53a8 02bd 0b9b 423d 078e 93bd 6745 bf3d
00000180: 84a3 90bd a9ba 10bd b15c 85bd c7bd e73d
00000190: d1e2 cc3d 4a7e 2fbd bad5 d3bd 9ed5 2cbd
000001a0: 6f7e abbd f49f 953d 4f8e c23d c6d0 093d
000001b0: e9f1 e3bd c917 a23c abbd 0a3d 5438 f5bc
000001c0: 624f 303d 37ad a7bd 7d90 14bd 4945 c4bd
000001d0: 44f6 3fbd bd2a 813c bf9a e53d 734b 26ba
000001e0: 3873 333c f2a1 bf3d 8e57 78bb 5e43 d63d
000001f0: 78d3 e63d 06fc df3d 904f 10bd 35d3 d9bd
00000200: 3c23 bb3d b9b1 5f3c 2dcb c3bd 608c 8d3d
00000210: 6585 8fbd 331c 87bd 0746 753a c458 483d
00000220: 2cde 57bc ff23 373d 705e 973d 8dfe 213c
00000230: 8715 ccbd af11 9d3d 4383 babd 7d3f 75bd
00000240: 211d b3bd b4aa 913d 5d30 0f3d 32a5 b63d
00000250: 29ec 53bb c120 553d fca9 763c fa2f 813d
00000260: 08a7 043d 39f5 a23c 880b e3bd dac7 db3d
00000270: 3d1c 5ebd 3d92 a6bd f0b6 c03d 49b5 e2bd
00000280: ebfa 053d 44a0 de3d 66f6 833c b4e8 ab3d
00000290: 848e d4bd aadf 06bd 39f5 e7bc 1c33 433d
000002a0: 5367 853d 0239 8c3d 1251 8d3d 9782 c53c
000002b0: 8e51 36bd 222c c93d 3096 b13c cdb6 763d
000002c0: b159 9bbd 6a51 bc3d e0bd 8f3d e3dc 2fbd
000002d0: f987 843d 513a d4bd 639c efbd 69d5 a0bc
000002e0: ce69 95bd 075b 72bd e1a8 763d 17fc fd3d
000002f0: 6eba 823c c17f 91bd 8784 8cbd f5c6 ffbc
00000300: 6b55 2fbd 322c b2bd 6ccf 473d d588 cb3d
00000310: 65b1 2c3d edfd 203d 988e bdbc 61c8 04be
00000320: 800d 1e3d 575d 2fbd 9f23 8dbc fdc5 17bc
00000330: 583f 2cbd 093e 6b3d 91b1 8dbd e70a 09bd
00000340: e01d 093e d06b bcbc 2f32 52bd eb76 953d
00000350: f7e4 16be ad1b e2bd f666 63bd 3e3e 733b
00000360: 89dc 7c3d 1c08 9c3d 9a04 bf3d 71b9 0fbb
00000370: 5246 883d a4f8 b93d 2db3 163d 30e6 e0bd
00000380: 4c06 7bbd a456 083d ff43 2abd 9979 95bd
00000390: f828 8ebd ae6d 30bd cc59 083d 1a1d eebb
000003a0: fcb1 a83c 6651 d6bd c6ac a53d 20d7 a2bd
000003b0: bd4e 223c 6f1b da3d 2390 c1bd a5ae 0c3d
000003c0: 9082 d03d 0a00 20bd c967 bdbd 1967 80bd
000003d0: 22e6 b63d 7376 d0bc 20dd e1bb e513 153d
000003e0: 70f7 e2bd eb0f b2bd d5f1 bc3d fa1a 53bd
000003f0: 3f83 4e3d e8ca 083e b337 0e3e 05a8 733c
-0.092076525 0.10082122 -0.059984382 0.09168736 -0.061146434 0.030401507 0.021643315 0.042996787
-0.045421116 -0.04114576 0.08366973 0.13652824 0.046884835 0.11610225 0.042073514 0.008850194
-0.09373817 -0.056703907 0.04964972 0.05910264 -0.05601786 0.08216806 0.0057144477 0.08909169
-0.02703847 -0.10180553 -0.025696287 0.0089698415 -0.09101973 0.10867702 -0.07442075 -0.043493487
0.07853995 0.048338488 0.024429403 -0.06937963 -0.06455859 -0.02646967 -0.08525308 0.09279956
-0.03649525 -0.049840886 -0.057010144 -0.07464529 -0.059355173 0.10136359 -0.03742701 -0.07106142
0.081302494 0.073632926 0.027806753 0.13122237 0.059337124 0.028468467 0.030117933 0.15138794
0.048621804 -0.07344951 -0.10036687 0.021423126 -0.08055603 0.064710304 0.08566868 -0.03322431
-0.04462252 0.0123021 0.0053456784 -0.004613 -0.07214958 0.13635932 -0.044889387 0.041587763
0.13163747 -0.055136174 -0.103722386 -0.082400784 -0.077971496 -0.051659014 -0.07260393 0.10161452
0.033390224 -0.092355356 0.13942772 -0.09365899 0.026155017 0.05900258 -0.044121683 0.11637746
-0.030040886 -0.0085766725 0.06646661 -0.0364334 -0.031898808 0.04751114 -0.07204824 0.09339409
-0.07062438 -0.035334263 -0.0651182 0.11315494 0.10004199 -0.042845048 -0.103434995 -0.04219591
-0.08373725 0.07305899 0.094997995 0.033646367 -0.11130125 0.019786732 0.033872288 -0.029934086
0.043044455 -0.08187335 -0.036270607 -0.095835276 -0.046865717 0.01576745 0.11211156 -0.000634364
0.010952763 0.093570605 -0.0037893984 0.10462068 0.11270803 0.109367415 -0.035232127 -0.10635988
0.0913758 0.013653212 -0.09560237 0.0691154 -0.07007865 -0.065971754 0.0009356443 0.04891278
-0.0131755285 0.044712063 0.073910594 0.00988735 -0.099650435 0.076693885 -0.091070674 -0.059875
-0.0874579 0.07112637 0.034958232 0.08918227 -0.0032336807 0.05203319 0.015055176 0.06307979
0.032385856 0.019892322 -0.11086184 0.10731478 -0.05422615 -0.081333615 0.094098926 -0.11069734
0.032709997 0.10870412 0.016108703 0.08393994 -0.10378745 -0.032928146 -0.028315173 0.047656164
0.06513848 0.06846811 0.069002286 0.024110122 -0.04451137 0.09822871 0.02167806 0.060232926
-0.07585467 0.09195216 0.07018638 -0.042935263 0.06471247 -0.103626855 -0.1169975 -0.019633012
-0.07295571 -0.05916884 0.06021965 0.12401598 0.015958037 -0.07104445 -0.06861215 -0.0312228
-0.04280607 -0.08699836 0.048781797 0.09938208 0.042161364 0.039304662 -0.023139283 -0.12967063
0.038587093 -0.042813625 -0.0172289 -0.009263513 -0.042052597 0.05743221 -0.06918634 -0.033457663
0.13390303 -0.023000628 -0.05131739 0.072980724 -0.1473578 -0.11040435 -0.055518113 0.0037115957
0.061733756 0.07618734 0.093270496 -0.00219306 0.066540375 0.090806276 0.03679197 -0.10981405
-0.061285302 0.033285752 -0.041568752 -0.072985835 -0.06941408 -0.04307335 0.033288762 -0.007266653
0.020592682 -0.10464744 0.080895945 -0.07951188 0.009906468 0.10649764 -0.0945132 0.03434624
0.10181153 -0.039062537 -0.09248311 -0.06269664 0.08930613 -0.025447106 -0.006892815 0.036395926
-0.11082351 -0.08694442 0.09225813 -0.0515394 0.050418135 0.13358653 0.13888435 0.014871602

model.9.bias f4 [3]
00000000: f165 c83c 14f6 2dbd ee02 8d3c
0.024462672 -0.042471007 0.017213311
