exported_models/trained_models_V3/mlp_dynamics_v3.pth (torch, 73909 bytes, 6 tensors)

model.0.weight f4 [128, 5]
00000000: 8761 48bf 180a 9dbe ce65 abbe a5ea 393c
00000010: 98c2 6e3b 6c6e c13e 554a ff3e 7b73 8b3e
00000020: befc 0f3b 769a db3b a177 813d 6fca 943d
00000030: 2f66 533e e622 09bb 78e8 99bb 74b7 b03d
00000040: 67e9 803c 793d af3e 52e2 c1bb bf32 38bc
00000050: 5a69 253e 12bf d13e a24c ad3e 740b 2f3c
00000060: 57cb 4c3c a8cb 5cbf 8206 e3be 7813 a13c
00000070: ebdd 0d3d 669f 37bc 8e50 0c3c da9b 22bf
00000080: 0edd 863c c79d e1bb 3fa1 72bb 5b00 ae3e
00000090: 3b38 bd3e b3a9 b23e cdbc 44bc 2e00 083b
000000a0: 3ec0 6dbf bd2e a73e aba5 9c3d 7fc9 4f3c
000000b0: a6b7 3b3c 98ae 1d3e f907 10bf 4a7f be3e
000000c0: 6851 cb3c 683d 283c 8ec7 2b3e 288e 9abe
000000d0: b2c7 e2be 6665 7b3a b82a 6bba 9b2a 873e
000000e0: 4f4d c03e a022 7b3e 2b9f 2c3c 2573 bfbc
000000f0: 4f67 51bd 1323 1c3f 6d08 45bf d3c8 4abb
00000100: 9713 d03b 53bd 27bf c458 2d3f 0cf6 ac3c
00000110: 3a83 e53b 12b1 2b3a e4a6 9bbe c6f3 a5be
00000120: 3842 8f3c ddf3 b3bb 2e9c 0f3b c410 953e
00000130: 7932 83be a59b bbbe 6ffa f63b fc29 20bb
00000140: 5338 bbbe 5c33 643d f986 c1be cbf0 f9ba
00000150: 79a1 373b 42ab 8f3d a143 8c3e 9454 b73d
00000160: 61e2 27bb a135 a43b 7a60 b13e fc4b f73d
00000170: d317 8a3c 4f3a f1bb 3d1c 0dbc 578b 6f3d
00000180: d341 9fbe 5b66 12be f2ed 8dbb 609e 82bb
00000190: 96bc 493d 7e95 3b3e 8d48 f03d 44fd 4dbb
000001a0: 6a9f 073b 74f8 4d3e 330b febe c7ae 303e
000001b0: c770 70bc 9d01 98bb cfa5 9f3c de3b a53e
000001c0: f409 f1be ab2d 6aba e932 603b a12b a53e
000001d0: 2a44 f3bd 5082 243e 60e3 9d39 a714 64bb
000001e0: 6eb6 8d3e 2e0f 59bd d3a7 683e 61ca 153b
000001f0: 79e4 a0ba 6311 dfbe 7940 233e ce82 fa3b
00000200: 241a deba 7373 cabb cbcc 3e3d 0cc3 ebbe
00000210: 7601 14bf 317c 4f3b e141 ae39 d73a 51bf
00000220: a777 a1be 64d3 ac3d 2e2a 193c 7cf4 1f3b
00000230: 4866 703d d6f8 2c3e 6bd5 863e aeb9 d63b
00000240: 5128 383b d847 943e 2093 f6bd a345 433e
00000250: 441e 68bb 02a0 a0bb 7fa2 a83e 47cc d83e
00000260: f0fb 823e 1829 27bc 6495 29bc 437b abbe
00000270: 56e7 1ebf 60d4 713e 97e3 89bb 7ce5 b5bb
00000280: 79e3 1abf 1a8e 273e 4ed3 573e 5bbc 213a
00000290: 369d 8abc fdc2 f0be b283 2fbd 03fe 9d3e
000002a0: faaf c53b edcb abba ad33 153e 9f6a 3fbe
000002b0: 1900 bc3e 4c75 123b 4640 ce3b 2856 20bf
000002c0: f65b 0c3f 941c 3c3c dbe3 53bc e885 5c3c
000002d0: 7575 05bf ae0b cabd 4385 883e 677a 623b
000002e0: 62a8 21b9 6c64 143e f36b 04bf f01d a33e
000002f0: 2526 013c e70d 163c d57d 113e b8b8 8ebd
00000300: 9848 bc3e ef6b f03a f759 41b9 ba6a fe3d
00000310: e209 0cbe 1b58 75be da98 e3ba 4cdb aa39
00000320: 3f13 9f3e 2707 d63d a4f5 cabe e864 0c3c
00000330: b5b6 7e3b 990a af3c fb75 10bf d20d 353e
00000340: e460 b03a 044c c5ba f67c 3f3e 303e 003f
00000350: 8184 593e c181 d839 f2a8 253b 0978 3d39
00000360: 7a6d a13e 0c47 3dbf 80fa 1bbb 4827 84bb
00000370: b47c b93d ce98 15bf 3259 29bf 34a0 363a
00000380: 91fe 993b 42c9 0d3e 8762 db3d 2644 f2bd
00000390: 1ee3 5c3b fa99 313b 769b 3d3d 7bd1 4b3f
000003a0: 0185 16bc e4f0 c7bb ba7d dd3b 945b 8dbe
000003b0: 1c19 e83e a5f3 cd3d dfd7 45bb 8483 dc39
000003c0: 6f45 923d ce62 c9be cbae 603e 4b56 713b
000003d0: 7449 fcbb b7b8 1b3e 75be c7be 3459 813e
000003e0: 174b 6e3b 9495 bf3a 6c95 863d 32bc 45be
000003f0: 7d47 c83e a9d4 04bc dcb5 f83a 62da bf3e
-0.78273815 -0.30671763 -0.33476108 0.0113474475 0.0036431905 0.37779558 0.49861398 0.27236542
0.0021970714 0.006701763 0.063216455 0.07265174 0.20644449 -0.0020925342 -0.004696902 0.08628741
0.015736295 0.34226587 -0.005916872 -0.011242568 0.1615347 0.40966088 0.3384753 0.010683883
0.012499652 -0.86248255 -0.44340903 0.019662604 0.034635466 -0.011207437 0.008564128 -0.6351906
0.016462829 -0.0068852636 -0.003702238 0.33984646 0.36956963 0.34895095 -0.012007904 0.002075206
-0.92871463 0.32652846 0.07648786 0.012682318 0.011457359 0.15398633 -0.56262165 0.3720649
0.024819091 0.010268547 0.16775343 -0.30186582 -0.4429298 0.00095899997 -0.0008970904 0.26399693
0.37558982 0.24524927 0.0105359955 -0.023370335 -0.051123913 0.6099102 -0.7696598 -0.0030942454
0.0063499915 -0.6552326 0.6771357 0.021113418 0.007004169 0.0006549518 -0.30400765 -0.32412547
0.01748763 -0.0054917173 0.0021913159 0.29114354 -0.25624445 -0.36642185 0.007537178 -0.0024439087
-0.3656641 0.055713043 -0.37798288 -0.0019068954 0.002801983 0.07015087 0.27395347 0.08951679
-0.002561711 0.005011276 0.34643918 0.1207504 0.016857063 -0.0073616873 -0.00861269 0.058482494
-0.31104907 -0.14296858 -0.004331344 -0.003986165 0.049252115 0.18318745 0.11732588 -0.0031431476
0.0020694383 0.20114309 -0.4961792 0.17254172 -0.014675326 -0.004638864 0.019488243 0.32272238
-0.47077906 -0.00089331967 0.0034210032 0.3225985 -0.11878236 0.16065335 0.0003011478 -0.0034802349
0.27678245 -0.052992992 0.2272027 0.0022856223 -0.0012275121 -0.43567953 0.15942563 0.0076449877
-0.0016945046 -0.0061783134 0.046582025 -0.46047246 -0.5781473 0.0031659717 0.0003323695 -0.8173041
-0.315366 0.08438757 0.009348435 0.0024407199 0.058691293 0.16891798 0.263347 0.0065528965
0.0028100202 0.28961062 -0.120397806 0.19069533 -0.003541843 -0.004901887 0.32936475 0.4234335
0.25582838 -0.010202669 -0.010350559 -0.3349248 -0.6207174 0.23616171 -0.004208039 -0.0055510383
-0.60503346 0.16362801 0.210767 0.000616973 -0.016920667 -0.47023764 -0.042850204 0.30857858
0.006032941 -0.0013107039 0.14570494 -0.18693016 0.36718825 0.0022347746 0.006294283 -0.62631464
0.5482782 0.011481423 -0.012932743 0.01345966 -0.5213235 -0.09865509 0.2666417 0.003455782
-0.00015416884 0.14491433 -0.5172722 0.31858778 0.0078826295 0.009158588 0.14208157 -0.06968826
0.36774135 0.0018342714 -0.00018439429 0.124227 -0.13675645 -0.23959391 -0.0017364279 0.00032588316
0.3106937 0.10450583 -0.39640534 0.00856898 0.0038866226 0.021367358 -0.56430024 0.17681053
0.001345661 -0.0015052562 0.18700013 0.5009489 0.21241952 0.00041295405 0.0025277701 0.00018069161
0.31528836 -0.73936534 -0.0023800433 -0.004033003 0.09056988 -0.58436286 -0.66151726 0.0006966621
0.004699536 0.13846305 0.10712152 -0.118294045 0.0033704708 0.0027099834 0.046290837 0.79616517
-0.009186984 -0.0061017144 0.0067593725 -0.2760893 0.45331657 0.10056237 -0.0030188484 0.00042059657
0.0714215 -0.39333194 0.21941678 0.0036825116 -0.007699186 0.15207182 -0.39012495 0.2526337
0.0036360675 0.0014616721 0.06571469 -0.19310072 0.3911704 -0.008107343 0.0018975097 0.374713

model.0.bias f4 [128]
00000000: e2e4 cfbe e3dc 33bf bb15 713d 6c18 15be
00000010: 6773 00bf 9f1a cabe fa14 1a3e 5c1d 05bf
00000020: 9d89 a2be bfd0 dbbe 1399 40bf a727 f8be
00000030: 81c4 f93d 2eee aebd da03 8f3e 6aff 12bf
00000040: 8647 cb3e eb4d 913e d42e 613d 2890 7d3e
00000050: 3929 aa3e 8a6b 25bf 92f8 78bd 6965 cd3d
00000060: 77e5 713d b9f6 ab3e aee1 30be 4cc1 6fbe
00000070: 0858 b73e eaa6 0abe 8c39 19bf d2fb a8bd
00000080: c17c 5bbe c619 8b3e 35ba c73d 728f 04bf
00000090: 22ec 453e f97d 5a3e b147 2e3d db3c 5a3e
000000a0: 329a 343e 90ef 04be d2e2 04bf 28d4 113d
000000b0: 5661 c43c 0ea2 3e3d 883b 2c3e c025 a23d
000000c0: 3c11 babe 2d2a babe ed2a 38bd a1d1 d33d
000000d0: e753 1fbf 475c e13b 7300 693e e0bb bd3e
000000e0: d89c c63e 1e66 553d eb1b 343e efa7 acbe
000000f0: 83d1 163e 4a50 0fbf e973 0f3e 5061 9b3d
00000100: c7bf 66be ba32 993e 0f8b e0bd a990 913c
00000110: 17aa 2b3e a02e 9ebe a9bf 9c3e 5c46 ebbc
00000120: c419 b6be 3eaa 2ebe e81d 613e 12b4 813d
00000130: 535a 413d eb97 8d3e 2594 8c3d 9987 f9be
00000140: 4978 1abe b512 51bf 36fd 1b3e 8450 0abf
00000150: 8e62 25bf fc87 4dbe cbf8 eabe 7668 99be
00000160: 1c42 c63e af3a 103e 99c6 c9be 8790 d2be
00000170: 0889 c53b e80d bb3c 497e 97be 8e38 733e
00000180: a8ed a1bc db07 7d3e a9e5 37be 9434 88be
00000190: dc0e 733d f048 bd3e 9a8d d03d 87fe 8fbe
000001a0: b64a 483e 523a 7cbe cdb7 4b3e a32b 363e
000001b0: 4624 963d 3d77 cebd e50b 28be 084d 1fbe
000001c0: 75f9 b53e 6106 64be 6648 bfbe 0706 3b3d
000001d0: 75d1 8d3e b5a4 8a3e 9ec4 183e 0536 9dbe
000001e0: 958f b83e b260 ae3e 966f a63e 1a5e 2a3e
000001f0: b52d b3be f935 0e3e d885 e63d ebc8 133e
-0.4060431 -0.7025892 0.058858614 -0.14560097 -0.5017609 -0.39473435 0.15047064 -0.51997924
-0.31745616 -0.42932698 -0.7523357 -0.48467752 0.12195683 -0.08541523 0.27932626 -0.5742098
0.39703006 0.2837976 0.0549763 0.24762022 0.33234575 -0.64617217 -0.06078393 0.10029108
0.059056725 0.33586672 -0.1727359 -0.2341358 0.3580935 -0.13540235 -0.59853435 -0.08251156
-0.21434309 0.271681 0.09752313 -0.5178138 0.19328359 0.21337117 0.04254884 0.21312277
0.17636946 -0.12982011 -0.519086 0.03560272 0.023972195 0.046541266 0.16819584 0.079173565
-0.36341274 -0.36360303 -0.044962812 0.10342718 -0.622374 0.0068774554 0.22754078 0.370574
0.38791537 0.05209934 0.17588775 -0.33721873 0.1472836 -0.55981886 0.1400906 0.0758692
-0.22534095 0.29921514 -0.10964023 0.017769175 0.16764103 -0.30894947 0.30614975 -0.028720073
-0.35566533 -0.1705713 0.21984065 0.06333174 0.04720528 0.27654967 0.06864194 -0.48736265
-0.15084948 -0.8166917 0.15233311 -0.5402911 -0.6460351 -0.20071405 -0.4589294 -0.2996251
0.38722312 0.14084886 -0.3940933 -0.4112589 0.0060282983 0.02283378 -0.29588535 0.23752043
-0.019766644 0.24710028 -0.17958702 -0.26602614 0.059340343 0.3696971 0.10183258 -0.28123876
0.1955975 -0.24631622 0.19894333 0.17790084 0.07331137 -0.10081337 -0.16410787 -0.15556729
0.35541883 -0.22268058 -0.37359923 0.045660045 0.27698866 0.27078786 0.14918754 -0.30705276
0.36047044 0.34058148 0.32507008 0.1663746 -0.3499581 0.13887776 0.112559974 0.14432113

model.3.weight f4 [128, 128]
00000000: 710c 8a3d f1c6 923e c426 c3be 2f89 2bbf
00000010: c40f 73be ab78 4d3d 673b a73c 7318 90bd
00000020: 9a1f 01be 96d7 693c 15d9 6a3b 0c66 bcbc
00000030: 4894 213c 5cce cdbd 3139 6e3b a8f7 b83d
00000040: 5785 fa3b 9895 96bc adeb 043d c3df 6d3c
00000050: afc3 e7bc ca77 d3bc 358b ed3c 392f 723c
00000060: bbe7 0c3d 8988 bcbb 7a3f e03d 9a03 51bc
00000070: 32de a9bd 3c7e 7a3d 1551 173e 0a77 9f3d
00000080: 3a6d 28bf d7d5 fbbc d620 c9bc 53e7 c0bd
00000090: a5e1 13bd daec 3e3b d740 d3bd 52ee 2fbd
000000a0: a78c b43c f257 d83d 6143 42be 40ea 0e3c
000000b0: f94c 883d bad0 353e 164e 36bc d6a4 b5bd
000000c0: b0a7 493c ccf9 003b 3890 99bd 166e 233d
000000d0: d125 f83c a429 c03c 94f6 0ebd 89b0 68bc
000000e0: 47c3 3fbb a6cc 9b3d 5807 163d 7323 8dbe
000000f0: af28 1c3d ba33 f83d 6653 213d af43 1c3d
00000100: 8415 12bf 4e1f c33c bec1 87be 3d25 a0bd
00000110: 37e9 adbd 6d0a b2bd 06f3 28bb 38c4 5abe
00000120: 8dfb c33d dbf8 9ebd c073 a3bd 0ba0 c23b
00000130: ff99 24be fc10 c73b 4703 813d 22b9 ea3c
00000140: aa2e 0f3e f4a5 cf3e 5e70 403d a712 58be
00000150: ba57 9b3c fde3 ba3d 64c0 603d 02bb a03c
00000160: 2c1a 92bc a153 1dbd a99e 40be 88fd abbc
00000170: 6d3f adbb 7140 e73b e9c8 d1bd 7187 a33b
00000180: a623 95bd 651c c8bb 3254 e23d 3a12 3f3d
00000190: f97c b1bb ac76 bd3c 33a1 2cbc 88a4 58bf
000001a0: 40c4 bebc 720c 88be 534b efba b5c2 413d
000001b0: 6fb5 933d 439e cc3d 5e53 823e 2614 99bd
000001c0: f8bd 67bc 1cc7 053d c36c 8fbe bebd 93bc
000001d0: fefe 05bd 0475 3abc 2a43 cfbc 5756 073d
000001e0: 615c e1bb 1a93 ea3a 0c21 3abd 70b3 923c
000001f0: 58f7 f4bc 9e56 a3bd 46f8 46bb 7eea 20bd
00000200: ede3 afbe 359d be3d 0ef2 783c b4ab 81bc
00000210: b79e 46bc 74f3 00bf 6fd1 acbf 6ed2 ccb9
00000220: 32e6 233c 1264 b6bd 2769 01be 6c7d c13d
00000230: a824 56bd f7be 19bd ad4f 8cbf c74e fcbd
00000240: dc87 1e3d 2266 76bc 8305 92bd 372b 81be
00000250: 7a4c 753c 982e debc 8506 8cbd 4c8d 063d
00000260: 653e e9bb 1e29 873c b250 b6be 9c45 f8be
00000270: 7780 8b3c a550 a03d f0fd 003e e9ab edbe
00000280: 2cde debc 3cdf bc3a 068d 61bd a87f aaba
00000290: 514a 163b 3e9d 03bf ab41 2abd b9ec 843d
000002a0: f858 08bc b3f8 6dbe 8bf0 0e3d dddf d6bc
000002b0: 3039 7fbd 266b 87bd 6374 debc a046 41bd
000002c0: eb9a 2ebe eba3 a2bc 2c9c f63b 9a1e 563d
000002d0: c216 d53d 8aa8 5e3c 9f3a 5abd 8c41 653b
000002e0: fc80 543c 8da8 a83d 9707 00c0 9703 033c
000002f0: 0410 20be bab8 83be 12da 2cbd 3052 b2bf
00000300: dbc5 50be 4c3c a9bd fbb9 d83d 2b50 c5bd
00000310: db79 c0bb 5402 1fbd cf6e 4b3d 5234 87bc
00000320: dfe3 12bf 62c0 57bc 40e7 b33a d511 dd3c
00000330: 6ef7 0d3a 0504 7abb 89eb a43c bac3 a4be
00000340: b724 5f3e 0343 7a3e 1f09 683d cbb8 b7ba
00000350: 161c 643d 9d42 8ebe 43eb d3be 6811 d63c
00000360: 751c 13bb 456e e8bc 5858 623c 4ea9 11bf
00000370: 262f babf e15e 6f3d dae0 813c da60 abbe
00000380: ecee 12bc c434 c6bd 65b6 1cbd d1a2 a7bd
00000390: f470 09bd 6701 193d 4698 b23c d4c9 87bc
000003a0: fa1c a1bc 857b 9c3b e686 09be 4c62 9d3d
000003b0: eadb 40bd ff99 883e 37e6 ec3e 5741 3ebe
000003c0: 3344 643d e2f5 13bf 639b 01bc ab96 8ebb
000003d0: b2c5 87bd bdd5 083c 8e36 1cbd 294c 0b3d
000003e0: 917e d63c a8bf 683c 6bd5 14be 73e8 37bb
000003f0: 3a47 01bd b4df 57bc eec0 26bd a052 423d
0.06740654 0.28667405 -0.38115513 -0.670062 -0.23736483 0.050163906 0.020414067 -0.07035913
-0.12609711 0.014272591 0.0035834957 -0.022997878 0.009862013 -0.100491256 0.0036350007 0.09031612
0.00764529 -0.018381879 0.03245132 0.014518681 -0.028291551 -0.025813956 0.028997043 0.014781767
0.034400683 -0.005753581 0.10949607 -0.012757206 -0.082943335 0.061155543 0.14777024 0.07786377
-0.65791667 -0.030741615 -0.02455179 -0.094191216 -0.036103863 0.0029132874 -0.103151016 -0.04295189
0.022039725 0.10563649 -0.18971016 0.008722842 0.06655306 0.17755404 -0.011127016 -0.088693306
0.012308046 0.001968014 -0.07498211 0.039899908 0.03029147 0.023457356 -0.034903124 -0.0142022455
-0.0029260681 0.07607393 0.036628097 -0.27566108 0.038124736 0.12119241 0.039386176 0.038150486
-0.5706408 0.023818638 -0.26515 -0.07819603 -0.08491748 -0.08693395 -0.002577962 -0.21363914
0.09569464 -0.07762309 -0.07981062 0.0059394888 -0.1607437 0.0060750227 0.06299453 0.028652731
0.13982645 0.405563 0.04698216 -0.21100865 0.01896273 0.091255166 0.054870978 0.019620422
-0.017834745 -0.038409833 -0.18810524 -0.020994917 -0.005287102 0.0070572426 -0.10243399 0.004990511
-0.0728219 -0.0061069005 0.11051215 0.04664824 -0.005416509 0.023127876 -0.01053648 -0.84626055
-0.023286939 -0.26571995 -0.0018256701 0.047304828 0.0721234 0.099911235 0.2545423 -0.07474546
-0.014144413 0.03266059 -0.28012666 -0.018034812 -0.032713883 -0.011380438 -0.025300581 0.033041324
-0.0068774675 0.0017896623 -0.045441672 0.017907828 -0.029903099 -0.07975505 -0.0030360385 -0.03928613
-0.3435358 0.093073286 0.015194429 -0.015828945 -0.0121228015 -0.5037148 -1.3501414 -0.00039066694
0.010003613 -0.08905806 -0.12637769 0.094477504 -0.052281052 -0.037535634 -1.0961815 -0.12319713
0.038703784 -0.015038999 -0.071299575 -0.25228283 0.014971847 -0.027121827 -0.06837181 0.032849595
-0.0071180337 0.016499098 -0.3560844 -0.48490608 0.01702903 0.07827882 0.1259687 -0.4642022
-0.02720555 0.0014409791 -0.05506613 -0.0013008015 0.002293248 -0.5141181 -0.041566532 0.06490464
-0.008321993 -0.23239402 0.03489737 -0.026229793 -0.062310398 -0.06612234 -0.027155107 -0.047186494
-0.17051284 -0.019853553 0.0075259414 0.052275278 0.10404731 0.0135899875 -0.05327856 0.0034981696
0.012970205 0.082352735 -2.0004632 0.007996461 -0.1563111 -0.25726873 -0.042200156 -1.3931332
-0.20387976 -0.08263454 0.10582348 -0.096344315 -0.0058739013 -0.03882058 0.049666222 -0.01650444
-0.57378954 -0.013168426 0.0013725534 0.026986042 0.0005415593 -0.0038149368 0.020131843 -0.32180578
0.2179135 0.24439625 0.056649324 -0.0014016865 0.055690847 -0.27785197 -0.41390428 0.026131347
-0.0022447382 -0.028372893 0.013815008 -0.56898963 -1.4545639 0.058440093 0.015854288 -0.3347233
-0.008968096 -0.09678033 -0.038259882 -0.08185352 -0.033554986 0.037354853 0.021801125 -0.016575731
-0.019667137 0.004775467 -0.13430366 0.07684764 -0.047084726 0.2667999 0.4626939 -0.18579613
0.055729102 -0.5779706 -0.007910582 -0.004351457 -0.06629504 0.00835174 -0.038137965 0.03400818
0.026183398 0.014205851 -0.14534537 -0.0028062135 -0.031562068 -0.013175894 -0.040711336 0.04744208

model.3.bias f4 [128]
00000000: d2ea 8a3e fa17 8a3e a07b bcbe 757a 243e
00000010: 0816 673e 343e 3d3f fe1b 8e3e b491 193e
00000020: 6ee8 dc3e 2027 793e 056e 393e ba45 9c3e
00000030: 4268 d9bd 1726 523e 38fe fa3e 411b 393f
00000040: 5367 953e fe60 133f 5ffb 213f c0c7 283e
00000050: f8ee 5b3e 768a 1a3e 5d32 7a3e cf1c 0e3f
00000060: cca6 cfbc 768f 313e 9bd9 b63e 0cbe 2e3e
00000070: 5481 24bf 75ed c13e eb9c eabe 12ea 5b3f
00000080: 4d9f cf3e 47b6 073f ede2 a33e 3228 c53e
00000090: 1b27 a63d 8765 063f c44e f63e 41a5 ac3e
000000a0: ca54 b03e e346 f43d 3040 353f dfb6 303f
000000b0: 1927 9c3e 2c04 d53e b602 213f 369f 163d
000000c0: a76e 9a3e e5e1 f63d d484 6c3e 70ef 343e
000000d0: 01fb 833e b57a 543e 66b0 673e 376b 993e
000000e0: db89 c03e 4725 1f3e 41a1 803e f80c 613f
000000f0: f3ce 82be a933 263f ecf4 7f3e 1225 1b3f
00000100: 33cd 693e 2740 c63e b9c9 133e 3a26 3b3f
00000110: 3204 653e bd59 983e 2cf9 7d3e 265d 383f
00000120: 91c3 123f 9e14 db3e eac9 1f3e 8bed 1b3f
00000130: 776c 503e 708e 813e c5d7 1d3e c5bd ff3e
00000140: 902b b03e c09e 303f 7289 243e b81f 4c3e
00000150: 4ab5 c53e 1801 3d3e 089f d63e 5c4f a43e
00000160: c2fc c23e 1737 ce3e 7b2c 5d3e 035b cf3e
00000170: e00e c6be da77 303e eac7 873e 3f27 0d3f
00000180: a2f3 7f3e 9de0 753f 37fa 763e 9299 b53e
00000190: 8409 1f3e 001c 243e 5777 433d 4c26 133f
000001a0: 4742 a13e 69b8 1e3f 2ec2 b33d 2f44 8e3e
000001b0: 97e0 723e 8c92 e93d a825 3c3e edde 6f3e
000001c0: 0571 3e3e 7dcf 88be b5f0 283f fea4 fc3e
000001d0: a1dc c03e d063 323d 30d8 a03e 51ed b73e
000001e0: 1e07 b63e b749 e83d d731 cc3d 7fa0 253f
000001f0: 06e0 9d3e 5e96 f43e e039 9f3e 8cb9 9b3e
0.2713228 0.26971418 -0.36813068 0.16062339 0.22566998 0.7392304 0.2775573 0.14996988
0.4314608 0.24331331 0.18108375 0.30521947 -0.10615589 0.20522343 0.4902208 0.7230721
0.29180393 0.57569873 0.63274187 0.16482449 0.21477878 0.15091881 0.24433275 0.5551271
-0.02534809 0.17339882 0.35712895 0.17064685 -0.6425984 0.37876478 -0.45822844 0.8590404
0.40551224 0.5301251 0.32009068 0.3850723 0.081129275 0.5249867 0.48106968 0.3371983
0.3443969 0.11927583 0.7080107 0.6902904 0.3049858 0.41604745 0.6289476 0.03677293
0.30162546 0.12054805 0.23097545 0.17669463 0.25777438 0.20749934 0.22625884 0.2996461
0.37605175 0.15541564 0.25123027 0.87910414 -0.25548515 0.6492258 0.24995774 0.6060344
0.22832184 0.3872082 0.1443242 0.73105204 0.22364882 0.29755965 0.24802083 0.72017133
0.5732966 0.42789167 0.15604368 0.60909337 0.20353876 0.25303984 0.15414341 0.4994947
0.34408236 0.68992233 0.16068056 0.19933975 0.38614875 0.18457448 0.41918206 0.32091796
0.38083464 0.40276405 0.21598999 0.40499124 -0.38683224 0.1723322 0.2651971 0.5513801
0.24995282 0.9604586 0.24118887 0.35468727 0.15530974 0.16026306 0.047721233 0.5748031
0.31495878 0.6200014 0.08777271 0.27786395 0.23718487 0.11404905 0.1837374 0.23424883
0.18597801 -0.267208 0.6599229 0.4934463 0.37668326 0.04355222 0.31414938 0.35923246
0.35552305 0.11342185 0.09970444 0.6469802 0.3083498 0.4777097 0.31098843 0.30415

model.6.weight f4 [3, 128]
00000000: 180e 963b a8ee e43d c304 ea3c c32a 67bc
00000010: b7d4 dbbd 1311 103d 6bfd 9fbc 690c d53c
00000020: d0a6 973c 4532 e83c f330 253d b4df 0cbd
00000030: ab9e b8bc 88f6 3bbd fb8d c43b 3fe5 083c
00000040: 9ca3 453c 0ba5 893d 8a74 613d c3f8 b3bb
00000050: 5910 ab38 c38c 513c 1b73 c23c 118d 2b3c
00000060: 9da4 18bd ab9e 4dbd d646 0ebd 71b5 53bd
00000070: f96d 42bd 6ee1 733a b57d 42bd 150d 183d
00000080: 04d8 603c 9711 643c 2921 613d f3a9 d53c
00000090: a607 32bd 41ff 613d 0393 453b eba2 f93b
000000a0: e372 743c b11e 7fbc 5b14 c43d d4f6 db3c
000000b0: c046 833c 4f96 1b3c 60d3 bf3b 6bc2 883b
000000c0: 71de 3b3d 4bda dfbb dda6 443c 9cde 8dbc
000000d0: c385 91bb 3113 08bd 3bd5 4ebd e721 6ebc
000000e0: 21a1 113d f70c fcbc 8c04 a83d 6fd6 163d
000000f0: 7cc8 9cbd c708 d03c 3eea c4bd 7e32 5cbc
00000100: 7e1d 39bd d5e3 e9bc 0f23 e1bc 25da 7e3d
00000110: 601d 43bc 7b9a 523d 6346 9ebc 3c7c ca3d
00000120: 60b7 5b3d 9ec1 e93c 24cc 2b3d 7830 e13c
00000130: c988 19be d973 9a3d c19f aabc 73e9 263d
00000140: 233e f1b8 1442 a93d 90d6 0abe d912 a6bc
00000150: 01d6 8ebc f8b1 30bd 47ac 15bd d75c f53c
00000160: cde8 f13c b150 7a3d 06dd 96bd 4bb6 8c3c
00000170: 9d21 febc 0a8c acbc 1798 36bc 6cbe fa3c
00000180: 8db8 b23c 8905 e33c 9566 383d 4c5c a93c
00000190: 1ea2 28bc 8f62 d1bc 281b 27bd e78e ec3b
000001a0: a317 0e3b abad 06bc 0cf1 fcbc 7981 823c
000001b0: ce85 54bd e399 5c3b 89ea 5dbe 16ae 04be
000001c0: ab1d e83b cd32 e8bd 5088 413d 30d5 c63d
000001d0: d25c 2ebd 3486 91bc 0966 5abd 9a4f a9bc
000001e0: 82a0 97bc 3178 98bc da2d 4c3c 15dd e03c
000001f0: 52d9 ae3b 3e6e 1a3d 3a98 6ebc a0e0 0bbc
00000200: 0572 1dbd f152 403e 9caf b73c 86ab 41bd
00000210: 3b8a ab3c bd23 c1bc a814 1fbd 9086 553d
00000220: 4d8c 3e3d b222 d53d 2301 29bd 5fa1 1cbd
00000230: 0863 62bd 5e31 6bbd 4197 c3bc 11c2 473c
00000240: b1ac 783d 2126 06bc 6991 b7bc cd40 dcbc
00000250: 79ce 753d a0e0 5e3d 46b3 853d b174 2e3b
00000260: fe7f 2b3d aba6 b6bd 43bc ac3c a6ff 60be
00000270: e88d 8ebd 1dd3 393d faf4 d539 c3ae d13c
00000280: bcf5 0f3d 81cb b9bc 3de3 71bd 206c 3fbd
00000290: 4828 0ebd 3ca2 58bd 860e 833d d16c d23c
000002a0: 9501 8bbd 3817 433d 72c0 03bc 3fcd 113d
000002b0: bbcf 8cbd c90b 75bd f5a7 d43c b30c 6b3d
000002c0: 606a 8bbd 1e04 93bd 3ff2 4d3d 6cfd 803d
000002d0: 6ec5 30bb ac11 1e3c 1d4a e1bd 9704 aa3c
000002e0: 69e2 53bd bb1e b0bd 330b c4bd 34db f33c
000002f0: ef50 313d 29e8 ab3c c2c0 67bc 1e33 b33c
00000300: 0a4c 73bd e7b5 4e3c 2b1b bcbd 8dec 943c
00000310: cd24 bf3d 7c4e b33d d9e2 55bc 2ca5 a33a
00000320: e2fd 7abd eb2c 4b3d 4bad c23d 6480 bc3c
00000330: 47e2 4e3d b63d f83d 2ffb 84bd 989e f1be
00000340: 595a 8fbc 550f 0bbd c4e2 9d3e ffa0 903d
00000350: a970 563b 496f c63d a9da 5abc a80e 46bd
00000360: 20fb 50bd 40af 80bd 5271 4abd b01b 103d
00000370: 391a 4b3d 0f71 4abd 56bf 853d 4fab d53c
00000380: d1ff d73d 51b6 2d3c 68de 0ebe 3c27 a53d
00000390: 9203 8a3d ac9e 01bd 798d c63d b0e1 22bd
000003a0: 1a92 ee3c b36c c43b a3cd c9bc 82c5 8f3d
000003b0: 5ab4 e1bc f1b3 babd f02b fabc 796b 16bf
000003c0: f944 52bd 9d8c 46bd ce59 18bc 85e5 a7bb
000003d0: 49b5 143d 7c86 f73c 9126 f33c cf92 bc3c
000003e0: f25e a13d 854b e5bc 1cd4 463d c83e 44b9
000003f0: b982 57bd af55 83bd 2b60 2abe 5d56 5bbc
0.004579317 0.111783326 0.028566724 -0.014109316 -0.107339315 0.035172533 -0.019530019 0.026006894
0.01851216 0.028344283 0.040329885 -0.034393027 -0.022536596 -0.045889407 0.0059983707 0.008355438
0.012062933 0.067209326 0.05504278 -0.005492301 8.1569604e-05 0.012789908 0.023736527 0.010470645
-0.037266362 -0.050200146 -0.034735523 -0.051686708 -0.04746816 0.0009303306 -0.047483165 0.03712185
0.013723377 0.013920209 0.054963265 0.026082015 -0.043464325 0.05517507 0.003014744 0.0076182983
0.014919969 -0.015571282 0.09574195 0.026851095 0.016024947 0.009496286 0.0058540553 0.004173567
0.045866434 -0.0068314425 0.012002674 -0.017318062 -0.0044409945 -0.033221427 -0.05049632 -0.01453445
0.035554055 -0.0307679 0.08203992 0.036825594 -0.07655427 0.02539481 -0.09614991 -0.013439773
-0.04519414 -0.028551022 -0.027482538 0.062219758 -0.011908859 0.051416855 -0.019320672 0.09886977
0.053641677 0.028534707 0.04194273 0.027488932 -0.14993586 0.075416274 -0.02082813 0.04074998
-0.000115033494 0.082645565 -0.13558412 -0.02027266 -0.01743603 -0.043138474 -0.03654125 0.029951496
0.029529953 0.06111211 -0.073663756 0.017176768 -0.031021887 -0.02106287 -0.0111446595 0.030608378
0.021816516 0.0277126 0.045019705 0.020673893 -0.010292558 -0.025559692 -0.040797383 0.0072191837
0.002168157 -0.008220117 -0.030876659 0.015930878 -0.05188542 0.003366106 -0.216715 -0.12957034
0.007083615 -0.113378145 0.04724914 0.09708631 -0.04256899 -0.017764188 -0.053319965 -0.02066784
-0.018509153 -0.018612 0.012462104 0.02744917 0.005335965 0.03770279 -0.014562661 -0.0085374415
-0.038438816 0.1878164 0.022422604 -0.047282718 0.020939937 -0.023576612 -0.03883806 0.052130282
0.04652052 0.10407008 -0.04126085 -0.038239833 -0.055270225 -0.057420127 -0.023875834 0.012192265
0.060711566 -0.008187802 -0.022408204 -0.026886368 0.06001136 0.054413438 0.06528334 0.0026619846
0.04187011 -0.08918508 0.021085864 -0.21972522 -0.0696066 0.04536735 0.00040809048 0.025596028
0.03514646 -0.022680046 -0.059054602 -0.046733975 -0.034706384 -0.052889094 0.063992545 0.025686653
-0.06787411 0.047629565 -0.008041488 0.03559613 -0.06875559 -0.059825692 0.025958994 0.057385158
-0.06807399 -0.0717852 0.050279852 0.062983364 -0.0026973146 0.009647768 -0.11000464 0.020754142
-0.051729593 -0.08599611 -0.095724486 0.02976761 0.043290075 0.020984726 -0.014145078 0.02187496
-0.05939869 0.012616611 -0.091848694 0.018179202 0.09333191 0.08755204 -0.013054573 0.0012485138
-0.061277278 0.049603384 0.09505709 0.02301044 0.050508764 0.121211454 -0.06493222 -0.4719131
-0.017499136 -0.03395017 0.3083707 0.070619576 0.003272096 0.09689195 -0.013357797 -0.04835382
-0.05102074 -0.06283426 -0.049424477 0.035182655 0.049585555 -0.049424227 0.06530635 0.026082663
0.1054684 0.01060255 -0.13952029 0.08064124 0.06738962 -0.031645462 0.096949525 -0.039766014
0.029122401 0.0059944033 -0.024634188 0.070200935 -0.027551819 -0.09116352 -0.03053853 -0.5875774
-0.05133531 -0.048473943 -0.009298755 -0.0051237964 0.0363057 0.030215494 0.029681476 0.023019223
0.078794375 -0.027990112 0.048542127 -0.00018715404 -0.0526149 -0.06412827 -0.16638248 -0.01338729

model.6.bias f4 [3]
00000000: dede 0b3b 94b5 11bc 151a 8f3c
0.0021342556 -0.008893389 0.017468492
