exported_models/neural_networks/raw_mlp/trained_models/model_epoch_100_batch_64_lr_1e-05_vs_30_hl_64_64_64_64_drop_3/mlp_dynamics.pth (torch, 56597 bytes, 10 tensors)

model.0.weight f4 [64, 5]
0	0xbede2043	-0.4338399
1	0xbe953d41	-0.29148296
2	0xbe19ea74	-0.15030843
3	0x3a533bac	0.0008057903
4	0xb9dec9d1	-0.00042493505
5	0x3efe1b10	0.49630022
6	0xbecb7dce	-0.3974442
7	0x3eae3a45	0.3402883
8	0x3ac6835d	0.001514535
9	0xbcb79034	-0.022407629
10	0x3e20db23	0.15708594
11	0x3ed1c6e1	0.40972045
12	0x3a54f589	0.0008123746
13	0x3abfec71	0.0014642609
14	0x3b99ea4f	0.004697121
15	0x3eee3763	0.46526632
16	0xbe5d2567	-0.21596299
17	0xbe45417b	-0.1926326
18	0xbbbdd933	-0.0057937144
19	0x3bd9ffc9	0.0066528064
20	0x3e8de0b1	0.27710488
21	0x3eb11389	0.34585217
22	0xbe99ce30	-0.3004012
23	0xbb623004	-0.0034513483
24	0xbb0c0704	-0.0021366486
25	0x3c013926	0.00788716
26	0xbedff245	-0.43739524
27	0x3d385fba	0.045013167
28	0x3ba81444	0.005129369
29	0x3b73f62b	0.0037225585
30	0x3e8f8cc7	0.28037092
31	0x3e2e079a	0.16995087
32	0x3ee83da7	0.45359537
33	0xbb92251d	-0.0044599907
34	0xbc2b626f	-0.01046048
35	0x3ea31917	0.3185508
36	0x3ea6ac8c	0.32553518
37	0x3e96f40a	0.29483062
38	0x3c1b11d8	0.0094647035
39	0x3aefd54e	0.0018297823
40	0xbee5b792	-0.44866616
41	0xbe92d3f3	-0.2867733
42	0xbe100471	-0.14064194
43	0xbd0782da	-0.033083774
44	0xbc337a4a	-0.010954449
45	0x3ee4be0e	0.4467625
46	0x3e13c14a	0.14429203
47	0x3d90a912	0.070634976
48	0x3b681596	0.0035413257
49	0x3bc757c2	0.0060834596
50	0xbe0d92f8	-0.13825595
51	0xbea58e42	-0.32335097
52	0xbe9600cd	-0.29297486
53	0x3c10d971	0.008840905
54	0x3aad2349	0.0013209368
55	0x3edc1a4a	0.42988807
56	0xbe784e31	-0.24248578
57	0x3d9c6d5a	0.07638045
58	0x3b09cc6c	0.0021026386
59	0xbaf2ebd9	-0.0018533423
60	0x3eef3c6f	0.46725795
61	0xbe43e30d	-0.19129582
62	0x3cbea047	0.023269786
63	0xbb9fcd0e	-0.0048767393
64	0x3bc9eada	0.0061620297
65	0x3d671ace	0.056422047
66	0xbe82e852	-0.2556787
67	0xbe873061	-0.26404098
68	0xb9002033	-0.00012219026
69	0x3b64d59a	0.0034917356
70	0x3c90e1de	0.017685827
71	0xbedd6f15	-0.4324881
72	0xbea33781	-0.31878284
73	0xbb5033d5	-0.0031769176
74	0xbbda725b	-0.0066664643
75	0x3e16fbc0	0.14744473
76	0xbed33230	-0.41249228
77	0x3ef28e46	0.4737417
78	0x3c17199f	0.009222417
79	0xba5f62da	-0.0008521505
80	0xbe832c5a	-0.25619775
81	0xbedf9394	-0.4366728
82	0x3d63295f	0.055459376
83	0x3c03c538	0.008042626
84	0xbc0ab357	-0.0084656095
85	0x3e44300b	0.19158952
86	0x3e5debf8	0.21672046
87	0xbeece8ee	-0.4627146
88	0xbb479853	-0.0030455783
89	0xbabcc2c5	-0.0014401308
90	0x3ee48343	0.44631395
91	0xbe255b5f	-0.16148137
92	0x3e86cb2d	0.26326886
93	0xbb38fdfa	-0.0028227554
94	0xbbbe9fb0	-0.005817376
95	0xb9f85aac	-0.00047369802
96	0xbec86553	-0.39139804
97	0x3f25f07b	0.6482007
98	0xbd701d61	-0.058621768
99	0xbaeaafd8	-0.0017905189
100	0x3d3e9303	0.04652692
101	0x3eb48381	0.3525658
102	0xbee94f5d	-0.45568362
103	0x3b0e7cc1	0.002174184
104	0xbc049db1	-0.008094237
105	0x3ea827b3	0.32842788
106	0xbe5e1258	-0.21686685
107	0x3f04104b	0.5158736
108	0x3c13f08c	0.009029519
109	0x3aa92bec	0.0012906766
110	0xbeec57c4	-0.4616071
111	0x3ed28c12	0.4112249
112	0xbbb184b1	-0.0054174294
113	0x3c0f0e8d	0.0087314965
114	0x3b21c655	0.0024684865
115	0x3e87596a	0.26435405
116	0xbeeee1ad	-0.46656552
117	0xbe025c28	-0.12730467
118	0x3ad3817f	0.0016136615
119	0xbc3f64d6	-0.011681756
120	0x3ea2787c	0.31732547
121	0x3e0f411b	0.1398968
122	0x3dec0056	0.115235016
123	0x39e88088	0.00044346252
124	0x3990aa13	0.00027592535
125	0xbea4a680	-0.3215828
126	0x3ec2f79a	0.3807953
127	0x3c3da004	0.011573795
128	0xbb60a0f8	-0.0034275632
129	0x3bc46b1d	0.005994214
130	0xbd094422	-0.033512242
131	0xbedcecb7	-0.4314935
132	0x3ee782c8	0.45216966
133	0xbbcac0be	-0.0061875274
134	0x3b5b7382	0.0033485596
135	0xbed6544a	-0.41861182
136	0x3e1055f3	0.14095287
137	0xbd2d8f3c	-0.042372927
138	0x3cec9aea	0.028882463
139	0x3c270aef	0.010195478
140	0x3ee01567	0.4376633
141	0x3dc28df5	0.094997324
142	0x3dbb4108	0.09143263
143	0xbb62007a	-0.0034485147
144	0x3c619873	0.013769257
145	0x3e8d0c90	0.27548647
146	0x3ed9a6f6	0.42510194
147	0x3e4802e5	0.19532354
148	0xbabe68aa	-0.0014527042
149	0x3c18e13b	0.009331043
150	0xbe015605	-0.1263047
151	0xbec762d7	-0.38942596
152	0x3dd8c9e4	0.105853826
153	0xba0521ca	-0.00050785823
154	0x3aa18f46	0.0012326024
155	0xbe423d02	-0.18968585
156	0xbed411a0	-0.41419697
157	0x3eec5d8c	0.4616512
158	0xbc3be81c	-0.011468913
159	0xbaa2ed40	-0.0012430325
160	0x3eca4929	0.39508942
161	0xbece1153	-0.40247592
162	0xbe87818f	-0.26466033
163	0xbb8c1729	-0.004275222
164	0xbb96c90a	-0.0046016024
165	0xbe0e576e	-0.1390054
166	0x3f0a62f8	0.54057264
167	0xbf016fa1	-0.5056096
168	0xbc923276	-0.017846327
169	0x3c12e745	0.008966272
170	0xbf1b8b9e	-0.60759914
171	0x3e09f3f3	0.13471965
172	0xbab5c3a3	-0.0013867508
173	0x3befe0d1	0.0073205014
174	0x3aa8caca	0.0012877819
175	0x3d8e6f3a	0.069548085
176	0xbec87bbe	-0.39156908
177	0xbe839b9e	-0.25704664
178	0xb9092506	-0.0001307913
179	0xbc9be24e	-0.019028809
180	0x3d130e59	0.035902355
181	0x3e25c5af	0.16188692
182	0x3ede81cd	0.43458405
183	0xbbaffe11	-0.0053708632
184	0xbc87a082	-0.016556028
185	0xbed90a67	-0.4239075
186	0x3ec68d39	0.3877962
187	0xbe61c8ee	-0.22049305
188	0xba2e1d7a	-0.00066419656
189	0x3bbb8d10	0.005723603
190	0xbe27b720	-0.1637845
191	0x3e39668d	0.18105526
192	0xbf180e5b	-0.59396905
193	0x3bd15c73	0.0063891946
194	0x3c748ed3	0.01492663
195	0x3eb29ba0	0.34884357
196	0xbe860808	-0.26178002
197	0xbe9895b1	-0.29801705
198	0xbb671cb4	-0.003526491
199	0x3b97117b	0.004610238
200	0xbe2b853f	-0.16750048
201	0x3e9d8b0f	0.30770156
202	0x3eebf479	0.46084955
203	0x3be9b969	0.0071326983
204	0x3bacb410	0.0052704886
205	0x3ea72e1c	0.32652366
206	0x3e8962ea	0.26833278
207	0x3e6b5981	0.22983362
208	0x3bcd3077	0.006261881
209	0x3b82f193	0.003996083
210	0xbeb9dd48	-0.36301637
211	0x3e7a58ea	0.2444798
212	0x3eb64b93	0.35604534
213	0xbca8c9a2	-0.020603959
214	0x3b58be1c	0.0033072298
215	0x3ebf4693	0.3735853
216	0x3e7d53d0	0.24739003
217	0xbe874bb9	-0.2642496
218	0xbc274afd	-0.01021075
219	0xbb9aedae	-0.0047280407
220	0xbd76bbc9	-0.06023768
221	0xbea47da7	-0.32127115
222	0x3eeb2d06	0.45932788
223	0x3c054af2	0.008135544
224	0x3bf969b3	0.0076114773
225	0xbedea881	-0.43487933
226	0xbecb4b03	-0.39705667
227	0x3e023698	0.12716138
228	0x3b88f588	0.00417966
229	0xbc0d229a	-0.008614207
230	0xbe941161	-0.2891951
231	0x3eb9ccf4	0.3628918
232	0xbee54385	-0.44778076
233	0xbad83422	-0.0016495029
234	0x3be1a012	0.006885537
235	0xbd82e2a5	-0.06390885
236	0x3f0d7220	0.55252266
237	0x3dde3e13	0.108516835
238	0xbc060061	-0.008178801
239	0x3b6f937b	0.003655641
240	0x3ee72f72	0.45153385
241	0x3f09fa5d	0.5389765
242	0x3e4c5d64	0.199575
243	0x3abd591a	0.001444611
244	0xbbac1b65	-0.005252289
245	0x3e615002	0.22003177
246	0x3e40d8eb	0.18832748
247	0xbf077995	-0.52919894
248	0x38ec9b17	0.00011282245
249	0x3b84a294	0.004047701
250	0xbeb7dd66	-0.359111
251	0x3eff0e15	0.4981543
252	0x3ea5de4a	0.32396156
253	0x3b670066	0.003524804
254	0x3b8620fc	0.0040932875
255	0x3eae7975	0.3407704

model.0.bias f4 [64]
0	0xbebf8551	-0.374064
1	0xbf112b08	-0.56706285
2	0x3cfd811b	0.030945351
3	0xbf02162c	-0.5081508
4	0xbecd83b4	-0.40139544
5	0xbcc89ea6	-0.024489712
6	0xbf22c01e	-0.635744
7	0x3c268861	0.010164351
8	0xbf080024	-0.53125215
9	0x3d6e3703	0.058157932
10	0xbf2ecb6d	-0.68279153
11	0xbe950550	-0.29105616
12	0xbdc4bd3d	-0.09606407
13	0xbf0cca02	-0.5499574
14	0xbe33e68e	-0.17568418
15	0xbe218e31	-0.15776898
16	0xbe37d4c3	-0.17952256
17	0xbe615c9a	-0.22007981
18	0xbeebe815	-0.46075502
19	0xbe1e9ba1	-0.15489055
20	0xbe6e5f9e	-0.23278663
21	0xbec497ca	-0.38397056
22	0xbee2d40b	-0.443024
23	0xbd02caa0	-0.03193152
24	0x3d42a921	0.047524575
25	0xbe5141c8	-0.2043525
26	0xbcf3b1d0	-0.029747874
27	0xbea073f6	-0.3133847
28	0xbe88b587	-0.26700994
29	0xbedf8c5e	-0.4366178
30	0xbe3dfe30	-0.18553996
31	0xbe4978c0	-0.19674969
32	0x3d50881e	0.05091106
33	0xbe2c153b	-0.16804974
34	0xbe3a00be	-0.18164346
35	0xbf0936f9	-0.53599507
36	0xbde6272b	-0.112379394
37	0xbe42f826	-0.19039974
38	0xbde3effd	-0.111297585
39	0xbf13d5cf	-0.5774812
40	0xbf2c7fa1	-0.67382246
41	0xbf04d4b8	-0.51887083
42	0xbeebe3e1	-0.46072295
43	0xbe750440	-0.23927402
44	0x3b2731f2	0.0025511947
45	0xbeb45378	-0.35219932
46	0xbe0e452d	-0.13893576
47	0xbef2441c	-0.47317588
48	0x3d8b21bc	0.06793544
49	0xbed47dc2	-0.41502196
50	0xbea60b8a	-0.3243068
51	0xbecf0ace	-0.4043793
52	0xbda7089f	-0.08155941
53	0x3d82d2fd	0.06387899
54	0xbf2a29df	-0.6647014
55	0xbdb6e104	-0.08929637
56	0xbf2f224f	-0.68411726
57	0xbee935d6	-0.45548886
58	0xbf0c693e	-0.54848087
59	0xbcad9522	-0.021189276
60	0xbf05f82c	-0.52331805
61	0xbe1889d8	-0.14896333
62	0xbc42340c	-0.011853229
63	0x3e249fc8	0.16076577

model.3.weight f4 [64, 64]
0	0x3cfa8424	0.030580588
1	0xbe63f8db	-0.222629
2	0x3ced7d89	0.028990524
3	0xbf3df10c	-0.74195933
4	0xbd885998	-0.06657714
5	0xbcbdb873	-0.023159241
6	0xbc172ff7	-0.009227744
7	0x3b5354a2	0.003224649
8	0x3d7947de	0.060859554
9	0xbd3e567e	-0.046469204
10	0x3da110ab	0.07864507
11	0xbed1a97a	-0.40949613
12	0xbf3e92ca	-0.7444273
13	0xbc23b24e	-0.009991242
14	0xbbc6b653	-0.006064215
15	0x3ca14a48	0.01968874
16	0x3c5f3619	0.013623738
17	0xbcce2562	-0.02516431
18	0xbec32a7d	-0.38118353
19	0x3d86b4c3	0.06577446
20	0x3dbee5d3	0.09321179
21	0x3c2716a9	0.010198274
22	0x3e4d5c08	0.20054638
23	0xbcdd475d	-0.027011568
24	0xbcc068fc	-0.02348756
25	0x3d3d4e94	0.046217516
26	0xbc9d63a7	-0.019212557
27	0x3eb3095d	0.3496808
28	0xbe288c17	-0.1645969
29	0x3b0d5742	0.0021566902
30	0x3db45609	0.088054724
31	0x3d2c38ae	0.04204624
32	0xbcb6a2c5	-0.022294411
33	0x3c838e01	0.016058924
34	0x3da733fe	0.081642136
35	0xbc770e1b	-0.015079047
36	0x3c4108a7	0.011781848
37	0x3df2f1e7	0.118625455
38	0xbb876685	-0.0041320943
39	0xbf0b5822	-0.54431355
40	0x3db2bfb0	0.08727968
41	0xbd1707fa	-0.03687284
42	0x3d548fc8	0.051894933
43	0xbe001728	-0.12508833
44	0xbb4edbc4	-0.0031564096
45	0x3d8db41f	0.06919121
46	0xbc23f1a2	-0.01000634
47	0x3da9c83c	0.08290145
48	0xb9cdb706	-0.0003923701
49	0x3c624340	0.013809979
50	0xbc895543	-0.016764289
51	0xbe473cf2	-0.19456843
52	0xbba663b1	-0.005077802
53	0xbe791dc3	-0.2432776
54	0x3dde45df	0.108531706
55	0xbbfe8ec8	-0.0077684857
56	0x3d497a1c	0.04918872
57	0x3e9a7f27	0.30175135
58	0xbd17a5ad	-0.037023235
59	0xbc3efd9e	-0.011657147
60	0x3dab1af0	0.08354747
61	0x3d51efcf	0.05125409
62	0xbbb02bff	-0.0053763385
63	0xbd3c818d	-0.046021987
64	0xbd29fc56	-0.041500412
65	0xbe95cb64	-0.29256737
66	0x3d35dfac	0.044402763
67	0xbe933521	-0.28751472
68	0x3db10aad	0.08644614
69	0x3d1b4b99	0.037913892
70	0xbdfbc4b9	-0.12293381
71	0x3c6e9570	0.014561996
72	0xbcae47d8	-0.021274492
73	0xbd7a2cd6	-0.061077915
74	0x3c4fd648	0.012685366
75	0xbf140ec6	-0.5783504
76	0xbf22085a	-0.63293993
77	0x3cccf84d	0.025020743
78	0x3d03262a	0.032018818
79	0xbf34a6f6	-0.7056726
80	0x3d5e360f	0.054250773
81	0x3d1d1f05	0.03835966
82	0xbf0aa62f	-0.54159826
83	0xbdfca836	-0.12336771
84	0xbc867ff7	-0.01641844
85	0xbf50571f	-0.81382936
86	0x3c67e49a	0.014153624
87	0x3c62770e	0.01382233
88	0xbd12635a	-0.03573928
89	0x3d87e531	0.06635512
90	0xbe5a2690	-0.21303773
91	0x3e501f51	0.20324446
92	0xbe1a80c6	-0.15088186
93	0x3ad514a9	0.0016256768
94	0x3d5fbc6d	0.054623056
95	0xbd7a986d	-0.06118052
96	0x3c80f189	0.015740173
97	0x3db466f5	0.088087
98	0x3df8fcc1	0.12157584
99	0x3c3a2af6	0.011362782
100	0x3c8a1170	0.016854018
101	0x3dbe20c5	0.09283594
102	0x3d3c1520	0.045918584
103	0xbd8da1d6	-0.069156334
104	0x3d196cd6	0.03745731
105	0xbdd2c0bc	-0.102906674
106	0x3ddb7941	0.10716487
107	0x3aafa9ec	0.0013402081
108	0xbdef8397	-0.11695021
109	0x3e051409	0.12995924
110	0x3d576729	0.052588616
111	0x3d1c2322	0.038119443
112	0x3cd960c5	0.026535401
113	0x3d0e3bb4	0.034724906
114	0x3d273485	0.04082157
115	0xbd5befb0	-0.05369538
116	0x3d240244	0.040041223
117	0xbe612592	-0.21986988
118	0x3d6022cd	0.05472069
119	0xbd8a303b	-0.067474805
120	0xbcd16c88	-0.025564447
121	0x3e746bfa	0.23869315
122	0x3cf899b8	0.030346736
123	0x3ce0c482	0.027437452
124	0x3a71b275	0.00092200126
125	0x3d07f8d7	0.033196297
126	0xbd24073a	-0.040045954
127	0xbdd7c207	-0.10535055
128	0xbe825308	-0.25453973
129	0x3b3f9962	0.002923571
130	0xbc4f8acf	-0.012667372
131	0x3d482c49	0.04887036
132	0x3d9f5e48	0.077816546
133	0xbe0b0e0f	-0.13579582
134	0x3e435acc	0.19077605
135	0xbd0c8a21	-0.034311417
136	0xbeaa9027	-0.33313105
137	0xbcbe6f48	-0.023246422
138	0xbe792bc7	-0.24333106
139	0x3d5346b7	0.05158111
140	0x3ca53a5a	0.020169426
141	0xbe425bdd	-0.18980356
142	0xbf009883	-0.50232714
143	0x3c3e6784	0.01162136
144	0xbd8808b1	-0.06642283
145	0x3b89848d	0.0041967095
146	0x3d5cc053	0.053894352
147	0xbad7a718	-0.0016452996
148	0xbc9c0042	-0.019043092
149	0x3adccf74	0.0016846494
150	0x3ce3741b	0.027765324
151	0xbc881aa2	-0.016614262
152	0xbcd6a712	-0.026202712
153	0x3d2f2011	0.04275519
154	0x3cb417fc	0.021984093
155	0x3d8d68d6	0.069047615
156	0xbcc93d39	-0.024565326
157	0x3e29df9c	0.16589206
158	0xbd815175	-0.06314365
159	0x3d4bef14	0.04978855
160	0xbba9721b	-0.005171073
161	0x3b6a8383	0.0035783953
162	0x3bdd9861	0.0067625497
163	0xbeee3958	-0.46528125
164	0xbd8b2583	-0.06794264
165	0x3d7e3d5b	0.062070232
166	0xbe59fda6	-0.21288165
167	0xbd10316c	-0.035203382
168	0x3dc9d204	0.098545104
169	0x3e37d47c	0.1795215
170	0x3c87afdf	0.016563354
171	0x3a15827f	0.00057033444
172	0x3c2d1e7c	0.01056635
173	0x3c135eb5	0.008994748
174	0xbd723ea1	-0.05914176
175	0x3e1c047a	0.15236083
176	0x3dff3e4a	0.124630526
177	0x3d323b95	0.043513853
178	0xbce52c05	-0.027975092
179	0xbd3b9914	-0.045800284
180	0xbecd46cf	-0.40093085
181	0xbc9f6f33	-0.019462204
182	0x3e2f3993	0.17111807
183	0x3ca81b0e	0.020520713
184	0x3e2627fc	0.1622619
185	0x3db5d102	0.08877756
186	0x3e068544	0.13136774
187	0xbd9b5da6	-0.075862214
188	0xbe87fcf6	-0.2656018
189	0x3d26d043	0.040725958
190	0x3bd2cdc8	0.0064332224
191	0xbc4c6a80	-0.012476563
192	0xbd401eec	-0.04690449
193	0x3bf9f649	0.0076282364
194	0xbc424df8	-0.0118594095
195	0x3e6d9677	0.23201929
196	0x3d670ab7	0.056406703
197	0x3c1d381f	0.0095959
198	0xbb229350	-0.0024807043
199	0xbbc23dac	-0.005927762
200	0x3d692e73	0.056929063
201	0x3c397a4b	0.011320661
202	0x3e5be646	0.21474561
203	0xbc1e1a37	-0.009649805
204	0xbaf69f6c	-0.0018815822
205	0x3e8c7094	0.2742964
206	0x3d421c07	0.04739001
207	0x3c53d364	0.012928817
208	0x3c3e18cd	0.011602593
209	0x3d3587ae	0.044318847
210	0x3db1f059	0.08688421
211	0xbc70a010	-0.014686599
212	0x3da9b543	0.08286526
213	0xbc02da34	-0.007986594
214	0xbed8748e	-0.42276424
215	0x3d0cd698	0.03438434
216	0x3c288ebb	0.010287936
217	0xbf146b85	-0.5797656
218	0x3b8a9e1a	0.004230273
219	0xbe39412a	-0.18091264
220	0xb7c71cad	-2.3736002e-05
221	0xbbd70578	-0.006561931
222	0x3d5e0141	0.054200415
223	0x3b32c78b	0.0027279581
224	0x3c9649e3	0.018345779
225	0xbc8c3755	-0.017116228
226	0xbd9da798	-0.076979816
227	0x3de2e93f	0.110796444
228	0xbd53f53d	-0.05174755
229	0xbdd718e9	-0.10502798
230	0x3c38d086	0.011280185
231	0x3e901ebd	0.2814845
232	0xbeb7c38e	-0.35891384
233	0x3d29f51c	0.04149352
234	0xbe93351f	-0.28751466
235	0x3c023034	0.007946063
236	0xbc941099	-0.01807432
237	0x3e1bab3f	0.15202044
238	0xbd0af167	-0.033921625
239	0xbe40da54	-0.18833286
240	0xba7ae0de	-0.0009570251
241	0x3dfa3566	0.12217216
242	0xbf2eba86	-0.6825336
243	0x3e40a615	0.18813355
244	0x3cdab1d7	0.026696129
245	0x3acab415	0.0015465046
246	0xbece6c22	-0.40316874
247	0xbdce8c51	-0.10085357
248	0x3d4aad9f	0.049481984
249	0x3cc1d491	0.02366093
250	0xbe727644	-0.23677927
251	0x3d0e287c	0.034706578
252	0x3dcd74ca	0.10032041
253	0x3cbfc730	0.02341041
254	0xbcd8613f	-0.026413558
255	0x3b968e65	0.0045946115

model.3.bias f4 [64]
0	0x3c984e30	0.01859197
1	0xbdb696cc	-0.08915481
2	0xbc93a478	-0.01802276
3	0x3b8c4965	0.0042812102
4	0x3cd2927f	0.02570462
5	0x3cc49c2f	0.024000255
6	0x3b89ae4c	0.004201686
7	0x3b3143e6	0.0027048527
8	0x3a9d607c	0.0012006904
9	0xbd1df331	-0.038562004
10	0xbdb4f077	-0.088349275
11	0x3b751443	0.003739611
12	0xbd40bb14	-0.04705341
13	0xb8b993b4	-8.848999e-05
14	0x3ba43891	0.005011626
15	0x3b825af7	0.003978129
16	0x3bab564e	0.005228794
17	0x3b6d0ef1	0.0036172236
18	0xbce43a9c	-0.027859978
19	0x3b8857e5	0.0041608685
20	0x3bbce183	0.005764188
21	0x38ff0374	0.00012159991
22	0x3ab0b5ed	0.0013481952
23	0x3b941369	0.0045189154
24	0xbdd7f040	-0.10543871
25	0xbe41c996	-0.18924555
26	0xb9a6be47	-0.00031803755
27	0x3b62c0e2	0.003459983
28	0xbdd3194a	-0.10307558
29	0x3b6c1b9b	0.0036027196
30	0xbdad8b35	-0.08473817
31	0x3b82992e	0.0039855456
32	0x3bc29b5b	0.00593893
33	0x3b9143f1	0.004433148
34	0xbe25bd2d	-0.16185446
35	0x3b54769e	0.0032419334
36	0x3c5b6c83	0.01339257
37	0xba9a7377	-0.0011783679
38	0xbdc9f972	-0.09862031
39	0xbe6248d4	-0.22098094
40	0xbd8df4cf	-0.06931459
41	0x3bb684d3	0.005570033
42	0xbb5252b1	-0.0032092745
43	0x3a6e5cc0	0.00090928003
44	0x3bcf3904	0.0063239355
45	0xbe48b95d	-0.1960196
46	0x3b3fa31c	0.0029241508
47	0x3ba628a5	0.005070763
48	0x3c2c292c	0.010507863
49	0xbd8301d8	-0.06396836
50	0x3ba4f1f4	0.005033726
51	0x3bd95cfe	0.0066334
52	0xbd7e1503	-0.062031757
53	0x3bb3e54c	0.005489981
54	0x3c2e7a98	0.010649346
55	0x3b1895d5	0.0023282666
56	0xbddf4a94	-0.109028965
57	0x3b6f8d01	0.003655255
58	0x3b9de2db	0.004818303
59	0x3b35603f	0.0027675775
60	0x3c99e665	0.018786618
61	0x3be2e1c7	0.0069238874
62	0xbddf6179	-0.10907263
63	0x3c43712a	0.011928836

model.6.weight f4 [64, 64]
0	0x3d81a2fd	0.06329916
1	0x3ab39dc5	0.0013703635
2	0x3ba289f9	0.0049602953
3	0xbf1cb7bf	-0.61217874
4	0x3d19a01f	0.03750622
5	0x3de07c3c	0.10961196
6	0x3d0d0eb7	0.03443786
7	0x3ca4c33d	0.020112628
8	0xbe373d76	-0.17894539
9	0xbd1954f2	-0.037434526
10	0xbc0400cb	-0.00805683
11	0xbe002efc	-0.12517923
12	0xbf0ba9dc	-0.5455606
13	0xbdeb732e	-0.11496578
14	0xbc89bb3e	-0.016812917
15	0xbdb94ec4	-0.090482265
16	0xbe4be044	-0.1990977
17	0xbf1d7f7e	-0.6152266
18	0xbed1e47b	-0.4099463
19	0x3c6c4288	0.014420159
20	0x3d8dd218	0.06924838
21	0xbd808141	-0.06274653
22	0x3ddc3a6d	0.10753331
23	0x3d9190ef	0.07107722
24	0xbd4d8474	-0.050175145
25	0xbee938e0	-0.45551205
26	0x3d4150f0	0.04719633
27	0xbe964c4f	-0.29355094
28	0xbd012736	-0.031531535
29	0xbf485c53	-0.78265876
30	0xbe018117	-0.126469
31	0xba560f91	-0.0008165772
32	0x3b6d7d6c	0.0036238087
33	0xbf157f31	-0.58397204
34	0x3cd0421c	0.025422148
35	0xbca5b08b	-0.020225784
36	0x3d0f153f	0.03493237
37	0x397f100a	0.0002432467
38	0x3d856736	0.065138265
39	0xbe19a34d	-0.150037
40	0x3d5d93c4	0.054096
41	0x3d936b2b	0.07198175
42	0xbd32657e	-0.04355382
43	0xba084ef2	-0.0005199752
44	0xbe3db3fc	-0.1852569
45	0xbeb1b397	-0.3470733
46	0xbd859ac8	-0.06523663
47	0x3d0d1b80	0.034450054
48	0x3d3929f4	0.045206025
49	0xbc98f752	-0.018672619
50	0xbcf50c0e	-0.029912975
51	0xbe0a8b10	-0.1352961
52	0x3d1dbf27	0.038512375
53	0xbcf67837	-0.03008662
54	0x3dd166d2	0.102246895
55	0xbe0964ec	-0.13417405
56	0xbdf8bc8b	-0.12145337
57	0xbe08e68e	-0.133692
58	0x3cb4c326	0.02206571
59	0x3d2e9201	0.04261971
60	0x3deadb04	0.11467555
61	0xbd393cb2	-0.0452239
62	0x3d68fa2e	0.056879215
63	0x3c9c830c	0.019105457
64	0xbc83ec55	-0.016103903
65	0xbca718ae	-0.02039751
66	0xbd3842d6	-0.044985615
67	0x3ea1eb71	0.3162494
68	0xbaf50db3	-0.0018696099
69	0xbba54e68	-0.005044747
70	0xbe3966f4	-0.1810568
71	0xbd7d1181	-0.06178427
72	0xbaf869a4	-0.0018952382
73	0xbcbcd460	-0.023050487
74	0x3d3f1563	0.046651255
75	0x3bd916af	0.0066250185
76	0x3d60bdbc	0.054868445
77	0x3cc17006	0.023612987
78	0xbe8d3d6f	-0.27585933
79	0xbd329c3c	-0.043606028
80	0x3cb2983c	0.021801107
81	0x3e6453c4	0.22297579
82	0x3e1c290d	0.15250035
83	0x3b06a7b8	0.0020546746
84	0x3c7a82be	0.01528996
85	0x3c273233	0.0102048395
86	0xbb8ca094	-0.0042916033
87	0xbc87e88b	-0.016590377
88	0x3d44dc26	0.048061512
89	0x3d245843	0.040123235
90	0x3cda5b3a	0.026654828
91	0x3d0271e4	0.031846896
92	0x3d2229e5	0.039590735
93	0x3e86a9e1	0.26301482
94	0x3d06e052	0.032928772
95	0xbd9b5ef5	-0.07586471
96	0xbb9dab6e	-0.004811696
97	0x3e7a1c31	0.24424817
98	0x3d183d5c	0.03716789
99	0x3bfb2ae8	0.007665027
100	0xbd846f05	-0.06466488
101	0x3c4fb2b4	0.0126768835
102	0xbc972abd	-0.018452996
103	0x3b662404	0.0035116682
104	0x3d16e1a7	0.036836293
105	0xbc982529	-0.018572407
106	0x3c45fe67	0.01208458
107	0xbc327b75	-0.010893692
108	0x3d6b384a	0.05742673
109	0x3d3ec5dd	0.046575416
110	0x3d67934e	0.056536965
111	0xbe859e4d	-0.26097336
112	0xbd261de1	-0.04055584
113	0xbf2709e8	-0.6524949
114	0xbe80e6d0	-0.25176096
115	0x3c9a20fd	0.018814558
116	0xbb86aca8	-0.0041099377
117	0x3d2654f7	0.040608373
118	0xbce685f7	-0.028140051
119	0x3c88eff9	0.01671599
120	0x3c6e6dac	0.014552515
121	0x3d60ed89	0.05491403
122	0xbbe4350b	-0.006964331
123	0xbed97188	-0.4246943
124	0xbc72f796	-0.014829537
125	0x3c02ed3d	0.007991132
126	0xbe815e75	-0.25267377
127	0x3b85cbfa	0.004083154
128	0x3ca4ee8c	0.02013328
129	0x3d3a57bc	0.045493826
130	0xbf1986ba	-0.599712
131	0xba888fea	-0.0010418866
132	0x3d99e22b	0.07513841
133	0x3d553f72	0.05206246
134	0x3c5574e0	0.013028353
135	0xbf1e6de5	-0.61886436
136	0x3c2066c2	0.009790124
137	0xbf294887	-0.6612629
138	0xbbe6fd1e	-0.007049217
139	0x3d4d89e2	0.050180323
140	0x3d3f6957	0.04673132
141	0x3c54f172	0.012997018
142	0xbdbc50d7	-0.091951065
143	0x3d5d84e2	0.054081805
144	0xbc240053	-0.010009843
145	0x3c6bb16c	0.014385562
146	0x3e0ecc38	0.13945091
147	0x3c0c5069	0.008564093
148	0xbc900b99	-0.017583655
149	0xbbceb647	-0.0063083502
150	0x3c0025f5	0.00782155
151	0xbc22424f	-0.0099035045
152	0x3dfa5aea	0.12224372
153	0x3d5f32be	0.05449175
154	0xba35029f	-0.00069049926
155	0x3b603451	0.003421087
156	0xbe80d0d3	-0.2515932
157	0x3cdd17d5	0.026988903
158	0xbc3ce064	-0.011528108
159	0xbed5018c	-0.41602743
160	0x3c7d07f8	0.015443794
161	0x3d10dbf7	0.035366025
162	0x3b6c74b9	0.0036080314
163	0xbc687a37	-0.014189295
164	0xbe16598e	-0.146826
165	0xbeb27708	-0.3485644
166	0x3d186c4d	0.03721266
167	0x3c8d3252	0.017235909
168	0x3d838d2a	0.06423409
169	0x3cf2604e	0.029586937
170	0x3b800263	0.0039065345
171	0xbf16ef74	-0.58959126
172	0x393272fd	0.0001701824
173	0xbd0c4591	-0.03424603
174	0x3e12ed47	0.14348327
175	0xbc04bf2b	-0.008102219
176	0x3d1bca7d	0.038034905
177	0x3d10777d	0.035270203
178	0x3cabe78b	0.020984432
179	0x3e4f7cda	0.20262471
180	0xbcfa3561	-0.030543031
181	0xbdc8e05e	-0.0980842
182	0x3c343f53	0.011001426
183	0x3c17d989	0.009268173
184	0x3c4eeb78	0.012629382
185	0xbbca019f	-0.006164744
186	0xbe8150ae	-0.25256866
187	0xbbbd21c7	-0.005771849
188	0x3d89deda	0.06731959
189	0x3e070dcd	0.13188858
190	0xbc03eea8	-0.008052506
191	0x3d5bef40	0.053694963
192	0x3cedfa38	0.029049978
193	0xbdac3152	-0.084078446
194	0x3bdfc083	0.006828369
195	0x3cfe43fe	0.03103828
196	0xbd8abee4	-0.06774691
197	0x3c57bfef	0.013168319
198	0x3d40dad7	0.047083702
199	0xbd5be71f	-0.05368721
200	0x3cbeaa2f	0.02327451
201	0xbd89e638	-0.06733364
202	0x3cb25870	0.021770686
203	0x3d05e9a8	0.032693535
204	0xbd28790c	-0.041131064
205	0x3d16aef8	0.036787957
206	0x3cdc3795	0.026881972
207	0x3d08ad17	0.033368196
208	0xbec04ed7	-0.3756015
209	0xbc41dd4a	-0.011832545
210	0x3c0cbcce	0.008589936
211	0x3d561c73	0.052273225
212	0x3d3d4c53	0.046215367
213	0x3d25ae0c	0.040449187
214	0x3cc87675	0.024470547
215	0x3d0c34c7	0.03423002
216	0x3d334b11	0.04377276
217	0x3d85beba	0.06530519
218	0x3c65c078	0.014022939
219	0xbf2e6eeb	-0.68138
220	0xbea5997d	-0.32343665
221	0x3c805bfd	0.015668863
222	0xbea6f0f6	-0.32605714
223	0x3c57cfad	0.013172072
224	0x3c38ab2d	0.01127128
225	0xbd5263e2	-0.051364787
226	0x3d47fb12	0.048823424
227	0xbc802cad	-0.015646303
228	0xbd45ecdc	-0.04832159
229	0xbde059bb	-0.10954615
230	0x3dd9b26a	0.10629733
231	0xbd74b0eb	-0.059739035
232	0x3d104aa6	0.03522744
233	0x3d295f00	0.041350365
234	0x3d0c5c0b	0.034267467
235	0xbd1243f5	-0.03570934
236	0xbe5bf99a	-0.21481934
237	0x3cdb4e13	0.026770627
238	0x3b15777c	0.0022806814
239	0x3d1ea505	0.038731594
240	0xbd02d94f	-0.031945523
241	0x3d04d227	0.03242698
242	0xbbf0c467	-0.0073476317
243	0x3d8794e5	0.06620196
244	0x3cd75659	0.026286291
245	0xbf2763fe	-0.6538695
246	0x3b6972aa	0.0035621324
247	0xbeb5ac4f	-0.35483024
248	0x3c50742c	0.01272301
249	0xbf2e760d	-0.6814888
250	0xbd69bba1	-0.057063702
251	0x3d39d60d	0.04537015
252	0xbbbf10b8	-0.0058308505
253	0x3d0ea869	0.034828577
254	0x3d4d9fa1	0.050201062
255	0x3cf267f0	0.029590577

model.6.bias f4 [64]
0	0x3e1827d3	0.14858942
1	0x3d4a5ddd	0.04940592
2	0x3def092c	0.11671671
3	0x3d9723af	0.07379853
4	0x3d228d63	0.039685618
5	0x3d1f2e50	0.038862526
6	0xbc1e2020	-0.009651214
7	0x3d8f7c46	0.07006125
8	0x3d8c09a6	0.06837778
9	0x3e4c3f3a	0.19945994
10	0x3d371d94	0.044705942
11	0x3d25610a	0.040375747
12	0x3d88d9d5	0.06682173
13	0x3d10c241	0.035341505
14	0x3e51d0fd	0.20489879
15	0x3d90b948	0.070665896
16	0x3ce995c5	0.028513798
17	0x3d0e909e	0.034805886
18	0x3d77103d	0.06031822
19	0x3d9e91d9	0.07742662
20	0x3d251d8a	0.040311374
21	0x3da385a2	0.07984473
22	0x3d5f0098	0.054443926
23	0x3d4cde1e	0.050016515
24	0x3e0c01f9	0.13672628
25	0x3d3f5f2f	0.046721634
26	0x3d34f5fb	0.044179898
27	0x3d0be60d	0.03415494
28	0x3dfaf561	0.122538336
29	0x3d92a72f	0.07160794
30	0x3d831db7	0.06402152
31	0x3d26d8dd	0.04073416
32	0x3c97cf45	0.018531451
33	0x3d15dc6d	0.036587168
34	0x3cb7d07e	0.022438284
35	0x3d3d4e34	0.04621716
36	0x3d599ab3	0.05312605
37	0x3d2eed52	0.042706795
38	0x3d361259	0.04445109
39	0x3db01ef2	0.08599652
40	0x3d1b9e41	0.03799272
41	0x3d1af8d4	0.037834957
42	0x3e1f54e1	0.15559722
43	0x3e0721a8	0.13196433
44	0x3d564722	0.05231393
45	0x3ca1cac9	0.019750016
46	0x3ccee1a2	0.025254074
47	0x3d78d312	0.060748167
48	0x3d604135	0.054749686
49	0x3d90bf87	0.07067781
50	0x3d3141f6	0.043275796
51	0x3cec9846	0.028881203
52	0x3e1bba6b	0.15207832
53	0x3d062333	0.032748412
54	0x3d774e3b	0.06037734
55	0x3de81ef6	0.1133403
56	0x3d70c13f	0.058778044
57	0x3d0c8c8f	0.034313735
58	0x3d4707e2	0.048591502
59	0x3d251682	0.04030467
60	0x3e08564a	0.13314167
61	0x3eacd76f	0.33758113
62	0x3dad70bd	0.08468769
63	0x3d60a8cc	0.054848477

model.9.weight f4 [64, 64]
0	0xbdba288b	-0.09089764
1	0x3ad61a32	0.0016334711
2	0x3d26c92b	0.040719192
3	0xbccef685	-0.025264034
4	0x3c755382	0.014973523
5	0x3d3fab25	0.046794076
6	0x3d3bdbbf	0.045863863
7	0x3d640e17	0.0556775
8	0x38c52784	9.4010524e-05
9	0x3c2f9b8c	0.010718238
10	0x3d56c890	0.052437365
11	0xbf0cf18d	-0.5505608
12	0xbdafa1e4	-0.085758
13	0xba340d75	-0.00068684603
14	0xbd300601	-0.042974476
15	0x3d64bfbd	0.05584692
16	0x3d2683a8	0.0406529
17	0xbc8b806f	-0.017029015
18	0x3d5fd0a5	0.05464234
19	0x3d4a2745	0.049353857
20	0xbf2f8e3e	-0.6857642
21	0xbb5035d3	-0.0031770363
22	0xbebd92f9	-0.37026194
23	0xbcd7d615	-0.0263472
24	0x3d44889a	0.047981836
25	0x3ac9c42f	0.001539355
26	0x3cd9d67b	0.02659153
27	0x3d927bf5	0.07152549
28	0xbc8d0d5d	-0.017218286
29	0x3c979712	0.018504653
30	0x3d4cc7d7	0.04999527
31	0xbc0ee550	-0.008721665
32	0x3da5b9cd	0.08092079
33	0xbf5664f5	-0.837478
34	0x3d5f1072	0.054459043
35	0x3c722f6c	0.014781814
36	0xbe80f2ef	-0.25185344
37	0xbebada80	-0.36494827
38	0xbe76293c	-0.24039167
39	0xbc81b97e	-0.01583552
40	0x3d14e525	0.03635134
41	0xbf5a352d	-0.8523739
42	0xbddd0e1f	-0.10793709
43	0x3d02aece	0.031904988
44	0x3d8b9fb9	0.06817574
45	0x3d5f5b67	0.054530527
46	0x3a94a7a7	0.0011341468
47	0xbd5063ef	-0.050876554
48	0x3d014cb6	0.031567298
49	0xbd10d574	-0.035359815
50	0x3c75e81e	0.015008954
51	0xbb81afba	-0.003957716
52	0xbe144c22	-0.14482167
53	0x3d65cf00	0.056105614
54	0x3d11dd45	0.03561141
55	0xbd8561c2	-0.065127864
56	0xbe25c950	-0.16190076
57	0xbd440d65	-0.047864337
58	0x3d598a41	0.053110365
59	0x3d5a35f1	0.0532741
60	0xbd5b0628	-0.053472668
61	0xbd6ced8f	-0.05784374
62	0xbc96b30f	-0.018395929
63	0xba09178b	-0.00052296434
64	0xbdad3c69	-0.08458788
65	0xbc09a3f1	-0.008400903
66	0xbbd27f5c	-0.006423874
67	0xbd3b151e	-0.045674436
68	0x3d318a33	0.043344688
69	0x3ce42740	0.027850747
70	0x3e0d5dda	0.13805333
71	0xbc5e60be	-0.01357287
72	0xbcd3c1ba	-0.025849212
73	0x3b091930	0.0020919554
74	0xbd1b5df5	-0.0379314
75	0x3bb410a7	0.005495149
76	0x3d84f7d9	0.06492586
77	0xbf29e966	-0.6637176
78	0xbd5fe8fc	-0.05466555
79	0x3d467577	0.048451867
80	0xbf32589d	-0.69666463
81	0xbf3672d0	-0.7126894
82	0xbbb37246	-0.005476269
83	0xbd67eb01	-0.0566206
84	0x3cdba0ea	0.026810128
85	0x3cb7a8f7	0.022419436
86	0x3d1f5b1d	0.03890525
87	0x3b40173a	0.002931072
88	0xbcdf6d27	-0.027273728
89	0x3d7edb50	0.06222087
90	0x3c609473	0.013707268
91	0xbc9c5d5b	-0.019087484
92	0xbd93d58a	-0.07218464
93	0x3cfd4755	0.030917803
94	0xbe1b67cf	-0.15176319
95	0xbd538b4b	-0.051646512
96	0xbd8a9ecd	-0.0676857
97	0x3ce322c8	0.027726546
98	0xbd8d8863	-0.06910779
99	0xbf09ad3e	-0.5377997
100	0x3c249a8c	0.0100466125
101	0x3c76e477	0.015069119
102	0x3da1e24f	0.07904493
103	0xbc8948b4	-0.0167583
104	0xbe8e8baf	-0.27840945
105	0xbc4c7b70	-0.012480602
106	0x3c3196ca	0.010839174
107	0x3c9e0087	0.01928736
108	0x3d8aa4a9	0.06769688
109	0x3bf74bfb	0.0075468994
110	0xbf1bb2f4	-0.60819936
111	0x3ce11506	0.027475845
112	0x3d24a57a	0.040196873
113	0x3cfa88bc	0.030582778
114	0x3d2edb32	0.04268951
115	0xbebe0d11	-0.37119344
116	0xbda963c1	-0.0827098
117	0x3cc6c945	0.024265895
118	0xbd24703f	-0.04014611
119	0xbdd04fd0	-0.10171473
120	0xba2f175c	-0.0006679201
121	0xbd8e14d7	-0.06937569
122	0xbdab699c	-0.08369753
123	0x3d174888	0.036934406
124	0xbd5f1b29	-0.05446926
125	0xbd9c0912	-0.076189175
126	0x3c47fe08	0.012206562
127	0xbc8a8890	-0.016910821
128	0x3c427c64	0.011870477
129	0xbaaeafc1	-0.0013327525
130	0x3b5f4731	0.0034069533
131	0x3de334ca	0.11094053
132	0x3ca8be28	0.020598486
133	0xbea4bddc	-0.321761
134	0x3e0c9c3a	0.1373147
135	0xbccc1760	-0.02491349
136	0xbdab7d6b	-0.08373531
137	0xbcd336ea	-0.025783021
138	0xbc0c8f89	-0.008579143
139	0x3bacdf86	0.0052756695
140	0xbde63996	-0.112414524
141	0x3c03c773	0.008043158
142	0xbd8fb189	-0.07016284
143	0xbc49e8fd	-0.012323615
144	0xbc8aa287	-0.016923202
145	0x3c6a3f07	0.014297253
146	0xbd435598	-0.04768905
147	0xbd0f8eca	-0.035048284
148	0x3c8cb7c8	0.017177477
149	0xbda2d4ea	-0.079507664
150	0x3c825133	0.01590786
151	0xbd700394	-0.058597162
152	0xbd78235c	-0.060580596
153	0xbf1794dc	-0.59211516
154	0xbdc0a919	-0.09407253
155	0xbf4f8b45	-0.81071883
156	0x3cef8e0d	0.02924254
157	0x39c9a853	0.0003846312
158	0x3d0d9424	0.034565106
159	0x3d20796a	0.03917829
160	0xbdf95005	-0.12173466
161	0x3d8195f3	0.06327429
162	0x3da28d06	0.07937054
163	0x3cde00df	0.027100025
164	0xbcf7299b	-0.030171206
165	0xbbb2700c	-0.005445486
166	0xbda8db91	-0.08245004
167	0xbd15b4ba	-0.036549307
168	0x3d6c31ce	0.057664685
169	0x3c051faa	0.008125225
170	0xbcebed24	-0.0287996
171	0x3d37a8e9	0.04483882
172	0xbf335b8c	-0.70061564
173	0x3dfa7409	0.12229163
174	0xbcb39548	-0.021921769
175	0x3dde69d2	0.108600274
176	0xbb4b96a7	-0.0031065138
177	0xbae264be	-0.0017272455
178	0xbcf87ce6	-0.030332994
179	0x3d0f8711	0.03504092
180	0xbc245f64	-0.0100325085
181	0x3d4d12b5	0.05006667
182	0xbebc6373	-0.36794624
183	0x3b85b772	0.0040807063
184	0x3d89828c	0.06714353
185	0x3dc58bc8	0.09645802
186	0x3d00a6e7	0.03140917
187	0xbbb0660f	-0.00538326
188	0x3bb9fed1	0.0056761284
189	0xbe49ec02	-0.19718936
190	0x3d26c907	0.04071906
191	0x3d6cbb56	0.057795845
192	0x3c52982a	0.012853662
193	0xbe7a1c09	-0.24424757
194	0xbd10b67f	-0.03533029
195	0x3d0169cd	0.03159504
196	0xbf3e2965	-0.74281913
197	0xbd3e0bed	-0.046398092
198	0x3dbcf470	0.0922631
199	0xbecf41b6	-0.4047982
200	0xbd1258dd	-0.035729278
201	0xbab7f2b9	-0.0014034129
202	0xbe65db46	-0.22446927
203	0x3dbb3c36	0.09142344
204	0x3d8773f2	0.06613912
205	0xbc8d75e2	-0.017268125
206	0x3c16d2a4	0.009205494
207	0xbe2252c6	-0.15851888
208	0x3d0d8a7c	0.034555897
209	0xbba858b2	-0.0051375264
210	0xbf016ac9	-0.50553566
211	0x3a0f1d00	0.00054593384
212	0xbd17c58d	-0.037053633
213	0x3dd0390a	0.10167129
214	0x3d2efc2c	0.04272096
215	0x3d2e7ac6	0.042597555
216	0xbe866623	-0.262498
217	0x3d79a0cb	0.06094436
218	0x3cf6b7f5	0.030117014
219	0x3db0c101	0.086305626
220	0x3d53857f	0.051640984
221	0xbe71581d	-0.23568769
222	0xbd6a5328	-0.05720821
223	0x3a6f1f61	0.0009121802
224	0x3d550126	0.05200305
225	0x3d1e2360	0.038607955
226	0xbd5b5e54	-0.053556755
227	0x3cc00e90	0.023444444
228	0x3da786b0	0.081799865
229	0x3d7408a3	0.05957855
230	0xbc418bb3	-0.011813092
231	0xbeba2a77	-0.36360523
232	0xbcd43650	-0.025904804
233	0x3c675192	0.014118569
234	0x3d8e693d	0.06953666
235	0xb99641f4	-0.00028659368
236	0xbb73ce7f	-0.0037201939
237	0xbdb0460d	-0.08607111
238	0x3d2be703	0.041968357
239	0x3cdba410	0.02681163
240	0xbf70ded4	-0.9409001
241	0xbd386ad3	-0.04502375
242	0xbe751424	-0.23933464
243	0x3d5156ac	0.051108047
244	0x3c65a563	0.014016482
245	0xbe94b675	-0.29045454
246	0xbd4d2db8	-0.05009243
247	0x3d0dc4d5	0.03461154
248	0x3d940d23	0.07229068
249	0xbbd5f975	-0.0065299817
250	0xbdaca237	-0.084293775
251	0xbf5f3d58	-0.8720298
252	0xbcfde907	-0.030994905
253	0xbd3bf6af	-0.045889553
254	0xbc828ef8	-0.015937313
255	0x3d91a930	0.07112348

model.9.bias f4 [64]
0	0x3e9785c8	0.29594254
1	0x3e9ad9ea	0.3024438
2	0x3e6f77d7	0.23385559
3	0x3ea24afe	0.3169784
4	0x3e8e54a9	0.27798966
5	0x3e85eeca	0.26158744
6	0x3e83de05	0.25755325
7	0x3e7cf764	0.24703747
8	0x3e9a895f	0.3018293
9	0x3e7d94ed	0.24763842
10	0x3e8a7ea8	0.27049756
11	0x3eaa6820	0.33282566
12	0x3ec90faf	0.39269778
13	0x3e5d4373	0.21607761
14	0x3e851b2f	0.25997302
15	0x3e90bc79	0.28268793
16	0x3e33646c	0.17518777
17	0x3e9b13ac	0.30288446
18	0x3e92e441	0.2868977
19	0x3e8a73e1	0.27041534
20	0x3e66e216	0.22547182
21	0x3e83fdb4	0.25779498
22	0x3e76ebb0	0.24113345
23	0x3eaf5d3b	0.34250817
24	0x3e9171d2	0.2840715
25	0x3ea13233	0.3148361
26	0x3e698936	0.22806248
27	0x3e8c313e	0.2738132
28	0x3e7e462b	0.24831454
29	0x3e7a2e7e	0.24431798
30	0x3e826dcc	0.25474393
31	0x3e9320a2	0.28735834
32	0x3e8c0669	0.2734864
33	0x3e8da6f2	0.27666432
34	0x3e895605	0.2682344
35	0x3e971cd0	0.2951417
36	0x3e9a3fa1	0.3012667
37	0x3ea2c04f	0.31787345
38	0x3e8d3c99	0.27585295
39	0x3ea78042	0.3271504
40	0x3e989897	0.29803917
41	0x3eaa09ac	0.33210504
42	0x3eba3c83	0.36374292
43	0x3e81abaf	0.25326297
44	0x3e8723b0	0.26394415
45	0x3e8b64e8	0.27225423
46	0x3e9871d0	0.29774332
47	0x3e88d02e	0.26721328
48	0x3e36175f	0.17782353
49	0x3e9f2d47	0.3108923
50	0x3e80ad51	0.2513223
51	0x3e9bf7c1	0.3046246
52	0x3e99e801	0.30059817
53	0x3e99ec00	0.30062866
54	0x3ebb52f1	0.36586717
55	0x3ea47cfd	0.32126608
56	0x3e447be1	0.19187881
57	0x3e8f7a6e	0.28023094
58	0x3e885de3	0.2663413
59	0x3ea2889a	0.31744844
60	0x3ea1761d	0.31535426
61	0x3e8c097e	0.27350992
62	0x3eb3b021	0.35095313
63	0x3ea39860	0.3195219

model.12.weight f4 [3, 64]
0	0x3e433d12	0.19066265
1	0xbded4a0f	-0.11586391
2	0xbd93bbd2	-0.07213558
3	0xbe00fba4	-0.12595993
4	0x3e805982	0.2506829
5	0xbe2c7a0a	-0.16843429
6	0xbdfc81fe	-0.123294815
7	0x3e563fce	0.20922777
8	0xbe42473c	-0.18972486
9	0x3dc19fba	0.094542935
10	0x3d903bb1	0.07042635
11	0xbda16362	-0.07880284
12	0x3d531a47	0.051538732
13	0xbe75ffc1	-0.24023344
14	0x3ea3ffb9	0.32031038
15	0x3e427468	0.18989718
16	0xbe7adfd8	-0.24499452
17	0xbda50562	-0.08057667
18	0xbe277700	-0.16353989
19	0x3e8b1fa1	0.27172568
20	0x3da74ff0	0.08169544
21	0x3dc7065e	0.09718011
22	0x3e01a123	0.12659125
23	0x3dc0cd29	0.09414131
24	0xbd8221ba	-0.06354089
25	0x3e1d3683	0.15352826
26	0xbe1c6ba3	-0.15275435
27	0xbdf63dca	-0.12023504
28	0x3e3a1a9f	0.18174218
29	0x3e0e87e3	0.13919024
30	0xbdbd7df3	-0.092525385
31	0xbe1a4950	-0.15067029
32	0x3e839fc2	0.25707823
33	0xbda267e1	-0.079299696
34	0x3e806da1	0.2508364
35	0x3d7d9c0f	0.061916407
36	0x3e0f382a	0.13986269
37	0x3dd5a348	0.10431534
38	0xbe12c9f2	-0.14334849
39	0xbdd8a6bc	-0.10578677
40	0x3ddfedfb	0.10934063
41	0xbd4de69f	-0.050268766
42	0xbd8e59be	-0.06950711
43	0xbde29862	-0.11064221
44	0xbdee2c1b	-0.11629506
45	0x3e36f518	0.17866933
46	0xbda8a25e	-0.08234094
47	0x3e8593f0	0.2608943
48	0xbe731a40	-0.23740482
49	0xbd214c88	-0.039379627
50	0x3e60f70d	0.21969242
51	0x3dc5262a	0.0962642
52	0xbdfd622f	-0.12372243
53	0xbd74de83	-0.059782516
54	0xbdc89ee0	-0.09795928
55	0xbd80ebb9	-0.062949605
56	0xbd876abb	-0.06612154
57	0xbd28fd88	-0.04125741
58	0x3e2258ca	0.15854183
59	0xbc831695	-0.016001979
60	0xbe086cef	-0.13322805
61	0xbdfed41e	-0.12442802
62	0xbd688548	-0.056767732
63	0xbbf79c2f	-0.0075564603
64	0xbd262cc6	-0.040570043
65	0xbdbdb97c	-0.09263894
66	0xbe1ce4f7	-0.15321718
67	0x3df4a927	0.11946326
68	0x3d52657b	0.05136631
69	0xbe296110	-0.16540933
70	0xbe1e06c0	-0.15432262
71	0xbe81e9fe	-0.25373834
72	0xbdf042f6	-0.11731522
73	0xbd81f977	-0.0634641
74	0x3dabcac9	0.083882876
75	0x3db9d2a1	0.090733774
76	0xbdc870a5	-0.0978711
77	0x3c866cf1	0.01640937
78	0x3c0be946	0.008539503
79	0x3d703789	0.058646712
80	0xbdbc8f38	-0.09207004
81	0xbe14176f	-0.14462064
82	0xbdbffd06	-0.09374432
83	0xbdd71244	-0.10501531
84	0xbe893024	-0.2679454
85	0x3e73d3ac	0.23811215
86	0xbe8227ab	-0.2542089
87	0x3e3dbb42	0.18528464
88	0x3d60618d	0.05478053
89	0xbda1b389	-0.07895572
90	0xbe43b1f9	-0.1911086
91	0xbd3e0c48	-0.04639843
92	0xbde4f51e	-0.11179565
93	0x3e4db121	0.200871
94	0x3d2159bc	0.039392218
95	0x3dc4484c	0.09584102
96	0x3d39e514	0.04538448
97	0x3e52c552	0.20583084
98	0x3c39a4de	0.011330811
99	0xbedb0e84	-0.42784512
100	0x3e1d3b1e	0.15354583
101	0xbe1edbf8	-0.15513599
102	0x3e081e32	0.13292769
103	0xbd205833	-0.039146613
104	0xbe5b84c1	-0.2143736
105	0x3d87ee32	0.06637229
106	0xbdae2e5e	-0.085049376
107	0x3dd628b9	0.10456986
108	0xbe2e4f3c	-0.17022413
109	0x3e425d5c	0.18980926
110	0xbe188adc	-0.1489672
111	0xbdf40e9d	-0.1191685
112	0x3d5e0417	0.05420312
113	0xbe0417ba	-0.12899676
114	0x3e8a9e7d	0.27074042
115	0x3e95b323	0.29238233
116	0x3dc37fe5	0.09545878
117	0x3de6b508	0.11264998
118	0x3da90ed5	0.08254782
119	0xbd192578	-0.03738925
120	0xbd2cd688	-0.04219678
121	0x3e4d1248	0.20026505
122	0x3e974394	0.29543746
123	0x3e1d3e86	0.15355882
124	0x3d7234d5	0.059132416
125	0xbe05692f	-0.13028406
126	0x3e191a55	0.14951451
127	0xbe73a24b	-0.23792379
128	0xbc10d45b	-0.008839692
129	0xbe5383e2	-0.20655778
130	0x3e1cbb0d	0.15305729
131	0x3da574a6	0.080788895
132	0x3ca43f36	0.020049673
133	0xbdc536aa	-0.09629567
134	0x3d0959ca	0.033532895
135	0x3ca7585e	0.020427879
136	0xbe8159de	-0.25263876
137	0x3e47444f	0.19459651
138	0xbe9f8189	-0.31153515
139	0x3e1b2958	0.1515249
140	0xbe1f8614	-0.1557849
141	0x3d92dd11	0.07171071
142	0xbc98abd3	-0.01863662
143	0x3c1167c6	0.008874839
144	0xbdc2f16d	-0.095187046
145	0xbd98e5e4	-0.07465723
146	0xbe774c8e	-0.24150297
147	0x3b81b51d	0.003958358
148	0x3d9176c3	0.0710273
149	0x3d39dbbb	0.045375567
150	0x3dd6d698	0.10490149
151	0x3e1f4337	0.15552984
152	0x3e2eb0bf	0.17059611
153	0xbd3a43bc	-0.045474753
154	0xbd7dec4c	-0.06199293
155	0x3dd1cc7a	0.10244079
156	0x3de5361a	0.1119196
157	0xbe738825	-0.23782404
158	0xbe6b5835	-0.22982867
159	0x3e34d3b6	0.17658886
160	0xbda84b99	-0.08217544
161	0x3d80cedf	0.062894575
162	0x3d3a2ca2	0.04545272
163	0xbeae7023	-0.3406993
164	0x3db228d8	0.086991966
165	0xbe0815ee	-0.13289616
166	0x3dc55258	0.096348464
167	0xbe3eeda7	-0.18645345
168	0xbe1dd99f	-0.15415047
169	0x3e09adb7	0.13445173
170	0xbe2b1ac6	-0.16709432
171	0xbe296544	-0.16542536
172	0xbe02dbe0	-0.12779188
173	0x3d3ebe01	0.04656792
174	0xbd6187f7	-0.055061307
175	0x3d88e345	0.06683973
176	0xbcff06e0	-0.031131208
177	0xbd5b8e5a	-0.053602554
178	0xbd2f133d	-0.042742956
179	0x3e58249d	0.21107717
180	0x3e5af265	0.21381529
181	0x3e326f47	0.17425261
182	0x3e18039a	0.14845124
183	0xbe3198e6	-0.17343482
184	0x3e22865d	0.15871568
185	0x3da78717	0.08180063
186	0x3e65780f	0.2240908
187	0x3d694dc6	0.056958936
188	0x3e4b20c6	0.19836721
189	0xbe52cc90	-0.20585847
190	0x3d80c93a	0.06288381
191	0xbe99b958	-0.3002422

model.12.bias f4 [3]
0	0x3dc7bdaa	0.097529724
1	0x3d257ddf	0.040403243
2	0xbab1f055	-0.0013575653
