exported_models/neural_networks/raw_mlp/trained_models/model_epoch_100_batch_64_lr_1e-05_vs_30_hl_128_128_128_128/mlp_dynamics.pth (torch, 207061 bytes, 10 tensors)

model.0.weight f4 [128, 5]
000000 56 3c cc be fa 44 80 3d d9 e4 dc 3e fa 77 86 bd
       -0.39889783 0.06263156 0.43143347 -0.065658525
000010 d1 a1 a5 be e4 8f c9 be 64 60 8d be 5e b7 ce be
       -0.3235002 -0.39367592 -0.27612603 -0.40374273
000020 50 04 9e 3e 13 ed d5 be f2 16 bc bd d7 09 06 3f
       0.30862665 -0.41782436 -0.09184064 0.52358764
000030 98 08 29 be f1 56 a6 3e 71 ec 5c be b0 fb 15 bd
       -0.16507185 0.32488206 -0.2157457 -0.03661698
000040 37 2f a9 be e7 ff 9d be 48 f2 04 be 6e 5d fe 3c
       -0.33043835 -0.308593 -0.12983048 0.03105041
000050 b1 bd e5 be d7 4a 84 be b6 b8 0a be ca da 7b be
       -0.44871286 -0.25838348 -0.13547024 -0.2459518
000060 08 04 32 be 1f 86 f6 3e c0 b1 a3 be 36 9b 2c 3c
       -0.1738435 0.481492 -0.3197155 0.010535052
000070 d2 5f 8b be df 2f 39 be 57 be be be 3a f3 06 3e
       -0.27221543 -0.18084668 -0.37254593 0.13178721
000080 46 69 44 3e 0e 10 2e 3e 9f a0 23 3e 1c 9f a9 3e
       0.19180784 0.16998312 0.15979241 0.33129203
000090 26 ea a2 3d 5f 7a 5b 3e 8f 87 7f 3c ea 0d 07 be
       0.079548165 0.214334 0.0155962845 -0.13188902
0000a0 13 d5 aa 3d 0b 91 98 3d 30 ed f4 3e a7 9c b7 3e
       0.08341422 0.0744954 0.4783721 0.35861704
0000b0 8d 3b 5d 3e 6f 34 96 be a2 41 66 be 33 f4 c8 3d
       0.21604748 -0.2933688 -0.22485974 0.09812202
0000c0 72 81 54 bd d4 d1 e6 3d 88 3f be be b7 d0 d2 be
       -0.05188126 0.1127049 -0.37157845 -0.41174862
0000d0 e3 37 92 3e ae 02 a8 3e 10 9b b9 bd 18 f6 79 3d
       0.28558263 0.32814544 -0.09062779 0.06102571
0000e0 d7 20 d1 3e f3 9b df be f3 7b 92 be d4 8b 5f 3e
       0.40845367 -0.43673667 -0.2861019 0.21830684
0000f0 a3 d7 d6 be 78 04 90 3e 47 e5 85 bc 73 1e 76 3e
       -0.41961393 0.2812841 -0.01634468 0.24035053
000100 36 f9 24 3e 35 77 1f 3e 94 05 63 3d d8 d7 d9 3b
       0.16110691 0.15572818 0.05542524 0.006648045
000110 3f 71 30 3d 3a 70 a5 3d b3 73 a7 be 06 93 02 be
       0.04307675 0.08078046 -0.3270546 -0.12751397
000120 75 e5 80 3e 96 27 86 be e9 a5 75 be 7f 02 2b be
       0.25175062 -0.26202077 -0.23989071 -0.16700171
000130 33 03 f2 bd a5 3f 70 3e 7b 7a 6d 3e cc fb 66 3e
       -0.118170165 0.23461778 0.23191254 0.2255699
000140 c1 f7 0d be 58 2b ca 3e fc c2 e2 3e 2e f3 5a 3e
       -0.13864042 0.39486194 0.44289386 0.21381828
000150 cf ff 03 3e d2 b7 ba be 90 2c ba 3e 8a f7 d9 be
       0.12890552 -0.3646837 0.36362123 -0.4257167
000160 e7 47 7e 3e ac f4 03 be 6b 18 c1 bd c3 20 0b 3e
       0.24832116 -0.12886304 -0.094284855 0.13586716
000170 8c cf 51 be 6d c6 c1 be 93 dc df be 66 2a d9 3e
       -0.20489329 -0.378467 -0.43722972 0.4241516
000180 28 3c 42 be 42 cd c5 3e d6 0f 6f be a9 26 27 3e
       -0.1896826 0.38633162 -0.23345885 0.16323341
000190 42 30 c2 be 85 a0 fb bd 6d 0d 50 3e fe 16 d0 be
       -0.37927443 -0.12286476 0.20317622 -0.40642542
0001a0 c9 83 c1 be 9d 6c eb be 3d b2 03 3e ff d7 b3 3e
       -0.37795857 -0.45981303 0.12860961 0.3512573
0001b0 94 1e 38 3d a3 9f f7 bd d1 a3 f8 bd af c7 a1 be
       0.044951037 -0.12090995 -0.121406205 -0.3159766
0001c0 a9 a4 77 bd a8 24 a7 3e db 23 4a be 96 6e 74 be
       -0.060459767 0.32645154 -0.1974024 -0.2387031
0001d0 8f ab e2 bd cf 9a d6 be 08 51 9e be 63 ea 05 3e
       -0.110678785 -0.41914985 -0.30921197 0.13077693
0001e0 4a 45 a7 be 8d 0d cc be ba 06 e8 3e f9 f3 9f 3e
       -0.3267005 -0.39854088 0.45317632 0.31240824
0001f0 28 63 a4 3e 1c 03 76 be 83 76 50 be 0a 48 e3 be
       0.321069 -0.24024624 -0.20357709 -0.443909
000200 fa 76 9d be 7d 56 67 be 03 f2 9e 3e b3 fd e0 be
       -0.30754834 -0.22591586 0.31044015 -0.43943557
000210 cf fc 47 be 79 5c a8 be f3 89 dc 3e e8 39 f1 3e
       -0.19530033 -0.3288305 0.43073997 0.4711449
000220 a1 a4 b8 3e ee c6 23 3e a8 34 4f 3e 9d 5f 82 3e
       0.36063102 0.15993854 0.2023493 0.25463572
000230 bd 3c ef 3d 79 78 8e 3e 01 2d a0 3d 27 05 8a be
       0.11681507 0.27826288 0.07821084 -0.26957056
000240 4d d5 2b 3e c3 b5 90 be 98 ee ef bd 30 f4 bf be
       0.16780587 -0.28263673 -0.1171543 -0.37490988
000250 09 1d ad 3e e9 52 fc 3d 9c 9d 22 3e 42 93 83 ba
       0.33811215 0.12320501 0.15880436 -0.0010038393
000260 f3 44 89 be 60 e1 a3 bd 13 6a e8 3d 09 50 ab be
       -0.26810417 -0.08001971 0.11348357 -0.334595
000270 2e 5d b0 be 0c e1 76 3e 67 53 3a be 08 0a c6 3e
       -0.3444609 0.24109286 -0.18195878 0.38679528
000280 dc 67 91 3e 08 2e c0 be 49 54 a8 be 65 b9 ad 3e
       0.2839955 -0.3753512 -0.32876804 0.33930507
000290 a4 fb 87 be a9 32 a4 be 78 d0 b3 3e 67 90 94 be
       -0.26559174 -0.320699 0.35119987 -0.2901642
0002a0 41 29 b2 bd 5c db 56 be 3d 6b c5 3e b1 f4 7e 3e
       -0.08699275 -0.20982116 0.3855838 0.2489803
0002b0 41 95 ee 3e 4f 58 87 3e ee 14 29 be 41 31 4c 3e
       0.46598247 0.26434562 -0.1651189 0.19940664
0002c0 83 b1 6e be 2c 0a 70 be 32 30 90 3e 8c 57 d8 be
       -0.23309903 -0.2344138 0.2816177 -0.42254293
0002d0 2a e4 82 3e d7 57 dc bd 31 5d d4 be ef 21 19 bb
       0.255647 -0.107589416 -0.4147735 -0.0023366173
0002e0 23 ff ea 3c 3e 7d f0 be ce de 57 3e 77 ec 28 be
       0.028686112 -0.46970552 0.21081087 -0.16496454
0002f0 f5 64 13 be b4 d9 47 3e 2f 10 34 bd 02 dc 05 3e
       -0.14393981 0.19516641 -0.043960746 0.13072208
000300 ef 48 9d be 9e 7d e1 3e 99 f1 a0 3e 67 10 9a be
       -0.30719706 0.4404115 0.31434324 -0.3009064
000310 f0 38 80 be 29 45 d1 3d 4d bc 2a 3e 80 79 62 3e
       -0.2504344 0.102182694 0.16673394 0.22116661
000320 a1 ff 84 be 68 00 85 be 3a 47 84 3e 81 df 88 3e
       -0.2597628 -0.25976872 0.25835592 0.2673302
000330 ec 5e 89 be c5 09 c4 3e eb 7c 52 3e c7 68 fc bd
       -0.26830232 0.38288704 0.20555465 -0.12324672
000340 6f ac dc 3d 04 fe f6 3d 45 93 d9 be 20 3a 7d 3e
       0.107750766 0.120601684 -0.4249517 0.24729204
000350 68 4d 97 be 8f 6f 6d 3d a3 28 4e be af 62 62 3e
       -0.29551244 0.05796772 -0.20132689 0.22107957
000360 87 0c 1c 3e 95 e8 2a 3e 22 16 3e 39 f6 f3 5d 3e
       0.15239154 0.16690286 0.00018128057 0.21675095
000370 29 89 9f 3e e1 df 2b 3e 44 47 c5 be f2 cb 85 3e
       0.31159332 0.16784622 -0.38530934 0.2613216
000380 53 62 96 3d 5c 0d ac 3e 88 6c 6f be c4 f7 fe be
       0.073429726 0.33603942 -0.23381245 -0.49798405
000390 f4 a3 cc be 7e 20 1b 3e 75 af 79 3e 9e f3 f5 bd
       -0.39968836 0.15149114 0.24383338 -0.12009357
0003a0 4e da 60 bd 71 c2 d4 be df 7f ad be c4 1d b1 be
       -0.05489569 -0.41554597 -0.3388662 -0.34593022
0003b0 4d d4 df bd 0c 18 9d bd 69 39 0f be 1a a9 a2 3e
       -0.10929165 -0.07670602 -0.13986744 0.3176964
0003c0 3d 8c 2a be 5d fd 91 3e 46 66 57 3e d1 84 fa be
       -0.16655059 0.28513613 0.21035108 -0.48929456
0003d0 31 af a8 be 5f 83 4e be 78 4b a6 3e 2e be 5e be
       -0.3294616 -0.20167302 0.32479453 -0.21752235
0003e0 e3 4a 32 be e1 39 a6 3e 0c 72 83 be 2f 6c 7a 3e
       -0.1741138 0.32466033 -0.25672948 0.24455331
0003f0 8b e0 cc 3e 6c 6d 36 be 89 64 f9 bd e6 d8 d2 3e
       0.40015063 -0.17815179 -0.12177379 0.41181105

model.0.bias f4 [128]
000000 54 c7 c8 3e fe b1 58 be 35 ef bb be 27 57 b2 be
       0.39214575 -0.21161649 -0.36705938 -0.34832117
000010 6e 02 98 be 36 03 95 be 55 5f a2 3e d5 63 0e 3d
       -0.29689354 -0.29104012 0.31713358 0.034763176
000020 e8 72 dd 3d b4 f0 c3 be fc 5e ea 3e 7d 01 d7 3e
       0.10812932 -0.3826958 0.45775592 0.41993323
000030 0b 3b 81 3e 59 0b 12 be 10 13 45 be 3d c4 65 be
       0.2524036 -0.14262141 -0.19245553 -0.2243814
000040 7a 74 e5 3e ab 7e 46 3c 60 4b a8 3d b7 63 8c 3e
       0.44815427 0.012115161 0.08217502 0.27419826
000050 b3 28 cb 3e 31 ec 30 be 81 33 9c 3e 11 ab cf 3d
       0.3967949 -0.172776 0.30508044 0.1014005
000060 5c bf 0e 3d 67 17 8b be fb 8e d0 3e 61 1d 69 3e
       0.034850463 -0.27166292 0.40734085 0.22765113
000070 96 10 9c be 4e a7 c7 be d5 90 6b 3e 77 4c 2f be
       -0.30481404 -0.3899483 0.23004468 -0.17119013
000080 e8 92 9d 3c 7d bc b0 3e 45 a4 63 3d cd 6d e3 3d
       0.01923509 0.34518805 0.05557658 0.11104927
000090 33 33 b9 be 09 06 10 3d 93 7c c5 be 1a 1a 15 3d
       -0.36171874 0.035162006 -0.38571605 0.036401846
0000a0 f9 76 e3 3d 97 94 2f 3d 68 45 de 3e ad 07 9c 3d
       0.111066766 0.042866316 0.43412328 0.076186515
0000b0 04 78 76 be 37 14 c5 3d 5a 49 b3 be 1a ce 92 be
       -0.2406922 0.09622996 -0.350169 -0.28672868
0000c0 80 96 31 3e c9 33 6f 3d 92 92 c2 3e e7 8b ca 3e
       0.17342567 0.058398996 0.3800245 0.39559862
0000d0 13 11 c0 be d7 06 9f 3e 7e c5 42 bc 46 0b 2b be
       -0.37513027 0.31059906 -0.011887906 -0.16703519
0000e0 e5 40 8f be 8e d3 4f be ea 89 ed 3e ee 6c d3 bc
       -0.27979198 -0.20295545 0.46394283 -0.025808778
0000f0 07 97 b6 be 0d 1d a1 be f3 0d 67 3e 68 cb d7 bb
       -0.356621 -0.31467476 0.22563915 -0.006585527
000100 71 9f 94 be d2 29 92 3e 40 a0 5f 3c 49 a6 76 be
       -0.29027894 0.2854753 0.013649046 -0.2408687
000110 85 8f af bd 07 ff 68 be a8 c2 b4 3e 69 5c 6b 3e
       -0.08572296 -0.22753535 0.3530476 0.2298447
000120 81 37 24 be b9 76 08 3e 56 ce ce be 0f cc 82 be
       -0.16036798 0.13326539 -0.40391797 -0.2554631
000130 15 08 a5 3e ee ea bd bd 8a 30 99 3e c7 03 4f bd
       0.3223273 -0.09273325 0.29919845 -0.05054071
000140 4b 51 02 3d dc c0 60 be 9e 63 0d 3d 45 68 97 3d
       0.03181581 -0.2194857 0.03451883 0.07392935
000150 db df 9e 3d 93 73 11 3e df bb 51 3e c6 09 94 3e
       0.07757541 0.14204244 0.20481823 0.28913707
000160 9a 08 46 be 3b d9 85 be d7 9d 20 3e e8 74 e1 3d
       -0.19339219 -0.26142296 0.15685211 0.11008626
000170 7d 75 1d be 58 8b d9 3d c5 6c 09 3e 87 56 e4 bc
       -0.1537685 0.10622281 0.13420399 -0.02787329
000180 0b 34 67 3d 94 76 78 3d 90 2d 48 be 78 f0 91 bd
       0.056446116 0.06065996 -0.1954863 -0.07125944
000190 ad 4a 62 be 2b a2 45 bd f0 75 ed 3e 3e e4 43 3e
       -0.22098799 -0.04825036 0.46379042 0.19130036
0001a0 3a d6 05 3f 5c 13 17 3d 0e d1 5e 3a 4a 58 c6 3e
       0.5228001 0.036883697 0.00084997795 0.38739234
0001b0 e6 ec 38 be ff aa 99 3e 51 b6 62 3e ef a4 bc 3e
       -0.1805912 0.30013272 0.2213986 0.36844584
0001c0 48 64 e5 3e 8a 2a 30 3e fb 37 a2 be 6f 84 9f 3e
       0.4480307 0.17203727 -0.31683335 0.31155726
0001d0 e9 0b 0c 3d 0b e5 29 3e ff 82 ce 3e bf fd 53 be
       0.034191046 0.16591279 0.40334317 -0.20702265
0001e0 9a 9f aa be 10 2c 1c 3e 70 17 be 3c 57 97 35 3e
       -0.3332489 0.15251184 0.023204535 0.17733513
0001f0 74 5e 8b be 57 a1 89 3e 91 8c 48 be 32 b2 95 3e
       -0.272205 0.26880905 -0.19584872 0.29237515

model.2.weight f4 [128, 128]
000000 35 e6 9b bc 1a 07 36 bc 0c 9b 5a bd b8 f4 cb bc
       -0.01903067 -0.011110092 -0.05337052 -0.024896964
000010 1e ab 83 3b d2 ab e7 3d 10 5f 1b 3c dc 54 ef bc
       0.0040182015 0.11312069 0.009483114 -0.029215269
000020 13 21 94 3d b4 89 84 3d e4 b9 2d bc 2e 6a 3e bb
       0.07232871 0.06471577 -0.010603402 -0.0029054987
000030 b2 46 a5 bc 71 9d a6 bc 60 ed c2 3d 65 d6 6d 3d
       -0.020175312 -0.020338746 0.09517932 0.05806579
000040 d5 ef be 3d 6f a6 30 be 5a 10 24 3d 8d ec 08 3e
       0.09323088 -0.1725099 0.040054657 0.13371487
000050 42 6d 1f 3d ce 57 23 bb 5b d4 49 bd 62 74 44 3d
       0.038922556 -0.0024924162 -0.049274784 0.047962554
000060 10 58 66 3c aa ce 68 3d 0a 0b 64 bd c9 3a d9 bc
       0.014059082 0.056837715 -0.05567459 -0.026517289
000070 b6 28 30 bd d1 a5 82 3c 01 f1 1b bd 55 fb ec bc
       -0.043007575 0.015948208 -0.038071636 -0.028928438
000080 1f de c3 3b a9 aa 3f bd 75 c2 cb 3c 25 86 96 3c
       0.0059774066 -0.046793614 0.024872998 0.018374512
000090 42 e4 b0 bc dc a5 f2 bc 03 ea 99 bc 28 db 47 bd
       -0.021593217 -0.029620104 -0.018788343 -0.048792988
0000a0 d6 d8 62 3b a0 73 a7 bd 4e 4c c3 bd fa 15 ac 3d
       0.0034614108 -0.081763506 -0.09536038 0.08402629
0000b0 ea 66 08 3b 3c a7 9c 3d 3c 9c 11 3d 63 a9 5f bc
       0.0020813295 0.07649085 0.035549387 -0.013651225
0000c0 a6 72 3c 3d 93 c3 43 b9 24 16 83 3d e8 6f 84 3d
       0.046007775 -0.00018669506 0.06400707 0.06466657
0000d0 2e da c4 3d ee 78 e2 3b 19 95 01 3e 7a 1a d4 3a
       0.09611927 0.0069113886 0.12654532 0.0016182207
0000e0 ac 8c dc 3d c8 22 1f 3d 60 58 e6 bc f4 9d 48 bd
       0.107690185 0.03885153 -0.028118312 -0.04897876
0000f0 e7 eb 84 bc 48 cd b4 bd 6f 09 8c bc f2 b4 5b bc
       -0.016225768 -0.08828217 -0.017094342 -0.01340984
000100 ec e7 98 3d 34 00 b8 bc 1b 99 0c 3d 5d 32 83 3d
       0.074661106 -0.022461034 0.0343257 0.064060904
000110 63 4f 83 bd da 27 3d bd 64 2f 20 bd 2f 7c 85 3d
       -0.06411626 -0.046180584 -0.039107695 0.06517827
000120 fa e9 83 3c 70 7b 94 3d 73 16 d4 bc 58 7d a7 bc
       0.01610278 0.07250106 -0.02588961 -0.02044551
000130 b3 cc c2 bc 42 97 91 bc ae 2c 3b 3c 55 77 79 3d
       -0.023779249 -0.01777232 0.011424227 0.06090482
000140 c7 30 69 bd e4 ee b3 3d 18 84 65 3d 24 97 79 bd
       -0.056931283 0.08785799 0.056034178 -0.060935155
000150 ed 6e 3c bd a4 63 7b bd f7 27 22 bd b5 c9 99 3c
       -0.046004225 -0.06137432 -0.039588895 0.01877294
000160 6a 0d 15 3e c5 f9 f6 bc 63 31 01 bd 19 66 10 bd
       0.14555898 -0.030148396 -0.03154124 -0.035253618
000170 95 ae 0d bd 70 9f 53 bc bb 73 f1 bc 27 96 6f 3d
       -0.034590323 -0.012916431 -0.02947413 0.058492806
000180 9b 7f 5c bd 1f 80 87 3d d5 0e ed 3d 5c b2 9c bc
       -0.05383263 0.06616234 0.115750946 -0.019128017
000190 d9 ee 6d 3d 27 ff 81 3e 68 36 6d bd 0f 17 91 3c
       0.05808911 0.25389978 -0.057913214 0.01771119
0001a0 ce bb 4e 3c 23 f6 b9 3c 26 2a 71 3d 5f d5 61 bc
       0.012618018 0.022700375 0.058878087 -0.013783782
0001b0 09 33 36 bd 82 bb 39 bd 1f dd b9 bd 00 6e 9a bd
       -0.044482265 -0.045344837 -0.090753786 -0.07540512
0001c0 9e fd 60 3c 5a 33 44 3d 9f 99 8f bd 99 7b 86 3d
       0.013732342 0.047900535 -0.07011723 0.06566543
0001d0 ff 8f 81 bc 3a f0 58 bc e2 31 37 3d 7a bb 16 bc
       -0.015815733 -0.013240868 0.044725306 -0.009199971
0001e0 1f 89 26 3b 02 e1 8e bc e3 6f 00 3d a5 bc ac bc
       0.002541132 -0.017441276 0.031356703 -0.021086046
0001f0 1e ae 21 bc 64 d3 d0 3c 1c 60 dc bc 95 09 37 bd
       -0.009868173 0.025491424 -0.026901297 -0.044686873
000200 61 2f 2c bf 86 b8 02 bc 87 a6 81 38 48 12 86 bc
       -0.67259794 -0.007978564 6.1822175e-05 -0.016366139
000210 a8 e4 77 3d 5f 78 5e 3c 49 b0 fb bd b3 00 28 bd
       0.060520798 0.013578503 -0.12289483 -0.04101629
000220 69 ea cb bc 43 33 28 bd b3 e4 ca 3c 12 7d 0d bd
       -0.024892049 -0.041064512 0.024767255 -0.034543104
000230 df f2 5d bc 64 5b ca 3d 5f aa ff 3c ab 26 4e bd
       -0.0135466745 0.09880713 0.031209169 -0.050329845
000240 c6 57 b9 3b c1 85 82 3d 94 13 9a 3c 57 1a 59 bc
       0.0056562154 0.06373168 0.018808164 -0.013250909
000250 b1 50 1a bd 28 12 8c 3e cf f3 8b 3d 64 b7 28 bd
       -0.03767461 0.27357602 0.06833612 -0.04119052
000260 4a 8e 0b bd c4 27 8b 3c 62 8e 8a 3c 78 32 8f 3d
       -0.034071244 0.016986735 0.016913597 0.06992048
000270 23 2f be 3c 04 22 81 bd 8d 24 9f 3d 05 07 6b bd
       0.023215836 -0.06305316 0.077706434 -0.05737974
000280 eb 64 a9 bd 44 43 42 bd 09 fb 2d bd c0 2e 91 3d
       -0.08271202 -0.04742743 -0.042475734 0.07088995
000290 9c ee 52 bd a6 79 05 bd 40 15 d3 3c a7 9f 34 bd
       -0.051497087 -0.032586716 0.025766969 -0.04409757
0002a0 8b 36 14 bc 09 3d 0f bd 70 f0 fa 3c f6 41 6e 3d
       -0.009046207 -0.034970317 0.030632228 0.058168374
0002b0 08 88 ea bd 29 12 77 3d cd fc 72 3d 8e ab 86 bb
       -0.11451727 0.060320053 0.05932312 -0.0041098064
0002c0 f2 a4 c7 bc 96 aa 24 3d 0c f4 c2 bd e6 3a 1c 3d
       -0.024370644 0.040201746 -0.095192045 0.038142107
0002d0 f1 d2 85 bd bb 6d 90 3c 86 94 b2 3d 23 d5 cd bd
       -0.065343745 0.017630449 0.08719735 -0.10050418
0002e0 fc 05 31 3d 5a 62 36 bd 23 40 8c 3c ed e2 99 3d
       0.043218598 -0.04452739 0.017120427 0.07513986
0002f0 c9 e3 9c bd f0 de 54 bd ab fe cb bd c2 e3 8c 3d
       -0.07660634 -0.051970422 -0.099606834 0.06879379
000300 48 f6 32 3c cc 61 73 3c 00 0e e4 bc ef 01 3f 3c
       0.010922976 0.01485486 -0.027838707 0.011658176
000310 6b 2c 07 3d 53 e3 07 bc 3f cf 43 3d fd a7 69 3c
       0.033001345 -0.008293944 0.047805067 0.014261243
000320 6a 8f 24 3d 60 f5 95 3d e2 02 a6 3c b2 33 d1 bb
       0.040175833 0.07322192 0.020265047 -0.0063843364
000330 64 71 96 3d b4 a7 b9 3b f6 3c e7 bc 84 c2 c8 bd
       0.07345846 0.0056657437 -0.02822731 -0.09802726
000340 50 96 5f bd 17 03 d4 bd f3 3f 97 bd 71 0a 19 bc
       -0.05458671 -0.10352152 -0.07385244 -0.009340868
000350 48 25 90 bc a0 85 ab 3c eb 7d 97 3d f2 5d 91 3d
       -0.017595902 0.02093774 0.07397064 0.07097997
000360 8d 7b 0d 3d ca 58 17 3e 26 9a a9 3d bb f4 4d bb
       0.034541655 0.14779964 0.082813546 -0.0031426388
000370 fd 4c 42 bd fc 60 3e bd 7c 93 c4 bc 10 7b 01 3d
       -0.047436703 -0.04647921 -0.023996107 0.031611502
000380 fa 2c 4c bd 37 17 44 be ab 0a f3 bc ba 1c 2e 3c
       -0.04984758 -0.19149481 -0.029668173 0.010626966
000390 76 7e 21 3d c7 3b a9 3c bb ec 94 3d 70 17 af 3d
       0.039427243 0.020658387 0.07271715 0.08549392
0003a0 5f 21 22 be 2a ae 56 bd 27 5e a4 3d cc fe 97 3c
       -0.15833043 -0.05241219 0.08025771 0.018554114
0003b0 11 58 1c bd 74 09 4a 3d 73 e3 27 3d 34 ee dd bc
       -0.038169924 0.04932542 0.040988397 -0.027091123
0003c0 88 b0 81 3d a1 90 6c bc 1e 5c b6 bd 7b 1e 6a 3d
       0.06332499 -0.014438779 -0.08904289 0.057157975
0003d0 5d e7 0c 3d 57 71 9b 3c 8b 27 32 bd 4e 4a 7b bc
       0.034400333 0.018974943 -0.043494742 -0.01533754
0003e0 d5 f1 17 bd b1 29 6a 3d 5d 56 a6 ba 40 dd d8 bb
       -0.037095863 0.057168666 -0.0012690533 -0.006618172
0003f0 7d 5c 8f bd ca d3 45 bd 55 47 88 bb ea 54 8c bc
       -0.070000626 -0.04829768 -0.004158894 -0.017130334

model.2.bias f4 [128]
000000 3c a5 87 3d 7f a2 82 bd ff f8 11 3d 49 12 6d bd
       0.06623313 -0.0637865 0.03563785 -0.057878766
000010 ba b1 a4 3d 11 15 75 bd c6 05 e8 3c 4d 1c f2 bc
       0.08041711 -0.059834544 0.028323065 -0.02955451
000020 d0 a5 29 bd ca 59 2e bd 0a 14 43 3d d8 fc 97 3d
       -0.041417897 -0.0425661 0.047626533 0.07421273
000030 c6 0d 13 bd 31 d1 a9 3d 08 52 89 3d b4 1a 12 bd
       -0.035901807 0.08291853 0.06705099 -0.035669997
000040 cc 63 0e 3e ef 69 4f 3d 48 61 09 3d 9c fa 74 bd
       0.13905257 0.050638136 0.03354004 -0.059809312
000050 fd d7 62 3d ff a3 5c 3d bb 88 b5 bd 22 f4 88 3c
       0.055381764 0.053867336 -0.0886397 0.016717974
000060 51 b1 27 bc 07 47 99 bc 0d e4 61 3d 6f 1b 60 bd
       -0.010235147 -0.018710626 0.055149127 -0.054713663
000070 77 44 87 38 5c 6c a4 bc 03 1e c1 3d 11 08 03 bd
       6.450054e-05 -0.020071201 0.094295524 -0.031990115
000080 ea e2 69 bd 4e 34 c5 3c b2 28 81 bd 7d f2 13 3b
       -0.057101168 0.024072792 -0.0630659 0.0022574954
000090 8d 85 12 bd 5e bd 3d bc 48 f8 a1 3d 0a a0 5f bd
       -0.035771895 -0.011580793 0.07908684 -0.054595985
0000a0 ea c9 f4 3c 06 01 f0 3a ff 6f 65 3d 7d e3 89 3d
       0.029881436 0.0018310852 0.05601501 0.06732843
0000b0 65 8c 26 3d f1 87 c4 3d 2d 57 d3 bc 35 e4 80 3d
       0.040661234 0.09596241 -0.025798405 0.06293527
0000c0 c3 10 20 3d bc 00 77 bd de 6c b8 bc 17 55 0f 3d
       0.039078485 -0.060303435 -0.02251285 0.034993257
0000d0 b8 12 b3 3c 96 f4 4e bd 15 7c 60 3b d6 76 0c bd
       0.021859512 -0.050526224 0.0034253646 -0.03429302
0000e0 45 81 0e 3d b0 c9 ec 3c 7f 9a 29 3c 5f 0a 84 3c
       0.03479125 0.028904766 0.010351776 0.016118227
0000f0 7d fb c1 3d f4 c2 b7 3d 40 db 87 bd 2f 08 2b 3d
       0.09471796 0.08972731 -0.066336155 0.04175585
000100 a4 09 3d bb 05 02 88 3d 2b 5c ea 3d 81 42 c2 bd
       -0.0028844858 0.0664101 0.11443361 -0.09485341
000110 58 d4 31 bd af ff 53 3d b9 a4 80 3d c1 3f c8 3c
       -0.043415397 0.05175751 0.06281418 0.024444463
000120 93 ff 8a 3b 9e ec fe 3c 18 42 a0 3d 32 09 fb b8
       0.0042418926 0.031118687 0.078251064 -0.000119703254
000130 67 ee 87 3d 30 70 b7 3d 23 5d d3 3d 03 f2 cc bd
       0.066372685 0.08956945 0.10320499 -0.100070976
000140 3d 4b 48 3d 0f a7 c8 39 22 1d 48 bd e5 78 9f 3a
       0.048899878 0.0003827144 -0.04885591 0.0012166767
000150 34 e3 bb 3c 76 87 82 3d c2 85 26 bd af 12 c1 3d
       0.022935487 0.063734934 -0.040654905 0.09427392
000160 1a bc 87 3d d1 22 e4 bc 08 f7 47 3d e5 73 b0 bd
       0.066276744 -0.027848633 0.04881957 -0.08615855
000170 23 09 95 3a 32 46 ac 3d 6f d0 b7 3c 33 08 ab bd
       0.0011370521 0.08411826 0.022438256 -0.08351173
000180 83 66 1c bd 28 6c 74 bc 68 3f 21 3c e3 97 5e 3d
       -0.0381837 -0.014918365 0.009841777 0.05434407
000190 8d d1 ab 3c e8 3b 12 ba 8e d1 b3 bd e4 79 94 3d
       0.020973945 -0.0005578385 -0.08780204 0.07249811
0001a0 a0 6c 23 bd e5 3e 62 3c 55 29 be 3d fa 3c 22 3d
       -0.039898515 0.013808941 0.09285227 0.039608933
0001b0 0d 56 e7 3c 33 bb 80 bd e0 40 ac 3c 38 87 ff bc
       0.028239274 -0.062857054 0.021027029 -0.031192407
0001c0 19 1b 78 3d af 43 1a bd 16 f3 c8 3d a8 af 55 3c
       0.060572717 -0.037662204 0.0981199 0.013042368
0001d0 76 33 97 3d ab 2a ca 3c 50 e5 84 3d 8b 27 bc 3b
       0.07382862 0.024678549 0.064890504 0.0057420186
0001e0 d6 a5 92 3d 34 80 43 bc ac a4 5a bd 28 cb 97 bd
       0.07160537 -0.0119324215 -0.0533797 -0.07411796
0001f0 12 bf f7 3c ad 5c 87 3d 2b cd 58 bd b7 d2 9c 3d
       0.030242477 0.066094734 -0.05293004 0.07657378

model.4.weight f4 [128, 128]
000000 04 9b 25 bd 43 e3 87 bc 4a 8f 97 3d 6d 0b ef 3b
       -0.040431038 -0.016587859 0.07400377 0.007295063
000010 32 da 87 3c 13 53 13 3d 71 fb c7 3c 5b 75 26 3d
       0.016583536 0.035967898 0.024411889 0.040639263
000020 4d 19 8d 3c 26 2f 0a bd 45 aa b0 3c 6b fa a1 3d
       0.017223978 -0.03373637 0.021565566 0.079090916
000030 76 57 82 3d 0c 46 37 3d 73 e2 7c bd e4 61 b8 3c
       0.06364338 0.044744536 -0.061739396 0.022507615
000040 40 84 41 3d f0 18 8f 3c 4f 3e 65 ba 4b 5c cb 3d
       0.047245264 0.017467946 -0.00087449414 0.09929713
000050 92 4a c2 3d ef 3a 01 bd 3d 92 3d 3d ca b8 23 bd
       0.094868794 -0.031550344 0.04628204 -0.03997115
000060 f3 eb 3b bd 08 8f ca 3c 8c 62 08 bd 0a 7e 3f bc
       -0.045879316 0.024726406 -0.033297107 -0.011687765
000070 79 2c 92 bd e8 f4 8c bd dc 7a 36 3d 45 97 96 bd
       -0.07137389 -0.0688265 0.04455076 -0.07353071
000080 da d3 d5 bc d3 88 8c bd 05 ae 51 3d 0f de bb 3d
       -0.026101995 -0.06862035 0.05119135 0.09173214
000090 b7 1c a8 bc cd 9f 52 3d d7 c7 4a ba a9 09 bc 3d
       -0.020521505 0.05142193 -0.0007735467 0.0918153
0000a0 93 3f b0 3c a9 dd 06 bd 9f 5f 8f bc 03 f0 73 3c
       0.02151469 -0.032926235 -0.01750165 0.014888766
0000b0 c1 c6 1e 3d 9a 75 64 3d 4b 56 99 3d 6f 40 3b bd
       0.038763765 0.055776216 0.07487162 -0.045715746
0000c0 0a 5a a4 bd 54 8e 9e 3d c2 a2 7c bd 81 2a 03 bd
       -0.08024986 0.07741991 -0.061678655 -0.032022957
0000d0 b8 96 59 bd 18 40 5b bd be df 6a 3d 41 d2 e0 3d
       -0.053122252 -0.05352792 0.057342283 0.10977603
0000e0 3b fe 35 3d 05 8a 15 bd 34 95 c9 3d 45 64 bb 3d
       0.044431906 -0.03650858 0.09842911 0.09149984
0000f0 23 8a 6f bd 36 aa f0 3c a5 95 58 bd 9b 01 c2 3d
       -0.058481347 0.029378038 -0.052877087 0.094729625
000100 05 c7 df 3c 9d 3a 0a 3d 9a 22 a5 bc cc 5d 96 bd
       0.02731658 0.033747304 -0.0201581 -0.07342109
000110 84 17 b9 3d 42 ac 6e bd 14 c0 9e 3d 7d ee 77 bd
       0.090376884 -0.058269747 0.0775148 -0.060530175
000120 3d a2 b7 bb 9f d4 3e 3d c2 6a b8 bc b3 f4 d1 bc
       -0.005604057 0.04658949 -0.022511844 -0.025629377
000130 3a b2 b1 3d 68 15 1e 3d 70 6e 86 bd f4 cf a9 bd
       0.08676572 0.038594633 -0.06564033 -0.08291617
000140 e2 ce 86 3d 89 e0 30 39 58 15 4e 3c 01 69 bf 3d
       0.065824285 0.00016868314 0.012578331 0.093462
000150 e9 70 4b bd 60 69 b0 3d a7 e5 23 3d c4 8c ee 3d
       -0.049668226 0.08613849 0.040013935 0.11647943
000160 75 ef 8e 3c a1 66 85 bd 1a ef 80 bd c2 5c bf bd
       0.017448166 -0.065137155 -0.06295605 -0.09343864
000170 1a ba 9f 3d 87 84 98 3d 05 b9 14 bb 55 98 1d 3d
       0.07799168 0.074471526 -0.0022693288 0.038475353
000180 54 e0 27 3d 34 04 48 3d 1b 98 55 3d 1c d0 a4 3d
       0.04098542 0.048832133 0.052147012 0.08047506
000190 7e 44 f8 bc 77 7e 9b bc 50 f7 b2 3d fc 95 86 bd
       -0.030306097 -0.018981202 0.08738577 -0.06571576
0001a0 61 9d 29 bd d0 e7 64 3d 41 fb 24 3d 13 54 67 3d
       -0.041409854 0.055885136 0.040278677 0.056476664
0001b0 be dc 3f bd d9 dd ae 3d 4b 6d 80 3d 09 09 c3 3d
       -0.046841376 0.08538408 0.06270846 0.09523208
0001c0 61 be 54 bd dc fa b3 3d 39 8e b9 3d e4 c9 91 3c
       -0.051939372 0.08788082 0.0906033 0.017796464
0001d0 6f 6e a1 3c 57 8d b7 3d 3e a2 c7 3d be 2f ab 3c
       0.01970598 0.08962505 0.09747742 0.020896789
0001e0 21 ad a7 bc 3b 2d a4 3d 1e 9c ac 3d 20 ce d0 3d
       -0.020468296 0.080164395 0.084282145 0.10195565
0001f0 6e 94 c1 3d c1 11 ab bd 23 eb ef bc 2d 8e a5 3c
       0.09452139 -0.08352996 -0.029286927 0.020209396
000200 3d 8d c9 3d 39 5b b8 3b 1a 66 12 bd 0d e0 8e 3d
       0.09841392 0.005626109 -0.035741903 0.06976328
000210 9d 7b 11 bd 0d 24 a5 bb 15 19 46 bd dd fc 1b bd
       -0.035518277 -0.005039698 -0.048363764 -0.038082946
000220 aa e8 95 3d ca 48 5e 3d fb e6 c5 3c 3c 27 d0 bc
       0.07319768 0.054268636 0.024157992 -0.025409333
000230 e5 cd 19 bd b7 7b b5 bd 9e f4 00 bc bc 02 8f bd
       -0.037549872 -0.08861487 -0.007870821 -0.069829434
000240 ec 5e 91 3d c6 be 66 bd 87 99 9e 3d 90 b5 4b 3d
       0.07098183 -0.05633428 0.07744127 0.0497337
000250 21 b7 d5 bc de b5 24 3b 39 34 65 bc fa d3 5e 3d
       -0.0260883 0.0025132815 -0.013989502 0.054401375
000260 8a b4 67 3c 84 cd 02 3c fe 21 c6 3c 4c a9 04 3c
       0.014142165 0.007983569 0.02418613 0.008097004
000270 d3 e5 78 bc 13 64 89 bd 76 59 3e bd e9 2e 88 bc
       -0.015191513 -0.06708541 -0.046472035 -0.016623931
000280 08 5a bf 3d 64 62 88 3d ca 5b ec 3c ff 7a 99 3d
       0.09343344 0.066593915 0.028852362 0.07494163
000290 94 65 60 3d 67 23 c7 3c 85 be 28 bc a8 72 65 3c
       0.054784372 0.024308873 -0.01029933 0.014004387
0002a0 c7 c3 28 bd ee 9b ae 3d 74 3b 54 3d 3b 58 99 3d
       -0.041202333 0.08525835 0.05181451 0.07487532
0002b0 d9 9c 85 bd 21 d5 b4 3b aa 7c 28 bd b7 1b 50 bb
       -0.06524057 0.005518571 -0.041134514 -0.00317548
0002c0 5d 92 ec bc 78 ea b6 bd 1f c3 e1 3d b3 c8 fd 3c
       -0.028878385 -0.0893144 0.110235445 0.03097949
0002d0 19 61 0f 3b 5a 61 4c 3c 63 32 e7 bc a3 db 2d bd
       0.0021877943 0.012474382 -0.028222268 -0.04244579
0002e0 e9 22 9c 3d 75 92 85 3d 77 5a 85 bd 1f 9e 9c 3d
       0.07623846 0.06522075 -0.065113954 0.07647347
0002f0 49 79 0b 3c f1 91 be 3d 69 ea 8c 3b dc af be 3c
       0.008512803 0.0930518 0.004300405 0.023277216
000300 55 d0 51 3d 0a 57 5f bd a0 14 95 3d e3 cc 80 3d
       0.05122407 -0.054526366 0.072793245 0.06289079
000310 1c 65 1e bd 64 72 9d 3c 4d bb cd 3c 60 ca 05 3d
       -0.038670644 0.019219585 0.025113726 0.032663703
000320 9f a0 47 bd 59 5e 84 3d d5 37 fb bc a1 9b aa 3d
       -0.048737165 0.06463308 -0.030666271 0.08330465
000330 0d 88 0c 3d 04 b1 27 bd 03 d6 cd 3d 25 00 95 bb
       0.034309436 -0.0409403 0.10050585 -0.0045471364
000340 fd 99 55 3d 88 15 c5 3a cb 1e e5 bc 45 8b 84 3c
       0.052148808 0.0015036324 -0.027968785 0.01617969
000350 3b fd 9c bb e9 8d 63 bd 13 9a 59 3c 8a 3e 85 bd
       -0.0047909296 -0.055555258 0.013281363 -0.06506069
000360 52 24 be 3d 93 a6 6e 3d 94 58 43 bd 71 82 96 3c
       0.09284271 0.058264326 -0.047691897 0.018372746
000370 a7 40 8c bd c1 e9 5d 3d bf 2e 55 3d 84 62 25 3c
       -0.06848269 0.054178003 0.052046534 0.010094289
000380 bd 04 cb 3d af a4 93 bd 35 b2 d3 3d ed d2 6e bc
       0.09913013 -0.07209145 0.10336725 -0.014576656
000390 df 9a 43 3d 97 b7 45 3d b5 24 67 bd 7a 19 dd 3c
       0.04775512 0.048270788 -0.05643149 0.026989687
0003a0 e6 8a 95 3d cc 81 ab 3d e2 ac 76 bd 47 d5 28 bd
       0.073018834 0.08374366 -0.060223468 -0.041219022
0003b0 23 68 15 bb 11 ea af bc 94 4a 8b bc 2b 00 8b bd
       -0.0022797666 -0.021473916 -0.017003335 -0.067871414
0003c0 77 f4 6e bd 2f 82 40 bd a6 9c bd bc 49 a9 4f 3c
       -0.05833861 -0.046999153 -0.023145985 0.012674638
0003d0 9e ab ae 3d 49 62 3d bd 76 ec b5 3c 5f ae d5 bb
       0.08528827 -0.04623631 0.02220748 -0.006521031
0003e0 bf 1f 6d 3d 1c 98 80 3d b2 2a 45 3c 85 4e 31 bd
       0.057891604 0.062790126 0.012034105 -0.043287773
0003f0 95 16 7f 3d 15 52 47 3d 01 05 31 bd a0 b8 bd 3d
       0.062277395 0.048662264 -0.043217663 0.0926373

model.4.bias f4 [128]
000000 72 e7 9f bc 8c 8c 0c bd 64 73 42 bd 9b ed ae 3d
       -0.019519541 -0.034313723 -0.047473326 0.085414134
000010 b3 13 c8 3d c4 c0 33 bd 60 5d 2b 3d 67 3d 96 3d
       0.09769382 -0.043885008 0.041837096 0.0733593
000020 19 bf 1e bb 53 64 fd 3c 34 ff b2 3b 9c 55 6a 3d
       -0.002422279 0.030931627 0.0054625515 0.05721055
000030 65 e2 92 3c 0a 91 8b 3b 45 64 09 3d c7 96 9d bd
       0.017930219 0.0042592334 0.03354289 -0.07694774
000040 b1 3b 74 bd 11 6c c0 3d 09 59 ae 3c f7 21 73 bd
       -0.05962724 0.09395612 0.02128269 -0.059358563
000050 b4 ae 15 3d 4d 5f 09 3d ef 6f 76 bd aa e1 ac 3d
       0.036543563 0.03353815 -0.060165342 0.084414795
000060 34 cd 16 3d 50 7e 8f bd 3f 97 cc bc 65 e3 1e bb
       0.03681679 -0.07006514 -0.024974464 -0.0024244424
000070 49 d5 a3 3d d7 0a ed b7 28 58 f1 3b 9d bb 10 3c
       0.07999665 -2.825765e-05 0.0073652454 0.008833793
000080 b8 06 cf 3c 0d 6a 6c bd 42 0d 30 3d f8 69 9e bd
       0.025271758 -0.057718325 0.042981394 -0.07735056
000090 8d 9e 29 bd a1 1f 96 bd 3e 6d a9 3d 88 71 46 b9
       -0.04141097 -0.073302515 0.082727894 -0.00018925045
0000a0 a3 a8 3c bd 79 f9 12 ba ef 64 ab 3c 12 ad a5 bc
       -0.046059262 -0.00056066323 0.020922152 -0.020224128
0000b0 82 ce d0 bc 94 99 55 b9 37 cb 0b 3b 7a c8 7e 3d
       -0.025489096 -0.00020370475 0.0021330842 0.062202908
0000c0 09 b1 5c bd 45 eb c3 3d c1 58 c5 3d d1 c1 b7 3d
       -0.05387977 0.095663585 0.09636069 0.089725144
0000d0 37 9f 1c bc 3d 2d 44 3b d6 a8 1a 3d 0f 21 84 bd
       -0.009559444 0.002993419 0.03775867 -0.06451618
0000e0 77 73 1f bd 56 95 4d 3c a9 67 5e 3d 96 a7 45 bd
       -0.038928475 0.0125478115 0.054298077 -0.048255526
0000f0 c6 bd 9b bd a3 ee 36 bc 8d 6e 33 3d ca aa 86 bd
       -0.07604556 -0.011165294 0.0438066 -0.06575544
000100 7f a9 50 3c 38 87 89 3d 89 2f aa 3d f6 91 78 3d
       0.0127357235 0.06715244 0.08309848 0.060686074
000110 d9 fd 1a bc 36 eb fc bb 3c 65 e5 bc 2d 4b f6 3c
       -0.009459936 -0.007718469 -0.028002374 0.030065143
000120 23 21 e4 bc 70 8e 92 3d be 9c 61 3d 67 dc 6f bc
       -0.027847832 0.07156074 0.05508112 -0.01463995
000130 bb a4 5c 3d 82 0e a3 3d 69 1b 40 3d 30 b9 b0 3d
       0.053868037 0.079617515 0.04690114 0.08629072
000140 d8 b8 9a bb 8e 55 5b 3d 25 02 76 3d fc 08 2f bd
       -0.004721742 0.05354839 0.06006064 -0.042733178
000150 f8 43 9e bd 4b 8f 84 3c ee da 30 3d 32 f5 94 bd
       -0.07727808 0.016181609 0.043177538 -0.0727333
000160 cc 9c 83 bd b4 33 80 bd bb d9 1f ba ae 38 89 3d
       -0.06426391 -0.062598616 -0.0006097813 0.06700264
000170 d3 9d 60 bd 7e 19 98 3d 7d 88 74 3d 2a a3 bf 3c
       -0.054838013 0.07426737 0.059700478 0.023393232
000180 2f c1 6d bd bd 93 ed 3c 9e e8 e9 bc 74 12 8d 3d
       -0.058045562 0.029001111 -0.028553303 0.06888285
000190 11 45 5f 3d 77 10 e5 b9 32 f2 95 bc 10 8b 09 3b
       0.054509226 -0.0004369055 -0.018303964 0.0020987429
0001a0 5d e8 20 bd c8 ff 92 bb e2 6b 7e 3d a9 02 3c 3d
       -0.0392841 -0.004486058 0.062114604 0.045900974
0001b0 92 a2 97 3c 3d 48 f7 bc cb e8 bd 3d 30 b7 97 3d
       0.018510137 -0.030185813 0.09272917 0.07407987
0001c0 63 c0 6e 3d d9 4c c0 bb 4d b5 e4 3c 49 d2 21 bd
       0.058288943 -0.005868536 0.027918482 -0.039507184
0001d0 50 c8 13 bd bc d6 83 3d cc 12 85 3d 9f 32 98 bd
       -0.036079705 0.06437442 0.06497726 -0.0743153
0001e0 98 83 c1 3d 71 91 53 bd 14 68 70 3c 0b 7b 0a 39
       0.09448928 -0.051652376 0.014673252 0.00013206543
0001f0 e9 11 8a bc 2c 13 87 bb 88 70 b1 3d 55 9f 49 bd
       -0.016854243 -0.0041221585 0.08664042 -0.049224216

model.6.weight f4 [128, 128]
000000 5d 7b 02 bd 4d 16 89 bd 96 b3 b5 3d 92 5e 86 bd
       -0.03185593 -0.06693707 0.08872144 -0.065610066
000010 22 78 ba bc c1 88 c6 3a e2 f7 ae 3d fc 14 ce 3d
       -0.022762362 0.0015146957 0.08543374 0.10062596
000020 ac 85 8a 3d b2 b3 15 3d eb e1 97 3d 0a 7e ce 3c
       0.06763777 0.036548324 0.07416137 0.025206584
000030 66 a7 95 bd 64 7d 5e 3d f2 8e 1c bd ca 11 c8 3d
       -0.07307319 0.0543188 -0.03822226 0.09769018
000040 f6 c4 88 bc f3 93 06 3a 47 d0 fa ba b8 fa d9 bc
       -0.01669548 0.00051337405 -0.0019135558 -0.02660881
000050 76 49 d2 3c f8 67 6c 3d 57 ac 75 3d ab 94 4c 3c
       0.025669795 0.05771634 0.05997881 0.012486617
000060 85 41 c9 3d df 95 a5 3d 3f 6d bb 3c a8 36 c0 bd
       0.0982695 0.08085226 0.022879241 -0.09385425
000070 4b 6f e2 ba e4 8a b1 bc 50 3e bb 3d 73 f3 01 bc
       -0.00172756 -0.021672674 0.091427445 -0.007931578
000080 6c fb 6f 3d 4d 8a 8d 3d 1a d0 5a bd 0c e6 4e bd
       0.058589384 0.069111444 -0.053421117 -0.05051236
000090 c7 64 9d bd 87 19 99 3d b3 9e 6d bd cf 52 cd ba
       -0.076852374 0.07475572 -0.058012675 -0.0015664938
0000a0 a8 f9 67 3d 35 36 56 3d 1e 12 94 bd 62 86 53 3d
       0.056634575 0.05229779 -0.07230018 0.05164183
0000b0 ed 60 9b bd 57 67 98 3d c0 72 e3 3c fa 75 10 bd
       -0.075868465 0.074415855 0.027764678 -0.03526876
0000c0 8b 60 02 3c 0a b0 c0 3c 8a e2 12 bd cb 1f b1 bd
       0.007957588 0.023521442 -0.035860576 -0.08648642
0000d0 4c 97 1b 3d d1 85 7e 3c 66 ff 4d 3d e8 ba 2f bd
       0.037986085 0.015534834 0.050292395 -0.042902857
0000e0 55 e6 87 3d 0a 0c dc ba 11 ca 60 3c 50 37 c3 bc
       0.06635729 -0.0016788256 0.013720051 -0.023830086
0000f0 60 c6 e8 3c 41 9f a4 bc 5e cb cb 3d 98 de 54 3d
       0.028414905 -0.02009547 0.099508986 0.051970094
000100 4e 04 d4 3b af 75 9e bc 44 d0 4e 3d cc 9f 14 bc
       0.0064702397 -0.019343225 0.050491586 -0.009071302
000110 db 04 ac 3c c1 cb a2 3d c3 0d 5a 3d de 3b 93 bd
       0.020998409 0.07949019 0.05323578 -0.07189153
000120 eb 26 3e 3d 14 ef 12 bd b4 85 9a 3d 68 38 ba bc
       0.046423834 -0.035872534 0.07545033 -0.022731975
000130 03 27 22 3c fe 86 76 3d d9 89 44 3d dc 5c 4e 3d
       0.009896996 0.060187332 0.047983024 0.050381526
000140 27 35 99 bd 66 1a 8a bd ec ff 98 bc ab d8 2c 3d
       -0.07480841 -0.06743316 -0.01867672 0.04219882
000150 48 b1 79 bd 58 93 93 bd b9 69 57 bd 60 d3 a0 bb
       -0.060960084 -0.07205838 -0.05259106 -0.0049080104
000160 b2 55 91 bd 95 46 6d bd d3 d2 c5 bc 75 b5 6a bc
       -0.07096423 -0.05792864 -0.02414838 -0.014325489
000170 84 a9 c8 bc c9 8c 97 3d dc 5a db bb 84 78 fd 3c
       -0.024494894 0.073998995 -0.006694181 0.030941255
000180 1a b4 a3 3d 07 66 31 bd 8b 8e 67 bd b4 7f 90 bd
       0.07993336 -0.04331019 -0.056532424 -0.070556074
000190 58 e2 4b bd c1 27 06 bd a6 10 69 bc bd e4 e8 3c
       -0.049776405 -0.032752756 -0.014225161 0.028429383
0001a0 e1 50 c0 3d 02 84 a3 bb 0c 35 85 bd a8 b4 d7 bb
       0.093904264 -0.004990102 -0.065042585 -0.006582815
0001b0 29 c7 31 3c db c3 be bd 95 ad 3b 3d 20 d3 66 3d
       0.010850706 -0.093147 0.045819838 0.05635369
0001c0 e2 41 9c 3c eb 21 8b 3d d8 ec 76 bd 3b cd 3c 3a
       0.019074384 0.06793579 -0.060284466 0.00072022126
0001d0 a1 a9 83 bd f0 1a 4b bd ec 46 3b bd c4 16 98 bc
       -0.064288385 -0.049586236 -0.045721933 -0.018565543
0001e0 0f 05 b4 bc 7e 90 4c bd 55 b6 72 3d cb b4 49 bd
       -0.021975068 -0.049942486 0.059255917 -0.049244683
0001f0 5a 4d a7 bd 0c 6d 9f 3d 17 6a 18 3d 9e d1 80 3d
       -0.081690505 0.07784471 0.03721055 0.06289981
000200 19 80 28 3d f5 bc c0 3b 98 69 9e 3d 87 d0 d5 3d
       0.04113779 0.0058819004 0.07734984 0.10440164
000210 3d 9c d2 3d 8c e2 31 3d 58 62 04 3d 18 55 9f bc
       0.10283706 0.043428943 0.03232035 -0.019449756
000220 57 13 cd 3d 7c 08 70 bc 6f 44 92 3d 9c 3a b5 3d
       0.100134544 -0.01465046 0.07141959 0.088490695
000230 1d de 84 ba f5 7c b9 3a 8d a8 44 bc 14 d1 a5 3d
       -0.0010136996 0.001415162 -0.012003076 0.08096519
000240 75 be 34 bd 86 b1 94 3d ee 54 aa bd bd d0 82 bd
       -0.044126946 0.072604224 -0.0831698 -0.0638747
000250 e7 14 8b bb 3b e5 fe bc 13 c4 7b 3c cf 87 b2 3c
       -0.004244435 -0.031115165 0.015366572 0.021793274
000260 54 71 30 bd 15 1b e8 3d 85 5a cd 3d ba c9 89 3c
       -0.043076828 0.113332905 0.10027031 0.016819824
000270 0e cc a0 3c 1d 3c 7e bd 24 c7 35 bd 4a 2c 68 bd
       0.01962855 -0.062069047 -0.04437937 -0.056682862
000280 45 53 a0 3b f9 87 cd 3d 2c 36 7b 3c af d1 9d bd
       0.004892739 0.100357 0.01533274 -0.077060096
000290 22 0c 94 3d 6c 31 d4 3d bc f9 d1 3d 80 0f 3a 3d
       0.07228877 0.10360989 0.10252711 0.04542494
0002a0 e6 e2 b0 bc 5a 0f bf 3d ba 83 8e bd e0 ae 21 3d
       -0.021592569 0.093291 -0.069587186 0.039473414
0002b0 4b cd 79 bd c0 76 eb bc f3 67 21 bd ce 2a 67 bd
       -0.0609868 -0.028743148 -0.039405774 -0.056437306
0002c0 49 66 ab 3d a4 17 3d 3c 5e 09 4b bc b4 86 64 3c
       0.08369119 0.011541281 -0.01239237 0.013948131
0002d0 9b fe cf 3c 29 43 a7 3d c9 e5 f2 3c 6f 95 02 bd
       0.02538996 0.08167107 0.029650586 -0.031880792
0002e0 cd 0c 8b 3d e0 01 ac 3d db b7 3f bc a0 29 a8 3c
       0.06789551 0.08398795 -0.011701549 0.02052766
0002f0 d3 df 42 3d 4d 87 98 bd 00 61 1a 3d fc 90 4c bc
       0.047576737 -0.074476816 0.037690163 -0.012485739
000300 99 f3 eb bc b5 e8 96 bd 87 53 6f bd ea e5 a0 3c
       -0.02880268 -0.07368604 -0.058429267 0.019640882
000310 9a ed d8 3d 5b 11 64 bd d6 0b 9c bd c0 19 0f 3d
       0.10592194 -0.055680614 -0.07619445 0.034936666
000320 fc 2b 91 3b 7b 7f 8e 39 d9 61 f9 bb 9b d2 21 bc
       0.004430292 0.0002717933 -0.0076105413 -0.009876872
000330 01 a5 e6 3c f9 56 10 3d d0 84 ba 3d b1 21 96 bd
       0.028154852 0.035239194 0.09107363 -0.07330645
000340 35 07 83 bd d3 97 12 bd aa 69 9c 3d ad ab 4f bc
       -0.06397859 -0.035789322 0.07637341 -0.012675208
000350 e7 50 6a bd 3a ae 11 bb 74 25 8c 3c 8f a6 7e bd
       -0.05720606 -0.0022229091 0.017107703 -0.06217056
000360 ec 68 98 3d d5 09 f4 bc 6a 67 99 bc e4 d8 f1 bc
       0.07441887 -0.029789845 -0.01872607 -0.029522367
000370 3c 00 bd bc fc a5 cf 3d f2 8e e0 3d 8d 91 64 3d
       -0.0230714 0.10139081 0.10964765 0.05580287
000380 4a b3 97 bd 50 94 90 bd a9 13 0c 3d 7c b5 8d 3d
       -0.074072435 -0.07059538 0.034198437 0.06919381
000390 c1 e2 a0 3c ce 0d b5 3c 25 57 a0 bd 6b 9d 51 bd
       0.019639375 0.02210131 -0.078291215 -0.051175516
0003a0 2e aa c0 bb bd ef f9 bc e3 c9 9d 3d b0 cc 6a 3d
       -0.005879662 -0.030509824 0.077045225 0.05732411
0003b0 ab 2f 76 bd 63 8b e4 bc 40 22 cc 3d 44 40 41 bd
       -0.060104053 -0.027898496 0.0996747 -0.04718043
0003c0 62 d0 58 bd ea 1a 83 bd 7e b4 bf 3b 3d c5 37 bd
       -0.052933104 -0.06401618 0.005850374 -0.044865835
0003d0 1a 26 e5 3c ca a7 78 bc 27 87 fc 3c 3e 9a c3 bd
       0.02797227 -0.015176723 0.030826164 -0.09550904
0003e0 8a d5 21 bd 22 c4 48 3d ee b4 59 3d 9d bf 2f bc
       -0.039510287 0.04901517 0.053151064 -0.0107268365
0003f0 54 41 d4 bc 18 36 3c 3d d2 aa 12 3d 91 eb 94 3d
       -0.025910057 0.045950025 0.03580744 0.07271493

model.6.bias f4 [128]
000000 aa fe 88 bd 4c 05 97 3d 59 c1 63 bd 55 b5 d9 3c
       -0.06689198 0.07374057 -0.055604313 0.026575724
000010 a7 fd 5c 3d 33 4d 69 3d c3 16 48 bd c2 48 b4 3d
       0.05395284 0.05695839 -0.048849832 0.0880294
000020 d0 ca 25 bd 65 0e 5e bd 3c a0 6c 3d 48 c2 6a bc
       -0.04047662 -0.054212946 0.05777 -0.014328547
000030 f6 62 ac 3d d2 15 bd 3c ec 82 b0 bd d3 bd 58 3d
       0.08417313 0.023081694 -0.08618721 0.052915405
000040 8f cb a4 3d b3 81 f9 3c d8 2c 5b bd b4 a1 87 3d
       0.08046638 0.030457353 -0.053509563 0.06622639
000050 cd 3e d5 3c 37 37 c1 3d 75 7a ef bc 6d a1 a4 3c
       0.026030922 0.094343595 -0.029233197 0.020096505
000060 f3 b2 8c bc fc ab a7 3d fd 34 9c bc b4 9d 5a bc
       -0.017175173 0.081871 -0.019068236 -0.013343263
000070 2f d9 4f 3d 89 7c b8 bd 01 92 2d bc 2d 89 98 bc
       0.05074423 -0.09008128 -0.010593892 -0.018620098
000080 22 33 73 bd f9 4d 99 bc f7 fa 76 3b dd 96 1f 3c
       -0.059374936 -0.018713938 0.0037686208 0.009740558
000090 2e 0f 52 bd 14 4d 49 bd 07 7a 9f 3d 9e 97 be bc
       -0.051284008 -0.049145773 0.07786947 -0.023265656
0000a0 17 ae 15 bd 77 3d 57 bd 87 34 93 3c 40 1c b8 3d
       -0.03654298 -0.05254885 0.017969383 0.08989763
0000b0 68 d5 31 3d 5a 5f 62 3d b1 ed 84 bb 3a 27 a1 3c
       0.04341641 0.055266716 -0.0040566553 0.019672025
0000c0 1e 2f 32 3d 35 35 9e bd 97 37 ea bb 8c 1f 15 3d
       0.043501966 -0.07724992 -0.00714774 0.03640704
0000d0 6b 2b 83 3d af e9 90 3d 57 41 99 bd e0 54 7e 3d
       0.06404766 0.070758216 -0.07483166 0.06209266
0000e0 f8 c4 99 bc b0 1a 25 bd ec 6f 87 3c 52 c7 e2 bc
       -0.01877068 -0.040308654 0.01653286 -0.027682934
0000f0 81 5b 82 ba 43 1f a2 bd ef 8d 67 bd c6 9d 56 bd
       -0.0009945483 -0.07916119 -0.056531843 -0.05239656
000100 c1 59 21 bd fa 6b 83 3d 5a 58 9c 3d e7 a7 83 bd
       -0.039392237 0.06417079 0.07634039 -0.06428509
000110 38 ad 22 bd f4 47 3b 3c 4b ef 2f bd ef 8b ae 3d
       -0.039715976 0.011430729 -0.042952817 0.08522784
000120 c6 de 85 bd 93 bf bc 3d 3d b8 92 bd 1b 67 7a bd
       -0.06536631 0.092162274 -0.07164047 -0.061133485
000130 84 d8 af bb b4 e4 8d bd ec ce 00 3d 78 fb 2b 3d
       -0.005366387 -0.06928387 0.031447336 0.041987866
000140 b2 4e 9e 3c 30 0b 43 bd a2 de 07 3d af ef a4 3b
       0.019324634 -0.04761809 0.033171304 0.0050334553
000150 48 97 f3 3c ec 1d 8d 3d fa 41 6a bd 6d 03 a7 3d
       0.029735222 0.06890473 -0.057191826 0.0815495
000160 62 5e 2a bd c3 33 cf 3b 9a ca b1 bc 97 5f be 3d
       -0.041593917 0.006323309 -0.021703053 0.09295576
000170 da fa c7 3d 99 3a 8d 3d 18 78 8f 3d 24 6b d4 bc
       0.09764643 0.06895942 0.07005328 -0.025929995
000180 34 a1 bd 3c 53 5b 20 3d 41 15 6a bd f9 88 38 bd
       0.023148157 0.039149594 -0.057149176 -0.045052502
000190 d3 79 45 bb 7e 5b af bd fb e0 9c 3c 3d f6 da bd
       -0.0030132427 -0.085623726 0.019150248 -0.106914975
0001a0 31 f8 b6 3d ca 72 ad bc 9f c2 a3 bc a1 cf 50 3a
       0.089340575 -0.0211729 -0.019990264 0.00079655094
0001b0 a9 85 2b 3d 0a 02 bd 3d 51 ef 6f 3c 2d cb 83 3c
       0.041875515 0.092289045 0.01464446 0.016088093
0001c0 16 f6 a8 3d 97 dc b6 3d 16 c7 83 bd 26 6f 8d bc
       0.08250062 0.08928793 -0.06434457 -0.017264914
0001d0 46 aa 8d 3d 48 d3 e3 3c cd 4e ac 3d 7b b3 99 bc
       0.06917243 0.027810708 0.084134676 -0.01876234
0001e0 f0 a0 f8 3c b4 4f ab bd 3e f6 94 bd d2 c1 47 3c
       0.030350178 -0.083648115 -0.072735295 0.012192206
0001f0 d6 72 b0 bd 7c 5d 8d bd 8b d3 a3 3d 23 86 7a bd
       -0.08615653 -0.06902596 0.07999333 -0.06116308

model.8.weight f4 [3, 128]
000000 31 df d3 3d ca da 4e 3d 25 e3 43 3d 5d 1b bc 3d
       0.10345305 0.050501622 0.047824044 0.09184907
000010 09 47 0d bc 14 2f cc 3d 44 e5 be bd 91 03 9f 3d
       -0.008622893 0.09969917 -0.09321073 0.07764352
000020 b4 f0 2f 3d e7 7c 3f bd 68 86 c6 bd 0a 7e 26 3d
       0.04295416 -0.046749976 -0.09693605 0.040647544
000030 8c a1 50 bd ee ed 9d 3d 98 9c 65 bd 4c 4e 8d bd
       -0.050935313 0.07711397 -0.056057543 -0.068996996
000040 79 3e 8e bd fc c2 e1 bd de 72 89 bd 7e 04 a7 3d
       -0.069455095 -0.110235184 -0.06711362 0.08155154
000050 ef f7 0b bd 7b ca 03 b6 7c 83 26 bd e3 02 ea 3c
       -0.034171995 -1.963838e-06 -0.040652737 0.02856583
000060 9d e5 7d 3d 5c e5 e1 3d 6b 60 dd bd cd e1 e8 3d
       0.061986554 0.11030075 -0.10809406 0.11371193
000070 60 0a bd bd 31 d1 71 bd 93 fa 64 3d 77 9f cc 3c
       -0.092304945 -0.05903739 0.05590303 0.024978383
000080 2c 87 b2 bd 38 d5 19 bd 95 64 b4 bc 8d f8 1b 3b
       -0.08717188 -0.037556857 -0.022020617 0.002379927
000090 df 46 ac bb f0 f4 50 3d 93 aa 84 3d d6 aa b3 bd
       -0.005257472 0.05101484 0.06477847 -0.08772819
0000a0 a8 9e c6 3c 86 84 cd b9 e2 0b 9e bd ff ab cc 3d
       0.024245575 -0.00039199385 -0.0771711 0.09993743
0000b0 07 59 ac bd 0c a4 42 3d 8f 3c d8 3a c2 f6 01 bd
       -0.08415418 0.04751973 0.001649754 -0.031729467
0000c0 58 83 ef bc 06 c0 d9 bd 11 4d 9a bd eb 57 c9 bd
       -0.029237434 -0.10632329 -0.075342305 -0.09831222
0000d0 d7 ef 58 3d 6e a2 93 bd 35 16 39 3d 97 a6 ac bd
       0.052963104 -0.072087154 0.045187194 -0.08430212
0000e0 a1 49 36 bd ba 3c a6 3d f7 e9 97 bc 2d fe 89 3d
       -0.04450381 0.081170514 -0.01854418 0.06737933
0000f0 69 39 4f bd 15 3e d5 bd 83 51 1c bd ab c6 c2 bd
       -0.05059186 -0.10412232 -0.038163673 -0.09510549
000100 e7 e5 63 3d 43 86 e4 3c 49 cf 7e 3c 90 8a 13 3d
       0.055639174 0.027896052 0.01555235 0.036020815
000110 3a 4f 3c 3d 3e 6c 45 bd 96 ce be bc 5f 6e 99 3d
       0.045973994 -0.04819893 -0.023291867 0.07491755
000120 11 62 95 3c fb 58 b9 3c 4f 38 02 3e ef 10 e4 bd
       0.018235238 0.022625437 0.12716793 -0.11136042
000130 df 23 22 3a db 91 6e 3d fa 57 ca bd ad 6d 96 bc
       0.0006185155 0.058244567 -0.098800614 -0.018362844
000140 12 df fc 3c f5 3f 27 3d b4 91 5b 3d 72 45 6a bd
       0.030868087 0.04083248 0.05360575 -0.057195134
000150 fe 28 25 3d e8 6d 1d bd 09 74 61 bb 16 25 09 3d
       0.040322296 -0.038434893 -0.0034401438 0.033482634
000160 f7 ba a2 3d 84 d7 7b bc 36 d1 65 3d df 1e a2 3b
       0.07945817 -0.015371207 0.056107722 0.004947528
000170 0d 45 ad 3d f2 54 a3 bd af 6a f0 bc 6f 52 40 3d
       0.08460436 -0.079751864 -0.029347746 0.046953615
000180 87 a6 7e bd 76 c8 46 3d 5d e1 01 bc 46 91 4b 3d
       -0.06217053 0.04853102 -0.007927266 0.04969909
000190 f5 b0 9e 3d 01 94 92 3c 85 fa 8a 3d 27 76 e8 bd
       0.077485956 0.01789284 0.06786064 -0.11350661
0001a0 33 d9 fb 3d 41 97 c1 bd 35 42 5c bc dc 6f 46 bc
       0.12297287 -0.094526775 -0.013443519 -0.01211163
0001b0 2b e1 8d 3d 1b 73 88 bc 3c bc 1f 3d 9d d9 61 3c
       0.06927713 -0.016656449 0.038997874 0.013784793
0001c0 9e dd ae bd 59 04 8c 3d a0 ae 09 3d 80 33 67 bd
       -0.08538364 0.06836767 0.0336138 -0.0564456
0001d0 6d 9b ba bc 80 38 04 3d 49 c4 6e bb 01 0b 49 3d
       -0.02277919 0.032280445 -0.0036432913 0.04908276
0001e0 e4 3a 29 3d cf b0 69 bc f2 5c 82 3d 0b e8 6f bd
       0.041315928 -0.014263346 0.06365384 -0.058570903
0001f0 aa 8c 74 bd e3 96 13 bb 6f 29 e8 3c e6 2d 93 bd
       -0.05970446 -0.0022520355 0.02834007 -0.07186489
000200 28 d7 90 3d 62 53 cf bd 3b 33 b4 bd 28 de d1 3d
       0.07072288 -0.10123326 -0.08798834 0.10247451
000210 26 e3 24 bb e7 4b aa bc d2 de df 3d 20 39 c6 bd
       -0.0025159805 -0.020788146 0.109311715 -0.096788645
000220 e1 1a f3 3d ec cd 05 bc 58 30 93 bd 67 42 c7 bd
       0.11870361 -0.008166771 -0.07186955 -0.09729462
000230 4c 9a ff 3c 54 89 ab 3d 72 07 03 bd c9 ce 86 3c
       0.031201504 0.08375803 -0.031989522 0.016456025
000240 a7 88 9a bd ad 63 a5 3d 3f da f8 3c a1 06 10 3d
       -0.075455956 0.08075652 0.030377505 0.03516257
000250 ed 37 fc 3c 58 9c 89 bd 3b 47 65 3d c7 5e 9c bd
       0.030788386 -0.06719273 0.055976134 -0.07635265
000260 77 24 8d 3d ad 35 0b 3d 8a 89 fc bc df 31 59 bd
       0.06891721 0.033986736 -0.030827302 -0.053026076
000270 1b 5a d7 3d aa bf b0 bd 3c d4 3e 3d 0e 30 43 bd
       0.10515233 -0.08630307 0.04658912 -0.04765325
000280 a2 e7 e6 bd 88 25 b3 3d 7e f7 bf 3c 13 d1 6d bd
       -0.11274649 0.08747393 0.023433443 -0.058060717
000290 43 6c 9b bd 19 38 58 bc e5 3f 96 bc eb 8a e4 bd
       -0.07589009 -0.0131969685 -0.018341014 -0.11159309
0002a0 fb f2 5c bd e3 6b e9 bc 76 60 45 bc 48 2c b1 3d
       -0.05394266 -0.028493827 -0.012046924 0.08651024
0002b0 8d 78 b3 bd a1 d2 fd bd e7 03 78 bd 12 9d e0 3d
       -0.087632276 -0.1239369 -0.060550597 0.10967459
0002c0 e4 63 7b 3d ef aa 84 bc 06 3b 42 3c 8e 69 de bc
       0.06137456 -0.016194789 0.011854893 -0.027149942
0002d0 46 27 c1 bc 77 e3 e4 3c f5 65 75 3d 69 b4 a6 3d
       -0.023578297 0.027940495 0.059911687 0.08139879
0002e0 de dc f7 bc d2 cd f1 3d ce 0e be bd e5 49 25 bc
       -0.030256685 0.11806835 -0.092801675 -0.010088419
0002f0 d5 d1 64 bd 20 be 41 3d e9 26 fb bc 00 5c 72 3d
       -0.055864174 0.047300458 -0.030658202 0.05916977
000300 a5 2d 49 3d d7 c4 3a bd 3e 06 1d 3d 9a 39 bc bd
       0.049115796 -0.045597877 0.03833603 -0.09190674
000310 20 df 0d 3c 01 c4 93 bd b4 6b 39 bb 47 6d 55 3d
       0.008659154 -0.07215119 -0.0028292956 0.052106168
000320 89 9f 90 3d 01 58 8f bd 82 53 d5 bc 13 2f 5a bd
       0.07061679 -0.06999207 -0.026040796 -0.05326755
000330 3f 1e 34 3c 28 9a 8e 3d c4 81 20 bd 34 4b a2 bd
       0.010993539 0.06962997 -0.039186254 -0.079245
000340 c7 59 49 bd 93 5f a1 bc ce 46 a2 bb a0 de dc bc
       -0.049157884 -0.019698894 -0.004952288 -0.026961625
000350 a3 0a d7 3d e2 6e d1 bd 43 1c 4d bc 0e 1e 87 bc
       0.10500076 -0.10226227 -0.012518945 -0.016493823
000360 0b 0f d9 3d 68 bf 22 3d 7a 1e f5 3d ed 38 81 3c
       0.10598572 0.03973332 0.119687036 0.015774215
000370 97 92 19 3d 5c 7c a3 3d 1b d9 9f bc b0 ec 90 bd
       0.037493315 0.07982704 -0.019512704 -0.070763946
000380 ab 74 04 bc 6e 86 87 bb d2 e7 bb 3d 81 fc 7c bd
       -0.008084456 -0.0041358983 0.091750756 -0.061764244
000390 41 15 b1 3d ca 1d 7a 3d a0 a7 23 bd fc b8 dd 3d
       0.08646632 0.061063565 -0.03995478 0.108262986
0003a0 06 7e 82 bd 33 7b 65 3c a2 0e 1b 3c 5b 4a 06 bd
       -0.06371693 0.014006424 0.009463938 -0.032785755
0003b0 59 87 ad 3c da 38 39 3d f0 b9 9a bd 61 02 4e 3c
       0.021182703 0.045220234 -0.07554996 0.012573809
0003c0 81 fe 66 bd 65 93 89 3d fd cd e7 3c 8d a3 9a 3d
       -0.056395058 0.067175664 0.028296465 0.07550726
0003d0 ca 55 4e 3d 5d 96 a3 bd 5a 0d c0 bd d5 29 a3 bd
       0.050374784 -0.07987664 -0.093775466 -0.07966963
0003e0 be 1f ed bc f4 02 3d bc b0 c2 3b bb de b1 16 bd
       -0.0289458 -0.011536349 -0.0028649978 -0.03679072
0003f0 68 d0 8f bd 56 92 0e 3d be af bb 3d 49 40 68 ba
       -0.07022172 0.034807526 0.091643795 -0.0008859677

model.8.bias f4 [3]
000000 24 0a e4 3c d5 38 84 3d 4a ab 1f 3d
       0.027836867 0.06456152 0.038981713
