exported_models/neural_networks/history_sincos_mlp/trained_models/model_hist_5_epoch_250_batch_64_lr_1e-05_vs_30_hl_256_256_256_256/mlp_dynamics.pth (torch, 829781 bytes, 10 tensors)

model.0.weight f4 [256, 30]
00000000: 0080 3d3d 8aaf 05be d77f 52bb 436c 7d3d
00000010: dc16 e83c 2485 db3d 67c2 dd3b 314b 2dbe
00000020: 2ffd da3c 4abf e53d 5da1 bd3d 7d82 0e3d
00000030: 2428 5c3c 0d06 243e bfa9 cdbd 1b40 15bc
00000040: 874c d33c 9716 043d 1242 7c3c 897f 193e
00000050: d744 3a3e c1fa 2cbe 0eb4 e03d f486 013d
00000060: 2b7f f4bd aec6 423d 5ee3 373e 9e60 b7bd
00000070: 3321 cabc 8189 143e f10a 803d c877 c3bd
00000080: 2060 4b3d 023e c5bd eb19 f73c 901c 8935
00000090: 51d1 23bc a87c e0bd 43a2 31be f927 093e
000000a0: 1330 683d d8b6 bf3a dbea 7c3d bf53 a5bd
000000b0: 5173 a73d fcc7 193e 19c9 dbbd d140 f8bc
000000c0: 4c8d babd 6e8a 183e 4e2d da3d cdcc 373d
000000d0: 7c8b 7abd cf7d f3bd c8f6 0b3e 3abf 60bd
000000e0: 8636 05be f1f3 d03d 2180 8e3d 5a96 0b3e
000000f0: 4f72 f33d ebd4 20be 3a9e e4bd 6325 203e
00000100: 4c35 a63d 41eb 1f3e 8676 b2bd bd53 223e
00000110: ff7a 0f3e 60c1 e2bd be4f e8bd 60cb f3bd
00000120: bbc8 62bd 6a24 6ebd c615 8e3c e1df 0abe
00000130: ebe5 603c bfbe 823d d9f7 98bd f9ae 373d
00000140: 8aeb 36be 39c5 82bd 8576 803d 2a5c e93b
00000150: affc cabd e49a 36bd fbdc cdbc 5d7d 8fbd
00000160: 7d34 163c aad5 a0bc ee4b 00be 4d52 2d3c
00000170: 8efe 80bd b5d2 2bbe 75d6 74bd 7806 e4bc
00000180: 3d7a 0b3e 6aaa 0cbe 529a 123c 4aaf 10be
00000190: 5575 e63d fd1c 473d e39b 1e3c bfd2 e73c
000001a0: 3aa9 ea3d d139 d63d d875 15bd ca89 1abd
000001b0: 2e5e 9e3d 925f bdbd 0695 053d 9025 193e
000001c0: e5db 33bd cec5 543d 2361 903d 467d 8a3d
000001d0: 61a0 ddbd 0a5f 683e 8e3a 943c a207 f13c
000001e0: e03e 07be 1487 183d 2036 f03d 3a28 e83d
000001f0: 3466 063d b143 a3bd 7e14 0d3e 48cf 3ebd
00000200: e51b ca3d 4d84 8c3d 0593 51bb 77b4 0c3d
00000210: 0406 5dbd 4f17 6ebd 12ff e7bd 6b70 1ebc
00000220: 7332 833c ca3d debb 8930 5dbd 9b94 29be
00000230: 6949 213d a1c8 e53d 83e3 e23c 5d71 f0bc
00000240: 279e 59bc 94c2 233e 729e 6abe b7df 7abe
00000250: a8e0 333d 079c a83c 4d73 df3c 7e1e 3dbd
00000260: 65e7 773d a903 26be d317 52bc a0f9 7e3d
00000270: f344 bbbd b1c2 90bd 57c5 ff3d 1603 26bc
00000280: ca04 a4bc c6bd 03bd f28f 97bd d6e2 023e
00000290: 24ce 13bd b9f0 15be 58ca b3bd 0925 943d
000002a0: d82d 1c3d 5a26 abbd e5d0 b5bd e245 c5bd
000002b0: d9e3 d83d d1f2 06be d2d6 223e ccb5 f2bd
000002c0: a2b4 5e3e 00e3 a03d a09c 38bd 6ec1 24bd
000002d0: 1116 a63b 4bd3 203d 784f c13c 14b2 81bd
000002e0: 0e91 42ba e3d5 ca3d f561 d8bd fe8b cb3c
000002f0: a5bc 7dbd bee2 273e b935 debd f0db 86bd
00000300: d875 2c3e 3df7 94bc f95f a7bd 3a07 a4bd
00000310: 68d1 7abd 4439 e9bd 12bc 2dbe efd0 b3bc
00000320: 87cb 163c 24eb 23be 4bf8 223c 068d 6abd
00000330: 5d4f c6bd f28d f7bd 713e 7e3e f5a9 f1bd
00000340: e584 063e 4695 943d 2d07 eabd 1e15 4e3e
00000350: ee92 a63d dfec 46bd 533f b03c 5c46 6c3d
00000360: b6ff 1a3e 0ea3 9abd 0f7a 863d 701d e43d
00000370: 2f63 5abc 39a4 54bd 12db d5bc b396 383d
00000380: 9ac6 e5bd 447a f33d d0eb d43c 7b9c 21bc
00000390: ebe7 f3bd 6660 6dbd f737 e0bb ca2e 8dbd
000003a0: 692e 94bd ee97 23bd 5da4 10bd cd8f dabd
000003b0: a070 173e 074c 2bbe 663e 553d 145d 8a3c
000003c0: 6d4c 2cbe 984a da3d f187 f13d 64d3 63be
000003d0: 46cd 623d f027 893d eb3e 283e 724d 89bd
000003e0: 8e7a c1bc 5675 c43d 87d9 27bd 7792 27bd
000003f0: 8fe9 d6bd bb86 403d 89d7 c43d 9ff2 313e
0.04626465 -0.13055244 -0.0032119656 0.061870825 0.028331213 0.10718754 0.0067675593 -0.16923214
0.026732055 0.11218126 0.09259293 0.034792412 0.013437305 0.16017933 -0.10042142 -0.009109522
0.025793327 0.032248106 0.015396612 0.14990057 0.18190323 -0.1689253 0.10971843 0.031622842
-0.11938318 0.047552757 0.17957827 -0.08953975 -0.024674034 0.14505579 0.06252087 -0.09544331
0.04965222 -0.09630968 0.030163726 1.0215608e-06 -0.009998635 -0.10961276 -0.17347054 0.13394155
0.056686472 0.0014626635 0.061747413 -0.08072614 0.08176292 0.15017694 -0.10731716 -0.030304344
-0.091089815 0.14896557 0.106531724 0.044873048 -0.06116818 -0.118892305 0.13668358 -0.054869868
-0.1300908 0.10202778 0.069580324 0.13631573 0.11887037 -0.15706222 -0.11162992 0.15639262
0.08115634 0.15617086 -0.08714013 0.15852256 0.14011763 -0.110720396 -0.113433346 -0.11904025
-0.055367213 -0.058140196 0.017344367 -0.13561966 0.013726692 0.06384038 -0.07469148 0.0448446
-0.17863289 -0.063852735 0.06272606 0.0071215825 -0.09911477 -0.04458131 -0.025129786 -0.07006333
0.009167788 -0.019633133 -0.12528965 0.010578704 -0.062985525 -0.16779597 -0.059774835 -0.027835116
0.13620849 -0.13736883 0.008947926 -0.14129367 0.11252848 0.04861163 0.009680721 0.028298734
0.11458059 0.10460246 -0.036489338 -0.037729062 0.07732807 -0.09246744 0.032612823 0.14955735
-0.04391088 0.051946454 0.07049777 0.06762175 -0.108216055 0.22692505 0.018094327 0.029422585
-0.13207579 0.037238196 0.117290735 0.113357976 0.032812312 -0.079718955 0.13777348 -0.046584398
0.09868602 0.06861172 -0.00319785 0.034351792 -0.053960815 -0.058127698 -0.11327948 -0.009670357
0.016015267 -0.006782268 -0.054001365 -0.16560595 0.03937665 0.112199076 0.027696377 -0.02935093
-0.013282335 0.15992194 -0.22912005 -0.24499403 0.04391542 0.020582212 0.02727666 -0.046171658
0.06052341 -0.16212334 -0.012823063 0.06224978 -0.091440104 -0.070683844 0.124888115 -0.010132572
-0.020021815 -0.032163404 -0.07400502 0.12781844 -0.036085263 -0.1464261 -0.087788284 0.072336264
0.038129658 -0.08356924 -0.08877734 -0.0963247 0.105903335 -0.13178565 0.1590226 -0.11851081
0.21748593 0.07855797 -0.045071244 -0.04022353 0.0050685485 0.039264005 0.023597464 -0.06332794
-0.00074221275 0.09904077 -0.10565559 0.024847027 -0.061947484 0.16395089 -0.108500905 -0.065849185
0.16841829 -0.018184299 -0.08172602 -0.08009191 -0.06123486 -0.11387876 -0.16966274 -0.021950213
0.009203798 -0.16007668 0.009946893 -0.057263397 -0.09683106 -0.12087621 0.24828507 -0.11799995
0.13136633 0.07255034 -0.1142715 0.20125243 0.08133493 -0.04856574 0.02151457 0.057684287
0.15136608 -0.075506315 0.065662496 0.11138427 -0.013329311 -0.051914427 -0.026105437 0.045065593
-0.11219521 0.11888555 0.02599135 -0.009863968 -0.11909469 -0.05795326 -0.006842609 -0.0689369
-0.072354145 -0.039939813 -0.035313 -0.10671959 0.14789057 -0.16728221 0.05206146 0.016890086
-0.16826029 0.10658759 0.11793507 -0.22248608 0.055371545 0.066970706 0.16430251 -0.06704225
-0.023618009 0.095926926 -0.040978935 -0.040911164 -0.104937665 0.04700349 0.096114226 0.17377709

model.0.bias f4 [256]
00000000: f40b 95bc f676 15be 399a 00bd 3fb6 e83d
00000010: d950 983d 27fd 5e3d da84 5f3c e576 c4bb
00000020: b655 cdbd 6dd3 b1bb ed6c ea3d 4d29 b5bd
00000030: 60b2 2bbe f57f f7bd e73c d13d bc61 d9bc
00000040: 2a0b d9bd b72e a2bd cdb2 393e b659 193e
00000050: cf88 92bd 2146 6c3d 287c a03c 8555 bc3d
00000060: 96ce cd3b 42a4 f7bd d004 06be 35a8 b83d
00000070: c3b3 823d 79f3 ba3c aed4 de3d a042 9d3b
00000080: 2819 fc3c 3963 e0bd 8204 21be 6a3f fc3c
00000090: e655 27bc 5ce9 ccbc cd20 3b3d 31ab 4bbc
000000a0: 803e d43c d867 173e bec6 aa3d 4dfd 03be
000000b0: bb0a a0bd ad65 ea3d f744 b2bd 6c44 723d
000000c0: 7b23 c9bd 8e12 db3d e849 133e fb60 b43d
000000d0: 6e23 c43c 59cd cbbc c1b7 6c3c f489 1abe
000000e0: c877 423e 620a 993d 24bb 283e 4720 093e
000000f0: 2188 11be a54f 133e fc9b 273c 61b9 fabd
00000100: cf07 ec3d 718e b53c c9a5 f0bd cf04 c4bd
00000110: 1bac 1bbc 00bc 9f3c fb81 533c de70 ee3d
00000120: 7ae9 24bb aa00 27bd 916c 073e cb2d a1bc
00000130: b60c c5bd 2e5e 533c 0dc6 d03d d788 a0bd
00000140: 1580 1f3e 810e 18be fd78 fd3d 968a 113e
00000150: 3805 453d 97c3 3bbc 0d45 c53d 5440 a93d
00000160: 7bcc 23be a192 bcbd 4ddd b73d ac87 0f3b
00000170: 7bba 2dbd 98be 9c3b 37ab 62bd a67a f7bc
00000180: 6bc1 a63d 98e0 093e 1e24 a93d 2671 6fbc
00000190: ca40 10be b355 433b 2152 6f3d 1382 b13c
000001a0: b93a bdbc 1379 47bc e146 19bd ccc2 d8bc
000001b0: fdf0 db3c 6bf5 3a3e ee78 a3bd f4bd ea3d
000001c0: c137 a6bd 84a7 493d 113a df3c 8a25 d1bc
000001d0: f0ba 473e 1648 d63d b00d 2d3e 7826 a7ba
000001e0: 7c6a 443e 1ebb ef3c ac1a 4dbd 5609 ca3c
000001f0: 21f0 f63d 3f77 07be 904e debd 281d 9dbc
00000200: 407e c1bc 8118 afbd 3901 813d a174 053d
00000210: f111 bd3d 64b9 f1bd aae5 cb3d 5524 02be
00000220: 0437 a0bc 3d5c 14be dd79 29be 3dd6 a53d
00000230: d503 623e 4b90 a23c 2108 023d 6b90 ee3d
00000240: e694 133e c724 0a3e 2016 423e 0077 debd
00000250: c5d3 2cbe 036b c7bc e50d a03a ceac 113e
00000260: 1644 eb3d f64a 973b 6dff 1c3e dad3 d3bd
00000270: d1de 093c b45c 063e 5906 543d c255 cbbd
00000280: 9906 fabd 8ceb ac3d f770 d73c 0e39 97bc
00000290: d088 093d 3a3b 6a3c 268e d5bd 05c5 553d
000002a0: c185 6c3d b887 e8bc c9c8 e9bd 6d24 5ebd
000002b0: 770c 103e 73a6 0c3d c473 dbbd eac3 a53b
000002c0: 282f c0bd 0f86 d9bd b3ed 3cbe 051f aa3c
000002d0: 6997 c73c 50df cd3d eca0 953d 6918 0b3e
000002e0: a609 af3d abf0 f03d 5334 d13c dfc2 4d3c
000002f0: 00cd 3b3d 783f 06be bb93 bd3c 1b50 ecbd
00000300: 4c5d 4ebd e6c7 09be 64aa 0bbd 4380 cd3d
00000310: 4e82 8dbd 962e 4a3d 3a22 043c bf74 b9bd
00000320: 7e54 0d3e e85c e13c c57d afbd 030c 56bc
00000330: 44eb 0bbe ec9f a53d 85f4 213e 942a bdbd
00000340: 105a 663d 66fe 813d 3ad7 ee3d 7715 3c3d
00000350: b796 a83d 9bd5 72bd 405f be3d 9639 953c
00000360: a309 05bc d4ad c8bc d3bd febc dd34 123d
00000370: 34a6 c0bb 27a1 153e 5382 2b3e c788 80bb
00000380: db7b 7e3c 6411 99bd 0f41 a93d 4208 98bd
00000390: ac44 0abc e3b9 d53d 9f4f e63d d8e9 bebd
000003a0: f255 82bd df66 963d eafc 7cbd 6703 15be
000003b0: 0883 be3d 26c3 703d 1e89 d0bc 71f4 cfbd
000003c0: 125d 793d 65ca b9bc 3e82 883c 8715 c23d
000003d0: f0ac e83d 704f 63bd a54e 0cbb 848c 91bd
000003e0: 79d0 3b3c 3dc3 213e c54b 933d 22c0 8a3c
000003f0: 3d31 053e 8c67 04be 3f1e b03d 6001 d1bd
-0.018194176 -0.14596161 -0.03139708 0.11362886 0.074372955 0.054440644 0.013642514 -0.0059956186
-0.10026114 -0.0054268152 0.11446557 -0.08845768 -0.16767263 -0.12084953 0.10216694 -0.026535861
-0.105978325 -0.079190664 0.18134613 0.14975628 -0.071550004 0.057684068 0.019590452 0.09195999
0.0062807305 -0.120918766 -0.13087773 0.09016458 0.06381943 0.022821175 0.10880409 0.004799202
0.030773714 -0.10956425 -0.15724376 0.030791957 -0.010213351 -0.025013618 0.04568558 -0.012430952
0.025908709 0.14785707 0.08338688 -0.12889595 -0.07814547 0.11445174 -0.0870456 0.059147283
-0.098212205 0.106968984 0.14383662 0.0880756 0.023942675 -0.02487819 0.014448107 -0.15091687
0.18991005 0.074726835 0.16477638 0.13391219 -0.14212085 0.1438585 0.010230061 -0.122423895
0.11524927 0.022162648 -0.11750371 -0.0957123 -0.009501482 0.019498825 0.012909408 0.116426215
-0.0025163577 -0.040772118 0.13225009 -0.019675156 -0.09621565 0.012900872 0.10194025 -0.078386
0.15576203 -0.14849283 0.12376592 0.14213023 0.04810068 -0.0114602065 0.09632311 0.08264223
-0.15995972 -0.09207655 0.08977757 0.0021900935 -0.04241417 0.0047834627 -0.055339064 -0.03020985
0.0814236 0.13464582 0.08258842 -0.014614379 -0.14087215 0.002980572 0.058427934 0.02166847
-0.02309929 -0.012174862 -0.03742111 -0.026460074 0.02684831 0.18257682 -0.0798205 0.11462012
-0.08116103 0.04923202 0.027249368 -0.025530595 0.19504905 0.10462968 0.16899753 -0.0012752553
0.19181246 0.02926403 -0.050074264 0.024662655 0.1205752 -0.13229083 -0.10854828 -0.019178942
-0.023619771 -0.085495956 0.06299061 0.03258193 0.09231938 -0.118029386 0.09955914 -0.12709172
-0.019557483 -0.14488311 -0.16550393 0.08097503 0.22071774 0.019844195 0.031746034 0.11648639
0.14412269 0.13490592 0.18953753 -0.10862541 -0.16877659 -0.02434302 0.0012211172 0.14226076
0.11487596 0.0046170903 0.15331812 -0.10343142 0.00841494 0.13121301 0.051763866 -0.099284664
-0.1220829 0.084433645 0.026298983 -0.018459823 0.03357774 0.014296347 -0.10427503 0.052189846
0.057744745 -0.028385028 -0.1141525 -0.054233957 0.14067255 0.034338426 -0.1071544 0.005058755
-0.09383994 -0.10621273 -0.1845005 0.020766744 0.02436419 0.10052359 0.07306084 0.1358353
0.08546762 0.11764654 0.025537645 0.012558668 0.0458498 -0.13110149 0.023141732 -0.115387164
-0.050381944 -0.13455161 -0.034098044 0.100342296 -0.06909619 0.049360834 0.008064801 -0.09055471
0.13801762 0.027510121 -0.085689105 -0.013064387 -0.13663965 0.08087143 0.15815933 -0.09236637
0.056238234 0.06347351 0.11662145 0.045918908 0.082318716 -0.05928574 0.09295511 0.018215936
-0.008119973 -0.02449695 -0.031096375 0.035694946 -0.005879188 0.14612256 0.16748933 -0.003922555
0.015532459 -0.0747402 0.08264362 -0.0742345 -0.008439224 0.10435846 0.11245655 -0.09321946
-0.06364049 0.0734384 -0.061764635 -0.14552079 0.09302336 0.058779858 -0.025456008 -0.101540454
0.060879774 -0.022679517 0.016663667 0.09476762 0.1136111 -0.05549568 -0.002140918 -0.07106879
0.011463278 0.15797134 0.07192186 0.01693732 0.13007064 -0.12930125 0.08599519 -0.102053404

model.2.weight f4 [256, 256]
00000000: 1c9f 6bbd 8c2c 163d 9bce 9a3d 2f37 683d
00000010: 8545 683b 7fd4 71bd a165 433c 72eb c93d
00000020: 575c b23c c87c efbb 20fd 313d 8a20 1cbd
00000030: d20e 3c3c 6f3c 783d cd90 b4bc 0e19 1abb
00000040: 762b d6bc 24b2 ad3d a6e8 113e 6c7f 173d
00000050: 5b63 1c3d 75cb 1c3d fee3 7abc de91 283d
00000060: 939e 583b 8a12 16bd bdf3 4d3c bb0e 553c
00000070: 9641 0c3d 7fb9 d1b9 27fd 563d f617 4bbc
00000080: 7926 fb3c 18da 5dbd da4d 873c f7ce e73c
00000090: e454 e5bc 5c65 a3bd 7b2a a4bc 94e0 2fbd
000000a0: 4912 693d d999 5c3d 1e35 cb3c cee5 dc3c
000000b0: 8cec b43c 516e d33c aaf9 403d e1cc 3f3c
000000c0: 95a2 2bbd 0475 343d fb54 97bd 87c5 f0bc
000000d0: 12c2 4ebc 2951 82bd ac38 13bc 1672 b83d
000000e0: 95f7 5dbd 0fc8 a13d 78aa 62bc 7b57 4bbd
000000f0: 32c9 4dbd a7d9 863d cf10 0cbd a69b a2bb
00000100: 3a87 863c bbeb dfbc 6e49 38bd bff8 03bc
00000110: ec71 453c f634 873b 5c25 0c3c 25ca 18bd
00000120: 895e 203b 7142 6abd 8b28 d1bc eaaf 0ebc
00000130: 52c1 823d 82c1 f83c 3cdd 04bd b0c7 1abd
00000140: 9ce7 78bd 9891 45bd 2d3d 14bd 1161 463d
00000150: e009 873d 48b3 a33c 2f21 36bd cfc3 58bb
00000160: 2de5 e1bc 9314 7dbd 78aa 52bd e42d 6cbc
00000170: 4de8 26bd cc21 073c 2a65 1bbb 2b8a 2b3d
00000180: 5b18 8d3d b41e 6abd 61c8 513d a54e 223d
00000190: e10b 4c3c 6ff2 76bc 003b f63b 0b14 883d
000001a0: 0191 33bc 46b7 10bd d8e7 4c3c 51f1 29bd
000001b0: 0c05 c5bd fee7 2d3c a634 3dbc 5dff 123e
000001c0: 3660 3fbd ac9b 7fbc 36fb 843a f9b7 1c3d
000001d0: c8f9 e4bd 88e0 dbbc 0a21 beba 1198 7ebc
000001e0: 7491 863d 1af5 9ebc fda2 b3bc 6e1b 1a3d
000001f0: e88d b3bc f794 1dbd 9105 b4bd e9d8 4f3b
00000200: c947 ca3c 9e7e 08bc e528 99bc f0bf 98bc
00000210: 22b8 cdbc 729c 8c3c 2649 e53c 1e7a 823d
00000220: a707 acbd 8938 15bd d9ca bd3a 4f57 b43c
00000230: fb93 2a3d 4e52 823d 3781 bb3c 614b 6bbd
00000240: 40e3 473d b0f0 a23c 1c0d a3bd aa51 343c
00000250: 6334 f5bc fe2a b13b f749 963d c09a 65bc
00000260: 8135 0ebd 28cf 043c 9478 45bc c04f 23bd
00000270: 2f9e 3e3d cc45 173d f470 bb3c dcfd a3bd
00000280: e347 b5bc f8a8 073d 157c 22bd f998 333d
00000290: ddfc 5abd ce40 f1bc 2f23 9d3d dc25 9b3c
000002a0: 52d8 093d 8f0f 9a3d 493e 65bd 99a7 db3c
000002b0: ac6e 253d a699 7e3d 885b 5cbc 74b1 2ebd
000002c0: 266c 3cbb c5fd 3cbc 9330 d6bb e14f 11bc
000002d0: d6dc fcbb e579 f53c f20c a4b8 14ec cf3c
000002e0: 80cd 41bd 2861 f1bb 9ce0 36bc e099 16bd
000002f0: cac3 94bb c558 bc3c 656e 62bd 5cd2 afbc
00000300: 1330 403d d949 093d db82 5abd 01f7 f83c
00000310: a76e 65bc ba99 bfbc b105 fdbc c761 483c
00000320: a72d 313d 060e 873d e847 25bd da1c 43bc
00000330: ee8b 923c b513 2dbd 8477 4abd 937e 29bc
00000340: c967 48bd 7c0d 283c a914 8d3c 44e4 073d
00000350: 83e7 5a3c a5d0 a03c 9e4e 283d 3522 693c
00000360: af2f babb 719b 453d 0db8 29bd 9c3d 423d
00000370: 72bf 713c 8e85 74b9 49b3 f4bb b1d2 0c3c
00000380: f62b 903c f0c9 c2bc 8d0c 093d b112 8d3d
00000390: feb6 1abd 6e75 8fbb ed2d 95bc 539d d9bb
000003a0: ef41 903c c4e8 573c 5c0e 903b d6ec 5b3c
000003b0: 0981 8c3d 9d4f 9a3d 27c3 b6bd 570f e9bb
000003c0: 1940 59bc 7d4f 0fbd eb8c e83d 6e13 643d
000003d0: e5e2 4dbd b9f1 dbba f6a2 58bd 1395 5e3c
000003e0: c5dd 483d 101e a93c ef7c 7f3d bd4a e93b
000003f0: ac40 23bc 59f9 1b3b 055a ccbc 0f9b c23a
-0.057524785 0.036663577 0.07558938 0.056693252 0.0035441827 -0.059040543 0.011926086 0.09859361
0.021772547 -0.0073085763 0.04345429 -0.03811697 0.011478143 0.06060451 -0.022041703 -0.002351347
-0.02614377 0.08481243 0.14248905 0.036986753 0.03818069 0.03827997 -0.015313147 0.041154735
0.0033053502 -0.036638774 0.012570319 0.013004 0.034242235 -0.00040001792 0.05248752 -0.012395849
0.030657994 -0.05416307 0.016516615 0.02829693 -0.02799458 -0.07978317 -0.020039788 -0.042938784
0.056902204 0.053857658 0.024805602 0.026965048 0.02208545 0.025809439 0.0471131 0.011706562
-0.041903097 0.044056907 -0.073892556 -0.029391063 -0.012619512 -0.06363136 -0.00898568 0.09006135
-0.05419119 0.07899486 -0.013834588 -0.049643975 -0.050240703 0.06584483 -0.034195717 -0.0049624024
0.016421903 -0.027334085 -0.044991903 -0.008054911 0.012051087 0.0041261865 0.008553829 -0.037302155
0.002447041 -0.05719227 -0.025532028 -0.008708933 0.06384529 0.03036571 -0.032437548 -0.037788093
-0.060767755 -0.048234552 -0.036191154 0.048432413 0.065936804 0.019982949 -0.04446524 -0.0033075695
-0.0275751 -0.0617872 -0.051432103 -0.014415238 -0.040748883 0.008247804 -0.0023711422 0.041879814
0.06889411 -0.057158187 0.051216487 0.039625783 0.012454004 -0.015072449 0.0075143576 0.06644448
-0.010959865 -0.035331033 0.012506448 -0.041489903 -0.09620103 0.010614393 -0.011548197 0.14355226
-0.046722613 -0.01560108 0.0010145667 0.038261387 -0.111804545 -0.026840463 -0.0014505696 -0.015539185
0.06570712 -0.019403983 -0.021928305 0.037623815 -0.021918252 -0.038472142 -0.08790124 0.0031714982
0.024692433 -0.008330969 -0.018696258 -0.01864621 -0.025112215 0.017164443 0.027988981 0.06370948
-0.08399897 -0.03643087 0.0014480009 0.022014288 0.04164503 0.063633546 0.022888763 -0.057444934
0.048800707 0.01989016 -0.07961485 0.011005798 -0.029932206 0.0054067364 0.073383264 -0.014013946
-0.034718994 0.0081060305 -0.012052674 -0.039870977 0.046537574 0.036931798 0.022881009 -0.08007404
-0.022129005 0.033120126 -0.039669115 0.043847058 -0.053463805 -0.029449847 0.07672726 0.018938951
0.033653565 0.07522499 -0.055967603 0.026813315 0.040388748 0.06215825 -0.013449557 -0.0426497
-0.0028750985 -0.011535113 -0.006536552 -0.008869142 -0.0077167554 0.02996535 -7.822541e-05 0.025381126
-0.04731512 -0.0073663183 -0.0111619495 -0.03676784 -0.0045399414 0.022991547 -0.05528106 -0.021462612
0.046920847 0.033517692 -0.05334745 0.030391218 -0.014003432 -0.023388732 -0.030886503 0.012230343
0.043256428 0.06594472 -0.04035178 -0.011908734 0.01788899 -0.042255122 -0.049430385 -0.010345119
-0.048927102 0.010257121 0.017221766 0.033176675 0.013360861 0.01963074 0.0410906 0.014229347
-0.005681954 0.048243944 -0.04143529 0.047422037 0.014755117 -0.00023319406 -0.0074676615 0.008595155
0.017599087 -0.023777932 0.033459235 0.06888331 -0.03777217 -0.0043780124 -0.018210376 -0.006641069
0.017609565 0.013178054 0.004396243 0.013423165 0.06860549 0.07534716 -0.08923941 -0.0071124244
-0.013259911 -0.034987915 0.11355003 0.055682592 -0.05026521 -0.0016780413 -0.052889787 0.013585347
0.04903962 0.020644218 0.062375005 0.007119505 -0.009964149 0.0023799746 -0.024945268 0.0014847236

model.2.bias f4 [256]
00000000: a540 abbb e582 093d 76b1 693d 025d 803d
00000010: 8d87 f73c ec28 913c 3e26 003d 278f f03c
00000020: 197c 9f3d 4b7c 0b3d 1b6d 04bd a64e 103c
00000030: 91ec d93c 06c7 b73b 773e af3b ef8a ad3c
00000040: 4183 3c3d 1631 f33b cf10 ed3c 52a4 803d
00000050: 887f dabc c553 26bb 33ee 3bbd 3fba ce3c
00000060: c0d8 fbbc 5953 8ab9 a2c8 c13c fb15 913d
00000070: 32c5 17bd 9229 d2bc a2b3 6bbc 05ed 653d
00000080: b3e0 3b3c 603b 85bc 002a 6f3d a168 cb3c
00000090: 9219 e63c d4f5 963c 96d0 53bc 073a dd3c
000000a0: eb2f 2b3d f8f1 d93c 5811 2fbb 6ee8 ff3c
000000b0: a8d5 52bd e964 e93b b80f cebc b003 9f3c
000000c0: 676b 1ebd 5508 673d 0b9d bd3c 6d86 8f3c
000000d0: baf0 f9bc 29d5 cbbc e89d bb3c 2c1a 27bc
000000e0: 6378 0d3d 6475 893d 6827 61bd 4a03 10bd
000000f0: 4e09 d13c b2c7 6fbc 9283 37bd 5e52 733d
00000100: df1b 5f3d 48ab 95bc 626d 883c d0cb d5bc
00000110: e1b1 05bd af91 44bd 1df6 6e3d 4936 5f3d
00000120: 871e 9b3c bcb6 c9bc e895 2c3d ffec fabc
00000130: c9d2 413d d1df 983d 2c79 693d 4b9a 0a3c
00000140: eca4 4e3c 4dde 683c f7c1 023d 29c4 1dbd
00000150: 3e86 803c bebc 233d c24e 2c3d 6c44 4c3d
00000160: e27a 8a3b 54f7 56bd 8b4a 01bd fee8 09bd
00000170: e92f 3dbd c7ee 5c3d f151 95bc 623e 893c
00000180: 2a35 21bd cb82 d33a 1539 e9bc e8fd bc3c
00000190: dd9c 2cbd 617c 713d a72f 12bd c381 24bd
000001a0: f696 463d 9eab fc3c 5e53 cc3c 49c4 153d
000001b0: 015d 7a3d 5309 0c3a 4454 903d 26d2 8f3d
000001c0: 1726 c43c 4d23 1abc 4882 4dbb cef3 e7bb
000001d0: 081e 57bc 3559 ffbc 74fc 023c 6d5e 293b
000001e0: fa62 8a3d 37c6 423d 3c15 f3bc b852 ffbb
000001f0: 58ca 0e3d 9cf6 c33c 5fc2 763c 9f2a 8b3d
00000200: 1b54 9f3c 2f8b a8bc af61 283d 6945 683d
00000210: 1a05 dcbb 7ffb d13a 89e5 db3c 64f3 523d
00000220: 1309 593d a84e 1dbd ef4d 023d 910a 41bd
00000230: 31bf 9c3d abf5 333d 9ef8 953d edf6 d2bc
00000240: b41a ed3c 17ad 26bd ce6c 633d ea94 3cbc
00000250: ada7 303d f9fc 253d 37b7 a6bc 1bd1 453d
00000260: adc6 6b3c 9bab fabb 8c32 58bc 86db 0dbd
00000270: 0b58 c83c eeaa 5b3d b631 263d e690 7a3d
00000280: 3373 61bc 4728 a8bc 7ab1 903c 9c2e 8dbc
00000290: 6bd4 1fbd 4641 2c3d f3bb 57bd 73f1 18bd
000002a0: fec2 b7bc a314 723d 728d 853b a538 3cbc
000002b0: c135 54bd 3022 813d 32a6 af3c 548b 073d
000002c0: 9b5b 88bb 60cb 2e3d d0a6 a3ba f1e5 28bd
000002d0: 55c9 b3bc 91f7 b5bc 65e1 2b3c 8263 0abd
000002e0: c888 66bd 909b 11bd ff3d 3a3d e643 44bb
000002f0: aef3 a43b 6d0f 1fbd d8c9 083d 4dcb cd3c
00000300: 8f12 4dbd 7760 03bd 78b6 6a3d ab71 933c
00000310: 82d7 c0bc 433e 9aba fbfc 143d a95c 413d
00000320: 6cc4 04bd 8c8c 5d3d 5016 693c 8c83 0b3b
00000330: 33a7 a13c ac5b 40bd 249b 3d3d e62e 1a3d
00000340: 6e7a 1cbd e578 4bbd e403 723c b124 31bd
00000350: 9a3e 9a3d a559 3c3d e946 833d e760 033d
00000360: b404 8abd c41a bebc 5008 03bd a397 bc3c
00000370: 775f 853d 5e59 1f3d 071c 163c fac2 cd3c
00000380: 9e54 893d bcef 2e3d 7e63 0abc 651d 763d
00000390: bfab 0b3c c3dc 86bc 5c75 2a3d f325 713d
000003a0: 7297 02bd 330f ed3c 15ff 42bd 1972 65bc
000003b0: b797 8a3c 7a81 473d 62f9 4dbc 1a76 a1bc
000003c0: 4e7d 2a3d ec4f 0a3c 44fa bfbc d1f6 333c
000003d0: a10a d3bb 718f 6e3d 1df7 243d e0aa 6d3d
000003e0: 28c4 133d 0c68 263d 919e 51bc 86f0 423d
000003f0: 91c7 ab3c c795 8ebb 5ed3 d4bc 6107 19bd
-0.005226212 0.033572096 0.057054006 0.0626774 0.030216003 0.017719708 0.03128647 0.029365135
0.077873416 0.034054082 -0.032330614 0.008807814 0.026602061 0.0056084422 0.0053480226 0.021184413
0.04602361 0.007421623 0.028938679 0.062813416 -0.02667214 -0.002537952 -0.04588146 0.025235293
-0.030743003 -0.0002638351 0.02365524 0.070842706 -0.037053294 -0.025654588 -0.0143860895 0.056134243
0.011467147 -0.016263664 0.058389664 0.024830164 0.028088365 0.018427767 -0.012928149 0.027005209
0.041793745 0.026604638 -0.0026713219 0.03123876 -0.05147329 0.007122625 -0.02515398 0.019410938
-0.038676646 0.05640443 0.023146173 0.017520154 -0.030510295 -0.024881916 0.022902444 -0.010199111
0.034538638 0.067118436 -0.05496922 -0.035159387 0.025517132 -0.014635013 -0.04480321 0.059404723
0.05446994 -0.01827015 0.01665372 -0.026098162 -0.03264034 -0.047990497 0.05834018 0.05449513
0.018935455 -0.024623267 0.04213515 -0.030630587 0.04732016 0.074645646 0.057000324 0.008459638
0.012612563 0.014213157 0.03192326 -0.03851715 0.015689012 0.03997492 0.042067297 0.04986994
0.0042260746 -0.052481964 -0.03156523 -0.033669464 -0.04618827 0.053938653 -0.01822755 0.01675338
-0.03935734 0.0016137002 -0.028469602 0.02307029 -0.042141784 0.058956508 -0.035689976 -0.040162813
0.04848381 0.030843552 0.024942096 0.036564145 0.06112385 0.00053419656 0.070473224 0.070225045
0.023943944 -0.00940783 -0.0031358171 -0.0070786243 -0.013129719 -0.031170467 0.00799476 0.0025843636
0.067571595 0.047552314 -0.029673211 -0.0077918433 0.03486094 0.023921303 0.01506099 0.06795239
0.019449284 -0.02057418 0.041108783 0.05670682 -0.0067144753 0.0016020386 0.02684285 0.051501647
0.05298717 -0.03840509 0.031812605 -0.047129218 0.07653654 0.04393546 0.073228106 -0.025752509
0.028943397 -0.040692415 0.055523686 -0.011510113 0.043128658 0.040524457 -0.020351036 0.04829512
0.01439063 -0.0076498515 -0.013195645 -0.034633182 0.024456045 0.053629808 0.04057475 0.061173342
-0.013760376 -0.020527018 0.017662752 -0.01723414 -0.039020937 0.042054437 -0.052669477 -0.03733964
-0.022431847 0.059101712 0.0040756995 -0.0114881145 -0.051809076 0.06305349 0.021441553 0.033091858
-0.004161311 0.042674422 -0.0012485627 -0.041234914 -0.021946589 -0.022212775 0.01049075 -0.033786304
-0.05628279 -0.035548747 0.04546928 -0.0029947697 0.0050339317 -0.03883307 0.03339562 0.025121355
-0.050066527 -0.032074418 0.057302922 0.017998537 -0.023540262 -0.0011767823 0.036374073 0.04720751
-0.032413885 0.054089114 0.014226511 0.0021288125 0.019733047 -0.046962425 0.04629053 0.037642382
-0.038202696 -0.04967584 0.014771435 -0.043247882 0.075314716 0.04598393 0.064100094 0.032074835
-0.06739178 -0.023206122 -0.03199035 0.023021525 0.06512349 0.038903587 0.009161956 0.025117386
0.067055926 0.042709097 -0.008446572 0.060086627 0.008524834 -0.01646269 0.04161583 0.05887408
-0.03188271 0.028937912 -0.047606546 -0.014004254 0.016918046 0.048707463 -0.0125716645 -0.019709636
0.041623406 0.008441906 -0.023434766 0.010984139 -0.006440476 0.058242265 0.040274728 0.058024287
0.03607574 0.04062657 -0.012794153 0.047592662 0.020969184 -0.004351351 -0.025979694 -0.037360553

model.4.weight f4 [256, 256]
00000000: 3af0 e03b 5a25 31bd 85b0 073d 5af7 30bd
00000010: 2b86 3c3d e951 033c 459b e23b cc79 30bd
00000020: fbf6 65bd 976f 653d dc04 253d 8885 12bd
00000030: 6c8e 183d 21b3 7abc 51ed c0bc c748 723d
00000040: bd31 09bd 2540 4dbd 1d46 6fbc e48f c33c
00000050: d458 1dbd 543c 713c 37fd 9fbc 0c1f bdbc
00000060: bf41 393d f883 b0bb fa18 a33b c10b 00b9
00000070: f284 433d 564c 6f3d e8d0 0fbd f466 32bd
00000080: d1e9 e7bc c195 c3bc 4cb6 223d d645 213d
00000090: ebed da3c e7ed c7bc 5ca0 013d d83e 653d
000000a0: 6b95 4c3c d69b 363d 9d5f 3bbd f578 dcbc
000000b0: e531 26bc cbc6 1a3c 0b25 16bd 9c34 1c3c
000000c0: 88c8 5b3d 157f 64bd 6cc2 fabc 14bf d33c
000000d0: 6dae 1ebd 2975 13bd 3949 3f3d 925f 94bb
000000e0: 8254 ad3b ca6e 2f3d bef9 62bd 05b6 a23d
000000f0: bc42 0e3d 6328 adbb ae27 073d 0703 40bd
00000100: d108 8c3c cede 303d 87d2 2fbd 6a9d 06bd
00000110: 6cb0 50bc 0fc3 e2bc 56a3 0fbd 4a70 e6bc
00000120: 0a49 d7bb 4d1a f13c 444f 62ba 560c 883c
00000130: 63d4 5cbd 06ed 86bc 72fc 30bc 3176 e23c
00000140: 1f75 093d 17e8 843c 4d1a 643d 3557 9a3c
00000150: 0637 2a3d d9ed 273d 7bc1 463d 4928 473d
00000160: e608 c3bc 41d5 60bd c234 9b3d 5e88 4dbd
00000170: 73ef 7ebd 282a c5bd 6af6 c9bb e4b6 ca3c
00000180: 5aee 443c a22c 3ebd 5bf1 56bb 865b 643d
00000190: 211e 5b3d 0f38 a63b e9f9 3ebd 0b4b ad3c
000001a0: 2f32 a3bb c532 2c3d 5ace ff3c 1e7a 943d
000001b0: 0b27 653d 6f68 213c ab55 e83c 4c72 f4b9
000001c0: a163 3dbd c7bc 123c f4a3 3abb e785 49bc
000001d0: f6f1 0f3d aff0 22bc 0271 d43c 1ffa 1e3d
000001e0: fb94 153d 8bcc 763d 199e ba3c 82b8 8e3c
000001f0: 66b2 a33c f45a 943c 4937 283c 3c2a 853d
00000200: b697 a5bc 97d1 503d 6ce6 33bd 9bc8 c5bb
00000210: 5a24 58bd 1add f9bc afe8 5f3d d9ba 51bd
00000220: b14a 543d bd4e 7bbc 8b85 1abd 8abd 1b3d
00000230: 0c6d 55bd 7dcc d6ba 2d06 b2bc 0b6d 7839
00000240: 106b 8abc 789f 07bd 4396 1e3d fc14 49bc
00000250: c311 393c 148b 3ebd 23b0 553b d44b 673c
00000260: d2f8 1dbd 053c 14bd 9db5 1d3d 91c2 1c3d
00000270: ec97 7d3d 50d9 f1bc 1fb6 54bd 7597 0c3d
00000280: b10b 173d 6644 413c 3d52 133c 877d 89bd
00000290: 7683 ad3c a0b0 33bd a555 433d 41d0 233d
000002a0: 366a 13bd 69cc 9e3c 49e2 403d 366e f13c
000002b0: c7cb 28bd d88d 69bd 9ed0 463d 15a5 07bd
000002c0: 8458 f73b 52ae 6e3d 8ae3 17bd ef9c 90bc
000002d0: 6c6f 453c d822 cdbc 527d 39bd 4e2f 08bc
000002e0: 5ac6 cc3c c055 2cbc 8c69 8e3c 9f79 ff3c
000002f0: d59d 51bb 4996 d0bc d1cf 72bd a389 403d
00000300: 29d9 87bd 3265 92bc 5b0d cb3a aa53 c8bc
00000310: 6680 81bd 32aa 5abd f5c3 f9bc 97a3 dc3c
00000320: a195 71bd fcd6 773d 312b 533d 979a e2bc
00000330: 98da 293d e7fb 7abd 9e58 49bd f420 cd3c
00000340: feec d5bc ade2 bfbc 0015 1d3d ec7e d3bc
00000350: 9ebc 7c3c acbf 7d3c b9c6 45bc 8ba7 15ba
00000360: 04b3 12bd 531a 573d 7296 41ba 2027 89bd
00000370: 4992 203c de89 923c 437d 2abd be84 91bc
00000380: 4239 c33b 1189 863c 2433 23bd 3b05 c23c
00000390: 2812 2d3d 6144 19bd d66c 273a 9da8 a1bc
000003a0: e091 75bc e7fe 25bd f678 3ebd 8d03 dcbb
000003b0: 2a4d 3dbc dd76 4e3a b4b6 dfbb fd65 b1bb
000003c0: c1de 3bbd 277a b03c f888 423c 45ae 923d
000003d0: cae1 023d 7a63 ca3c 0709 cf3b c2e9 d9b9
000003e0: e0fb 16bd 9e31 e13c fc3f 053c ccc2 16bd
000003f0: ebe0 2d3d 3ba0 43bd 75f8 c73c d685 56bc
0.0068645747 -0.04324851 0.033127327 -0.043204643 0.04602639 0.008015134 0.006915482 -0.043084905
-0.056143742 0.056014623 0.040287837 -0.035771877 0.0372452 -0.015301497 -0.023550661 0.059151437
-0.0334947 -0.05011 -0.014604119 0.023872323 -0.03841479 0.014723856 -0.019529922 -0.023086093
0.045228716 -0.0053868257 0.0049773427 -0.0001221141 0.04773421 0.05842241 -0.035111338 -0.043555215
-0.028309735 -0.02387512 0.039724633 0.03937324 0.026724776 -0.024405433 0.03164707 0.055968136
0.012486796 0.04458221 -0.04574548 -0.026913146 -0.010143732 0.00944681 -0.03665642 0.009534027
0.05365804 -0.055785257 -0.030610286 0.02584795 -0.038740564 -0.036000405 0.04670069 -0.0045279944
0.005289615 0.042830266 -0.055413954 0.07944874 0.03473161 -0.0052843555 0.032996826 -0.046877887
0.017094048 0.043181233 -0.042925384 -0.032864965 -0.012737375 -0.027680902 -0.03506788 -0.028129715
-0.006569986 0.029431487 -0.00086330273 0.016607445 -0.053913485 -0.016470443 -0.010802375 0.027644249
0.03355896 0.01622395 0.055689145 0.018840412 0.04155638 0.040998314 0.04852436 0.048622403
-0.023807954 -0.054890875 0.07578422 -0.050178878 -0.062240075 -0.09627181 -0.006163408 0.024745412
0.012019718 -0.046429284 -0.0032797668 0.055751346 0.05349553 0.0050726007 -0.04662505 0.021153947
-0.0049803476 0.042040605 0.031226326 0.072498545 0.055945437 0.009851559 0.028361162 -0.00046624464
-0.04623759 0.008956141 -0.0028479071 -0.012299991 0.03514286 -0.009945079 0.025932793 0.038812753
0.036519032 0.06025366 0.022780465 0.017421965 0.019982528 0.018109776 0.010267087 0.06502196
-0.020213943 0.05098113 -0.04392092 -0.006035877 -0.052769043 -0.030500937 0.054665264 -0.051203582
0.051829044 -0.015338597 -0.037725013 0.038022555 -0.05210595 -0.0016387847 -0.02173146 0.00023691745
-0.016896755 -0.033111066 0.03871752 -0.0122730695 0.011295739 -0.046519354 0.0032606206 0.0141172
-0.03856737 -0.03619005 0.038503278 0.03827149 0.061912462 -0.029522568 -0.051931497 0.03432413
0.036876384 0.011796093 0.008991775 -0.067133956 0.02118085 -0.043869615 0.0476891 0.03999353
-0.035989963 0.01938458 0.047090802 0.029471498 -0.041209962 -0.05702004 0.048538797 -0.03311642
0.0075483937 0.058271714 -0.037082233 -0.017652957 0.012050491 -0.025041029 -0.04528553 -0.00831206
0.024996925 -0.010518491 0.017384313 0.031185923 -0.0031984944 -0.025462287 -0.05928022 0.04700626
-0.06633217 -0.01787052 0.0015491651 -0.024453957 -0.06323318 -0.053384967 -0.030488947 0.026933474
-0.058980588 0.06050776 0.051554862 -0.027661605 0.041468233 -0.06127539 -0.049156778 0.025040127
-0.026113983 -0.023423517 0.038350105 -0.025817357 0.015425829 0.015487593 -0.012071305 -0.0005708865
-0.035815254 0.05251534 -0.0007384784 -0.066969156 0.009800502 0.017888006 -0.041623365 -0.017763492
0.0059577534 0.01642278 -0.039843693 0.023684135 0.042253643 -0.037418727 0.0006386762 -0.019733721
-0.014988393 -0.040526297 -0.046502076 -0.0067142905 -0.011554042 0.00078759884 -0.0068272 -0.0054137693
-0.04586673 0.021542622 0.011873476 0.071621455 0.03195361 0.024705637 0.006318215 -0.00041563628
-0.0368613 0.02748948 0.008132931 -0.036806867 0.042450827 -0.04776023 0.024410466 -0.013093432

model.4.bias f4 [256]
00000000: bca7 0d3c 57bf 0fbd 0835 75bc ad48 22bc
00000010: 0d99 b1bc 913f 7a3d c70b 023d 2769 ebbc
00000020: 495e 263d a1ec a7bb ce2f e73b d75b 003c
00000030: 1d05 1d3d e388 1a3d 2e6b ffbb 6908 67bc
00000040: 35d1 4cbd 9924 8c3c e07c 02bd 0a2e 2fbd
00000050: 0f7c 823c 4397 2f3d 7345 ffbc 43a2 33bc
00000060: 3065 623c 87a6 79bd 257b 50bc b788 643c
00000070: 3277 013a ec87 0d3b 26ff f93b 8219 2b3d
00000080: 9153 583c 1cb1 083d 5410 b73c 9be5 dbbc
00000090: 111d a93c 7918 293d 14b6 18bd 5947 253d
000000a0: 3673 99bb 10e6 e63c 8407 1f3d 1c08 623d
000000b0: 9b6a 543d 182b 673d a77f ed3b 1a2d 50bd
000000c0: 3805 1cbd f28e 383d f789 a43c 4550 663d
000000d0: c08f c5bc 09cd afbc ad60 91bc d8f6 34bd
000000e0: 7f60 4bbc 0473 c13c a19a dd3c 1848 143c
000000f0: 3058 243d e292 e7bc b125 123d f5c6 153c
00000100: f7a9 3b3c 265c ae3c 0c5f 54bd b83f 98bc
00000110: 75a7 dc3c 3d87 1c3d d369 d2bc a86e 10bd
00000120: 8408 593c 59be 243d bbba 093c e26c 283d
00000130: 347d 9e3b 7cfe 113d 0d24 2bbd 0367 66bd
00000140: c7b8 5b3d a091 b13c 88c7 9c3c 08ec 583d
00000150: 3049 5d3c 8fb4 86bc e0a4 383c cc4f 18bc
00000160: 0cb5 413c fcf7 d83c fb4c 1b3d 5e33 9fbb
00000170: 2bb7 c03c a41f a0bc beff 9c3d 0458 103d
00000180: 97bc 773d 5aa2 4c3d 66f3 23bd bda1 993c
00000190: 7668 573d 5775 373c 326f babc d0c8 20ba
000001a0: 1f81 323a 143b e5bc c5e3 053d 57c2 633c
000001b0: 1955 9e3b dfa0 90bc c297 e6bb 8b08 0bbd
000001c0: efde 983c c980 1b3d b62c 76bd 4058 3fbd
000001d0: 0a8c 413d 0eb8 863c ec31 153d 5c1d a5bc
000001e0: 949a aebc 4b86 c33c b1f0 4cbd 5d9e deba
000001f0: ec81 633d 9b0c 163d 0da9 0b3d 3cb7 0a3d
00000200: 5c30 2c3d f0c2 423d f93d 55bd d829 34bd
00000210: ca5a 7dbd adde 74bb ee15 f93b 0057 25bd
00000220: 887b c63b 182f dcbc f392 51bd 50e1 48bd
00000230: c231 0c3d de74 873d 2cda 3abd 5ae9 003d
00000240: 6697 9b3c 8835 863d d6d0 9dbc 80e1 a5b9
00000250: 90f4 ba3c 116f d83c ba5e d03c 9075 823b
00000260: c750 913b 2840 e83c 95f1 4e3d 1207 adbc
00000270: 8bd9 493d ec2e 643c f9f4 053d e430 593d
00000280: 0fd4 6fbd 1031 5c3d e017 5fbb 7c04 5dbc
00000290: 9690 17bd 1e6e 16bd f741 dcbc 6922 90bb
000002a0: 9c46 10bc 45cd 433d 33f3 413d e6c4 9e3d
000002b0: 5f02 d33c 353a 8b3c 6679 083d 5823 9c3d
000002c0: 9f47 fd3b f81c c63c b6cc c0bb aada aabc
000002d0: 792a acbc ab60 853d b51b cebc 0be7 61bc
000002e0: 95f7 803d 33ef a73b 443f 363d af50 053d
000002f0: 5437 93bc e268 59bd 251a 50bd f15a e13c
00000300: d988 e1bc a256 063c 21fc 2fbd d57f 26bd
00000310: 0561 7c3b 6b3b e83c 1975 c23c d24d 163d
00000320: 7753 0d3d e809 4a3d d69d 5abb b06e 8ebb
00000330: 88bf 863a 68a0 5f3c 7bc9 c0bb 2acb 4b3d
00000340: babd 0bbd bb41 1cbd b6a0 383d 5a35 b9bc
00000350: 8c53 8abc 59fa e4bb 9195 2b3d 3f0b 40bd
00000360: 6c67 6c3d 2191 d0bc 4d50 123d 780c 30bd
00000370: 2f8f 94bc 83b0 3a3d 18ab adbb 9eb6 1bbd
00000380: 3c72 4bbd 4d4c 2b3c 3db7 3f3d 6150 043d
00000390: 6596 f3bb b7c2 0d3d 6921 fd3c be61 5cbd
000003a0: 7dc8 eb3c 7b45 32bd 99e0 9e3b 93bf 45bd
000003b0: c628 6f3d 4dae 46bc a931 14bd e181 29bd
000003c0: 504f 6f3d a654 b7bb ab10 eabc 8847 8e3d
000003d0: 686d 96bc fe5c 593d 1ce4 7e3b b33e d43c
000003e0: df36 06bb 1663 873b 54ce 453d 17c1 1b3c
000003f0: d85b 4b3c 6f8c 933d 7c20 05bd cd1c 593d
0.008645948 -0.035094585 -0.014966257 -0.009905023 -0.021679426 0.061095778 0.031749513 -0.028736664
0.04061726 -0.005124644 0.0070552593 0.007834396 0.038334955 0.0377282 -0.0077947592 -0.014101126
-0.050004203 0.017107295 -0.03185737 -0.042768516 0.015928296 0.042868864 -0.031161046 -0.010963979
0.01381807 -0.06094983 -0.012724672 0.013948611 0.0004938721 0.0021595908 0.007629293 0.041772373
0.0132035175 0.03337203 0.022346653 -0.026842883 0.020643743 0.041283105 -0.03728302 0.040351246
-0.0046829237 0.028185874 0.038825527 0.055183515 0.05185948 0.05643758 0.0072478834 -0.050824262
-0.038090914 0.0450582 0.020085318 0.056228895 -0.024116397 -0.021460073 -0.017746294 -0.04418072
-0.012413143 0.023614414 0.027051272 0.009050392 0.040123165 -0.028268281 0.035680477 0.009141673
0.011454097 0.021284174 -0.051848456 -0.018585071 0.026935318 0.03821491 -0.025685227 -0.03526178
0.013246659 0.040220592 0.008406336 0.041119464 0.0048367027 0.035643086 -0.041782428 -0.056250583
0.053643014 0.021675885 0.019138113 0.052959472 0.013506219 -0.016443519 0.011269778 -0.009296369
0.01182295 0.026485436 0.03791521 -0.0048584184 0.023524841 -0.019546337 0.076659665 0.03524019
0.060482588 0.049959518 -0.040027045 0.01875388 0.052589856 0.01119741 -0.0227581 -0.0006133439
0.00068094017 -0.027982272 0.03268792 0.013901315 0.004831922 -0.017654834 -0.007037134 -0.033943694
0.01866099 0.037964616 -0.060101233 -0.04671502 0.047252692 0.016445186 0.036424562 -0.020155601
-0.021313943 0.023867747 -0.05003423 -0.0016984452 0.055543825 0.036633115 0.034096766 0.033866152
0.042038307 0.047549188 -0.052061055 -0.043985218 -0.06185416 -0.003736417 0.007601491 -0.040366173
0.0060572065 -0.026877925 -0.051165532 -0.049043 0.03422714 0.066140875 -0.04561822 0.03147254
0.01899309 0.06553179 -0.01926462 -0.00031639263 0.022821695 0.026420148 0.025435794 0.0039812997
0.0044346782 0.028350905 0.05052336 -0.021121535 0.04927973 0.013927203 0.032704327 0.05302514
-0.058551844 0.053757727 -0.003404133 -0.013489839 -0.037003122 -0.03672611 -0.026886923 -0.0043986333
-0.008805897 0.047803182 0.047351073 0.07752399 0.025757967 0.016995529 0.0333189 0.07623929
0.007729485 0.024183735 -0.0058837784 -0.02085622 -0.021016346 0.065125786 -0.025159696 -0.013787995
0.062972225 0.0051249503 0.04449393 0.03254765 -0.017970718 -0.05307854 -0.050806183 0.027509185
-0.027531074 0.008199366 -0.04296506 -0.040649254 0.0038509977 0.028348645 0.023737477 0.03669531
0.034503426 0.049325854 -0.0033358238 -0.004346691 0.001028047 0.013649084 -0.0058833933 0.0497543
-0.034116484 -0.038148623 0.04507514 -0.022608448 -0.016885541 -0.0069878516 0.041890685 -0.046885725
0.05771582 -0.025459828 0.035721112 -0.04298064 -0.018134682 0.04557849 -0.005299937 -0.038015954
-0.04966949 0.010455203 0.04680561 0.032303218 -0.0074337 0.034609523 0.03089972 -0.05380415
0.028782124 -0.043523293 0.0048485515 -0.048278403 0.058388494 -0.0121265175 -0.036180172 -0.041383628
0.058425248 -0.0055948077 -0.028572401 0.06947237 -0.018362716 0.0530672 0.0038893288 0.025908804
-0.0020479483 0.004131685 0.048292473 0.009506485 0.012412034 0.0720452 -0.032501683 0.053005982

model.6.weight f4 [256, 256]
00000000: 6350 3c3d ab0f ba3c 1130 09bd 5bdd b7ba
00000010: ac1f 333d e2f5 513d a331 d7bc 64fc 0cbd
00000020: ce2f 7d3d b016 1cbd f97d a4bb 39f8 5ebd
00000030: a047 613d 6a49 f5bc a661 fcbc e3bf 1a3d
00000040: 1d3c 543a 9a2c d9ba d04f b6bc ea87 573d
00000050: 2290 983d f3bd 653d 904d d9bc 3cee df3c
00000060: 5b20 fa3c 4eec 453d 7a3c bfbc 3eb3 2dbd
00000070: 0f7c 003d 1ddc 13bc cb2d 35bd 0136 373d
00000080: 69ab 70bc 6a6c 0ebd 6f30 9e3b b366 203d
00000090: d644 3b3d b846 88bc 1aca 723d 86ce d83c
000000a0: 0bb6 01bd 8bf7 a0bc 3fd4 4ebd e4c5 3dbd
000000b0: d5e4 b2bb aedf af3c 736c 14bc 2faf 51bd
000000c0: d8b6 44bd 0dcc 4abd ddb6 50bb ec07 513d
000000d0: 7e89 85bb f380 2d3b 9031 0d3d eb64 8d3d
000000e0: 45ad 963b 4767 4c3d f3b4 4c3d 42ef 6b3d
000000f0: 5c85 d1bc 1ddb 51bc 7f87 0a3d 3796 c6bc
00000100: 539d 213d ef4d 55bd 5a8b a43c a712 2fbd
00000110: 6381 7e3d 3ad3 863d e0fa 31bd 653d 453d
00000120: 4f5e 283d a9ae 8cbb e6d4 f4bc 9ad0 e1bc
00000130: dea8 903d 7767 6f3d 9d4c 54bd afb4 a73c
00000140: 7dad 8e3c 3597 de3b 2438 8bbc 169e 1abc
00000150: 5599 4bbd e946 1a3d 5baa 4e3d f400 833b
00000160: 4443 88bc 1d07 8ebc d251 5dbd 806d 74bd
00000170: a501 6e3d 33b6 613d 8d2c dfbb 7489 2b3d
00000180: bda4 abbc ee5a 8abc d261 89bc 95d2 76bd
00000190: 341e 86bd e1ca bfbb fdb6 663d 6c3a 71bd
000001a0: 2867 13bc 6290 323d 2058 32bd 84f6 08bd
000001b0: 9df1 35bd 835b 0dbd 9cc2 5bbd fe8b d8bc
000001c0: 7d91 633d 328b 3f3d 30a3 ab3c 981b 3cbb
000001d0: a11e f33b 9552 983a ac3e 803c 3dd6 903d
000001e0: 5e86 c03c 902a dfbc e2b1 343d 89c4 3bbd
000001f0: 90b6 1f3d 16f4 3b3c 7c0d 363d 7b2e 433d
00000200: 37b9 a1bb ba66 10bd d9c7 03bd 5dbf d0bc
00000210: 60e7 14bd 2372 65bd 9d5e 11bd 41f8 e13c
00000220: 6f2e 183c e031 2dbb 14cd f63c 7eed fcbc
00000230: 4849 81bb 9a76 3fbd 53e2 aebc 7c92 aabc
00000240: 6ca1 913d 2a3f 48bd 9061 a7ba 297b 243c
00000250: 5667 f53c 2e33 633d 4549 383d f9b1 223d
00000260: a6f1 12bc ab3f b43b 600b a4bc b84a 3ebd
00000270: 7639 513d 80c6 353c 872b d6bb fbd5 b13c
00000280: 4481 d23c 7f1e 7f3d 043c a2bc 2877 68bc
00000290: eb6f 043d ce35 1dbd 4140 12bd dc5b 943c
000002a0: 4881 203d 3cef a6bc 44e3 493d 46c9 d83b
000002b0: 41e6 7bbd b62f 473d 98ae 08bb 931b 4c3d
000002c0: ce2a 643d 1ab1 0b3d f320 f73c 1470 853c
000002d0: 7302 35bd 15fa 253d 8a13 5d3d 6bc9 01bd
000002e0: 0f89 573d f6e7 763d fa4c 623d 7534 3ebd
000002f0: 72fa 1a3d f6bb f0bc f2da adbc 81a6 733d
00000300: bd90 053d 4222 09bd 4b86 a4bc 4a3c 2cbd
00000310: 426d d63c d1ec 673d 765c 683d 6f95 80bd
00000320: 3781 39bd 268f 3cbd b450 70bd 4332 eaba
00000330: 33fc 0fbd c1c1 de3c db05 643b 5976 a13c
00000340: 3cb9 c9bc fc8a 59ba 5501 113d c15a 193d
00000350: 6ffa 433d 5378 e53c 4c4b eabc 13dc 093d
00000360: 1be4 b1bb 1be6 703d 45f5 183d ba12 febc
00000370: 346a 7c3d cc85 f1bc 16fa 18bd 90e4 afba
00000380: bed0 3abd b5df e43c 7e2d eebc 828b 64bd
00000390: 9a5f 79bd 70fc bcbb c666 8b3d dd4b f23c
000003a0: b3e5 01bd ec45 bc3c 14f6 54bd 2583 6bbd
000003b0: 69bd 6e3b c617 8f3c 1022 8bbd f875 f539
000003c0: 7d3d 253d a4a8 57bd 0aaa db3c 9117 673d
000003d0: 3bec f4bc cddc 863d fb79 293d 0d7c c0bb
000003e0: 43dd cfbc 55e5 46bd b43e 36bd 8855 173d
000003f0: bd9c 02bc b2d9 373d 34a0 873c e7fa 7e3d
0.0459751 0.02271255 -0.033493105 -0.0014027761 0.043731377 0.051259883 -0.026268786 -0.034420386
0.06181317 -0.038107574 -0.0050199 -0.054435942 0.054999948 -0.029942233 -0.030808281 0.037780654
0.0008096116 -0.0016569078 -0.022254854 0.052619852 0.07449366 0.056089353 -0.026526242 0.027335279
0.030533006 0.04832106 -0.023344267 -0.042407267 0.03136831 -0.009024647 -0.044233125 0.044729237
-0.014689305 -0.03477136 0.004827551 0.03916044 0.045719944 -0.016635284 0.05927477 0.026465666
-0.03166775 -0.019649288 -0.050495382 -0.0463313 -0.005459408 0.021468963 -0.009059059 -0.05119246
-0.048025936 -0.049511004 -0.0031847276 0.051032946 -0.0040752282 0.0026474565 0.034471095 0.06904014
0.004598292 0.04990318 0.049977254 0.05760122 -0.025576286 -0.012808588 0.033820625 -0.02424155
0.039456677 -0.052076276 0.02008598 -0.042742398 0.06213511 0.06583257 -0.043452144 0.048154254
0.041105565 -0.004293282 -0.029886674 -0.02756529 0.07063459 0.05844828 -0.051830877 0.020471899
0.01741671 0.0067929276 -0.016994543 -0.009437105 -0.049706776 0.03766528 0.050455432 0.0039979164
-0.016633637 -0.017337376 -0.054033108 -0.05967474 0.058107037 0.0551054 -0.006810731 0.041879132
-0.020952577 -0.016889062 -0.016770277 -0.06025942 -0.065487295 -0.0058530425 0.056326855 -0.058893606
-0.008996762 0.043594725 -0.043541074 -0.03343822 -0.044419874 -0.0345111 -0.05365239 -0.026433941
0.05555867 0.046763606 0.020951837 -0.002870297 0.0074194227 0.0011621291 0.015654884 0.07072113
0.023501571 -0.027241975 0.044114955 -0.045841727 0.038992465 0.011471769 0.044446453 0.04765175
-0.0049354094 -0.035254218 -0.03217301 -0.025481874 -0.03635347 -0.056017052 -0.03549062 0.027584197
0.009288414 -0.0026427433 0.030127086 -0.030874964 -0.0039455034 -0.046743967 -0.021348154 -0.020821802
0.07110867 -0.048888363 -0.0012770165 0.010039129 0.029956501 0.05546873 0.04499175 0.03972051
-0.008968746 0.005500754 -0.020024955 -0.046457976 0.05108019 0.011094689 -0.0065359506 0.02170848
0.025696404 0.062284943 -0.019804008 -0.014188565 0.032333296 -0.03838139 -0.03570581 0.018110208
0.039185792 -0.020377748 0.049289003 0.0066157905 -0.061498884 0.048629485 -0.002085602 0.049830984
0.055704884 0.034104444 0.030167079 0.016288795 -0.04419179 0.0405217 0.053973712 -0.031686228
0.052620944 0.06027981 0.05524919 -0.046436746 0.0378365 -0.029386502 -0.021222565 0.059484962
0.032608736 -0.033479936 -0.020083567 -0.042049684 0.026175145 0.05662233 0.056728803 -0.06278502
-0.045289245 -0.046034954 -0.058670714 -0.0017867762 -0.035152625 0.027191998 0.003479353 0.019709753
-0.02462446 -0.00082986034 0.03540166 0.037440065 0.047846254 0.028011477 -0.028600357 0.033657145
-0.0054288036 0.058813196 0.037343282 -0.031014789 0.06162472 -0.029482745 -0.037347876 -0.0013419557
-0.04560923 0.027938703 -0.029074427 -0.055797108 -0.06088219 -0.0057673976 0.06806712 0.02957719
-0.0317132 0.02298256 -0.05199249 -0.057498116 0.0036428815 0.01746739 -0.06793606 0.00046817935
0.040341843 -0.052651063 0.02681448 0.05641896 -0.0298978 0.06585083 0.041376095 -0.005874163
-0.02537406 -0.04855855 -0.044493392 0.036946803 -0.00797194 0.044885345 0.016555883 0.062250998
