exported_models/neural_networks/raw_mlp/trained_models/model_epoch_100_batch_64_lr_1e-05_vs_30_hl_64_64_64/mlp_dynamics.pth (torch, 39315 bytes, 8 tensors)

model.0.weight f4 [64, 5]
-0.34975708 0.12490535 0.24588066 0.12228832 0.3073132 -0.20321506 -0.13873078 0.21145374
0.20647979 0.03307667 -0.06704502 -0.34928492 0.23294741 0.12901427 -0.31654105 -0.100847125
0.44008026 0.30694255 -0.010107143 0.21277936 -0.28025642 -0.25926444 0.30309442 -0.1312929
0.10772893 -0.4726877 -0.12893237 -0.43002737 -0.23102714 0.13856892 0.2735273 0.33560523
0.13469392 -0.31788066 0.11762468 -0.16197465 -0.29011098 0.29311192 0.3050112 -0.24704796
0.0385492 0.1871187 -0.47615433 0.2699817 -0.06316444 0.51712406 -0.23903714 0.110816136
-0.26685485 -0.2429118 0.40244937 0.3663308 -0.27490923 -0.12560628 -0.33077246 0.13313979
0.34643015 0.34086263 0.11476834 0.3068182 0.08800329 -0.16294338 0.41847447 0.17461056
0.32010803 0.31082946 0.1784813 -0.2610299 -0.13266705 0.09445203 0.12258453 0.102954425
0.00054270134 0.2507653 0.033888426 0.38366365 0.41859853 -0.08309833 0.06459565 -0.010734875
-0.22063462 -0.44195253 -0.5021954 -0.14918311 -0.37416473 0.22883746 0.33292517 0.49634933
0.06794889 0.21542455 0.24807225 0.3581116 0.3423862 -0.19205059 0.2892673 0.06616396
-0.13192867 -0.36198106 -0.20923993 0.31835932 0.044578783 -0.12259358 0.101066574 -0.4075489
0.38672024 0.19769222 0.10289586 -0.32063705 -0.2986148 0.091940194 0.21819685 0.079926014
0.41892108 -0.25528845 -0.34839365 -0.17001468 0.28382054 0.04691097 0.17597127 -0.34097394
-0.2179911 0.6371153 0.031835146 0.29876277 0.069793925 -0.10284116 0.2290332 -0.31210127
-0.095967226 0.15000503 -0.46534663 -0.44372207 0.17447847 0.28734246 -0.054086175 0.17947714
-0.5180931 -0.06476981 -0.24382599 -0.06544696 0.082636334 -0.27162114 -0.010569552 0.35439867
0.057689022 0.21591692 0.069491394 -0.2796139 0.018591186 0.1707407 -0.47110948 -0.2666852
0.39176846 0.19945285 -0.14681637 0.078157336 -0.08632035 0.3942973 0.040690426 -0.29138276
0.43402195 0.24605922 -0.2568797 -0.17225826 0.058043648 -0.4107521 0.39959636 -0.0041010175
0.31926775 -0.05378724 -0.22929509 -0.03182151 -0.41125944 -0.20869337 0.05899766 0.26671222
0.375076 -0.23897626 -0.1368723 -0.12868641 -0.0328959 0.21690354 0.29835805 -0.2801644
0.11119302 2.523121e-05 -0.045210574 0.53473353 -0.33488694 -0.19416685 -0.029234793 -0.17153744
0.48907548 -0.30228597 0.14986217 0.17841963 -0.522977 -0.017844671 -0.24369562 -0.054869357
0.04922603 -0.342357 -0.44497138 0.43028826 -0.17409214 0.14203693 -0.14181644 0.27200547
0.08170399 -0.19139464 0.105544396 -0.34612167 0.30467832 -0.15638398 0.20063649 -0.16577795
-0.28913057 -0.34329316 -0.4907294 -0.33983824 0.14332823 0.41957322 -0.54220116 -0.33160654
0.26643172 -0.40946224 0.1890561 -0.08749408 0.21368863 0.19317064 -0.015325182 -0.5134179
-0.27787307 0.12306056 -0.21335879 -0.00051601697 0.46496728 -0.018221773 -0.27427474 -0.2675693
0.17355 0.13459551 -0.22556868 0.18474211 0.244367 0.42003313 -0.42053866 -0.36990672
0.31730762 0.33149126 0.008786707 0.019499224 -0.4806973 0.3073264 0.16326602 -0.14402434
00000000: 5c13 b3be 60ce ff3d 24c8 7b3e 4c72 fa3d
00000010: 2858 9d3e 9c17 50be 710f 0ebe 5487 583e
00000020: 706f 533e 677b 073d e64e 89bd 79d5 b2be
00000030: c489 6e3e 511c 043e ab11 a2be f088 cebd
00000040: 3352 e13e 9327 9d3e 6e98 25bc d5e2 593e
00000050: c57d 8fbe 4fbe 84be 312f 9b3e a571 06be
00000060: fca0 dc3d 1f04 f2be d906 04be 8c2c dcbe
00000070: 6192 6cbe 03e5 0d3e c50b 8c3e 73d4 ab3e
00000080: 34ed 093e 41c1 a2be 35e5 f03d afdc 25be
00000090: 6d89 94be c412 963e 6e2a 9c3e 24fa 7cbe
000000a0: c4e5 1d3d 0b9c 3f3e 80ca f3be 0b3b 8a3e
000000b0: 5c5c 81bd 3e62 043f 27c6 74be 92f3 e23d
000000c0: 33a1 88be dfbd 78be d80d ce3e b68f bb3e
000000d0: e7c0 8cbe ef9e 00be 025b a9be cc55 083e
000000e0: 4b5f b13e 8c85 ae3e aa0b eb3d 4617 9d3e
000000f0: 123b b43d a1da 26be 4942 d63e 1ccd 323e
00000100: 33e5 a33e 0a25 9f3e cdc3 363e b6a5 85be
00000110: dfd9 07be 1170 c13d 990d fb3d c5d9 d23d
00000120: 1244 0e3a 4f64 803e 97ce 0a3d 906f c43e
00000130: 8c52 d63e 752f aabd b94a 843d 54e1 2fbc
00000140: 0bee 61be 9a47 e2be e18f 00bf 75c3 18be
00000150: 8592 bfbe 5e54 6a3e 2b75 aa3e 8021 fe3e
00000160: ca28 8b3d 4198 5c3e a706 7e3e 675a b73e
00000170: 3e4d af3e e9a8 44be d81a 943e f880 873d
00000180: 4f18 07be 9555 b9be fe42 56be feff a23e
00000190: 3e98 363d 5812 fbbd fefb ce3d 40aa d0be
000001a0: 3200 c63e d46f 4a3e 11bb d23d 8a2a a4be
000001b0: 0ae4 98be 244b bc3d ff6e 5f3e 40b0 a33d
000001c0: d37c d63e 2bb5 82be a760 b2be 5418 2ebe
000001d0: ed50 913e b825 403d d031 343e 2394 aebe
000001e0: 0f39 5fbe fd19 233f 9265 023d 6ff7 983e
000001f0: 1ef0 8e3d 639e d2bd ae87 6a3e bdcb 9fbe
00000200: 778a c4bd eb9a 193e ea41 eebe 8a2f e3be
00000210: 7caa 323e 8d1e 933e 7789 5dbd dbc8 373e
00000220: c0a1 04bf 09a6 84bd 85ad 79be 0e09 86bd
00000230: 3d3d a93d ed11 8bbe ea2b 2dbc be73 b53e
00000240: 534b 6c3d 5319 5d3e 8151 8e3d 8e29 8fbe
00000250: 8b4c 983c a6d6 2e3e 4335 f1be f68a 88be
00000260: e095 c83e 5e3d 4c3e 0857 16be f410 a03d
00000270: b9c8 b0bd 56e1 c93e 01ab 263d 1f30 95be
00000280: 2038 de3e f3f6 7b3e bc85 83be 7864 30be
00000290: 2dbf 6d3d 194e d2be e597 cc3e d461 86bb
000002a0: 1077 a33e 0250 5cbd 55cc 6abe 4657 02bd
000002b0: 9990 d2be b7b3 55be 88a7 713d 818e 883e
000002c0: f609 c03e 31b6 74be 4128 0cbe 5fc6 03be
000002d0: dabd 06bd f61b 5e3e 63c2 983e b571 8fbe
000002e0: 2bb9 e33d 9ca7 d337 b92e 39bd 4ce4 083f
000002f0: 4d76 abbe add3 46be ce7d efbc 83a7 2fbe
00000300: 1a68 fa3e 3ac5 9abe 7875 193e a3b3 363e
00000310: d2e1 05bf fd2e 92bc 588b 79be b1be 60bd
00000320: 3ca1 493d 6b49 afbe 4ad3 e3be be4e dc3e
00000330: 3645 32be 2172 113e 5438 11be 4d44 8b3e
00000340: 6c54 a73d f5fc 43be a927 d83d dc36 b1be
00000350: ccfe 9b3e 1f23 20be a773 4d3e b2c1 29be
00000360: ec08 94be 1fc4 afbe e240 fbbe 47ff adbe
00000370: a3c4 123e 4dd2 d63e b2cd 0abf 55c8 a9be
00000380: bd69 883e 09a5 d1be ec97 413e 1930 b3bd
00000390: 31d1 5a3e 86ce 453e 7916 7bbc 5b6f 03bf
000003a0: 6145 8ebe 2d07 fc3d ba7a 5abe 5045 07ba
000003b0: 3110 ee3e d445 95bc bd6d 8cbe d8fe 88be
000003c0: 17b7 313e 68d3 093e 7afb 66be 092d 3d3e
000003d0: 583b 7a3e 950e d73e d850 d7be 6a64 bdbe
000003e0: 2576 a23e 39b9 a93e 1ff6 0f3c d6bc 9f3c
000003f0: f51d f6be e359 9d3e 352f 273e 1e7b 13be

model.0.bias f4 [64]
-0.12950097 0.02907609 -0.20354715 0.04028026 0.0015168882 -0.02546025 0.41943446 0.1528776
0.35989457 0.14773956 0.10563492 0.084955655 0.514638 -0.10834026 0.51747805 -0.20983812
-0.0993427 0.0069686165 0.25366166 0.4493697 -0.012196281 -0.14682825 0.40546963 -0.2723276
-0.3606279 0.58806425 0.05077141 0.3155766 0.4188958 0.19203912 0.16396302 -0.20273843
0.41372636 -0.19777916 0.06562293 0.41706747 -0.3073322 -0.25002587 -0.36670628 0.29236567
0.4767105 0.37567595 0.41885203 0.265332 -0.038556226 -0.11563577 -0.36944044 0.22678378
0.14298218 -0.26449862 0.24105215 0.041174687 -0.19455495 0.38296497 -0.06582306 0.025850287
-0.13085851 0.36916834 0.37532395 0.34814402 0.263145 -0.015608948 0.44135267 0.2136119
00000000: e79b 04be fb30 ee3c aa6e 50be eafc 243d
00000010: 52d2 c63a 0492 d0bc 1dc0 d63e f28b 1c3e
00000020: 1a44 b83e 0a49 173e 1f57 d83d 3bfd ad3d
00000030: 51bf 033f 80e1 ddbd 7179 043f cedf 56be
00000040: 2f74 cbbd fe58 e43b f1df 813e c913 e63e
00000050: e9d2 47bc 255a 16be b799 cf3e 866e 8bbe
00000060: 38a4 b8be 618b 163f aff5 4f3d 4293 a13e
00000070: 8379 d63e e7a5 443e ece5 273e aa9a 4fbe
00000080: f1d3 d33e 9f86 4abe 5165 863d de89 d53e
00000090: a55a 9dbe 6403 80be edc0 bbbe f4b0 953e
000000a0: 6613 f43e 9958 c03e c673 d63e 99d9 873e
000000b0: 22ed 1dbd 72d2 ecbd 4c27 bdbe 023a 683e
000000c0: ec69 123e 5d6c 87be 60d6 763e caa6 283d
000000d0: 6a39 47be fc13 c43e 3ece 86bd fbc3 d33c
000000e0: c6ff 05be a203 bd3e 762a c03e ef3f b23e
000000f0: f1ba 863e acbc 7fbc faf8 e13e 14bd 5a3e

model.2.weight f4 [64, 64]
0.07496712 0.13160865 0.09669408 -0.034014236 0.1538271 -0.060105424 0.0056763086 -0.05838187
0.12145667 0.0964182 0.028833961 -0.03601308 0.10163174 0.114804804 -0.01240558 0.09816499
0.06805038 0.021023484 0.11296906 0.08985752 -0.09481996 -0.074149996 -0.04969632 0.036158998
-0.03471444 0.103097856 -0.019712092 -0.047424402 0.100370936 0.12822475 -0.15095463 -0.0018023909
0.101910435 -0.021749884 0.087412156 -0.020064436 0.0048503703 0.050889555 -0.020439854 -0.04491592
0.030221846 -0.028293237 -0.07958972 -0.033326272 0.021700144 -0.13362111 -0.06913903 -0.02709111
0.08899031 0.21176209 0.021247305 0.11362926 0.05250732 -0.009905189 -0.04039072 -0.025692677
0.0046416605 0.051670223 0.0057694977 -0.020805933 -0.02471265 0.12373452 0.07076796 0.018762704
0.018227076 -0.0020956937 0.07650604 0.099882826 0.07429829 0.16437697 0.009757862 0.047818743
-0.043434944 0.022031514 0.063769065 0.06737708 -0.01719849 0.02095054 0.059255037 0.08661065
-0.0733087 0.093141325 -0.034697652 0.031330034 -0.014630383 0.011885811 -0.04263081 -0.009029847
0.022161206 0.06057647 -0.035095956 0.10436548 0.09733821 0.060920548 -0.094465084 0.1462211
0.13622408 -0.084628105 0.05578898 0.0005737191 -0.0447795 0.008880757 0.023003008 -0.048455518
0.055095594 -0.016489146 -0.054885138 -0.05937245 -0.016322132 0.23272301 0.04394503 -0.08756424
0.008189314 -0.13416131 -0.10136641 -0.027871935 -0.0031917442 0.06869631 0.090913646 -0.15802968
0.11470098 0.13764575 0.10778222 0.11470695 0.010575848 -0.05607679 -0.0155718895 0.06534716
-0.06816757 0.09710463 0.07614067 0.06264884 0.08150169 0.16854984 -0.017604329 0.043969568
-0.0023708967 -0.057104025 0.1333268 0.07421068 -0.09914713 0.11222649 0.024592364 -0.0008249536
0.13689493 0.028211718 0.08260944 0.12593953 0.10164323 0.09149468 0.10929568 0.1379036
0.087967895 0.113750845 0.08870861 0.013568 0.12065596 0.07570944 -0.02997495 -0.06271612
-0.01802787 -0.07664628 0.13938011 0.0026091004 -0.15425602 0.07063879 -0.07498275 -0.05326032
0.08816169 0.09034889 -0.06012193 -0.008284181 0.02128143 0.0055618165 -0.008275418 -0.040619448
0.022237457 -0.08267907 0.10300564 -0.1035646 -0.082645096 0.051532205 -0.14572524 -0.1307802
0.014269937 -0.08687955 0.050821412 0.10730938 -0.056334913 -0.07114572 -0.008968171 -0.016863653
0.14882046 0.052929185 -0.024258876 0.04348381 -0.036224514 0.11417472 -0.07429192 -0.059324216
-0.07870209 -0.013333636 -0.07570404 -0.106231764 -0.06888513 0.051229607 -0.054685697 0.14619893
-0.062845044 0.11843729 -0.11000827 0.009504586 0.05331554 0.04114243 -0.040138725 -0.02726772
0.05507993 0.046910424 0.021513097 -0.02220986 -0.10552768 0.11978082 -0.05361936 0.07682316
-0.0366924 0.03816629 0.036739558 -0.106043495 -0.061282586 0.109322906 0.16788071 0.038972728
0.14909314 0.04960967 0.12122703 0.069356486 -0.040805947 -0.01827996 0.052346133 0.02523217
0.08086702 -0.12413574 0.15490109 0.073068485 -0.06305056 0.056631297 0.0047884947 -0.11530452
0.062174525 -0.01989911 -0.08511439 0.01686602 -0.011098697 0.15824497 0.071978785 -0.0750358
00000000: 5d88 993d 6bc4 063e 8c07 c63d 8352 0bbd
00000010: da84 1d3e 1b31 76bd 5400 ba3b d421 6fbd
00000020: 46be f83d e876 c53d 3335 ec3c 7482 13bd
00000030: 4d24 d03d c81e eb3d c640 4bbc ba0a c93d
00000040: ff5d 8b3d 7139 ac3c 535c e73d 3807 b83d
00000050: f830 c2bd f4db 97bd 5e8e 4bbd 751b 143d
00000060: bb30 0ebd f824 d33d 417b a1bc 1740 42bd
00000070: 478f cd3d 594d 033e da93 1abe 343e ecba
00000080: 6bb6 d03d d02c b2bc 2505 b33d 2c5e a4bc
00000090: dbef 9e3b 9171 503d 7b71 a7bc c1f9 37bd
000000a0: ce93 f73c 38c7 e7bc efff a2bd 2181 08bd
000000b0: 80c4 b13c f9d3 08be c498 8dbd 2dee ddbc
000000c0: 8d40 b63d 29d8 583e d40e ae3c 75b6 e83d
000000d0: ea11 573d 6049 22bc bd70 25bd 7379 d2bc
000000e0: 1219 983b 28a4 533d 0e0e bd3b 3471 aabc
000000f0: 2f72 cabc 8668 fd3d cbee 903d 3eb4 993c
00000100: f350 953c e857 09bb 33af 9c3d 5e8f cc3d
00000110: b429 983d 7052 283e 71df 1f3c 96dd 433d
00000120: d7e8 31bd 6f7b b43c 5b99 823d fffc 893d
00000130: d9e3 8cbc 78a0 ab3c 69b5 723d ed60 b13d
00000140: df22 96bd e1c0 be3d 201f 0ebd ec53 003d
00000150: 46b4 6fbc b4bc 423c a59d 2ebd ecf1 13bc
00000160: 6b8b b53c 081f 783d c7c0 0fbd 92bd d53d
00000170: 4159 c73d d387 793d e976 c1bd fcba 153e
00000180: 537e 0b3e 8051 adbd fc82 643d a365 163a
00000190: b66a 37bd 9880 113c ce70 bc3c 4b79 46bd
000001a0: ebab 613d 3f14 87bc 3dcf 60bd 8730 73bd
000001b0: feb5 85bc f14e 6e3e b4ff 333d e154 b3bd
000001c0: 792c 063c 9561 09be 3199 cfbd af53 e4bc
000001d0: 952c 51bb a7b0 8c3d ef30 ba3d 88d2 21be
000001e0: 59e8 ea3d 02f3 0c3e edbc dc3d 7aeb ea3d
000001f0: 5246 2d3c c7b0 65bd 3d21 7fbc bbd4 853d
00000200: 709b 8bbd cbde c63d a4ef 9b3d 094e 803d
00000210: 5cea a63d 5498 2c3e f436 90bc 6f19 343d
00000220: 0c61 1bbb e9e5 69bd d286 083e c5fb 973d
00000230: a70d cbbd 01d7 e53d ed75 c93c b341 58ba
00000240: 2f2e 0c3e 431c e73c 232f a93d 4bf6 003e
00000250: 532a d03d 9061 bb3d 6ad6 df3d 9a36 0d3e
00000260: 8328 b43d 34f6 e83d dcac b53d 514c 5e3c
00000270: 791a f73d 8d0d 9b3d 078e f5bc 4f71 80bd
00000280: 2faf 93bc baf8 9cbd a9b9 0e3e 71fd 2a3b
00000290: 4af5 1dbe 12ab 903d 8e90 99bd 7e27 5abd
000002a0: 1e8e b43d d708 b93d 6a42 76bd 60ba 07bc
000002b0: 6556 ae3c e63f b63b 9e95 07bc 9460 26bd
000002c0: 542b b63c a553 a9bd 9ff4 d23d ad19 d4bd
000002d0: d541 a9bd 6f13 533d ff38 15be 3feb 05be
000002e0: 74cc 693c e8ed b1bd 1d2a 503d 05c5 db3d
000002f0: 70bf 66bd d9b4 91bd 3cef 12bc a525 8abc
00000300: 6464 183e 46cc 583d 8dba c6bc 141c 323d
00000310: 2860 14bd 70d4 e93d 5d26 98bd f3fd 72bd
00000320: 902e a1bd 5375 5abc b80a 9bbd 0a90 d9bd
00000330: a613 8dbd 23d6 513d 1cfe 5fbd 2cb5 153e
00000340: e7b4 80bd 408f f23d 044c e1bd 20b9 1b3c
00000350: 6561 5a3d f784 283d 8168 24bd 8e60 dfbc
00000360: 7e9b 613d 2525 403d 3c3c b03c 74f1 b5bc
00000370: e51e d8bd a64f f53d f99f 5bbd 7655 9d3d
00000380: c54a 16bd 4154 1c3d 387c 163d 552d d9bd
00000390: 7303 7bbd b0e4 df3d ece8 2b3e dea1 1f3d
000003a0: dfab 183e 8233 4b3d e145 f83d c60a 8e3d
000003b0: 2324 27bd dbbf 95bc e668 563d b2b3 ce3c
000003c0: 9c9d a53d e13a febd 649e 1e3e eea4 953d
000003d0: a720 81bd 38f6 673d cee8 9c3b c724 ecbd
000003e0: b7aa 7e3d 7503 a3bc 7450 aebd 9c2a 8a3c
000003f0: 4fd7 35bc f80a 223e 9d69 933d 5fac 99bd

model.2.bias f4 [64]
0.17132154 0.068417944 0.101733916 0.0034881814 0.12903227 0.10215961 -0.043689605 0.05935336
-0.005035224 0.1126262 -0.07425178 0.12561758 -0.012678525 0.004418779 0.10287066 0.018822914
0.04236774 0.1607726 0.03105355 0.038326975 0.10584558 0.058680333 -0.013867274 -0.0814683
0.111791864 0.102065876 0.10696289 0.1367696 0.0060847243 -0.22455844 -0.017625287 -0.008646337
0.06304511 -0.024510393 -0.11117772 0.042360187 -0.122188956 -0.18978868 -0.08195616 0.11361259
0.13049723 0.08792136 0.07157456 -0.09125703 -0.07201829 -0.03048922 0.14389135 -0.063247815
-0.019619426 -0.055121038 0.07295038 0.09061289 -0.01608547 0.123993024 0.058572713 0.012460705
-0.0004499465 -0.08670726 -0.14162828 0.038233344 -0.0004808258 0.09415895 0.1769659 -0.07907687
00000000: ea6e 2f3e b51e 8c3d df59 d03d f999 643b
00000010: 0921 043e 0f39 d13d dff3 32bd 821c 733d
00000020: 85fe a4bb 91a8 e63d 5111 98bd e5a1 003e
00000030: 97b9 4fbc 68cb 903b daad d23d 8332 9a3c
00000040: cc89 2d3d 93a1 243e 0464 fe3c bffc 1c3d
00000050: 91c5 d83d ca5a 703d 9033 63bc dad8 a6bd
00000060: 22f3 e43d ea07 d13d 5c0f db3d 540d 0c3e
00000070: 5e62 c73b a6f2 65be e862 90bc 5ea9 0dbc
00000080: cb1d 813d 05ca c8bc 25b1 e3bd e081 2d3d
00000090: 343e fabd f757 42be a2d8 a7bd b8ad e83d
000000a0: 11a1 053e 1d10 b43d af95 923d f7e4 babd
000000b0: 537e 93bd 87c4 f9bc 4158 133e 1288 81bd
000000c0: ebb8 a0bc 99c6 61bd 0267 953d 4093 b93d
000000d0: adc5 83bc 0ef0 fd3d f1e9 6f3d fc27 4c3c
000000e0: cce6 ebb9 9393 b1bd 0107 11be 919a 1c3d
000000f0: 5917 fcb9 68d6 c03d 8d36 353e 0ef3 a1bd

model.4.weight f4 [64, 64]
0.06242642 -0.018614985 0.06012069 -0.016283577 -0.009681495 -0.12756336 0.06289569 0.055328045
0.07419355 0.06720999 0.12124335 0.088574104 0.014663044 -0.037828393 -0.062931255 0.10681761
-0.119397104 -0.007986591 0.03263518 0.015345362 0.13461694 -0.036289204 0.07724049 -0.07332426
-0.11808806 0.060371656 -0.17145972 0.073282495 -0.027629815 0.16295482 0.15987054 0.074416734
-0.0035174761 0.06245285 -0.14506055 0.13993205 0.061980736 -0.13155395 -0.06289091 0.10057552
-0.13600661 -0.010008723 0.122220084 0.072875984 0.06603911 0.095652595 0.10779536 -0.09454656
-0.033012446 0.092782184 -0.09986183 0.030913278 -0.096528016 -0.06926857 0.0010369095 0.059691984
-0.068562545 0.06337543 0.06528454 -0.032362767 -0.08639754 0.09176832 0.112176724 0.0074561434
0.046224486 0.024839208 0.07005637 0.05614305 0.12243902 0.045147877 0.07310806 0.011398506
-0.053582516 -0.10446006 -0.09206877 -0.0060164547 -0.0409673 0.11785804 0.12427107 0.04944952
0.124906585 0.05269236 -0.065854765 -0.065808766 0.023261879 -0.08164273 0.0049476805 -0.115648024
-0.0813989 0.06246932 -0.029845418 0.06467492 -0.03871249 -0.05541082 0.0319999 -0.12182424
-0.04762484 0.14148289 0.079991594 0.07352627 -0.00946261 0.14320649 0.017113544 -0.07942023
0.11518332 0.112114415 -0.07341863 0.076691225 0.098956876 -0.06901392 0.093916714 -0.088434935
-0.0063374583 0.03493843 0.13041925 0.11882346 0.015052158 0.1493807 0.13316217 -0.1149583
0.075226545 -0.06077061 0.07203923 0.14289978 0.07399133 -0.068067044 -0.0829067 -0.061198577
-0.113836 -0.04436625 -0.025081554 0.10748217 0.011136441 0.11970786 -0.030634455 -0.04127821
0.0032383138 0.0630962 -0.08844717 -0.13494477 0.107970394 0.015595884 0.040847376 0.11739913
0.004762426 -0.11879477 0.058655914 -0.0003498604 0.03085558 -0.002611093 0.09891364 -0.08920941
0.15842234 0.17760834 0.186411 -0.047896884 0.036256887 -0.14742386 -0.037077818 0.11595495
-0.1456351 -0.025966175 0.14554648 -0.018721992 -0.021052614 0.0012300987 0.07290743 -0.06875664
0.0032277564 0.05426244 -0.0095532555 0.15505742 0.09021127 -0.07567133 0.06976539 -0.0070208013
0.09605532 0.088098 -0.06185037 0.01939912 -0.12041825 0.06625372 -0.07373714 0.070888564
-0.021206195 0.02792346 -0.046275306 0.093351744 -0.084240004 -0.08975017 -0.032330472 0.08011802
-0.058469612 -0.011089501 -0.029186059 0.15838571 0.14948304 -0.053575933 -0.05067473 0.04958843
0.16874686 0.14620891 -0.11319048 -0.14648576 0.092644185 0.10050402 0.018163055 0.04359054
0.037675664 -0.005320971 -0.05281391 -0.10204047 -0.036145393 0.083117045 0.04051167 -0.014562897
0.026931075 -0.01339447 0.071945295 -0.05122606 0.024562005 -0.063290365 -0.11043356 0.12176877
0.026893383 -0.026294613 0.15879354 -0.07720757 0.14643039 0.15685676 -0.09499816 0.09610295
0.16477925 0.0018783426 0.115689546 0.11320433 -0.058546323 -0.0013145023 -0.07935431 -0.03196737
0.078509726 0.14783202 0.14964104 0.09979821 0.08688305 -0.059855074 -0.05812904 -0.09933799
0.102477334 0.017315252 0.08119297 -0.0008704065 -0.023875508 0.072895095 0.14217566 0.10353109
00000000: d9b2 7f3d 747e 98bc 1d41 763d 2365 85bc
00000010: 229f 1ebc f89f 02be 75cf 803d a99f 623d
00000020: caf2 973d 64a5 893d 6f4e f83d 5766 b53d
00000030: 443d 703c f2f1 1abd 1ae2 80bd 31c3 da3d
00000040: 7886 f4bd 31da 02bc 77ac 053d 1d6b 7b3c
00000050: 06d9 093e fda3 14bd 4330 9e3d 082b 96bd
00000060: 27d8 f1bd 4548 773d 2393 2fbe 2215 963d
00000070: ec57 e2bc a1dd 263e 1ab5 233e cd67 983d
00000080: 7585 66bb 8fce 7f3d c18a 14be 594a 0f3e
00000090: 83df 7d3d 14b6 06be f3cc 80bd 8afa cd3d
000000a0: 5145 0bbe a0fb 23bc 864e fa3d 0140 953d
000000b0: 833f 873d 82e5 c33d d0c3 dc3d a0a1 c1bd
000000c0: 0f38 07bd 9604 be3d 5c84 ccbd d83d fd3c
000000d0: 7bb0 c5bd aedc 8dbd e9e8 873a 957f 743d
000000e0: 856a 8cbd faca 813d e7b3 853d d28e 04bd
000000f0: 32f1 b0bd 07f1 bb3d e9bc e53d aa52 f43b
00000100: e355 3d3d 987b cb3c b779 8f3d 41f6 653d
00000110: 4fc1 fa3d fbec 383d aeb9 953d cdc0 3a3c
00000120: 5779 5bbd 28ef d5bd 8d8e bcbd ae25 c5bb
00000130: 54cd 27bd 8e5f f13d d581 fe3d 948b 4a3d
00000140: 06cf ff3d f2d3 573d ddde 86bd bfc6 86bd
00000150: b28f be3c 4e34 a7bd 2720 a23b dfd8 ecbd
00000160: 77b4 a6bd d4df 7f3d 617e f4bc 4974 843d
00000170: fd90 1ebd 75f6 62bd 5412 033d fd7e f9bd
00000180: 4412 43bd e4e0 103e a2d2 a33d f194 963d
00000190: 1009 1bbc b9a4 123e b431 8c3c 13a7 a2bd
000001a0: 3ce5 eb3d 3e9c e53d 825c 96bd 4a10 9d3d
000001b0: e7a9 ca3d 2c57 8dbd 6857 c03d 601d b5bd
000001c0: 74aa cfbb 991b 0f3d a08c 053e b759 f33d
000001d0: 549d 763c 41f7 183e aa5b 083e 426f ebbd
000001e0: 6010 9a3d 9aea 78bd 4e89 933d 5254 123e
000001f0: c488 973d bc66 8bbd fdca a9bd 5cab 7abd
00000200: d922 e9bd 63b9 35bd d577 cdbc 9d1f dc3d
00000210: 9e75 363c 6529 f53d 1cf5 fabc 5713 29bd
00000220: e439 543b 9538 813d ca23 b5bd f62e 0abe
00000230: 951f dd3d e185 7f3c 944f 273d f46e f03d
00000240: 200e 9c3b ac4a f3bd 2f41 703d 786d b7b9
00000250: d7c4 fc3c df1e 2bbb 3c93 ca3d 6cb3 b6bd
00000260: 7739 223e f6de 353e 86e2 3e3e 862f 44bd
00000270: 1a82 143d 48f6 16be e9de 17bd ca79 ed3d
00000280: 5e21 15be 04b7 d4bc 230a 153e dd5e 99bc
00000290: 8876 acbc 433b a13a 7e50 953d 48d0 8cbd
000002a0: c488 533b 4b42 5e3d 4285 1cbc 5fc7 1e3e
000002b0: b0c0 b83d 92f9 9abd 28e1 8e3d c00e e6bb
000002c0: a7b8 c43d b96c b43d d056 7dbd e7ea 9e3c
000002d0: d89d f6bd 08b0 873d 7f03 97bd 062e 913d
000002e0: 9db8 adbc bdbf e43c 2d8b 3dbd 332f bf3d
000002f0: 0686 acbd f0ce b7bd f56c 04bd eb14 a43d
00000300: d57d 6fbd bdb0 35bc 9a17 efbc dd2f 223e
00000310: 1512 193e 7072 5bbd 4e90 4fbd 3d1d 4b3d
00000320: facb 2c3e cab7 153e 69d0 e7bd 5d00 16be
00000330: 3cbc bd3d 0dd5 cd3d b0ca 943c fe8b 323d
00000340: cc51 1a3d 8a5b aebb 6653 58bd 98fa d0bd
00000350: 310d 14bd 4539 aa3d 91ef 253d 3899 6ebc
00000360: 8f9e dc3c 7b74 5bbc 0e58 933d 6bd2 51bd
00000370: 4236 c93c 619e 81bd fe2a e2bd e861 f93d
00000380: 834f dc3c cd67 d7bc c69a 223e 011f 9ebd
00000390: d9f1 153e 0f9f 203e 658e c2bd a0d1 c43d
000003a0: e4bb 283e b832 f63a a4ee ec3d acd7 e73d
000003b0: 45ce 6fbd 614b acba 8384 a2bd 38f0 02bd
000003c0: b5c9 a03d 4761 173e 803b 193e 0163 cc3d
000003d0: beef b13d 982a 75bd b718 6ebd b771 cbbd
000003e0: a3df d13d b7d8 8d3c 8048 a63d fe2b 64ba
000003f0: 9296 c3bc 064a 953d 7f96 113e 1c08 d43d

model.4.bias f4 [64]
-0.07433322 0.06988426 0.15092298 0.06994608 -0.060108878 0.07639516 0.025702119 0.046993498
0.024354985 -0.04674159 0.031728394 -0.003641048 0.03525299 0.031666838 0.0797257 -0.09148882
0.086241625 0.048426095 0.014082422 0.12772582 -0.0075310157 -0.064786874 0.025899164 0.08141587
0.045671478 0.10349798 0.13877071 0.057538476 -0.088264935 0.014044697 0.029684423 0.049958583
-0.07503246 0.10933365 -0.03443718 -0.07382414 0.12073002 0.007948092 -0.05851819 0.003961519
0.100183375 -0.079610795 0.11801405 -0.021013847 0.13672975 0.011689689 0.06581909 0.07540247
-0.021873467 -0.1107482 0.16803548 0.1156504 0.10997867 0.05090881 0.06010236 0.06000492
-0.0764309 0.04629484 -0.001289194 0.13363723 0.016711343 0.07875681 0.06892888 -0.06941275
00000000: 043c 98bd 7b1f 8f3d 8e8b 1a3e e43f 8f3d
00000010: ba34 76bd 1175 9c3d 408d d23c 417c 403d
00000020: 1b84 c73c 1c74 3fbd a2f5 013d a69e 6ebb
00000030: 7065 103d 16b5 013d 3a47 a33d 7e5e bbbd
00000040: 739f b03d 715a 463d f5b9 663c 8fca 023e
00000050: bdc6 f6bb fbae 84bd 7c2a d43c 5dbd a63d
00000060: 0412 3b3d c0f6 d33d e919 0e3e 77ad 6b3d
00000070: 3fc4 b4bd bb1b 663c bf2c f33c 5fa1 4c3d
00000080: 9eaa 99bd 52ea df3d 000e 0dbd 1c31 97bd
00000090: 4d41 f73d b738 023c c5b0 6fbd a1cf 813b
000000a0: f12c cd3d fc0a a3bd 5ab1 f13d 3b25 acbc
000000b0: e202 0c3e 1c86 3f3c 29cc 863d 9c6c 9a3d
000000c0: fc2f b3bc f4cf e2bd 7e11 2c3e 1eda ec3d
000000d0: 7f3c e13d c285 503d e42d 763d b8c7 753d
000000e0: ce87 9cbd a89f 3d3d 2cfa a8ba 33d8 083e
000000f0: 3ae6 883c 404b a13d 962a 8d3d 4628 8ebd

model.6.weight f4 [3, 64]
0.10645337 0.109939635 -0.035358295 -0.17997162 0.10302648 0.09532332 -0.03180515 -0.04185651
0.02579516 0.16751157 0.0029541322 0.107609905 -0.10743976 -0.07253332 -0.09183074 0.12181189
0.11158772 0.120525844 -0.0734894 0.088465765 0.122524135 0.014834243 0.08125633 -0.06980359
0.012337392 0.104245715 -0.15274665 -0.12145502 -0.120228045 -0.1156607 0.037104834 0.17481335
0.09836705 0.039992504 -0.0511021 -0.046353653 0.11618362 0.072555475 0.046017744 0.10190156
-0.04882763 -0.002938938 -0.17933492 0.08845238 -0.18093407 0.05344438 -0.070030354 -0.06807832
0.09571054 0.13830489 -0.1912999 -0.18246754 -0.14901364 0.16536254 -0.020506835 -0.10587908
-0.12005599 0.09324804 -0.1484311 -0.10398383 -0.10666505 0.083232105 -0.11040327 0.123622425
0.10872577 -0.14734505 -0.09228969 0.0006820016 -0.112053886 -0.10457575 -0.059048355 0.12445885
0.07199854 0.12382067 0.017585194 -0.07807098 -0.1447444 -0.15275623 0.05304671 0.1615832
0.061794993 -0.13638209 0.17861648 -0.025480138 -0.15693681 -0.1660504 -0.043897342 0.0067772972
0.17976141 0.070015125 0.01665787 0.012765886 0.052238416 0.05806013 -0.03341762 -0.047311973
-0.05547774 0.10431533 0.09836052 0.07195234 0.03248275 0.18100348 -0.008046963 0.03236931
-0.12724061 -0.1457327 0.029227141 0.116297044 0.065961905 -0.08966404 0.14154647 -0.056939732
-0.05616018 0.009228037 -0.020810384 -0.14314291 -0.16876723 -0.045645848 0.09935564 -0.023268832
0.0729333 -0.026528548 0.17500319 -0.120066255 0.0063457596 -0.07451365 0.015498322 0.16265507
-0.08313088 -0.059743673 0.10805071 0.15860541 -0.12143829 0.017907573 0.15253334 0.029211272
0.07467157 0.108002 0.07297522 0.1658843 -0.11147338 -0.10933387 -0.058815826 0.11365092
0.1576529 -0.15641975 0.06430047 -0.03992013 0.012982367 0.039845794 -0.033896044 -0.08258066
-0.09169177 0.07070501 0.043568045 0.12859811 -0.10408775 -0.13824666 -0.09675108 0.116611645
0.11324483 0.10812378 -0.0048356205 0.007333979 -0.08508651 -0.13272908 -0.09675747 -0.058025643
-0.029360693 -0.00014752173 0.04946455 -0.08907296 -0.10380166 -0.033357933 0.07434821 0.115855694
0.04702725 -0.061170503 0.007572611 0.024156434 -0.077468686 0.11541226 0.033667106 -0.04516468
0.031812258 0.11431398 -0.079163544 0.02528655 0.07096231 0.032846745 0.08136107 -0.028961152
00000000: 3904 da3d 0828 e13d dcd3 10bd 7b4a 38be
00000010: 8cff d23d df38 c33d 1e46 02bd bb71 2bbd
00000020: 5f50 d33c 2788 2b3e 1d9a 413b 9562 dc3d
00000030: 6009 dcbd 598c 94bd c111 bcbd 8378 f93d
00000040: 1a88 e43d 41d6 f63d 9c81 96bd 8a2d b53d
00000050: efed fa3d 530b 733c b869 a63d 2ff5 8ebd
00000060: c622 4a3c c77e d53d 9e69 1cbe 69bd f8bd
00000070: 1f3a f6bd 84df ecbd 3dfb 173d 4502 333e
00000080: aa74 c93d 2ecf 233d 7050 51bd 54dd 3dbd
00000090: aef1 ed3d f797 943d 1a7d 3c3d c4b1 d03d
000000a0: 7bff 47bd 339b 40bb 93a3 37be 8526 b53d
000000b0: c846 39be 7fe8 5a3d 136c 8fbd a56c 8bbd
000000c0: e303 c43d cc9f 0d3e 1fe4 43be c5d8 3abe
000000d0: 0897 18be cc54 293e f3fd a7bc 22d7 d8bd
000000e0: eadf f5bd d4f8 be3d 53fe 17be 79f5 d4bd
000000f0: 3573 dabd 9875 aa3d 1c1b e2bd c12d fd3d
00000100: 9eab de3d 9fe1 16be 6102 bdbd 5ac8 323a
00000110: 827c e5bd d02b d6bd b0dc 71bd 48e4 fe3d
00000120: f873 933d b195 fd3d d30e 903c aee3 9fbd
00000130: e037 14be 216c 1cbe 8247 593d 1176 253e
00000140: bf1c 7d3d bfa7 0bbe 3de7 363e b9bb d0bc
00000150: 0bb4 20be 1e09 2abe b3cd 33bd 1714 de3b
00000160: 6013 383e 1764 8f3d 1676 883c 0228 513c
00000170: f3f7 553d 75d0 6d3d eae0 08bd 33ca 41bd
00000180: a03c 63bd 47a3 d53d 3e71 c93d c05b 933d
00000190: a20c 053d fa58 393e 69d7 03bc ae95 043d
000001a0: 5d4b 02be f43a 15be c26d ef3c 252d ee3d
000001b0: 0917 873d c8a1 b7bd 8ff1 103e a339 69bd
000001c0: 3808 66bd 3131 173c 8a7a aabc 0e94 12be
000001d0: 51d1 2cbe 24f7 3abd f87a cb3d 479e bebc
000001e0: 0e5e 953d 6652 d9bc 0934 333e 4ce5 f5bd
000001f0: 17f0 cf3b 9d9a 98bd adec 7d3c 0d8f 263e
00000200: 8640 aabd c8b5 74bd b149 dd3d 7569 223e
00000210: a3b4 f8bd e7b2 923c b331 1c3e 7a4c ef3c
00000220: 68ed 983d 2730 dd3d 0874 953d 93dd 293e
00000230: 284c e4bd 70ea dfbd dde8 70bd d0c1 e83d
00000240: c36f 213e 802c 20be f7af 833d 4a83 23bd
00000250: feb3 543c 5835 233d 94d6 0abd 0d20 a9bd
00000260: e5c8 bbbd cacd 903d 6874 323d 39af 033e
00000270: f52b d5bd 8890 0dbe 6e25 c6bd 16d2 ee3d
00000280: e8ec e73d 0070 dd3d 2074 9ebb e051 f03b
00000290: d641 aebd 22ea 07be c828 c6bd 4cac 6dbd
000002a0: d685 f0bc 10b0 1ab9 579b 4a3d e26b b6bd
000002b0: f795 d4bd 54a2 08bd e043 983d c045 ed3d
000002c0: a59f 403d ec8d 7abd aa23 f83b b7e3 c53c
000002d0: e7a7 9ebd 435d ec3d 85e6 093d 99fe 38bd
000002e0: 924d 023d 731d ea3d 7f20 a2bd bd25 cf3c
000002f0: b054 913d 4f8a 063d a2a0 a63d f03f edbc

model.6.bias f4 [3]
-0.039259676 0.11196641 -0.028567359
00000000: c1ce 20bd a54e e53d 1806 eabc
