exported_models/neural_networks/history_sincos_mlp/trained_models/model_hist_3_epoch_500_batch_64_lr_1e-05_vs_30_hl_256_256_256_256/mlp_dynamics.pth (torch, 817365 bytes, 10 tensors)

model.0.weight f4 [256, 18]
000000 81 eb a2 3d 0e af 1b be e3 8c 67 3c 52 b0 9d bd
       0.07955075 -0.15203497 0.014132711 -0.07699646
000010 e6 ad fa bd 73 17 ef 3d e4 16 1e 3c a8 4b 0c bd
       -0.122402 0.116743945 0.009649012 -0.03425184
000020 18 9b 61 be 95 b8 f7 3d c0 27 e3 3c a4 b9 ed bd
       -0.2203182 0.12095753 0.027728915 -0.11607674
000030 ea b0 be 3d c0 c8 85 bd cd 35 8b be a9 ab 50 be
       0.093110874 -0.06532431 -0.27189484 -0.20377983
000040 92 61 8e bd d6 b9 65 bb fb 0f 9e 3d 97 ee bb 3d
       -0.06952204 -0.0035053394 0.07717892 0.09176367
000050 c4 a6 fc 3d 6f 2e 74 bd 82 01 29 be d1 80 26 bd
       0.123364955 -0.059614595 -0.16504481 -0.040650193
000060 b3 a9 b7 bd ca b9 c9 bd ed d3 b6 3d e2 81 e2 bd
       -0.089679144 -0.098498896 0.089271404 -0.110599294
000070 cd ca 3f bd 27 6a 8e bd 1a d3 85 3d bc dd 6a 3e
       -0.046824265 -0.06953841 0.06534405 0.22936147
000080 aa f9 a6 3d f0 e1 c1 bd ba ea 5b bc 88 16 86 3d
       0.081530884 -0.09466922 -0.013422662 0.06547266
000090 94 ae ed 3c 15 9f 63 3d 1b 80 59 3e b2 ce 2a 3e
       0.02901391 0.055571634 0.21240275 0.1668041
0000a0 c2 ad 0d 3e f1 8d 30 bc 10 29 f5 3d 03 1c f9 3d
       0.13835815 -0.010776029 0.11970723 0.12163546
0000b0 38 2c 88 3d ce 8a 37 3d f3 40 06 be 22 8d ba bd
       0.06649059 0.04481011 -0.13110714 -0.0910895
0000c0 8d 0c 29 3e bb 0c 1b 3e 8a 87 79 be f5 6d 99 bd
       0.16508694 0.15141575 -0.2436811 -0.07491676
0000d0 94 e8 36 bd d1 de 43 3d 21 a3 5b be 2d da c8 3d
       -0.044655398 0.047819916 -0.21448947 0.09807239
0000e0 37 45 13 be 47 79 5b 3e df 2c fe 3b 59 db 50 3e
       -0.14381872 0.21432982 0.007756814 0.20396174
0000f0 1c d5 8f bc cb 34 0f 3e 28 04 20 be 7d 72 e0 3c
       -0.017557673 0.13984983 -0.15626585 0.027398342
000100 60 3d af bd 03 86 22 be 90 a5 d4 bd b1 dd 66 be
       -0.08556628 -0.15871434 -0.10383141 -0.22545506
000110 cc ac 68 3e 69 db 10 be 3a 0c e2 3c 41 10 9c 3b
       0.22722167 -0.14146198 0.02759372 0.00476268
000120 34 07 83 3d e4 2e 95 bd 59 59 bd 3d a3 a6 01 be
       0.06397858 -0.07284334 0.09245557 -0.12661223
000130 d7 71 34 3c e3 01 4a 3e a2 25 58 be 49 12 f5 3d
       0.01101347 0.19727282 -0.21108106 0.11966378
000140 3b 85 1d 3e b6 d7 2f 3e df 78 57 3d 89 92 48 3e
       0.15382855 0.17172131 0.052605506 0.19587149
000150 9d 1a 06 bd 2e c7 62 3e 27 e9 a3 3d a1 f9 8a 3e
       -0.032740224 0.22146294 0.08003455 0.27143577
000160 84 0a 8c bc 30 25 b2 bd 31 54 1e be 9e 5f f1 bc
       -0.017094858 -0.08698499 -0.15461804 -0.02946454
000170 d7 c7 63 be 96 45 d4 bd 61 02 bb 3d 1a 7f 01 3e
       -0.22244202 -0.10364835 0.09131313 0.12646142
000180 1f d5 23 3e 76 85 0d 3c d6 0f 70 bd 2a 0c 20 be
       0.15999268 0.008637777 -0.058608852 -0.1562964
000190 77 ad 05 3d 71 a6 75 bc 9e fb 2b be e1 60 1e be
       0.032636132 -0.014993296 -0.16795203 -0.15466644
0001a0 04 a6 58 3e a7 ba 6f 3e ae 49 f7 ba 28 01 ae bd
       0.2115708 0.23411046 -0.0018866563 -0.08496314
0001b0 19 da 52 3e f6 42 65 bd 4b dc 5d bd 13 65 dc bd
       0.2059101 -0.055972062 -0.054165166 -0.10761466
0001c0 42 43 8f 3d ae 00 33 3d 9f df 4a be dd 6e 5f 3e
       0.0699525 0.04370182 -0.19811867 0.21819635
0001d0 a0 12 5e be dd f3 9f 3d 58 0b 00 3a 1a 08 14 be
       -0.21686792 0.07810185 0.0004884503 -0.14456216
0001e0 28 20 b4 3d 8a ab 5f be 3a fc 73 be 57 80 38 3e
       0.08795196 -0.2184278 -0.23826686 0.18017708
0001f0 19 62 bc bd 0f c1 6e 3d f5 ce a9 bd 5b 08 06 3d
       -0.09198398 0.058289584 -0.08291427 0.032722812
000200 a1 5b a8 bd b7 de 29 3e 5a 5b d6 bd 8a 9f f4 3d
       -0.08220602 0.16588865 -0.10466643 0.11944492
000210 42 78 de 3d 43 85 5c 3e 5c 02 45 3e ae 5c e7 3d
       0.10862781 0.2153521 0.19239181 0.11296974
000220 81 97 17 3e 45 83 42 3d 13 d2 3f 3e 88 96 3d be
       0.14803888 0.04748847 0.1873248 -0.18514454
000230 56 17 01 3e 34 51 9a be 81 a7 2e bd 33 5b 0b be
       0.12606558 -0.30140078 -0.042640213 -0.13609008
000240 1c a4 d4 3d 6e 7f 65 bd b5 3a 80 be 31 cc 17 bd
       0.10382864 -0.05602973 -0.2504479 -0.037059966
000250 b3 d0 85 3d 61 06 0f 3e 11 bf 23 be 72 e8 19 be
       0.06533947 0.13967277 -0.15990855 -0.15030077
000260 b9 9c 8f 3d 5b f6 ab bd cd af 29 3c 87 c9 19 bd
       0.07012314 -0.08396598 0.010356856 -0.037545707
000270 a1 63 6a bc 89 93 25 3e 91 1a 7e 3e a7 a2 2e 3c
       -0.01430598 0.16169561 0.24814822 0.0106588965
000280 df 4d c6 3d b6 f0 9d bc 3d f8 db 3d 17 f6 8b 3d
       0.096828215 -0.019279819 0.10740707 0.06834047
000290 46 55 ca 3d c9 d3 1f 3e c6 d8 73 bd 3f 7c cd bd
       0.09879546 0.15608133 -0.059532903 -0.10033464
0002a0 55 e8 cc 3d fc 0a fb 3c a8 39 fc bd b4 ab 06 bd
       0.10005251 0.030644886 -0.123156846 -0.032878593
0002b0 42 ae 0e 3d f3 f4 d2 bc 42 76 f8 3d 7a 6e 39 3e
       0.034834154 -0.025751567 0.12131931 0.1810855
0002c0 a8 8f a6 be ef 6d 4c 3e 26 b9 7f bd 2b 8c 7d 3c
       -0.32531476 0.19963811 -0.06243243 0.015475313
0002d0 e1 6a 40 3c 97 76 c7 3d 09 c4 34 3e 57 55 6b be
       0.011744232 0.09739416 0.17652906 -0.22981773
0002e0 1a 7b f4 bd b1 7a 57 bd 3f 14 49 be 4e be 99 3a
       -0.11937542 -0.052607242 -0.1963663 0.0011729689
0002f0 b5 89 40 3e d4 39 2a 3e b6 00 dc bc 0f 49 b2 bd
       0.18802531 0.16623622 -0.026855808 -0.08705341
000300 dd 4d df 3b 53 07 12 3e 1c 15 35 3e 80 ef 5b 3e
       0.006814702 0.14260606 0.17683834 0.21478081
000310 2e 16 b3 3d a5 54 1a 3e c7 8c 54 3e db da da 3d
       0.08744465 0.15071352 0.20756827 0.106862746
000320 8a ec 05 be 67 94 9a 3d db d5 d3 3d c3 06 5d 3d
       -0.13078514 0.07547837 0.10343524 0.053961527
000330 32 02 06 3e 74 be 6c be 0c b7 f5 bd c8 13 9a 3b
       0.13086775 -0.23119527 -0.11997804 0.004702065
000340 93 8a 91 bc 85 b2 c6 bd 76 39 47 3d 26 54 03 3e
       -0.017766273 -0.09702019 0.048638783 0.12825069
000350 81 88 8b be 92 26 19 3b 5b ac 5d bd 58 b7 f3 bc
       -0.27252582 0.0023368937 -0.05411945 -0.029750511
000360 f4 ad 7d 3d b9 a2 01 be 41 18 b1 3d cc e5 4b be
       0.061933473 -0.1265973 0.08647204 -0.1991188
000370 dc 21 f9 3d 6c 10 af bd c3 e2 91 3d a7 1d 31 3e
       0.12164661 -0.08548054 0.071233295 0.17296468
000380 11 ed 48 3e 99 98 2d 3e b0 b0 10 be df 7d 0d 3d
       0.19621684 0.16952743 -0.14129901 0.03454387
000390 34 f2 43 3e fc 37 5c bd f5 6f 85 bc 99 0e 94 3e
       0.19135362 -0.05376433 -0.016288737 0.28917387
0003a0 df 07 11 bd ff 38 8d 3c a6 3d dd bd f4 1e c5 bc
       -0.035407897 0.017239092 -0.10802774 -0.024062611
0003b0 37 75 7a 3d b7 92 81 3e dd b0 86 3d a4 e4 0c 3e
       0.06114694 0.25307247 0.06576703 0.13759094
0003c0 42 84 ee bc 17 2f bc bd 55 ec 16 3e 82 f5 f7 3d
       -0.0291158 -0.09188669 0.14738591 0.12107374
0003d0 66 f8 94 3d 41 70 e2 3b 2d be 44 bb d1 a8 80 bb
       0.07273941 0.0069103544 -0.003002058 -0.0039263745
0003e0 37 13 52 3e 0d 71 85 bd cf 65 76 bd a1 fb 52 bd
       0.20515142 -0.06515703 -0.060155686 -0.051509503
0003f0 00 48 2f 3d b8 0e e5 3d 41 eb c8 3d 81 c0 30 3c
       0.042793274 0.11184448 0.09810496 0.010788084

model.0.bias f4 [256]
000000 cd 98 2d bc 69 b7 1a bd 25 0a f2 bd 8e c2 20 3e
       -0.010595513 -0.03777257 -0.11818341 0.15699217
000010 67 ec 17 3d 7f b3 62 3d 58 d2 e2 3d 68 e5 b3 bd
       0.037090685 0.055346962 0.11075276 -0.0878399
000020 1b 7d 6c 3d 35 1d 4b 3d ca 36 31 3e 8a 99 25 be
       0.057736497 0.0495884 0.17306057 -0.16171852
000030 f2 e2 01 3e e5 1d 04 3e c4 61 95 bd b1 7b 11 3c
       0.12684229 0.12902029 -0.07294038 0.008879588
000040 4e 5b 14 3d 7f 2d ad 3d ad 28 c8 3d f1 16 2b be
       0.036219887 0.08455943 0.09773383 -0.1670797
000050 d8 2b de 3d 7c d5 c2 bd 76 b1 4b 3c af 4a a1 bd
       0.10848206 -0.09513375 0.012432447 -0.07875573
000060 26 1f d6 3d da da 13 3e 77 b3 f3 3c 11 b4 c7 bd
       0.1045516 0.14438954 0.029748661 -0.09751142
000070 2f 29 30 be a8 f6 f5 3d 02 27 29 3a 34 52 06 3e
       -0.1720321 0.120099366 0.0006452651 0.13117296
000080 7c c6 26 bb 68 26 6d 3e c7 e4 2d 3d 9e 14 14 be
       -0.0025447896 0.23159182 0.042454507 -0.1446099
000090 81 37 bb bd c4 b2 8b 3b 93 2e f9 bd 06 44 0d be
       -0.09141446 0.004263254 -0.121670865 -0.1379548
0000a0 15 5c 7a 3d 49 83 18 be 03 06 ee bd b4 49 f6 3d
       0.061122973 -0.14893831 -0.116222404 0.120257765
0000b0 40 5b 89 bd fb 5c fb bd 96 bf 5d 3e a3 a3 5f 3e
       -0.06706858 -0.12273594 0.21655115 0.21839766
0000c0 79 51 19 3e b8 5b 4d 3e 93 2a d0 bc 53 55 82 bd
       0.14972486 0.20054519 -0.025410926 -0.063639306
0000d0 f7 57 5e bd 33 05 10 be 9a 5e 38 3d b8 36 3f be
       -0.05428311 -0.14064483 0.045012094 -0.18673217
0000e0 00 8d 18 3d 64 d3 62 3d f7 16 c6 bd 6b d4 18 bd
       0.037243843 0.05537738 -0.09672349 -0.037311953
0000f0 8a 08 11 3e cc 52 29 3e d8 f3 3c be 40 08 bb 3d
       0.14163414 0.16535491 -0.18452394 0.09132433
000100 74 38 c5 bd 03 62 80 bd 65 1f e8 bd d0 01 0c bd
       -0.09629908 -0.06268694 -0.11334113 -0.034181416
000110 5a ab cd bd ed 9d bd bd 6e d1 26 bd 35 bc e4 3d
       -0.10042448 -0.092586376 -0.04072707 0.1116871
000120 70 12 ee 3d a2 95 1e 3e a9 98 6c 3c b5 42 10 be
       0.116246104 0.15486768 0.014440694 -0.14087947
000130 be 5e eb bd 8a 48 f1 3d f1 45 2a 3e 7a 16 2b 3e
       -0.1149268 0.11781414 0.16628243 0.16707793
000140 19 55 41 3c 8a 25 61 bc 8f 56 e2 3d 26 c3 10 3c
       0.011800074 -0.01374186 0.11051666 0.0088355895
000150 34 b6 99 bd 77 30 1f be 69 09 c6 3d 0b b4 b0 3d
       -0.075054556 -0.15545832 0.096697636 0.086280905
000160 c4 2d 80 3d 58 3a 8c 3d 39 b7 35 be 0b 29 68 bd
       0.06258729 0.06847066 -0.17745675 -0.056679767
000170 a1 4d 12 3e dc 61 d9 3d 86 90 4c 3e bc ab 5c 3e
       0.14287426 0.10614368 0.19977006 0.21549886
000180 1f be 9f bd 08 66 1e bd 9a 2d 63 3c db a1 15 3e
       -0.077999346 -0.038671523 0.013865853 0.14612524
000190 2c 61 44 bd 5a dd 79 3d 1c 62 72 3d ec cc 51 be
       -0.047944233 0.061002113 0.059175596 -0.20488328
0001a0 f9 ef a4 bc 3d 57 ca 3c 78 bc 5c 3d d6 f9 06 3d
       -0.02013396 0.024699802 0.053890675 0.032953106
0001b0 d2 71 29 3d 5d 40 83 bd a1 ea 26 3e ff 44 bc bd
       0.041368313 -0.06408761 0.16300441 -0.091928475
0001c0 66 e7 14 3e 70 e6 71 bd ba f9 89 3a f3 98 55 3e
       0.14541396 -0.059057653 0.0010526695 0.20859127
0001d0 c2 59 27 bc c6 bb 07 3d f0 06 53 3e ca b5 1e 3e
       -0.010214271 0.03313806 0.20608115 0.15499035
0001e0 db a2 93 3d 7e 1b 9e bd a8 15 53 3e 18 14 82 be
       0.072087966 -0.077200875 0.2061373 -0.25405955
0001f0 b9 91 bc bd b3 ee 59 3b bf a2 05 3e 13 4c 98 3d
       -0.09207482 0.0033253848 0.13050364 0.07436385
000200 da 3a e6 3c ef 70 8a bc 4f e5 05 3e 8c 2a 14 3c
       0.028104234 -0.016899554 0.13075756 0.009043347
000210 33 df 22 3e 8e 07 8f bd ab bd c3 3d 06 2a 25 3e
       0.15905456 -0.06983863 0.09557661 0.16129312
000220 f9 fa a7 bd 8f ac 2f 3e 96 34 d3 bb c4 50 10 be
       -0.08202166 0.1715567 -0.0064454777 -0.1409331
000230 92 f6 5d 3d 27 7c 21 bd 05 95 5e 3d b2 c6 55 3e
       0.054190226 -0.03942504 0.054341335 0.20876577
000240 08 34 93 3d 94 29 2e 3e 31 76 77 3d 7d c6 50 3e
       0.071876585 0.17008048 0.06041545 0.20388217
000250 7f d0 f5 3c ff 99 5e bb 01 2a 05 3e 4e 32 1d 3e
       0.030006645 -0.00339663 0.13004304 0.15351221
000260 82 b5 8a bd d6 29 f5 bd 5c 98 d1 3d df 40 f0 bd
       -0.06772901 -0.1197087 0.10234138 -0.11731123
000270 6c a2 74 3d 6a 6c 8d be a4 86 5e 3e 8b 2d 7c bd
       0.05972521 -0.27621776 0.21731049 -0.06156687
000280 0f 1b 18 bd c6 77 2b be 03 01 3c be b5 c3 62 3e
       -0.03713518 -0.16744909 -0.18359761 0.22144969
000290 74 0e 2a 3e 39 0f f8 3c db e6 11 3d ee 5a 6b 3d
       0.16607076 0.030280696 0.03562055 0.057459764
0002a0 3c de 27 3d 22 c3 49 3e 70 c0 0c be 0e 8d 05 3c
       0.040983424 0.19703344 -0.13745284 0.008151306
0002b0 0a c7 3a bd 01 7a 83 bb fb 66 2c be 45 fb a9 3d
       -0.045599975 -0.0040123467 -0.16836159 0.08299879
0002c0 a5 1d d0 3c b5 1d fc bb 7f bf 5c 3e 41 bb f1 3c
       0.02540476 -0.007693971 0.21557425 0.029508235
0002d0 86 75 9f bd 6a 44 db bd 87 0c 6d 3d 02 c8 2b be
       -0.07786088 -0.10706408 0.057873275 -0.16775516
0002e0 34 ea 0f bd 45 ba 3c 3e 8a 25 66 bd 60 d3 3c be
       -0.035135463 0.18430431 -0.056188144 -0.18440008
0002f0 3e b7 48 3e ae 76 85 3e c9 5e 21 3d e4 8d 47 3e
       0.19601151 0.26067108 0.039397035 0.1948772
000300 32 91 34 be ee 9b e2 bd 18 06 22 be 2e 21 33 be
       -0.17633513 -0.110648975 -0.15822637 -0.17493126
000310 db 2b 0b bd 97 d3 13 3d c5 11 e0 3d f5 0e a0 bc
       -0.03397737 0.03609046 0.10940889 -0.019538382
000320 1f 63 42 3d 1f 80 a9 bd 76 ba 3e 3e 0c 52 ac bd
       0.04745781 -0.0827639 0.18625817 -0.08414087
000330 83 65 1b 3c dc 9d 85 3d 46 cc 76 3e c6 1d 8e bd
       0.0094846515 0.0652425 0.24101362 -0.069392726
000340 5a 7f 40 3e 65 c1 98 bc 42 a7 01 3e 7c a9 9b 3d
       0.18798581 -0.018646905 0.1266146 0.07600686
000350 21 9b 8e 3d 35 8a bc bd 6c f1 07 be 30 1c 39 be
       0.06963182 -0.092060484 -0.13275689 -0.18077159
000360 78 ab ff bd ed 9c 12 3e a3 fe 20 be 18 92 06 3e
       -0.12483877 0.14317675 -0.15722136 0.13141668
000370 88 6e 2b 3e 53 6f 65 bd 28 bc 4c 3e e5 bf 52 3a
       0.16741383 -0.05601437 0.19993651 0.0008039459
000380 80 f1 36 3e bf 92 3c be 62 e3 2e 3e 20 0a ef bd
       0.17865562 -0.18415354 0.17078927 -0.11671853
000390 4f 1c bb bc 82 96 70 3e 86 a9 89 3e 0b e3 49 3d
       -0.022840647 0.23494914 0.2688715 0.04928879
0003a0 f3 86 0f 3e fa cb 69 3d 42 7e da 3b 0b 4e 11 3e
       0.14016323 0.057079293 0.006667883 0.14189927
0003b0 1c 40 75 bd 72 8b c0 3c 0e a4 48 be 4e 75 7b 3e
       -0.059875593 0.023503993 -0.19593832 0.24556467
0003c0 f7 95 97 bc ce 2f 11 bd 85 02 cb bd 76 d9 cd bd
       -0.018504126 -0.03544598 -0.0991259 -0.10051243
0003d0 b4 79 3e bd bb 63 ce bc 99 3a 13 3e 03 8d 52 be
       -0.046502784 -0.02519404 0.14377822 -0.20561604
0003e0 b8 f7 d0 bb c1 e5 d2 3d fd 47 ee bc 00 ec c9 bd
       -0.0063771866 0.10297728 -0.029087061 -0.098594666
0003f0 20 b7 9c 3c 64 93 3b 3e 56 c8 2a be c3 84 39 be
       0.01913029 0.18317944 -0.16677985 -0.18117051

model.2.weight f4 [256, 256]
000000 41 dd ab bc b8 f6 f0 bc 91 0f 81 bc dd 9d fb bc
       -0.020979526 -0.02941452 -0.015754493 -0.030714924
000010 87 65 2e bd 87 15 cd 3c 15 f2 1b 3d 39 48 70 3d
       -0.042577293 0.02503468 0.038072664 0.058662627
000020 34 0d ef bc 82 fa cd 3c 21 90 65 bb 9b 1d 40 bc
       -0.0291811 0.025143865 -0.0035028534 -0.0117258085
000030 a5 df 2f 3d 18 a4 a7 ba 3c a0 36 bd 0b 29 7c bc
       0.042937893 -0.0012789993 -0.044586405 -0.015390645
000040 55 7e 31 bd 8a da 83 3d 86 96 e2 3b 51 eb 7f bc
       -0.04333337 0.064381674 0.0069149164 -0.015620069
000050 f8 10 5d 3d ae 3a 08 bd 8f 99 18 3d 8a 73 2d bd
       0.05397126 -0.033259086 0.03725582 -0.042346515
000060 68 1e 18 3d 64 c8 a2 bb 8e f8 03 3c 84 34 4d 3c
       0.037138373 -0.004967736 0.0080548655 0.012524728
000070 3b e2 de ba ed 12 63 ba 5c 0d 6c bd e9 00 d5 bc
       -0.0017004678 -0.0008662183 -0.057629928 -0.02600141
000080 8c 85 28 3d 31 ca 09 bd b8 ff b0 3c 7f bc 54 3c
       0.041142985 -0.03364009 0.021606311 0.012984394
000090 0e b9 a0 bc 36 ba 2a 3c 7a f8 84 3d 05 3c 6c bc
       -0.019619491 0.010420373 0.06492706 -0.014418607
0000a0 63 0b d8 3c 61 b5 16 3d 23 16 80 3c a0 64 7f bd
       0.026372617 0.03679407 0.015635556 -0.062351823
0000b0 bd e6 c0 bc 00 33 f6 bc 62 ff c4 3b 50 34 26 3d
       -0.023547525 -0.030053616 0.0060118893 0.040577233
0000c0 cb 50 d9 3b 4c 50 82 3c cd 53 c0 3c 14 89 55 bd
       0.0066319457 0.01590743 0.02347746 -0.05213268
0000d0 64 ad 3b 3b 1f 2f 21 3d c3 44 af bd 3c 89 06 bd
       0.0028637284 0.03935158 -0.08558037 -0.03284572
0000e0 1e 22 82 bb a6 1d 1e 3d 5a 97 5d bd b7 14 19 3d
       -0.0039713522 0.038602494 -0.05409942 0.03737327
0000f0 65 6c ab 3d 67 d3 cb 3c 8d 42 b2 3d f2 91 6a bc
       0.08370284 0.024881078 0.087041 -0.014317023
000100 15 a7 a5 bc 55 d7 d4 3c d8 60 f7 3c 59 71 cd 3c
       -0.020221272 0.025981585 0.030197546 0.025078462
000110 4d fc 2f 3d 74 e0 7e bb 54 73 6b bc da a5 fa bc
       0.042965222 -0.0038891109 -0.014370758 -0.030596662
000120 f5 86 f7 3c b1 50 e8 bc 91 2e 92 3d 63 8d f2 bb
       0.03021572 -0.02835879 0.07137788 -0.0074021085
000130 67 d7 9d 3b 71 d0 85 bd 83 39 0d bc 06 8b c6 3c
       0.0048169377 -0.06533898 -0.008619669 0.024236213
000140 5d eb ac bd ec e9 85 3d 63 11 81 bd c8 d4 4b bd
       -0.084433295 0.06538758 -0.063021444 -0.04976347
000150 f7 82 34 bc f1 50 8e bc 4c 23 03 ba 4e 9b b3 bd
       -0.011017553 -0.01737258 -0.0005002513 -0.087698564
000160 cf 3a 19 bd 4a 01 16 3d 68 7e 24 3d f8 6e 2a 3d
       -0.0374096 0.036622323 0.040159613 0.041609734
000170 9a ed 1b 3d 22 c2 b0 3c 2a eb 03 3d 2f 4e ad 3c
       0.03806839 0.021576945 0.03220669 0.021155445
000180 ae 07 0d bd 21 1e 4a 3d 39 38 4e 3d 3e 3d 99 3c
       -0.034431152 0.04934514 0.050346587 0.01870596
000190 14 e2 46 3d c2 22 a5 bc 42 c1 11 bd be c3 77 3d
       0.04855545 -0.020158175 -0.035584696 0.06048941
0001a0 ba 62 24 3d 36 4f 5d bc d8 9b 10 3c ce 99 96 3d
       0.040133215 -0.013507655 0.008826219 0.07353555
0001b0 ef ed 81 3d b1 c8 19 bd 50 e3 41 3c 5f af 15 3d
       0.0634421 -0.03754491 0.011833981 0.0365442
0001c0 a3 28 ef bc 7c 1b 22 bc 42 a6 79 3d 0c a7 22 bd
       -0.029194182 -0.009894248 0.06094957 -0.03971009
0001d0 8b e5 ee 3c 92 ee 49 bc 24 ef 4d bd 39 53 d0 bc
       0.029162189 -0.012324946 -0.05027689 -0.025430309
0001e0 86 ff a0 3c 0f dd 4d 3b a9 bd d3 3c f0 3c e3 bc
       0.019653093 0.0031412279 0.025847273 -0.027739018
0001f0 87 fe 03 bd 54 7b 83 bd ce 42 dc 3b cd f4 15 3d
       -0.032225158 -0.06420007 0.006721831 0.036610413
000200 ea 22 ba 3c 3c 0e 90 bc 50 20 49 bd 1e 12 b4 3c
       0.022721726 -0.017584912 -0.04910308 0.021981295
000210 03 1a b1 bc d4 c4 43 3c e3 5c 29 bd c5 bf 67 bd
       -0.021618849 0.011948783 -0.04134835 -0.05657937
000220 31 19 fe 3b e3 82 44 3d 31 e3 12 3d 5a 81 89 bb
       0.007754468 0.047976386 0.035861198 -0.004196328
000230 69 d5 fa bc 86 55 71 3d 26 a1 48 3d e6 62 59 bc
       -0.03061934 0.058919452 0.048981808 -0.013268208
000240 3b 6c 46 3d 0b 86 74 3d bf f6 44 bd 34 f0 eb bc
       0.04844306 0.059698146 -0.048086878 -0.028801061
000250 8a bb 35 3d c2 aa 90 bc 99 0b cd bc 22 04 96 ba
       0.044368304 -0.017659549 -0.025029944 -0.0011445323
000260 1e 2a ee 3c cd 98 db 3c fd e6 37 3d 6c e0 97 3d
       0.029072817 0.02680626 0.044898022 0.07415852
000270 a4 bd 8f 3a 68 f2 2c 3c 39 c4 b6 3d cc 86 35 3d
       0.0010966551 0.010555841 0.08924145 0.044318005
000280 95 12 93 bc 7e 17 c2 3c 43 7b 71 3c 1d b4 a1 bb
       -0.017953197 0.023692843 0.014738861 -0.0049348013
000290 cd 42 18 3e b7 15 f8 bc 3d f0 3f 3c 08 4b ec bc
       0.14869232 -0.030283792 0.011714992 -0.028844371
0002a0 04 55 08 3d 25 f7 e4 bc 44 1d 05 3d f2 a0 30 3d
       0.033284202 -0.027949879 0.032498613 0.04312224
0002b0 92 7a aa 3c e8 0e 43 3d 1f 57 69 3c 20 de b8 3b
       0.0208104 0.047621638 0.014241963 0.0056417137
0002c0 24 4d 3e bd 16 f7 90 3b 3a 1c 50 bd 2c f4 23 bd
       -0.046460286 0.004423986 -0.05080817 -0.040027782
0002d0 75 66 92 bd 63 b4 b4 ba 6e 27 a1 3d 0d 6b 83 3c
       -0.071484484 -0.001378667 0.07868849 0.016042257
0002e0 c5 45 a2 3d 54 b5 5b 3c 39 f7 9f 3c 2f 24 c8 bb
       0.07923464 0.013409931 0.019527065 -0.006107829
0002f0 22 a9 57 bd 12 61 cf bc 59 0b 95 bc 8f 6e 7e bd
       -0.052651532 -0.025314841 -0.018193888 -0.062117156
000300 0c 38 14 3c f1 a3 1d bd 79 15 6e 3b 83 f4 ea bd
       0.009046566 -0.038486425 0.0036328717 -0.11472418
000310 43 38 46 3b 8a ad 42 bc fa 25 9b bc 9e fd e1 3c
       0.0030245937 -0.011882195 -0.018939007 0.027586754
000320 ae 35 e6 3c e2 66 83 3b 7c dc b3 3d 26 66 91 ba
       0.028101768 0.0040100673 0.087822884 -0.0011093065
000330 3e dd 1c bd d3 c6 03 3d 7f c8 83 bb 3e 11 d9 bc
       -0.03829693 0.032172035 -0.0040217037 -0.02649748
000340 d3 74 54 bd 86 66 69 3c 31 65 c9 bc 70 8a 29 3d
       -0.051869225 0.014245635 -0.024584385 0.04139179
000350 db 35 85 bd 13 e8 c0 bc 24 8c 1f bd 09 6c 2c bc
       -0.06504413 -0.023548162 -0.038952008 -0.010523804
000360 8f 6a 1a 3d c6 22 0a 3c 5c ac 24 bc 1a f8 83 bd
       0.03769928 0.008431142 -0.010050859 -0.06443806
000370 03 f2 d2 bc b7 11 f9 3c 3c 74 e1 bc d3 97 ce 3c
       -0.025750166 0.030403955 -0.027521245 0.02521888
000380 26 ef 49 bc dc 48 73 bc 69 d8 d4 3b 1f 09 57 bd
       -0.012325084 -0.014848914 0.0064955247 -0.052498933
000390 3f 96 1d 3d 4d 7f 6d 3c e3 ad 1b bd 38 46 c8 bc
       0.038473364 0.014495683 -0.03800763 -0.024447545
0003a0 d1 4c 63 3d f7 c6 e0 3a 15 1d 8c 3d 62 19 12 bd
       0.05549318 0.001714914 0.068414845 -0.03566874
0003b0 32 b4 e1 bc 2d 4d 41 3d dd 27 a4 bc 21 f9 a2 3c
       -0.027551744 0.04719274 -0.02003854 0.019894185
0003c0 1e 3c e1 ba 27 50 93 3c a8 06 77 bd b7 49 40 3d
       -0.0017184054 0.017982556 -0.060309082 0.0469453
0003d0 bd 6b d6 bc a8 28 9a 3d f3 70 9e 3c 38 21 97 bc
       -0.02617442 0.07527286 0.019340968 -0.018448457
0003e0 9d a8 98 3c 35 3a dc bb ba 8b 1a 3d 5d d0 87 3d
       0.018635089 -0.006720806 0.03773091 0.06631539
0003f0 28 3f 48 3c a1 d6 4a bc 2b 49 38 3d a7 38 4b 3c
       0.012222089 -0.012380273 0.044991653 0.012403644

model.2.bias f4 [256]
000000 8b d1 37 3d 7a d0 81 3d 8e 77 52 bc 40 60 03 bd
       0.04487757 0.06338592 -0.012845887 -0.032074213
000010 85 11 16 3d 4f 9e 43 bd 23 7c 5b bd ab 91 fd 3c
       0.0366378 -0.047758397 -0.053585183 0.030953249
000020 99 ad 3b 3d 67 38 02 bc 50 16 5a 3d 0a 78 38 3d
       0.045819853 -0.007948018 0.053243935 0.045036353
000030 a5 f4 e9 3c f3 2c 4f 3d 85 30 32 3d ac 31 f6 3c
       0.028559038 0.050579976 0.043503303 0.030052982
000040 1d 9e 87 bd 9c f5 de 3c 73 6c c8 3c 92 57 4d bd
       -0.066219546 0.027216725 0.024465775 -0.05013234
000050 9c a0 4d 3d e9 53 19 bd fb 3e 0d bd fc 31 30 bc
       0.050201997 -0.03743354 -0.03448389 -0.010754105
000060 c8 e2 30 bc b0 e7 86 3d f4 80 0f bd 8a 30 28 3d
       -0.010796256 0.0658716 -0.03503509 0.041061915
000070 f0 c0 98 3c 54 e6 ee bc 6c db 6d 3d 6a bf 8a bc
       0.018646687 -0.029162563 0.058070585 -0.016936976
000080 74 76 3a bc ad 75 31 ba 21 9b 24 3d e9 7f 47 3c
       -0.0113807805 -0.0006769549 0.040187005 0.012176492
000090 03 4c 20 3b 73 c3 1f 3d 47 9d 95 3d 63 09 56 3a
       0.002445937 0.039004754 0.07305389 0.0008164851
0000a0 6a b5 05 bc 92 15 a5 3c 83 18 19 3b 90 c8 3d 3c
       -0.008160928 0.020151887 0.0023360557 0.011583462
0000b0 b9 7c 8c 3d 25 f8 d5 3c 19 b6 64 3b 60 c0 84 3d
       0.068597265 0.026119301 0.0034898578 0.06482005
0000c0 86 1e 39 3d b5 10 2b 3d 21 d3 9b bc d7 6e 8d 3d
       0.045195125 0.04176398 -0.019021573 0.06905907
0000d0 90 e8 76 3d 30 ba 83 3c f6 aa 34 bc a2 33 30 3d
       0.060280383 0.016079992 -0.011027088 0.04301799
0000e0 09 da 9c bc b7 bf 58 3d 86 d0 98 bb 81 ab d4 39
       -0.019146936 0.05291721 -0.00466353 0.0004056357
0000f0 fd 19 05 3d 54 77 64 3b 7c d5 25 3d b7 f7 91 3d
       0.032495487 0.0034861164 0.040486798 0.07127326
000100 e7 a5 82 3d 0c f0 ce 3b ee 6f 3b bd d6 40 7a 3d
       0.063792996 0.006315237 -0.04576104 0.06109699
000110 06 ce 54 3c 13 d9 01 bd 68 48 c1 bb 52 36 0a bd
       0.012988573 -0.03170116 -0.005898524 -0.03374321
000120 fa 91 60 3c 52 23 5d bd 6d 72 40 bd b2 31 cc bc
       0.0137066785 -0.053988762 -0.046984125 -0.02492604
000130 7e 87 cd bc f2 32 16 3d e4 88 ec 3b 9e fc 3b bd
       -0.025089022 0.03666968 0.007218467 -0.04589521
000140 fb f9 da 3c 9a 7c d0 ba 68 09 97 bc 50 96 0f 3d
       0.026730528 -0.0015906275 -0.018437102 0.03505546
000150 b5 85 91 3d 10 55 5e 3d 5b 74 d9 bc 11 0d 31 3d
       0.07105581 0.05428034 -0.02654474 0.04322535
000160 b8 57 1c bd d8 da b9 bc d1 f3 1e bd 6a 0b 29 3d
       -0.038169593 -0.02268736 -0.03880674 0.04127065
000170 63 13 79 3d d3 94 4c 3d 98 96 8e 3d 1c e2 68 bd
       0.060809504 0.049946617 0.06962317 -0.05685626
000180 35 2a 0d bd c6 2f 9d 3c 50 10 ff ba fb 5f 15 bd
       -0.03446408 0.01918782 -0.0019459818 -0.036468487
000190 c7 cd 98 3c b7 aa c4 bc 99 26 e8 bc 6a fb 8a 3d
       0.01865281 -0.024007184 -0.028338717 0.06786235
0001a0 10 eb 4a 3d 10 39 a3 bc 6d e4 1e 3d a9 1a 78 bb
       0.04954058 -0.01992467 0.038792063 -0.0037857688
0001b0 25 16 84 3d 70 65 5f bd eb a6 d6 3c 73 11 c6 3c
       0.06449536 -0.054540098 0.02620264 0.024178242
0001c0 bb 38 80 bd 61 d5 6a 3c 26 cc f0 3c bc 5b 8c bb
       -0.062608205 0.0143331 0.02939422 -0.0042833965
0001d0 d9 39 43 3c db 2a 0f 3d 10 8f 93 bb 4e b8 36 bd
       0.011915647 0.03495298 -0.0045031384 -0.04460936
0001e0 57 d0 18 3c ed bb 68 3d 97 dc 1b 3a 48 bf 47 3d
       0.009327016 0.056819845 0.0005945651 0.048766404
0001f0 59 00 11 bd 39 59 82 3d 17 13 dc 3c c6 85 1b bc
       -0.035400722 0.06364674 0.026864571 -0.009492343
000200 84 05 81 bc d3 f0 ee bc 06 a7 0b 3d 9d 26 e6 3c
       -0.0157497 -0.029167568 0.034094833 0.028094584
000210 c0 ad f0 3c 40 ff ed 3c 8e 09 61 3d 17 27 24 3d
       0.029379725 0.029052377 0.054940753 0.04007634
000220 f7 5b 27 3d 9b 19 18 3c f2 b8 55 bd f5 16 88 bc
       0.04085919 0.009283449 -0.05217833 -0.01661251
000230 25 88 23 3d c9 18 38 bd b0 bf 35 3d 66 44 ec 3b
       0.03992476 -0.044945512 0.04437226 0.007210302
000240 18 e9 fc 3c 49 7b fb bc e1 0d 30 3d 84 27 39 bd
       0.030872867 -0.030698435 0.042981986 -0.0452037
000250 c6 96 52 3d 58 ee 2b bd 88 4a 9a 3c 27 e1 13 3c
       0.05141332 -0.04197535 0.018834367 0.0090258485
000260 28 59 64 3c 11 bd 6f bc f4 9e ff 3c 01 b2 83 3d
       0.013937272 -0.014632479 0.031203724 0.06430436
000270 ee e7 3a bd 48 05 88 3d 49 12 71 3d da 98 67 bd
       -0.04563134 0.06641632 0.05885533 -0.056542255
000280 a3 05 60 3c d4 d7 87 3d cd 2a bf 3c ec b1 b3 bc
       0.013673219 0.06632963 0.023335839 -0.021935426
000290 5a 5b 29 bd 76 38 02 bd 4c 2d 29 3d de 16 0d bb
       -0.041346885 -0.031792127 0.041302964 -0.0021528522
0002a0 cc fb 16 3d a3 67 6d bc 99 e8 01 3d 3b b3 7d bd
       0.036861226 -0.014490041 0.031715963 -0.061938506
0002b0 25 a5 85 3a 10 8d 9a 3c a0 20 8d 3c a2 f9 02 3d
       0.0010196312 0.018866092 0.01722747 0.03197635
0002c0 6c 6b a9 bc 30 c3 60 3a 93 5a 38 bd 4f b1 cd 3c
       -0.020681106 0.0008574007 -0.045008253 0.025108961
0002d0 eb b9 41 bc f9 bb 95 bc bf d0 3a bd 53 1b 03 bd
       -0.011824111 -0.018278109 -0.045609232 -0.03200848
0002e0 09 da 12 bd 9d d1 83 3c 3f 16 b3 ba ae c1 26 bc
       -0.035852466 0.016091162 -0.0013663246 -0.010178013
0002f0 3b a0 eb 3c 4b 13 5f 3d 1d f8 3c 3d d7 a6 47 3d
       0.028762927 0.05446176 0.046135057 0.048743095
000300 b2 4d b3 bc 0b e4 ca 3c 2c 2f 01 3c a9 68 ee 3c
       -0.021887634 0.024766942 0.007884782 0.02910264
000310 34 f7 5a bd e4 3d 0f 3d e2 dd 06 bd be a5 0b bc
       -0.053458408 0.034971133 -0.032926448 -0.008523403
000320 4d 03 b6 bc 14 c2 71 bc 7f 8b 1d 3a d1 dd 4d 3c
       -0.02221837 -0.0147557445 0.0006009861 0.012565092
000330 55 19 50 3d ec 81 69 bd af be 88 3c a9 c6 a0 bc
       0.05080541 -0.05700867 0.016692488 -0.019625979
000340 2a 42 07 3d 48 a4 90 bc 7e c6 17 3d 63 04 f6 bb
       0.033022083 -0.01765646 0.03705453 -0.007507847
000350 bb b3 de 3c ee 2d 2b bd 0b 1d 3c bc b6 d8 4e 3d
       0.027185312 -0.04179185 -0.011481534 0.05049964
000360 fc 74 52 3d e6 f2 55 3c 58 67 d5 3c 44 ef 61 3d
       0.051381096 0.0130584 0.026050255 0.055159822
000370 ad ce 43 3d b2 1d 63 3d 07 6c 78 3d 63 44 33 3d
       0.047804523 0.05544824 0.060649898 0.04376639
000380 10 e9 08 bd e0 a6 fa bb 96 dd a8 3c 3e d2 2f bd
       -0.03342539 -0.0076492876 0.020613473 -0.042925112
000390 04 e8 d9 3b eb 8c d8 3c 80 67 07 3d 97 d8 3c bb
       0.006649973 0.026434382 0.03305769 -0.002881562
0003a0 f1 ee 40 3d b9 f8 a6 3b a2 f4 04 bd cc 8c 53 3d
       0.047102872 0.005095568 -0.032459863 0.051647946
0003b0 43 b1 52 bc a1 85 0a bd 4d e4 37 bb 9f f3 73 bd
       -0.012859645 -0.033818845 -0.0028059662 -0.059558507
0003c0 37 0d d6 3c 61 34 f7 3c a0 69 c1 3c c2 d2 7d bb
       0.026129348 0.030176343 0.023609936 -0.0038730358
0003d0 bf 73 9a bc 60 d9 72 3d b8 ab 1d bd 69 57 a6 3c
       -0.01885402 0.059289336 -0.038493842 0.020305352
0003e0 ca 5d 84 3d d5 ed 61 bd e7 0d 83 3b 0a 88 2c bb
       0.06463201 -0.055158455 0.00399946 -0.0026326203
0003f0 45 81 17 3d 0d c7 13 3d 87 d4 bc 3c 69 0b ee bc
       0.036988515 0.0360785 0.02305056 -0.029058175

model.4.weight f4 [256, 256]
000000 ca 3b 53 3d e8 39 ab bb f3 32 42 bd 2e cc 5a bd
       0.05157069 -0.005225409 -0.04741187 -0.053417377
000010 ce 85 a0 bc 72 68 ea bc 16 6f e4 bc 3a 04 f0 bc
       -0.019595053 -0.028614257 -0.027885001 -0.02929889
000020 eb 87 41 bd 6b 49 15 3d d4 02 8f bc 7e 2c 98 3c
       -0.047248762 0.03644697 -0.017457403 0.018575903
000030 d6 9a 2d 3c af d5 43 3b 5b 8f 8c 3c b1 aa 1d 3d
       0.010595998 0.0029882004 0.017158201 0.038492862
000040 6e 3b 9d 39 b7 b2 aa 3c a6 76 eb bc de f4 5f bd
       0.00029989652 0.020837171 -0.0287431 -0.054676883
000050 7d fa 7c 3d 69 db 1c 3c fb fe 9c 3b 21 96 36 bd
       0.06176232 0.009573796 0.004791138 -0.044576768
000060 77 02 5a 3d ca 35 37 bd 7c 86 71 bd 4b 54 f8 3c
       0.053225007 -0.04472903 -0.058966145 0.030313632
000070 86 ce cf 3c 47 b4 71 3d b1 55 11 bd eb f8 a6 3c
       0.025367033 0.059009816 -0.035482112 0.020382365
000080 74 ad 41 bd 9e 2e 10 bc 2d 14 1d bd d5 ef 5d 3d
       -0.04728456 -0.008800177 -0.03834932 0.0541838
000090 96 79 b9 3a 53 57 61 3c e4 ed e4 3c 41 f0 ae 3b
       0.0014150615 0.01375373 0.027945466 0.005338699
0000a0 22 07 bf bc b8 2f 33 bd 41 f0 e4 3b a9 25 1c 3d
       -0.02331883 -0.04374668 0.0069866483 0.038121853
0000b0 a1 46 2f bc d3 19 0a bd 04 29 4c 3c 27 66 b2 3c
       -0.010697992 -0.033716034 0.012460951 0.021777226
0000c0 d7 e2 3c bb e1 15 76 3d a2 d5 00 bd 62 55 49 3c
       -0.002882173 0.06007946 -0.031453736 0.012288423
0000d0 34 2f 20 3c 6c c9 ba 3c 7c 38 82 bd 6f bf a7 bc
       0.009776879 0.022801124 -0.0635843 -0.020477025
0000e0 7f fc 78 bd 47 98 3a bd b0 c2 35 bd 34 a7 1a bd
       -0.060787674 -0.04555538 -0.04437512 -0.037757114
0000f0 e3 2c 14 bd 10 f5 86 ba fa 1b f6 bc 06 0f 04 3d
       -0.03617562 -0.0010296423 -0.030042637 0.03224089
000100 b3 45 cc 3c da c5 96 3b 27 b9 fa 3b 94 fd 1a bd
       0.024935579 0.0046012225 0.0076514664 -0.037839487
000110 b1 76 fe bc 5d f6 34 3c bc 20 87 3c 68 73 a1 bd
       -0.031062456 0.011045066 0.016495101 -0.0788334
000120 31 24 1e bd 89 ee 18 3c e2 78 97 3c a3 c9 44 3d
       -0.038608734 0.009334215 0.018490259 0.04804386
000130 83 75 d0 bc 02 1d 0b bc 47 de 95 bc fb 14 09 bd
       -0.025446659 -0.008490803 -0.018294467 -0.033467274
000140 e0 47 b4 3c 00 ca 09 3d fa a1 3d 3d e9 6c 0d 3b
       0.022006929 0.033639908 0.04629705 0.0021579808
000150 04 b9 75 bd cd af 2e 3d d3 48 ed bc ef fe 71 bd
       -0.059990898 0.042648125 -0.02896539 -0.059081014
000160 53 dd ca bb 0d a0 0c 3d 3d e4 98 3b 33 eb b2 3a
       -0.0061909347 0.034332324 0.00466588 0.0013650417
000170 c2 ba a5 3c 80 06 7a 3c bd e7 8a bc d5 2e 77 bc
       0.020230655 0.015260339 -0.016956205 -0.015086849
000180 4f 78 94 b9 d7 58 cf bc 3b df 3e 3d c1 f1 97 3c
       -0.00028318397 -0.025310917 0.046599608 0.018547894
000190 32 20 be bc 17 26 82 3d 57 2e 42 3d c2 91 3e 3d
       -0.023208711 0.06354921 0.047407474 0.046525724
0001a0 19 f1 5e bd 47 de 36 bb 21 e4 1b bd 25 f7 61 bd
       -0.054429147 -0.0027903484 -0.038059358 -0.055167336
0001b0 1f 75 10 bd 5c e2 ea bc cd d6 48 3d a1 62 38 3d
       -0.035267945 -0.02867239 0.049032975 0.045015935
0001c0 63 9a d2 bb 0d c3 51 b9 f9 18 52 3d 5e 50 8e 3d
       -0.0064270957 -0.00020004455 0.051293347 0.069489226
0001d0 ee 94 d1 bc 85 c0 09 bd b0 4d f8 bc 7b 80 16 3d
       -0.02558371 -0.033630867 -0.030310482 0.036743622
0001e0 fa 19 c0 bc 9f a0 6f 3d 88 35 05 3c a4 16 62 3d
       -0.023449887 0.05850279 0.008130439 0.055197373
0001f0 c5 fc 34 3d 2b ab b4 bc c7 05 65 3d a2 ad 99 3d
       0.044186372 -0.022054275 0.055913713 0.07503821
000200 a4 77 e0 3c 38 8a fd bc 05 10 55 bd 93 73 85 3d
       0.0274008 -0.030949697 -0.05201723 0.06516185
000210 48 0b 3f bd 9c 40 d9 bb 8d 7e 78 3d cd 89 79 3d
       -0.046641618 -0.0066300165 0.060667563 0.060922433
000220 e1 1d 07 3d 28 a5 52 3d ec 0b 67 bc 6e 76 94 3c
       0.03298748 0.051427037 -0.0141019635 0.018122878
000230 42 4a 0b 3d 33 20 d5 3c 7c f1 d3 bc e5 98 24 bc
       0.034006365 0.02601633 -0.025871985 -0.0100462185
000240 89 59 25 bc e7 85 cc 3c 5e b2 40 3d fd 37 93 b9
       -0.010092148 0.024966193 0.047045104 -0.0002807974
000250 d0 03 28 bd 89 32 6b bc c0 e8 15 bd f6 e4 b1 bc
       -0.04101926 -0.01435531 -0.03659892 -0.021715622
000260 67 20 cd 3c cd 67 27 bd 1a aa b1 3c 14 01 73 3d
       0.025039865 -0.040870477 0.021687556 0.0593272
000270 80 22 6e 3d 84 14 c9 3c 26 c4 2b bc bb c7 3b 3d
       0.05813837 0.024545915 -0.010483777 0.045844775
000280 56 61 1a 3b c4 ef c8 3c 53 28 c5 3b 1e c7 73 3b
       0.0023556552 0.024528392 0.00601677 0.003719754
000290 31 ef 56 bd e9 7f 18 3d 59 39 20 3d 5b 5b 5f 3d
       -0.052474204 0.03723136 0.03911719 0.054530483
0002a0 04 86 45 3d 6d e7 48 3d e8 87 ab 3c e3 16 aa bc
       0.04822351 0.04904883 0.020938829 -0.020762866
0002b0 cf 23 54 3c 91 5f 3c bb f6 38 0d 3d 20 28 4e bd
       0.012947991 -0.0028743485 0.03447815 -0.050331235
0002c0 e1 a9 fe bc 4f 2f ab bb 56 ac 05 3d 21 ce 4b 3d
       -0.031086864 -0.0052241455 0.032635055 0.049757127
0002d0 8e 0a 5b 3d 9b 06 59 3d 9c 91 61 bd 50 c1 86 bd
       0.053476863 0.052984815 -0.055070505 -0.0657984
0002e0 19 6c 39 3c eb 87 75 3d 48 e3 c9 3c 9b 4b 9c 3d
       0.011317276 0.059944075 0.024644509 0.07631608
0002f0 db 88 bd bb 39 19 4f bd f5 7c 05 3d be b9 98 3d
       -0.0057841367 -0.050561164 0.03258987 0.074573025
000300 8d 2b 8b bc e2 2a f2 bc be 98 bf bc f5 f9 31 3d
       -0.01698854 -0.029561464 -0.023388263 0.04345127
000310 b8 65 42 3d f9 e6 00 3d 93 d2 2d bd 9f 93 44 3d
       0.047460288 0.031470273 -0.042437147 0.047992345
000320 9a 50 82 3d d5 87 c8 bc 40 7f ca 3b 31 02 e2 3c
       0.0636303 -0.024478832 0.00617972 0.027588936
000330 c1 61 1c 3d 07 be 16 bc 87 ed ac 3c ba 99 92 3c
       0.038179163 -0.0092005795 0.021109356 0.017895568
000340 4d 55 1c bd bf c9 f7 bc b7 b9 07 bd 7a 57 95 3c
       -0.038167287 -0.030247567 -0.033136096 0.018230189
000350 2f 67 04 3c 72 4f 2b 3d 0b 77 dd bc 19 a9 26 3d
       0.0080812415 0.04182381 -0.027034303 0.040688608
000360 44 6b 18 3d 4a b8 41 bd 6b d4 8f 3d af b1 00 3d
       0.03721167 -0.047294892 0.070229374 0.031419452
000370 7a de e1 3c 8d f3 ed bc 9f f0 48 3d 96 82 cb b9
       0.027571905 -0.029046798 0.0490576 -0.0003881647
000380 78 42 88 3d 73 24 de 3b 8b 31 4f bd 59 50 d7 3c
       0.06653303 0.0067792474 -0.050584357 0.02628343
000390 20 4b 4e bc 12 f3 23 bc 2b 18 1c 3d 38 91 53 bd
       -0.012591153 -0.010006683 0.038108986 -0.051652163
0003a0 4b f3 b2 3c 9b 44 8b bc 83 59 8e 3c ce f4 83 3c
       0.021844527 -0.017000487 0.017376667 0.016107943
0003b0 5e 95 b9 bc 6d cc 5f bd e9 fc 38 3b 4c ad 15 3d
       -0.022654232 -0.054638315 0.0028226918 0.036542222
0003c0 34 e9 39 bd 8c cd ff 3c 4f e3 f9 3c b5 4e 3d bb
       -0.045388415 0.031225942 0.030503897 -0.0028886024
0003d0 74 ca 26 3d c9 71 cd bc ec 39 5c 3d c2 e2 56 3c
       0.040720418 -0.025078671 0.053766176 0.013115587
0003e0 c5 2e 35 bd 32 a0 ca 3c f4 68 4f bd ef 82 32 bc
       -0.044234056 0.02473459 -0.0506372 -0.010895475
0003f0 b6 d2 87 3c 88 b5 1a 3d ea d4 84 3d ca 8c 10 bc
       0.016579967 0.037770778 0.06485923 -0.008822629

model.4.bias f4 [256]
000000 9a fc 4f bc 36 64 09 3c 2c c8 34 bd 78 10 fa 3c
       -0.012694502 0.008385709 -0.04413621 0.030525431
000010 23 96 92 bb 32 be 24 3d 21 c9 f2 bc ef c6 5d bc
       -0.004473464 0.040220447 -0.029636921 -0.013536199
000020 c1 c5 fa 3c d6 3c 72 bc 8c 0a 3e bc f0 77 4f bd
       0.030611875 -0.014785012 -0.011599194 -0.05065149
000030 34 c0 75 3c 59 fb 78 bb 13 d1 42 bd 00 09 27 bd
       0.014999438 -0.0037991612 -0.04756267 -0.040780067
000040 31 ac bb 3c 0e cb 03 bc 4a 11 44 bb b7 84 2b bd
       0.022909256 -0.0080440175 -0.0029917532 -0.041874614
000050 85 46 3c bd 33 68 1c 3d 8d a5 b9 bc f4 4f 1b bd
       -0.04596569 0.03818531 -0.022661949 -0.037918046
000060 e7 44 13 3d 8f 9e 80 3d 28 ed 76 3c 08 ba c1 bc
       0.035954382 0.06280243 0.015071191 -0.023648277
000070 c7 d0 62 bb 95 b1 23 ba 8f 5c 46 bd fe 4c 04 bd
       -0.0034609304 -0.00062444183 -0.048428115 -0.032299988
000080 8e 69 4a 3d bc cd 29 3d cc 13 4a 3d b1 59 cb 3c
       0.04941707 0.04145597 0.049335286 0.024823042
000090 5b ca 7f 3d fa 4e 29 bd 0e 5b 47 3d d6 ce cf bc
       0.06244884 -0.041335084 0.04867082 -0.025367182
0000a0 fb 46 8f 3c 15 a6 16 bd a4 78 bc 3c ee f5 09 3d
       0.0174899 -0.036779482 0.023006745 0.033681802
0000b0 d5 70 7a 3d 0f 1f f6 bc ad 64 15 bd f3 92 07 3b
       0.06114276 -0.030044107 -0.036472965 0.0020686954
0000c0 b4 49 4e 3b 1d 4a 48 bc 3a c2 0e 3d 22 35 6d bc
       0.0031477036 -0.012224701 0.034853198 -0.014478
0000d0 7f bd be bb ea 65 38 3c 68 41 1b bd f0 b3 ad bb
       -0.0058209295 0.011254767 -0.037904173 -0.0053009912
0000e0 69 92 25 3d 43 81 03 3d 64 aa 50 3d f9 6f 97 3c
       0.04042283 0.032105695 0.050943747 0.01848601
0000f0 b5 a7 a2 3c 0e 77 01 bd f4 eb 83 3d 51 b7 21 ba
       0.01985536 -0.03160768 0.06441489 -0.0006168979
000100 c1 2b 52 3d 7e 33 c7 bb b6 66 98 bc 40 76 f0 3c
       0.05131126 -0.0060791364 -0.018603664 0.029353261
000110 a2 69 0a bd b8 b1 59 3d 40 6a 2a 3d ea ce f9 bc
       -0.033792146 0.053148 0.041605234 -0.030494172
000120 c3 91 9a bc 54 11 ad 3c e6 c8 00 bd 49 23 21 bd
       -0.018868333 0.021126427 -0.03144159 -0.03934029
000130 8f ee 2e bb fa 8f 17 3d 59 14 94 3c 90 7c 13 3d
       -0.0026692485 0.03700254 0.018076109 0.036007464
000140 b8 95 0d bd 26 25 b3 3b d7 5c 1a bd d5 29 05 3c
       -0.03456661 0.005467075 -0.037686195 0.008127649
000150 e0 9c 87 bb a1 06 22 3b ed d7 75 bd 56 e6 aa bc
       -0.004138574 0.002472319 -0.060020376 -0.020861786
000160 57 af d2 bb b6 57 80 3d 8e 95 43 bd cb ef 9e bc
       -0.0064295935 0.062667295 -0.04775005 -0.019401452
000170 8b 4d 5b 3d 15 d9 69 bc e4 b8 8e 3c 5b 6d 97 bb
       0.053540748 -0.014272948 0.017422147 -0.0046211905
000180 c2 85 bc 3c 28 7b d2 bb c0 4d 30 bb 89 dc 0d 3c
       0.023013 -0.006423373 -0.0026901811 0.008658537
000190 9e 46 6c 3c b5 60 9a 3c f7 85 18 3d 4c 13 64 bd
       0.014421133 0.018844942 0.037237134 -0.055682465
0001a0 d3 74 50 bd 5c 5d 83 3d 2f 4a 07 3d 82 24 8b bd
       -0.050892662 0.06414291 0.03302973 -0.06794073
0001b0 f0 0b 75 bd 6b 32 37 3c 7e 67 da bc 12 c5 33 bb
       -0.059825838 0.011181454 -0.026660677 -0.0027430695
0001c0 05 0f 17 3d 9a ad 2f 3d 28 00 21 3d 44 1d 2b bc
       0.036879558 0.04289017 0.03930679 -0.010443989
0001d0 2c ad 4b 3d 41 3f 38 3d 57 ec 37 3c 65 88 20 bd
       0.049725696 0.0449822 0.011225781 -0.039192576
0001e0 48 a0 46 bd 0d 37 50 bd fd e3 4a bd a8 f9 30 3d
       -0.0484927 -0.05083375 -0.049533833 0.04320684
0001f0 d3 2d 98 bc c0 30 59 3d 3e d3 c7 38 6c 8b 00 bd
       -0.018576538 0.053025007 9.5284064e-05 -0.031382963
000200 be 0e ff bc 7c af 54 bd 22 f1 02 bd f9 3f 2d 3d
       -0.03113496 -0.051925167 -0.031968243 0.042297337
000210 d5 03 f1 bc 0e 19 a2 bc 3d 0c 0c 3d 86 08 48 bd
       -0.029420773 -0.019787338 0.03419136 -0.048836254
000220 5d bb 89 3c bb 28 56 bd 1d fc 37 3c bd 29 0a 3d
       0.016812975 -0.052284937 0.011229542 0.03373121
000230 c8 11 90 3d 9d ee 55 3d d1 ca 1c 3d 94 ff 5b 3d
       0.070346415 0.052229512 0.03827936 0.053710535
000240 c5 f7 ed 3c 2a 71 87 3c 1c c9 62 3c 97 f1 31 3b
       0.02904881 0.016533453 0.0138418935 0.0027152055
000250 ef a7 e3 bc a5 14 d1 3c 04 d0 19 3b 7b 8f 99 3c
       -0.027790038 0.02552254 0.0023469934 0.018745175
000260 0b 9f 20 3d 77 d3 1d 3d 31 80 b9 bc bb ff 82 3c
       0.039214175 0.038531747 -0.022644134 0.015991082
000270 43 b7 92 bc bb ed 9e bc 13 09 0a bb 14 55 33 bd
       -0.017909652 -0.019400468 -0.0021062538 -0.04378231
000280 eb 1e 0b 3d 7d 11 f0 bc 39 95 3c bc c1 03 00 3d
       0.033965033 -0.029305214 -0.011510187 0.03125358
000290 07 25 4f 3c eb e3 08 bc 1d cc 8f 3b 26 83 1a 3d
       0.012643105 -0.008355121 0.004388346 0.03772273
0002a0 c8 81 38 3c c7 44 fe bc 7f 9f c9 bc 7b c9 66 3d
       0.011261411 -0.031038655 -0.024612186 0.05634449
0002b0 fb c7 93 bc ca df 3b bc 0a 0c f5 bc ec 4d 88 3b
       -0.018039694 -0.01146693 -0.029912967 0.0041596796
0002c0 d5 8e 39 3d 21 57 08 bd 23 83 07 3d a7 54 a6 39
       0.04530223 -0.033286218 0.033084046 0.00031725058
0002d0 ee e4 16 3d be 1e 31 3d f3 b3 0e 3c 27 a8 17 3c
       0.036839418 0.04324221 0.008709895 0.009256399
0002e0 b5 32 3c 3c e0 9b b8 3b a0 1e 0c bd a8 e5 ec bc
       0.011486699 0.005633816 -0.034208894 -0.028918102
0002f0 ee ec 27 bd ee 4e 1d bd 49 e9 5a bc 5d 61 98 3c
       -0.040997438 -0.03840535 -0.013361284 0.018601114
000300 13 f5 1f bb 2f 56 7a 3d 94 ae 87 3d f9 54 37 bd
       -0.002440755 0.061117347 0.06625095 -0.04475877
000310 c4 f4 df bc 57 bd 12 bd 2c cf 4d 3b 4c ec af 3c
       -0.027338393 -0.0358251 0.0031404002 0.02147498
000320 cc 67 2d bd 4e d1 81 3c c6 df cc bc 9e 26 d0 bc
       -0.042335317 0.015846875 -0.025009047 -0.02540904
000330 3a 57 f2 bb f0 b6 37 3b a9 3a 52 3d a0 59 68 3c
       -0.007395652 0.0028032623 0.051325474 0.0141815245
000340 08 c2 2f 3c b3 d4 51 3c 57 67 45 bd 55 fa 66 3d
       0.010727413 0.012807059 -0.048194256 0.05639108
000350 cf 88 09 bb 8d ba 9b bc 97 ba cc 3c 9c 2e 0f 3d
       -0.0020986085 -0.019009853 0.024991317 0.03495656
000360 1d b0 81 3d 02 9e 30 bd b6 3d 9f 3c fe e5 57 bc
       0.06332419 -0.043119438 0.019438606 -0.013177393
000370 ff 7c 54 3d d9 1d 93 3c e2 1c 54 3d 02 e5 fe 3c
       0.051877018 0.017958568 0.051785357 0.031115059
000380 db 21 8b 3c 6a 79 cd bb 52 97 64 3c bb bf 27 bd
       0.016983917 -0.006270577 0.013952093 -0.040954333
000390 36 2b 6f 3d 6a 73 6e bd ae a3 66 3d 97 b3 c6 bc
       0.05839082 -0.058215536 0.05630844 -0.024255557
0003a0 31 dd 20 3d e5 31 24 3d 1b 1c 47 bd b9 87 cc bb
       0.039273445 0.040086646 -0.048610788 -0.0062417653
0003b0 73 0d 1b 3d 13 64 1f bd c3 85 e9 bc 50 20 04 bd
       0.037854623 -0.038913798 -0.028506165 -0.032257378
0003c0 c2 46 3e bd d7 b2 c5 bc 47 8e f2 bc 7d 65 6b 3d
       -0.0464542 -0.024133129 -0.029608859 0.057469834
0003d0 fb 28 2a bd af a8 d4 bc cb f2 eb bc 47 ff 54 3c
       -0.04154299 -0.02595934 -0.028802296 0.013000316
0003e0 3e 3a f1 3c fd 45 3c 3d 0c 05 5e 3c 73 0a a8 3c
       0.029446717 0.045965184 0.013551008 0.020512795
0003f0 21 b3 48 3c cd e1 e1 bc 8d 95 5a 3d bf 08 6f 3d
       0.012249739 -0.02757349 0.05336528 0.05835795

model.6.weight f4 [256, 256]
000000 ed e5 fd bc 0d 9b e2 bc 3b ba 73 bd 6c 6a 40 3d
       -0.030993426 -0.027661825 -0.059503775 0.04697649
000010 61 55 12 bd 88 86 b8 3c c7 05 5d 3c 85 e3 40 3d
       -0.035725955 0.022525087 0.013490147 0.04709198
000020 60 ca 39 bd 4c 73 d7 bc 81 64 16 3d 91 f5 84 3c
       -0.045359015 -0.026300095 0.03671694 0.016230376
000030 d7 3a 21 3c 54 e1 d4 bc 1d 72 b9 3c ec af e6 3c
       0.009840689 -0.025986351 0.022637421 0.028160058
000040 0a 8f 27 3d f7 64 1f 3d 2b d7 29 bd 46 ed 41 3c
       0.040907897 0.038914647 -0.041464966 0.011836356
000050 c0 30 60 bd 76 20 22 bc 30 6f 43 bd 56 25 32 bd
       -0.05473399 -0.009895435 -0.04771346 -0.043492638
000060 7e 3c 5e 3d 26 00 42 3d 3f 34 11 bd 94 73 06 b9
       0.05425691 0.047363423 -0.035450216 -0.00012822292
000070 bc 16 57 3a 88 d4 d0 bc a4 1b 3d 3d 20 d9 ee bc
       0.0008204987 -0.025491968 0.04616894 -0.029156268
000080 d1 94 84 3c 47 a6 e0 3c d0 61 c5 bb 11 7a 45 3c
       0.016184242 0.027423037 -0.006023623 0.012053029
000090 e6 fe 07 bd 45 4c b4 3c 3e 17 24 bd c3 49 4e bd
       -0.033202074 0.022009024 -0.040061228 -0.050363313
0000a0 ef 6a d1 3c 3a ec 17 bd a0 1a fc 3c 9e ae 07 3d
       0.025563685 -0.037090518 0.030774415 0.033125512
0000b0 a3 73 82 3c f0 ed 8d bc 36 3c 0c bd 9a cd 2a 3b
       0.01592428 -0.017325372 -0.03423711 0.002606249
0000c0 aa 96 b6 3c c4 eb 36 bd c7 86 0d bd fe 2d ae bc
       0.02228864 -0.044658437 -0.03455236 -0.021262165
0000d0 07 f0 68 3c 84 a1 2c 3c 63 0d 85 3c 82 49 1a 3d
       0.014217383 0.010536555 0.016241735 0.03766776
0000e0 7e 8e ee 3b ae 45 46 bd 32 66 56 bd 47 62 4f bb
       0.00728017 -0.048406295 -0.052343555 -0.0031644271
0000f0 2f 13 26 bd dd c0 07 3d c5 4a 58 3d 3e ed f1 3c
       -0.04054564 0.033142913 0.05280568 0.029532071
000100 01 78 3b 3d bf 23 0e bd 79 c0 7d bc d6 27 22 3d
       0.04576874 -0.03470206 -0.015487784 0.03958877
000110 fb 9c f4 3c 57 7e e8 bc c7 bf 35 3d 02 24 6f bc
       0.02986001 -0.028380556 0.044372346 -0.014595987
000120 3b f6 33 3d 45 68 7b 3d ed 85 c6 3b 0b 15 37 bc
       0.043935996 0.061378736 0.0060584457 -0.011174451
000130 90 e8 7a 3d 77 ff 12 bd 65 1e 9f bc c1 ad c0 b9
       0.061256945 -0.03588816 -0.019423673 -0.0003675055
000140 c4 50 c2 3c a0 3e 35 3d 39 21 96 3d 41 ac 82 3d
       0.023720153 0.044249177 0.073305555 0.06380511
000150 f1 d4 42 3d 8b 97 74 3d c0 1d 38 3d 02 72 5c bd
       0.047566358 0.059714835 0.044950247 -0.053819664
000160 fe 67 db 3b fa 37 a3 3b a2 5f d0 3c df 97 16 bc
       0.0066957464 0.004981038 0.025436226 -0.009191482
000170 a6 16 80 bc 8d 97 47 bd 4b 72 79 3d e0 9d 69 bd
       -0.0156358 -0.048728514 0.060900014 -0.057035327
000180 0d e8 f6 3c db 3d 0c 3d bb 7c 11 bd 18 f3 6a 3d
       0.030139947 0.034238677 -0.035519343 0.05736074
000190 45 04 24 3d 76 11 21 3d dd fb 90 3b ac 7f 33 3d
       0.040043134 0.039323293 0.0044245557 0.04382293
0001a0 ca a0 12 bc 59 a5 be bc ac 1c fb bc b9 42 4a 3d
       -0.008949468 -0.023272203 -0.03065332 0.049380038
0001b0 c7 1f 23 3d 90 07 80 3c 2a aa 88 bd 68 6d 0f 3c
       0.039825227 0.015628606 -0.06673081 0.008754112
0001c0 5d c7 6f 3c 1b d7 78 bc 46 ba 90 3d f7 b8 28 bd
       0.014634934 -0.015188004 0.07066779 -0.04119202
0001d0 26 2b 48 3c a4 96 be 3c 42 21 4c bd 2b f6 7f bc
       0.012217319 0.02326519 -0.049836405 -0.015622656
0001e0 88 1e bb bb ab 8a 26 3d 30 f2 1c bc f2 76 fc bc
       -0.0057104267 0.040659588 -0.009579226 -0.030818436
0001f0 4d 67 2b bc 5d 67 a0 bc ee d1 a2 3c 3d f8 89 bc
       -0.010461641 -0.019580537 0.019875493 -0.016842002
000200 1c 11 59 3d cd a2 df bc 69 99 38 3d b9 f6 a9 3c
       0.052994832 -0.02729931 0.04506818 0.02074753
000210 20 71 37 3d ce 9e 0f 3d 6f 8f 43 3d 1a 8a 63 bb
       0.04478562 0.035063557 0.04774421 -0.0034719766
000220 ac 88 78 bd 6f 50 8d 3c e7 25 77 3a 04 57 f8 bc
       -0.060677215 0.017250268 0.000942795 -0.03031493
000230 cc ac 09 bc 48 31 7a 3d 11 42 19 bd fd 79 ce bc
       -0.008403014 0.061082155 -0.03741652 -0.025204653
000240 f6 1b 1c bd 7c 37 2f bc 62 9d 65 3d 97 75 51 3b
       -0.038112603 -0.010694381 0.056058295 0.0031960958
000250 fa a8 1e 3c 6b fd ff 3c 9c 70 b3 bc f3 c8 6a bc
       0.009683842 0.031248769 -0.021904282 -0.014330137
000260 ef 76 6d bd 0a 57 f8 bb 03 ea 55 bb 7a f0 30 3d
       -0.057974752 -0.0075787352 -0.0032640703 0.043198086
000270 cf d1 59 bd 0c 02 a2 3b 5f 51 9e bc f6 7e 8b bd
       -0.053178605 0.0049440917 -0.01932591 -0.06811325
000280 d7 be 27 3c 40 18 3a 3d bf c6 43 3d 34 aa 8a 3d
       0.010238371 0.045433283 0.04779696 0.06770745
000290 be 9b bf 3c 1a 64 04 bd 35 be 88 3c db fb c9 bb
       0.023389693 -0.032322027 0.01669226 -0.0061640567
0002a0 3f a1 05 3d 54 c8 4d 3d b9 47 7a 3d 04 1e ac bb
       0.03262448 0.050239876 0.061103556 -0.0052526016
0002b0 ac 11 43 3d 87 5b 17 bd ef 66 f1 3b 16 e2 51 3d
       0.047624275 -0.03695252 0.007367007 0.051241003
0002c0 44 d4 db bc 16 26 dc 3c c9 9a 83 bd b6 fe 89 3d
       -0.026834615 0.02687363 -0.06426007 0.067380354
0002d0 ab ce a3 39 52 aa 20 3d 01 13 d9 bc 0b 72 52 bc
       0.00031243762 0.03922493 -0.02649832 -0.012844573
0002e0 46 bf 7d 3d fa fa 4f bb 9b 36 d9 bc 6c b3 2a bd
       0.06194999 -0.0031735287 -0.026515296 -0.041675016
0002f0 36 5a bb 3c fc e9 2e 3d 2a 9d 42 bb 3a 6c 0a 3c
       0.022870164 0.042703614 -0.0029695728 0.008448655
000300 b3 95 5c bd 67 aa 03 3d cb 20 c9 bc 21 54 0f bd
       -0.0538537 0.03214493 -0.02455177 -0.03499234
000310 a8 d1 c0 bc bd a5 e8 3c 45 fe 38 3d 0d a5 84 3c
       -0.023537472 0.028399343 0.045164365 0.016191984
000320 e1 fa 3f 3d e6 3a 9e bc d4 0c a9 3c 29 3d 90 bd
       0.046870116 -0.019315194 0.020636 -0.070429154
000330 3c e1 1b bc 8f dd 35 3d c2 0f 10 bd bb ef 4f bd
       -0.009514149 0.044400748 -0.035171278 -0.050765734
000340 09 85 d0 bc f6 4a 40 bd 77 82 e1 bb 4e fd 60 3d
       -0.025454061 -0.04694649 -0.0068820077 0.05492907
000350 65 bf a4 bc c3 70 8f 3d ad 17 00 bc cb 54 f7 3a
       -0.020110795 0.070039295 -0.007818145 0.0018869875
000360 56 e3 48 3d 71 44 16 bd 1a 4b d0 3c 32 2c 09 3c
       0.04904493 -0.036686365 0.025426436 0.008372353
000370 3c d0 19 bd 4d 04 97 3c c1 8b 33 3d ef ac 36 bc
       -0.037552103 0.018434668 0.04383445 -0.011149629
000380 40 88 24 bd e3 9e 1b 3d 31 c1 2a bd 45 3d 8c 3d
       -0.040169 0.037993323 -0.041688148 0.06847624
000390 37 9e ef 3c a2 64 7b 3d f3 8a fd bc 57 ca 57 3d
       0.029250247 0.061375268 -0.030950045 0.0526832
0003a0 e8 23 8a 3c d8 c2 13 3d 00 e4 80 3d fe ed 46 3d
       0.016862825 0.03607449 0.062934875 0.04856681
0003b0 fc 46 76 3d 76 41 06 bd e5 55 c1 3c 7f 1c 38 3c
       0.06012629 -0.032777272 0.023600528 0.011237263
0003c0 49 8d dd 3b ab 3a 59 3d f2 86 8b 3c 96 20 fc bb
       0.0067612273 0.053034466 0.01703212 -0.0076943142
0003d0 f2 34 77 bd 72 25 60 3d 4b 8f 62 bd e3 92 5f bd
       -0.060353227 0.05472321 -0.055312436 -0.05458344
0003e0 77 5d 70 3d 2f d1 ab bc db 9d 42 bd 15 7e 5f 3d
       0.058682885 -0.02097377 -0.047513824 0.0545636
0003f0 92 8a 12 3d 4a 8f 5a 3d b7 17 81 bc f4 56 86 bc
       0.035776682 0.053359307 -0.015758378 -0.016398884
