exported_models/neural_networks/history_mlp/trained_models/model_hist_5_epoch_500_batch_64_lr_1e-05_vs_30_hl_256_256_256_256/mlp_dynamics.pth (torch, 823509 bytes, 10 tensors)

model.0.weight f4 [256, 25]
0	0xbdc91210	-0.09817898
1	0xbcf53b09	-0.029935377
2	0xbe25e72b	-0.16201465
3	0xbad0fccd	-0.0015944481
4	0x3e5e0d1d	0.2168469
5	0x3e6a1b15	0.22861893
6	0xbcfa592a	-0.030560095
7	0xbe156f29	-0.14593185
8	0x3df4d192	0.11954035
9	0xbe172380	-0.14759636
10	0x3c943468	0.018091395
11	0xbcaa38c9	-0.02077903
12	0xbbc5b1d9	-0.006033164
13	0xbbf9135f	-0.007601186
14	0x3de00729	0.10938866
15	0xbcca001c	-0.024658255
16	0x3db2437b	0.08704277
17	0xbdecd448	-0.11563927
18	0x3e1236fc	0.14278787
19	0x3e086d61	0.13322975
20	0x3e57e279	0.21082486
21	0xbd20d50f	-0.03926569
22	0x3e0f11d2	0.13971642
23	0x3d548a88	0.051889926
24	0xbe305c8a	-0.17222801
25	0x3dd257ef	0.10270678
26	0xbe04c7c7	-0.12966834
27	0x3e1ba6d4	0.15200359
28	0x3dac5244	0.084141284
29	0xbd7d7cf5	-0.061886746
30	0xbdf2a887	-0.1184855
31	0x3e02985b	0.12753431
32	0x3e0e907e	0.13922307
33	0xbdc43e00	-0.09582138
34	0x3caaeef4	0.020865895
35	0xbbda8d39	-0.006669667
36	0x3b8811e7	0.0041525248
37	0x3e11a62e	0.14223549
38	0xbd289acb	-0.041163247
39	0x3e3542f3	0.1770132
40	0x3e2ed029	0.17071594
41	0xbb1e73bf	-0.0024177877
42	0xbe7784f3	-0.2417181
43	0x3cb339e3	0.021878188
44	0xbdf4fb31	-0.119619735
45	0xbe115915	-0.14194138
46	0x3abc9c11	0.0014389773
47	0xbe3112c9	-0.17292322
48	0x3c1adc1e	0.009451894
49	0xbd15b9af	-0.036554035
50	0xbe3e0ea8	-0.18560278
51	0x3e2beeba	0.16790286
52	0xbe2fe8d9	-0.17178668
53	0x3b0d6515	0.0021575142
54	0x3cd7e158	0.02635257
55	0xba77d435	-0.00094539236
56	0xbd50ceeb	-0.050978582
57	0xbd8cd83c	-0.06877181
58	0x3e20afd8	0.15692079
59	0xbe2aa527	-0.16664563
60	0xbdd22f14	-0.10262886
61	0xbe2db61d	-0.16964002
62	0x3d2dadaf	0.042401966
63	0x3e062972	0.13101748
64	0xbd9430d2	-0.07235874
65	0x3db21a42	0.086964145
66	0x3e342e73	0.17595844
67	0x3cf55c28	0.02995117
68	0x3d18c882	0.037300594
69	0x3ddb0be5	0.10695628
70	0xbe4728bf	-0.19449137
71	0x3dbe8df4	0.09304419
72	0xbe67d460	-0.22639608
73	0x3e54fbce	0.20799181
74	0x3e4253fd	0.18977351
75	0xbe60f676	-0.21969017
76	0x3e37ee3e	0.17961976
77	0x3b458e10	0.003014449
78	0x3da31988	0.07963854
79	0xbde1a863	-0.11018445
80	0xbdc0700e	-0.09396373
81	0x3c7dffff	0.015502929
82	0x3d9d114b	0.07669314
83	0x3de22ff2	0.11044301
84	0x3d1548a0	0.036446214
85	0x3dd8817d	0.10571573
86	0xbde7f44f	-0.11325895
87	0xbe10bd7b	-0.14134781
88	0xbe4f473f	-0.20242022
89	0x3ce4b73e	0.027919408
90	0xbe005f64	-0.12536389
91	0x3d5842ae	0.052797966
92	0xbe3dde14	-0.18541747
93	0x3e4356b1	0.19076039
94	0xbdfd8f85	-0.1238089
95	0xbe3d74cc	-0.18501586
96	0x3c0336b3	0.008008647
97	0x3d51d59e	0.05122911
98	0x3e46ab1d	0.19401212
99	0x3c1d90b5	0.00961702
100	0x3e02740b	0.1273958
101	0xbd82d672	-0.063885584
102	0xbdb53bec	-0.0884932
103	0xbdd0306b	-0.10165485
104	0x3e25c25c	0.16187423
105	0xbcb59770	-0.022166938
106	0x3e0c8598	0.13722837
107	0x3e3b70bc	0.18304724
108	0x3dc3ee6e	0.09566961
109	0xbcb9d0bd	-0.022682542
110	0xbdd6045b	-0.104500495
111	0x3dcbc618	0.09949893
112	0x3ded4c50	0.11586821
113	0x3ab44161	0.0013752395
114	0xbe137f40	-0.14404011
115	0x3dbfeb7c	0.09371087
116	0xbe5823b8	-0.21107376
117	0xbdf9aacd	-0.12190781
118	0x3e07806e	0.13232586
119	0xbdd1eac9	-0.1024986
120	0x3dec205c	0.115296096
121	0x3dd5fa8b	0.10448178
122	0x3e2fb0e5	0.17157324
123	0x3d865cb9	0.06560654
124	0xbdf8fc3d	-0.12157486
125	0xbbae4dac	-0.005319318
126	0x3e3f415a	0.18677273
127	0x3d3c9d9a	0.046048738
128	0xbdcb9ad3	-0.0994164
129	0xbe04ff42	-0.12987998
130	0xbdf513b8	-0.11966652
131	0xbd5685b8	-0.052373618
132	0xbc493a7d	-0.012282011
133	0x3de54a77	0.11195844
134	0x3da3df58	0.08001584
135	0x3d228909	0.03968147
136	0xbd1682d1	-0.03674585
137	0x3e290dd6	0.16509184
138	0x3e395e6d	0.18102427
139	0xbe27b6c2	-0.1637831
140	0xbd5a5641	-0.053304914
141	0xbda02f4b	-0.078215204
142	0xbd54ca28	-0.051950604
143	0xbd0a3fe5	-0.03375234
144	0xbe2cb498	-0.16865766
145	0x3df0747a	0.11740966
146	0x3d5e24b1	0.05423421
147	0xbd7b3436	-0.06132909
148	0xbe199730	-0.1499908
149	0x3d4a9df5	0.049467046
150	0xbe26617e	-0.16248128
151	0xbdb14f94	-0.086577564
152	0xbe29eb27	-0.1659361
153	0xbdcf8e5a	-0.10134573
154	0x3dab00e4	0.08349779
155	0xbc92b3c7	-0.01790799
156	0x3e0c3287	0.1369115
157	0x3d2d0573	0.042241525
158	0x3e0f9d0a	0.1402475
159	0x3bb63a37	0.005561139
160	0xbdc2983f	-0.09501695
161	0x3e0f4e2a	0.13994661
162	0xbd9861bd	-0.07440517
163	0xbd0d86a4	-0.03455223
164	0x3cea81d0	0.028626353
165	0xbcc60a2e	-0.024174776
166	0xbd1f669f	-0.038916226
167	0x3d9ca9c2	0.07649566
168	0xbab6499d	-0.0013907437
169	0xbe0059d8	-0.12534273
170	0x3e059541	0.13045217
171	0x3d1c0bf7	0.038097348
172	0x3d9a87cd	0.07545433
173	0xbd091675	-0.033468682
174	0xbc442354	-0.0119713135
175	0xbc4af053	-0.012386399
176	0x3c9c9532	0.01911411
177	0x3e64c84e	0.22342035
178	0xbe2e36e3	-0.17013125
179	0xbde8b2b2	-0.113622084
180	0xbddbf61a	-0.107402995
181	0xbca32ded	-0.01991936
182	0xbdee5107	-0.116365485
183	0x3e157171	0.14594056
184	0x3de95606	0.11393361
185	0x3cec3108	0.028831974
186	0xbd74fead	-0.05981319
187	0x3def13f1	0.116737254
188	0x3b89ec58	0.0042090826
189	0xbd3ef6b3	-0.04662199
190	0xbe09b5ce	-0.13448259
191	0x3c007a79	0.0078417
192	0xbdcee392	-0.10101999
193	0x3d6c6711	0.05771548
194	0xbd00ff95	-0.031493742
195	0x3d61a83c	0.05509208
196	0xbdbea8e1	-0.09309555
197	0xbc6ccf22	-0.014453681
198	0xbdbcc70a	-0.09217651
199	0xbd94f121	-0.07272554
200	0x3d9ad0c7	0.07559352
201	0x3e277919	0.16354789
202	0xbdad6915	-0.084673084
203	0xbd84889e	-0.0647137
204	0xbdd7fcf2	-0.10546292
205	0xbe01e6d8	-0.12685716
206	0xbd0c48eb	-0.034249227
207	0x3e0ae5d7	0.1356424
208	0x3e0e3a5d	0.13889451
209	0xbe19bf2b	-0.15014331
210	0x3dfa403c	0.12219283
211	0x3d0e51bc	0.034745917
212	0xbc99244e	-0.01869407
213	0x3d273066	0.04081764
214	0xbdb84998	-0.08998412
215	0x3ccbf616	0.024897616
216	0xbd32c3eb	-0.043643873
217	0xbdb03566	-0.08603935
218	0xbe39dfa0	-0.18151712
219	0xbdc89e40	-0.09795809
220	0x3c7d14dc	0.015446868
221	0x3d7e7857	0.062126484
222	0xbc8bf8db	-0.017086437
223	0x3d243c08	0.040096313
224	0x3e823cfc	0.25437152
225	0xbe5561f2	-0.20838144
226	0xbca5bc6d	-0.02023145
227	0x3df841e0	0.1212194
228	0xbd6ea00f	-0.058258113
229	0x3d7aca20	0.061227918
230	0xbdf79639	-0.120891996
231	0x3d2eb5a6	0.042653702
232	0xbe136af7	-0.14396273
233	0x3dbfafe3	0.093597196
234	0xbdfaa464	-0.12238386
235	0xbdf4191e	-0.11918853
236	0x3e0c04e5	0.13673742
237	0xbe88c45d	-0.26712313
238	0xbe1d5bac	-0.15367001
239	0x3ce5e4a7	0.028063131
240	0xbe255fea	-0.1614987
241	0x3bc4aa70	0.006001763
242	0xbe6956c1	-0.22787
243	0x3e3b713c	0.18304914
244	0xbdce3cf0	-0.10070217
245	0xbe1dd0c7	-0.15411673
246	0xbe50293d	-0.20328231
247	0xbdb31f81	-0.08746243
248	0x3e0d485a	0.13797131
249	0xbe3f382f	-0.18673776
250	0x3dda15dd	0.10648701
251	0xbe40a38c	-0.18812388
252	0x3e093d57	0.13402306
253	0x3c6bca1a	0.0143914465
254	0x3e0f2f46	0.13982877
255	0x3de26aad	0.11055503

model.0.bias f4 [256]
0	0xbd808266	-0.062748715
1	0x3cf2ff0f	0.029662637
2	0xbc1c09db	-0.009523834
3	0xbe657035	-0.22406085
4	0xbdffe5fe	-0.124950394
5	0xbb66c14c	-0.0035210429
6	0xbbbae819	-0.0057039377
7	0xbd6e7569	-0.05821744
8	0xbc8f0797	-0.017459674
9	0xbe21c6f5	-0.15798552
10	0xbe1652bd	-0.1468
11	0x3d1eb65f	0.03874814
12	0xbe3bef6b	-0.1835305
13	0x3e5bc1fe	0.21460721
14	0x3cc1d19b	0.023659518
15	0xbe614fe8	-0.22003138
16	0x3e141657	0.14461647
17	0x3e78af69	0.24285664
18	0x3e220ee3	0.15825991
19	0x3e6a932d	0.22907706
20	0xbe1bf9d9	-0.15232028
21	0x3d9b9a04	0.075977355
22	0xbdc33cb5	-0.09533063
23	0xbe6090e4	-0.21930271
24	0xbd40b822	-0.047050603
25	0x3d134d9a	0.03596268
26	0xbdbedcae	-0.09319435
27	0xbd507928	-0.050896794
28	0x3dfb3173	0.12265291
29	0xbe3657e7	-0.1780697
30	0xbdf97c6a	-0.12181933
31	0x3e61157f	0.21980856
32	0x3bddac6f	0.0067649405
33	0x3e8abb0f	0.2709584
34	0x3e79f98f	0.24411605
35	0x3e562cfd	0.20915599
36	0xbe31097d	-0.17288776
37	0xbe34cae5	-0.17655523
38	0x3cdbdc90	0.02683857
39	0x3e2a8cfd	0.16655345
40	0xbb325a0e	-0.0027214321
41	0xbe79fb6e	-0.24412319
42	0x3d97aa41	0.0740552
43	0xbdb4c644	-0.08826879
44	0xbe096bf3	-0.13420086
45	0xbe483a79	-0.19553556
46	0xbd1de256	-0.03854593
47	0xbe517948	-0.20456421
48	0x3e24adbc	0.160819
49	0x3cb1a40d	0.02168467
50	0xbe18ea3e	-0.14933106
51	0xbd04b806	-0.03240206
52	0xbc4401e6	-0.011963343
53	0x3b94e60c	0.0045440253
54	0xbd173237	-0.036913123
55	0x3dd38b40	0.10329294
56	0xbdd0d6fc	-0.10197255
57	0x3e052c6f	0.13005231
58	0x3d6b9a87	0.057520416
59	0x3c264c10	0.010149971
60	0xbd85311a	-0.06503506
61	0xbe10b195	-0.14130242
62	0x3e63d3d6	0.22248778
63	0x3c9365dc	0.017992906
64	0xbd9b410f	-0.07580768
65	0x3e8a8cf6	0.2706067
66	0xbd5341fd	-0.051576603
67	0xbd1780d6	-0.036988102
68	0x3d3ace60	0.04560697
69	0xbd402e30	-0.046919048
70	0xbc2e2ce7	-0.010630823
71	0xbe09f0eb	-0.13470809
72	0x3deb25ec	0.114818424
73	0x3e307450	0.1723187
74	0xbe90db8d	-0.28292504
75	0xbdceff2f	-0.10107266
76	0x3ccf2394	0.02528552
77	0xbe0357fb	-0.1282653
78	0x3dfaaef9	0.12240405
79	0xbda87c1f	-0.08226799
80	0xbd139867	-0.036034014
81	0x3d17f9fb	0.037103634
82	0xbdf02f78	-0.11727804
83	0xbdb2006e	-0.08691488
84	0xbd1a6c2d	-0.03770082
85	0xbe862dc7	-0.262068
86	0xbd7abf8c	-0.06121783
87	0xbe0935ef	-0.1339948
88	0xbdfadae4	-0.12248781
89	0x3e33c212	0.175545
90	0xbd8971f9	-0.06711192
91	0xbda854b2	-0.08219279
92	0xbe3a0eae	-0.18169662
93	0x3e8e708d	0.27820244
94	0x3e40982b	0.18808047
95	0xbe6716d2	-0.22567299
96	0xbe29e8e9	-0.16592754
97	0xbd324423	-0.04352201
98	0x3d013c80	0.031551838
99	0x3e51e842	0.20498756
100	0xbe074063	-0.13208155
101	0xbc1a9a1f	-0.009436159
102	0xbcb78dd6	-0.0224065
103	0x3e663370	0.2248056
104	0xbe55c975	-0.20877631
105	0x3c4bbd4d	0.01243527
106	0x3bdba835	0.0067034015
107	0xbcce16c4	-0.02515734
108	0xbd82366e	-0.06358038
109	0x3b8e3103	0.0043393387
110	0x3e3f73a1	0.18696453
111	0x3e7499da	0.23886815
112	0x3b48156a	0.0030530342
113	0x3de82aad	0.11336265
114	0xbc5be3b1	-0.013420985
115	0xbcbfe33e	-0.023423787
116	0x3d42d68f	0.0475679
117	0xbe24deee	-0.16100666
118	0xbde8f667	-0.113751225
119	0x3deab97c	0.114611596
120	0xbea79ac9	-0.3273528
121	0xbe4cbfcb	-0.19995038
122	0xbc9dd8a2	-0.019268338
123	0x3e46c7c4	0.19412142
124	0xbd6b075e	-0.057380073
125	0xbe013d9a	-0.12621155
126	0xbd8d3c5f	-0.068962805
127	0x3cc163ec	0.023607217
128	0xbe3afb1a	-0.1825985
129	0xbc902322	-0.017594878
130	0xbda3b2b4	-0.07993069
131	0x3e079847	0.13241683
132	0xbe5aa4b7	-0.21351896
133	0xbdaaedb1	-0.08346117
134	0x3cebf71c	0.028804354
135	0xbdb9f4c2	-0.09079887
136	0xbcf36bec	-0.029714547
137	0x3cbb5b2c	0.022870623
138	0xbd953a32	-0.072864905
139	0x3cbc5bf2	0.022993062
140	0xbd50a845	-0.050941724
141	0x3cdc5674	0.026896693
142	0x3e901ca8	0.28146863
143	0xbc472f51	-0.012157277
144	0x3e0c3c85	0.13694961
145	0x3ce19196	0.027535241
146	0x3c171b7a	0.0092228595
147	0x3cddebf4	0.02709005
148	0x3d95e3b8	0.073188245
149	0x3e2be68c	0.16787165
150	0x3e7952c3	0.24347977
151	0xbd438c17	-0.047741022
152	0x3e80e9c0	0.25178337
153	0x3e0c4ecf	0.13701938
154	0x3dc7c113	0.09753623
155	0x3d677b25	0.056513924
156	0x3e334557	0.1750692
157	0x3cc4739b	0.023980906
158	0x3d3712af	0.044695552
159	0x3d89055f	0.066904776
160	0x3e2d7288	0.16938221
161	0xbd1859cc	-0.037195012
162	0x3e38ae93	0.18035345
163	0x3e1ed413	0.15510587
164	0x3b606f6c	0.00342461
165	0xbc21c596	-0.009873768
166	0xbe0d98cd	-0.1382782
167	0x3c731652	0.014836865
168	0x3d2d6d8d	0.042340804
169	0x3d8f3a35	0.06993524
170	0x3d925db3	0.07146778
171	0xbd095f73	-0.033538293
172	0xbaed826f	-0.0018120537
173	0xbc3c6617	-0.0114989495
174	0xbd00b4f7	-0.03142258
175	0x3e2f90ed	0.17145129
176	0x3e4ff008	0.20306408
177	0x3e46e058	0.19421518
178	0x3cc56187	0.024094356
179	0xbe0e8d4c	-0.13921088
180	0xbc64f6e1	-0.013974876
181	0x3db8632e	0.09003292
182	0xbe14aba8	-0.14518607
183	0x3e584eac	0.21123761
184	0x3d6ee397	0.058322515
185	0x3e353e2d	0.176995
186	0xbe294164	-0.16528851
187	0x3e637ed4	0.2221635
188	0x3e930fb3	0.28722915
189	0x3e113b97	0.14182888
190	0x3e06441e	0.13111922
191	0x3e77a4c7	0.24183951
192	0xbc9b5b65	-0.018964479
193	0xbdadcc1c	-0.084861964
194	0xbce29e4e	-0.027663376
195	0xbde8c915	-0.11366478
196	0x3e070c22	0.13188222
197	0xbdf6c375	-0.12048999
198	0xbd9bed41	-0.07613612
199	0xbdeb7b52	-0.11498131
200	0x3e1d3f52	0.15356186
201	0xbd8b01bc	-0.0678744
202	0x3dd51804	0.10404971
203	0xbcc7b3fe	-0.02437782
204	0xbd525c5f	-0.051357623
205	0xbe000f4d	-0.12505837
206	0xbe13a4f9	-0.14418401
207	0xbe5a9e79	-0.21349515
208	0x3e0d37b7	0.13790785
209	0xbc12e8c1	-0.008966626
210	0xbe2be741	-0.16787435
211	0x3d4710a7	0.048599865
212	0x3e014a3a	0.12625971
213	0xbe02f5c0	-0.12789059
214	0x3e8b746d	0.27237263
215	0x3e203845	0.15646465
216	0xbdeee1cd	-0.11664162
217	0x3b6083ca	0.003425824
218	0x3e1e6715	0.1546901
219	0x3d1409d2	0.036142178
220	0xbccf10ef	-0.02527663
221	0xbd54c9a7	-0.051950123
222	0xbdadabcb	-0.084800325
223	0xbdb7d627	-0.08976393
224	0xbd98bbad	-0.07457671
225	0x3e45c705	0.19314201
226	0xbce7ad7a	-0.028280962
227	0xbd05ac37	-0.03263494
228	0x3df6c5fc	0.12049481
229	0xbda70eb7	-0.081571035
230	0x3e8f07e8	0.2793572
231	0x3e1e6cd3	0.154712
232	0xbe2706e6	-0.16311225
233	0xbe37bc5f	-0.17942952
234	0xbe0ade86	-0.13561448
235	0xbd8ee423	-0.069771074
236	0xbda098a2	-0.078416124
237	0x3deb52c5	0.114903964
238	0xbbeae004	-0.007167818
239	0x3ec5fea6	0.38670844
240	0x3e7eda2e	0.24887916
241	0xbd7cb74c	-0.061698243
242	0x3e738bdf	0.23783825
243	0xbba0a77f	-0.0049027796
244	0x3e8a709f	0.27039048
245	0xbe4f8527	-0.20265637
246	0x3e555997	0.20834957
247	0x3e404893	0.18777685
248	0xbd19d6d9	-0.03755841
249	0xbdab3ebb	-0.08361574
250	0x3c4861d8	0.012230359
251	0x3d13279d	0.03592645
252	0x3cd3d1a6	0.025856804
253	0x3cd6b92b	0.026211342
254	0x3dbc8643	0.09205296
255	0x3df9ebe4	0.12203196

model.2.weight f4 [256, 256]
0	0xbc47e871	-0.012201414
1	0x3b928b58	0.0044721775
2	0xbc2331e8	-0.009960629
3	0x3d824943	0.0636163
4	0x3d09ad81	0.03361273
5	0xbda6c667	-0.08143311
6	0x3d8a1d2f	0.067438476
7	0x3dd6c548	0.10486847
8	0xbaf75642	-0.0018870311
9	0x3d0b6666	0.0340332
10	0x3d9f182b	0.077682815
11	0xbd84f6c7	-0.064923815
12	0xbd065801	-0.03279877
13	0x3d85a2b0	0.06525171
14	0xbdbbf4cc	-0.09177551
15	0xba7e8258	-0.0009708754
16	0xbd32f466	-0.043690108
17	0xbd013011	-0.03153998
18	0x3d960038	0.073242605
19	0x3d6bc681	0.057562355
20	0xbd1ded45	-0.038556356
21	0x3c16d74d	0.009206605
22	0xbd7612e4	-0.06007661
23	0x3c9da201	0.019242289
24	0x3e423517	0.18965565
25	0x3d47ef66	0.048812293
26	0x3c568288	0.0130926445
27	0xbd3f37da	-0.046684124
28	0xbcf72abc	-0.030171745
29	0xbc72691f	-0.014795571
30	0xbdc34ecc	-0.09536514
31	0xbd848372	-0.06470384
32	0xbda36a7e	-0.07979296
33	0xbda1768b	-0.078839384
34	0x3d1019ac	0.035180733
35	0x3d897bc6	0.06713061
36	0xbc91baab	-0.017789206
37	0xbd0bdd10	-0.03414637
38	0xbca61409	-0.020273225
39	0x3862c671	5.4067412e-05
40	0x3d4850c1	0.048905138
41	0xbb028024	-0.0019912804
42	0xbd83c45c	-0.06433937
43	0x3c563000	0.0130729675
44	0xbc4a3159	-0.012340867
45	0xbdbb154f	-0.09134924
46	0xbd075e58	-0.033048958
47	0xbbaeba55	-0.005332271
48	0xbde4f3d0	-0.11179316
49	0x3e059689	0.13045706
50	0x3be3b172	0.0069486434
51	0xbce55a05	-0.027997026
52	0x3e201816	0.15634188
53	0xbd6078de	-0.054802768
54	0xbbd932d5	-0.006628374
55	0xbd685b4c	-0.056727692
56	0xbddcc299	-0.10779304
57	0x3d85bb8c	0.06529912
58	0xbd1e2925	-0.038613457
59	0x3d4f81b8	0.05066082
60	0xbcd28e27	-0.02570255
61	0x3d2ce401	0.04220963
62	0xbd137798	-0.036002725
63	0xbd3b65f4	-0.045751527
64	0xbdc0e603	-0.09418871
65	0x3d7a7e44	0.061155573
66	0x3c9341fc	0.0179758
67	0xbc8aad98	-0.01692848
68	0xbc85275b	-0.016254118
69	0x3c74cd56	0.014941534
70	0x3df62432	0.120186225
71	0x3d1d23c3	0.038364183
72	0x3da890d0	0.08230746
73	0x3ce101be	0.027466651
74	0xbd526551	-0.051366154
75	0xbde158f4	-0.110032946
76	0xbd1a3a9a	-0.037653543
77	0x3babc964	0.0052425135
78	0x3d0cfc71	0.034420434
79	0x3c4471f8	0.011990063
80	0x3d882e60	0.0664947
81	0x3d4527dc	0.048133716
82	0x3ad1e372	0.0016013219
83	0x3c2d060c	0.010560524
84	0x3c50ef4e	0.012752367
85	0x3e015b4e	0.12632486
86	0x3dc78d96	0.09743802
87	0x3d7cbfa6	0.061706208
88	0x3c83386c	0.016018115
89	0x3da44cd8	0.08022469
90	0xbd85f87e	-0.06541537
91	0xbd0e9421	-0.034809235
92	0x3d4afe6d	0.049559046
93	0x3caf9a80	0.021435976
94	0x3d7feb42	0.06248022
95	0xbd1fc90e	-0.0390101
96	0x3ccc2c35	0.024923423
97	0x3d3f3822	0.04668439
98	0x3def8a77	0.11696332
99	0x3c408f9b	0.011752988
100	0xbd132106	-0.035920165
101	0x3bc6b0d9	0.0060635624
102	0xbd820482	-0.06348516
103	0x3b3e5c4c	0.0029046712
104	0x3db43b08	0.08800322
105	0xbd2f6459	-0.04282031
106	0x3c664bf5	0.0140561955
107	0xbe11de31	-0.14244916
108	0x3d1ca876	0.038246594
109	0xbc690de2	-0.014224501
110	0x3c1b3460	0.009472936
111	0xbbb68fe6	-0.0055713532
112	0x3de31a22	0.11088969
113	0xb9003375	-0.000122262
114	0x3bc706c4	0.0060738046
115	0xbddb1fe9	-0.10699446
116	0xbd1e1ac1	-0.038599733
117	0x3ddcb486	0.107766196
118	0xbd3cfab3	-0.046137523
119	0x3bd71c81	0.006564677
120	0xbc5152bc	-0.012776073
121	0x3d95f20e	0.07321559
122	0x3d50c8b7	0.050972667
123	0x3d1ecaf1	0.03876776
124	0xbd826a83	-0.06367972
125	0x3db7e74c	0.08979663
126	0xbd649659	-0.055807445
127	0x3e015f40	0.12633991
128	0x3d4ed556	0.05049642
129	0xbd8a5d16	-0.06756036
130	0x3d4c440a	0.049869575
131	0xbdbbd7b3	-0.09172001
132	0x3a97def8	0.0011586836
133	0xba443ca2	-0.00074858416
134	0xbd91ab26	-0.07112722
135	0x3d33a3f9	0.04385755
136	0x3c9644fa	0.018343437
137	0xbd28c8fd	-0.041207302
138	0x39d46fb7	0.00040519025
139	0x3d32f06a	0.043686308
140	0xbe00c6ce	-0.12575838
141	0x3db1a2a2	0.08673598
142	0x3d8b01a2	0.06787421
143	0xbc52fe2b	-0.012877981
144	0x3bc446a2	0.0059898654
145	0xbdc86e1d	-0.097866274
146	0x3de3fb6b	0.111319385
147	0x3d176354	0.03695996
148	0x3d4f8ac9	0.050669465
149	0x3c8c83e2	0.01715273
150	0x3c0f1710	0.008733526
151	0xbb30b876	-0.0026965416
152	0x3d4c1e03	0.04983331
153	0x3db699cf	0.089160554
154	0x3bc3e2b0	0.005977951
155	0xbd816278	-0.063176095
156	0x3bf8a1b3	0.0075876354
157	0x3bd65480	0.006540835
158	0xbca9e7c1	-0.020740392
159	0x393bcfb4	0.00017911085
160	0xbe0986d3	-0.13430338
161	0xbbe777ee	-0.0070638573
162	0x3cd78dc7	0.026312722
163	0xbd7412b8	-0.059588164
164	0xbd481892	-0.048851557
165	0xbd5a144a	-0.053242005
166	0x3d24ec6e	0.04026454
167	0xbbeed117	-0.007288109
168	0xbc3829ff	-0.011240481
169	0xbcc6d5fb	-0.024271956
170	0xbcb67e9e	-0.022277173
171	0xbd8c736c	-0.068579525
172	0x3d132f28	0.035933644
173	0xbcb617ca	-0.02222814
174	0x3d4dbcd0	0.050228894
175	0x3d09d17f	0.033647057
176	0xbd533c82	-0.051571377
177	0xbd1508b2	-0.036385246
178	0xbd8e9ec8	-0.06963879
179	0x3ccd7eed	0.025084937
180	0xbdc74620	-0.09730172
181	0xbc324886	-0.010881549
182	0x3e1b0bc6	0.1514121
183	0xbd1a34ca	-0.037648
184	0x3cde2bea	0.02712055
185	0xbc308b2c	-0.010775369
186	0xbd39b273	-0.045336198
187	0xbdc1e59a	-0.09467621
188	0x3d871bbb	0.06597086
189	0xbd86cee1	-0.06582428
190	0xbd02d862	-0.03194464
191	0x3c1f515b	0.0097239865
192	0xbdc44a8a	-0.0958453
193	0xbd266a04	-0.040628448
194	0xbbcd8280	-0.0062716603
195	0xbe31c1aa	-0.17359033
196	0xbd54d006	-0.0519562
197	0xbd10c055	-0.035339672
198	0x3cd9abd1	0.026571186
199	0xbda5bcc6	-0.08092646
200	0x3d0c0383	0.034183037
201	0xbd1e56c7	-0.038656976
202	0x3d074754	0.03302701
203	0xbe065143	-0.13116936
204	0xbd1bd12f	-0.03804129
205	0x3d0c851b	0.034306627
206	0xbb9d612e	-0.0048028445
207	0x3d93b658	0.07212514
208	0x3d4f1ad6	0.050562702
209	0xbe267ae2	-0.16257814
210	0x3ddc5066	0.10757522
211	0xbcf02ca9	-0.02931817
212	0xbd656980	-0.056008816
213	0xbe0c4570	-0.13698363
214	0xbcec09b7	-0.028813226
215	0x3cf302e2	0.02966446
216	0xbe3dc46b	-0.18531959
217	0xbd78f1c7	-0.06077745
218	0x3d8d5ea8	0.0690282
219	0x3c85f37d	0.016351456
220	0x3cfd9189	0.030953186
221	0xbd4c0476	-0.04980894
222	0x3ca8146c	0.02051755
223	0x3bbf1442	0.0058312723
224	0x3adcf0a6	0.0016856387
225	0xbd4d82d3	-0.05017359
226	0xbdd4f74b	-0.1039873
227	0x3d77e6f0	0.060522974
228	0x3c9381ba	0.018006194
229	0x3c0a2265	0.008431052
230	0xbbd7937a	-0.00657886
231	0x3d97260a	0.07380302
232	0x3d1ac349	0.037783895
233	0x3c77abea	0.015116671
234	0xbd796b59	-0.06089339
235	0xba5750b4	-0.0008213625
236	0xbb429c86	-0.0029695346
237	0xbd0182e0	-0.031618953
238	0x3e254c4a	0.16142383
239	0x3d73b53d	0.059499014
240	0xbd2e62ef	-0.04257482
241	0x3d5e9315	0.054339487
242	0x3b98da36	0.0046646846
243	0xbc4627e9	-0.012094476
244	0x3d0cd441	0.03438211
245	0xbe1e8949	-0.15482058
246	0x3d90d954	0.07072702
247	0x3dd123ae	0.102118835
248	0xbda3df74	-0.08001605
249	0xbd6acf69	-0.057326708
250	0x3d016dc6	0.03159883
251	0xbbca67c8	-0.0061769225
252	0x3c486b2b	0.012232582
253	0x3c933216	0.017968219
254	0xbd4932a7	-0.04912057
255	0x3cd8deb0	0.026473373

model.2.bias f4 [256]
0	0xbd197f8c	-0.037475154
1	0x3a191d46	0.0005840849
2	0x3d974156	0.07385509
3	0x3c8a637d	0.016893143
4	0x3c671818	0.0141048655
5	0xbcb027d7	-0.021503372
6	0x3cb1706f	0.021660058
7	0xbcd4ff55	-0.026000658
8	0x3d250203	0.04028512
9	0xbb8602fe	-0.004089712
10	0xbd976dbb	-0.07393976
11	0x3d452883	0.048134338
12	0x3ce11a47	0.02747835
13	0x3d4937e7	0.04912558
14	0xbd80bcb1	-0.0628599
15	0x3b52e609	0.0032180569
16	0xbd7eae90	-0.062178195
17	0x3d81d942	0.06340267
18	0xbbe630a7	-0.007024843
19	0x3d3acccb	0.045605462
20	0x3d11096a	0.03540937
21	0x3d841aee	0.06450449
22	0xbc7cb2f4	-0.015423525
23	0xbd2619db	-0.040552
24	0xbcd393cb	-0.02582731
25	0x3d4d9ce5	0.050198454
26	0x3d796525	0.060887475
27	0x3d380431	0.044925872
28	0x3cd9b109	0.026573675
29	0xbbec5ed6	-0.0072134538
30	0xbce5bc1d	-0.028043801
31	0xbcbaeeb6	-0.022818904
32	0xbc1ee6e6	-0.009698605
33	0x3d1fe1c5	0.03903367
34	0x3da7b20c	0.081882566
35	0xbd653c9b	-0.055966
36	0x3cc48377	0.023988469
37	0xbd3f3a92	-0.046686716
38	0xbd1129f5	-0.035440404
39	0x3d04636a	0.03232137
40	0x3c463f54	0.01210006
41	0x3bbea133	0.0058175563
42	0x3e04a310	0.12952828
43	0x3d17f92e	0.03710287
44	0xbd1498d0	-0.036278546
45	0xbc963002	-0.018333439
46	0xbd415b6c	-0.047206327
47	0x3d3ad2fd	0.04561137
48	0x3d23f41b	0.04002772
49	0xbe09f52b	-0.1347243
50	0x3dc11acd	0.0942894
51	0x3d254d21	0.04035676
52	0xbcabbee1	-0.020965042
53	0x3df05253	0.11734452
54	0xbd0e2090	-0.034699023
55	0xbc2453f7	-0.010029784
56	0x3df094e1	0.117471464
57	0x3d07719a	0.033067323
58	0xbc88723a	-0.01665603
59	0xbca09418	-0.019601867
60	0xbd14f1f2	-0.03636355
61	0x3d3bfb91	0.04589421
62	0x3d222c85	0.03959324
63	0x393dc10b	0.00018096359
64	0xbda4c0f4	-0.080446154
65	0xbd14c6c3	-0.036322366
66	0x3db098b5	0.086228766
67	0x3d944a4f	0.07240736
68	0x3d3cd2c5	0.046099443
69	0x3d878959	0.06617994
70	0x3cd42a16	0.025898974
71	0xbdebfa2a	-0.115223244
72	0xbce263a9	-0.027635412
73	0x389d0528	7.487304e-05
74	0xbc82cc75	-0.015966633
75	0x3cfc33a2	0.03078634
76	0xbd8939e4	-0.06700495
77	0xbdb5cc2c	-0.08876833
78	0x3d19ca90	0.037546694
79	0x3da208b3	0.079118155
80	0x3d93d01c	0.07217428
81	0xbd3760f3	-0.044770192
82	0x3b835082	0.0040074
83	0xbd391f37	-0.045195784
84	0x3d3c68c9	0.04599837
85	0x3d235bea	0.039882578
86	0x3c18639b	0.009301092
87	0xbde4c19f	-0.11169743
88	0x3d309d29	0.04311863
89	0x3cfb46b6	0.030673366
90	0xbcea577b	-0.028606167
91	0x3c4981c1	0.012299002
92	0xbd6d8386	-0.05798676
93	0x3cdd0313	0.026979005
94	0x3d2ed936	0.042687617
95	0xbd802a07	-0.06258016
96	0x3e33f594	0.1757415
97	0x3d263656	0.040579163
98	0x3d1883c5	0.03723504
99	0xbd37e2c3	-0.04489399
100	0x3dd21a12	0.10258879
101	0xbd27f7dd	-0.041007865
102	0xbc8bf95c	-0.017086677
103	0xbd489bbe	-0.048976652
104	0xbd977828	-0.07395965
105	0x3dae8b70	0.08522689
106	0x3c96609b	0.018356612
107	0xbcb2be4a	-0.021819253
108	0x3d6cf0dc	0.05784689
109	0x3d74c4da	0.059758045
110	0xbcc77d4e	-0.024351742
111	0x3d837811	0.06419385
112	0x3d8cd83d	0.06877182
113	0x3b88cb78	0.004174646
114	0xbb9224af	-0.0044599394
115	0x3c4887d0	0.0122394115
116	0x3c2c3401	0.010510446
117	0xbc1c485f	-0.009538739
118	0x3cb9d09c	0.02268248
119	0xbd05f389	-0.032702956
120	0xbd7d9e7f	-0.06191873
121	0x3cba9112	0.022774253
122	0xbc7c8a09	-0.0154137695
123	0xbd62c6bd	-0.055365313
124	0x3d1fa799	0.038978193
125	0xbb97c648	-0.0046317913
126	0x3c98b818	0.01864247
127	0x3d506ceb	0.050885122
128	0xbd5d7521	-0.05406678
129	0x3d1ed5d7	0.038778152
130	0xbc8bd104	-0.01706744
131	0xbd04fa0e	-0.032465033
132	0x3c803223	0.015648907
133	0x3d179261	0.037004832
134	0xbd75d704	-0.060019508
135	0x3d7e46f7	0.062079396
136	0x3ce9d28d	0.028542781
137	0x3da33dd6	0.07970779
138	0x3e056702	0.13027576
139	0x3b9e7aa0	0.0048363954
140	0x3d56ff04	0.052489296
141	0x3d0b470f	0.034003314
142	0xbd79ba51	-0.0609687
143	0x3c0a347f	0.008435368
144	0x3c89f71e	0.016841467
145	0x3d854ce2	0.06508805
146	0x3d8aa94a	0.067705706
147	0x3dd14201	0.10217667
148	0x3d9df609	0.07712943
149	0x3d6010cc	0.05470352
150	0xbce4fb5c	-0.027951889
151	0x3d8fd051	0.07022155
152	0xbdd60c07	-0.10451513
153	0x3d55329a	0.05205021
154	0x3d830750	0.06397879
155	0x3c976bce	0.018484022
156	0x3d81d8d5	0.063401856
157	0x3dbd23b1	0.09235323
158	0xbcd76e3a	-0.026297677
159	0x3dd44f14	0.103666455
160	0x3e0a25a1	0.13490917
161	0xbd445896	-0.047936045
162	0x3c801b57	0.015638037
163	0x3d3d12dd	0.046160568
164	0x3d98b309	0.07456023
165	0x3c7c114b	0.015384982
166	0x3ccb3528	0.02480562
167	0xbd0212e9	-0.031756315
168	0x3cfd1dcf	0.030898003
169	0x3d55a665	0.05216064
170	0xbd50bed5	-0.05096324
171	0xbd318f79	-0.043349717
172	0x3dbdfadb	0.092763625
173	0xbb49c8d2	-0.0030789864
174	0x3cc26f01	0.023734571
175	0x3d29be58	0.04144129
176	0x3de1b514	0.11020866
177	0xbbd0c1e9	-0.006370772
178	0xbc739b62	-0.014868589
179	0x3c3668b1	0.011133359
180	0x3dad905e	0.084748015
181	0x3caa20ac	0.020767532
182	0xbd55d2ed	-0.052203108
183	0x3c98ec23	0.018667286
184	0x399f1b85	0.00030347347
185	0x3c64a696	0.013955733
186	0xbd505bac	-0.050868675
187	0x3cfa35bb	0.030543199
188	0xbd0d6f49	-0.034529958
189	0xbcb8705a	-0.02251451
190	0xbcc35581	-0.023844482
191	0x3e22694b	0.15860479
192	0x3d5542f4	0.052065805
193	0xbd3bb0bf	-0.045822855
194	0x3d3ac150	0.045594513
195	0x3daada1c	0.08342382
196	0xbd001f15	-0.031279642
197	0xbd63d47a	-0.055622555
198	0xbd7f8c2a	-0.06238953
199	0xbd1aa3b1	-0.037753765
200	0xbd3b268f	-0.04569107
201	0x3d907c42	0.0705495
202	0x3e117f3f	0.14208697
203	0x3db5b573	0.08872499
204	0x3d2deb27	0.042460587
205	0xbcbd87ab	-0.02313598
206	0x3b12a387	0.0022375302
207	0xbcd38022	-0.025817934
208	0x3d2758e9	0.040856276
209	0x3ced5eca	0.028975863
210	0x3d94564d	0.07243023
211	0x3d13ac6c	0.036053106
212	0x3d61ced1	0.055128876
213	0x3ced0cf5	0.028936842
214	0x3c98059e	0.018557366
215	0xbdf3377f	-0.118758194
216	0x3c339008	0.010959633
217	0x3cc44287	0.023957504
218	0xbd4e6abd	-0.050394762
219	0x3cd76fed	0.026298488
220	0xbcce3f4d	-0.025176669
221	0x3b09585d	0.002095721
222	0xbd6b4ded	-0.057447363
223	0xbdc06fbd	-0.093963124
224	0x3c1b7784	0.009488944
225	0xbc428f48	-0.011874981
226	0xbdaee32e	-0.08539425
227	0x3d9ee868	0.07759172
228	0x3c822986	0.01588894
229	0x3d03f30e	0.032214217
230	0x3d265482	0.040607937
231	0x3dc174a6	0.09446077
232	0xbc805ad7	-0.015668316
233	0xbcd74c79	-0.026281582
234	0x3d25c291	0.040468756
235	0x3db9c0b7	0.090699606
236	0xbc9505b4	-0.018191196
237	0x3c5f2b06	0.013621097
238	0xbdb018f6	-0.08598511
239	0x3c8c7ce5	0.017149398
240	0xbce0d9ae	-0.027447548
241	0xbd4f50a8	-0.05061403
242	0x3bd4a00f	0.006488807
243	0xbd5b57cf	-0.053550538
244	0xbd123942	-0.035699137
245	0x3d7ba2d8	0.061434597
246	0x3da8b747	0.082380824
247	0x3c92a1d5	0.017899433
248	0x3d1372aa	0.035998024
249	0x3da75db4	0.08172169
250	0x3c4ee9ea	0.012629012
251	0x3d7db9a0	0.061944604
252	0xbba165ab	-0.00492545
253	0x3d06ea11	0.032938067
254	0x3d13541d	0.03596889
255	0xbcf12433	-0.029436206

model.4.weight f4 [256, 256]
0	0x3d156f02	0.03648282
1	0xbc89147b	-0.016733399
2	0xbd3f8819	-0.046760652
3	0xbc7df756	-0.015500864
4	0x3d2a07f4	0.04151149
5	0x3d525d5c	0.051358566
6	0x3d8bc802	0.06825258
7	0x3d087b17	0.033320513
8	0xbd459f46	-0.048247598
9	0x3c15baa0	0.009138733
10	0xbaa06ebf	-0.0012240036
11	0xbd040faa	-0.0322415
12	0x3cb2b55e	0.021814998
13	0xbd35b992	-0.044366427
14	0xbcb19900	-0.021679401
15	0xbe6a8bc6	-0.22904882
16	0xbcbd6511	-0.023119481
17	0xbd7751b5	-0.060380656
18	0x3bd10a30	0.0063793883
19	0x3d5150d1	0.051102463
20	0x3c80718d	0.015679145
21	0x3c2eacbf	0.010661303
22	0xbceb313e	-0.028710004
23	0x3bd2f1b1	0.0064375033
24	0xbb78ff26	-0.0037993877
25	0x3d7ad362	0.061236747
26	0x3d6eec43	0.058330785
27	0xba54f29f	-0.00081233116
28	0xbca8e01f	-0.020614682
29	0xbd1b0052	-0.037842102
30	0x3b11daae	0.0022255587
31	0xbd97e7cb	-0.07417258
32	0xbcb06019	-0.021530198
33	0xbd3fc5d7	-0.046819534
34	0x3da63045	0.081146754
35	0xbd254df6	-0.040357552
36	0x3c487b43	0.012236419
37	0x3d5e755d	0.054311145
38	0x3ca08683	0.01959539
39	0xbd3fabd9	-0.046794746
40	0x3d1d2a9d	0.038370717
41	0x3dc20e70	0.0947541
42	0x3d3603a9	0.044437084
43	0x3cfc2728	0.03078039
44	0x3ab3c896	0.0013716395
45	0x3d20d06d	0.03926127
46	0xbcb9f27b	-0.022698632
47	0x3d20623c	0.039156184
48	0xbd3569b9	-0.044290278
49	0x3d954c23	0.072899126
50	0x3cb3102d	0.0218583
51	0x3b5dc8e9	0.0033841676
52	0xbd04cfc8	-0.03242472
53	0xbbab1aa0	-0.00522168
54	0xbcc9693e	-0.024586316
55	0xbd708e8b	-0.05872969
56	0x3d230653	0.039800953
57	0x3cfecfea	0.031105
58	0xbd51544d	-0.051105786
59	0xbcf06ed1	-0.029349716
60	0xbd2318cb	-0.039818566
61	0xbc5d35a8	-0.013501562
62	0xbd5092c0	-0.0509212
63	0xbb6a7b8e	-0.003577921
64	0x3d2e29ac	0.04252021
65	0xbd38da52	-0.04513008
66	0xbd678ebe	-0.056532614
67	0x3d678b6f	0.05652946
68	0xbaf6ed58	-0.0018839044
69	0xbc038032	-0.00802617
70	0xbc8c620d	-0.017136598
71	0xbd0abd61	-0.033872012
72	0x3c6a64d0	0.014306262
73	0x3d12188d	0.035667945
74	0x3cbba348	0.022905007
75	0x3c0759f8	0.008261196
76	0x3dc08052	0.09399475
77	0x3d065395	0.032794554
78	0xbcf8e431	-0.030382248
79	0xbc6bbb58	-0.014387928
80	0x3d22d36c	0.03975241
81	0xbd6f7cae	-0.058468513
82	0xbd3af0bd	-0.045639742
83	0x3d8324b8	0.06403488
84	0x3d0c51f3	0.03425784
85	0xbc8f3436	-0.01748095
86	0xbd82ef17	-0.06393259
87	0x3cc58a47	0.024113787
88	0xbcfe775f	-0.03106278
89	0xbd2c46dc	-0.042059764
90	0x3b994cde	0.0046783527
91	0x3b125f12	0.0022334498
92	0xbd46d76f	-0.048545297
93	0xbd7f49fa	-0.06232641
94	0xbd5f9102	-0.05458165
95	0x3c0b0a70	0.008486375
96	0xbd1f77be	-0.038932554
97	0x3d2f8266	0.042848967
98	0x3bf7dc5b	0.00756411
99	0x3d3255da	0.043538906
100	0x3cca563f	0.024699328
101	0x3d9ef20e	0.07761012
102	0xbbd25caf	-0.00641974
103	0xbc6bc695	-0.014390607
104	0xbb8da745	-0.0043229186
105	0xbd638fe5	-0.05555715
106	0xbc8c1365	-0.017099092
107	0xbd028def	-0.03187364
108	0x3d546643	0.051855337
109	0xbc805305	-0.015664587
110	0xbcf65364	-0.03006906
111	0x3d2cea17	0.042215433
112	0xbd398a95	-0.045298178
113	0xbd930c53	-0.07180085
114	0xbcb7a0da	-0.022415567
115	0xbd1165ce	-0.03549748
116	0xbd83211a	-0.06402798
117	0xbc14be5f	-0.009078591
118	0x3aa2d48e	0.0012422965
119	0x3d7338b2	0.05938024
120	0xbd606eaa	-0.054793037
121	0x3b9994aa	0.0046869116
122	0x3cc4ad8b	0.024008533
123	0xbba11310	-0.0049156025
124	0xbd604ac7	-0.054758813
125	0x3c1300c2	0.008972349
126	0x3b67f08a	0.0035391175
127	0xbabe749d	-0.0014530603
128	0x3d29e169	0.041474734
129	0x3bef9132	0.00731101
130	0x3d4bd52f	0.049763855
131	0x3d56b40a	0.052417792
132	0x3ce2d385	0.027688751
133	0xba09baae	-0.00052539527
134	0xbca0f96e	-0.019650187
135	0x3c37389d	0.011182931
136	0x3d06c6ef	0.03290456
137	0x3d696479	0.056980584
138	0xbb998bfa	-0.004685876
139	0xbc8d4426	-0.01724441
140	0x3d1daf12	0.03849704
141	0x3ce992ee	0.028512444
142	0x3d99a07e	0.075013146
143	0xbb9a1d66	-0.0047032116
144	0xbda6a0b5	-0.08136121
145	0xbc40000f	-0.011718764
146	0xbd9d3dae	-0.0767778
147	0x3d08ffae	0.03344696
148	0x3ced7fec	0.028991662
149	0xbd42518e	-0.047441058
150	0x3d1ccb02	0.03827954
151	0x3d001270	0.031267583
152	0x3d47b6f0	0.048758447
153	0x3d4678f1	0.048455182
154	0x3d33ee8f	0.04392868
155	0x3bb75178	0.0055944286
156	0xbd059f4f	-0.03262263
157	0xbd07a702	-0.033118255
158	0x3bebb11d	0.0071927444
159	0x3d009620	0.03139317
160	0xba81190c	-0.0009849383
161	0xbcd80ae1	-0.026372375
162	0xbc9bee85	-0.019034633
163	0xbb8ede43	-0.0043599918
164	0xbd98b5c0	-0.07456541
165	0x3d0060b3	0.03134222
166	0x3cfa1c4f	0.030531077
167	0x3d0641bb	0.03277753
168	0x3c396d80	0.011317611
169	0x3d4c2ca9	0.04984728
170	0xbb69dae0	-0.0035683438
171	0xbd2ea325	-0.042636055
172	0x3d2008e2	0.03907097
173	0xbcc0783e	-0.023494836
174	0xbaf8853b	-0.0018960604
175	0x3cd7835b	0.026307752
176	0xbd1493b6	-0.03627368
177	0xbd069198	-0.032853693
178	0xbcd010e7	-0.025398685
179	0x3bb51bb0	0.0055269822
180	0xbc550740	-0.013002217
181	0x3d60f99b	0.054925542
182	0x3c7a88ec	0.015291434
183	0x3d23b6a8	0.039969116
184	0x3d01c597	0.031682577
185	0x3bcf5fce	0.0063285595
186	0x3d729f9f	0.059234258
187	0x3d580721	0.052741174
188	0xbb0988cc	-0.0020986078
189	0xbcda6fba	-0.026664604
190	0x3c88b207	0.016686453
191	0xbd2f5fd4	-0.042816
192	0x3d17a558	0.03702292
193	0x3d5fba12	0.05462081
194	0x3cf0d3be	0.029397842
195	0xbd06e91e	-0.03293716
196	0x3d5b568e	0.05354934
197	0x3c165122	0.009174617
198	0x3bf27bc2	0.007400007
199	0xbd844c24	-0.06459835
200	0x3d41e71d	0.047339547
201	0x3c7a2c51	0.015269355
202	0x3d6e8b2c	0.058238193
203	0x3cd08dcc	0.025458239
204	0xbc7aff63	-0.015319678
205	0x3d497383	0.049182426
206	0xbcfe4195	-0.031037131
207	0xbca90865	-0.020633886
208	0x3d24c0e4	0.040223017
209	0xbd17abef	-0.037029203
210	0xbd2f1b22	-0.042750485
211	0x3d29e820	0.041481137
212	0xbd63d1ed	-0.055620123
213	0x3ae32b6a	0.0017331664
214	0xbd3ba557	-0.045811977
215	0x3de3a2bf	0.11115026
216	0xbd72a4e9	-0.0592393
217	0x3d2cb3d9	0.042163704
218	0xbd9526ff	-0.072828285
219	0xbcddbd12	-0.027067695
220	0xbc57b2c4	-0.01316518
221	0x3c2e2eca	0.010631273
222	0xbc980992	-0.018559251
223	0x3c552eee	0.013011677
224	0xbd2b1fcf	-0.041778382
225	0xba22e5bd	-0.0006214043
226	0xbca9bb02	-0.020719055
227	0x3d440e52	0.04786522
228	0x3dabac9a	0.083825305
229	0xbd12d60a	-0.035848655
230	0x3c5957ba	0.013265545
231	0x3d9fc5e9	0.0780142
232	0x3c27ba51	0.010237292
233	0x3d149843	0.03627802
234	0x3d3da2de	0.0462979
235	0xbcc5e704	-0.024158008
236	0xbbeb8cb4	-0.007188404
237	0xbd11bf77	-0.035582986
238	0x3d39a980	0.045327663
239	0x3cacee71	0.021109791
240	0xbc198135	-0.009369184
241	0x3d38cbde	0.045116298
242	0xbd344e0c	-0.044019744
243	0x3bf948fa	0.0076075764
244	0x3c8c3571	0.017115327
245	0xbcae3b05	-0.021268377
246	0x3d809f78	0.06280416
247	0xbcc4ad25	-0.024008343
248	0x3c8a537b	0.01688551
249	0xbd1c01f8	-0.038087815
250	0xbbdf1034	-0.0068073515
251	0x3ce99fd1	0.02851859
252	0x3c4f4929	0.01265172
253	0x3d02220f	0.031770762
254	0xbbf45e4d	-0.0074575306
255	0xbaeab222	-0.0017905871

model.4.bias f4 [256]
0	0x3d5c87ab	0.05384032
1	0x3d60755b	0.05479942
2	0xbcddd53a	-0.027079213
3	0xbd23c9db	-0.039987426
4	0xbd15ee16	-0.03660401
5	0x3c833281	0.016015293
6	0x3d0d445a	0.034489013
7	0x3d37b9a3	0.04485477
8	0xbc5c6412	-0.013451593
9	0x3d96dab6	0.073659346
10	0x3d9a364f	0.0752989
11	0x3cc2b2c2	0.023766879
12	0xbd62a9d8	-0.055337757
13	0xbcbd882c	-0.02313622
14	0x3c46b152	0.012127237
15	0x3c875f21	0.016524853
16	0x3d04b4a7	0.032398846
17	0xbd229d95	-0.039701063
18	0xbd572610	-0.052526534
19	0xbd3a1f75	-0.045440156
20	0xbb3546f6	-0.0027660704
21	0xbcee079e	-0.029056367
22	0x3be64c05	0.007028105
23	0xbd191767	-0.037375834
24	0x3d81c95c	0.063372344
25	0xbd55fc6a	-0.052242674
26	0xbd221f02	-0.039580353
27	0xbd5ebc0b	-0.05437855
28	0x3d900538	0.070322454
29	0x3be5e06d	0.007015279
30	0xbdadef87	-0.08492952
31	0xbd7ec55c	-0.062199935
32	0xbd33eb31	-0.043925468
33	0xbd2e58e2	-0.042565234
34	0x3d7142a6	0.05890145
35	0xbb634834	-0.0034680488
36	0xbd07a938	-0.033120364
37	0x3c4a2938	0.012338929
38	0x3d5cf5d3	0.053945374
39	0x3d242821	0.040077332
40	0xbd4378a8	-0.04772249
41	0x3df1fdf5	0.118160166
42	0xbd5e237e	-0.054233067
43	0xbb4994d0	-0.0030758865
44	0xbd09db52	-0.033656426
45	0x3d09b8cd	0.033623505
46	0x3dcb2025	0.099182405
47	0xbb278508	-0.002556147
48	0x3d43bd0e	0.04778772
49	0xbcdb03eb	-0.026735267
50	0x3c68d0b3	0.014209914
51	0xbd0c0af1	-0.034190122
52	0xbce8b40c	-0.028406166
53	0x3d221b7c	0.039576992
54	0xbc63e336	-0.013909152
55	0x3bbbaf94	0.0057277177
56	0xbd136f43	-0.03599478
57	0x3cfd528a	0.030923147
58	0x3c78b983	0.015180948
59	0xbaffc460	-0.001951348
60	0xbbf5ff69	-0.007507254
61	0x3d6f3abf	0.058405634
62	0xbd29fa04	-0.0414982
63	0xbd6f5dd4	-0.05843909
64	0x3d852f40	0.06503153
65	0xbd3ed546	-0.046590112
66	0xbc85e42f	-0.016344158
67	0x3d7c53be	0.0616033
68	0xbb8e9689	-0.0043514413
69	0x3d0f6a5a	0.035013534
70	0x3dcdae78	0.10043043
71	0xbd177534	-0.036977008
72	0xbd5f4e46	-0.054518007
73	0x3c060a4e	0.008181168
74	0xbd7e0740	-0.062018633
75	0x3cd62cfe	0.0261445
76	0xbcb8c57a	-0.022555102
77	0x3dcd9bac	0.10039458
78	0xbd3ecefc	-0.046584114
79	0x3d81c295	0.06335942
80	0xbd1e6bee	-0.03867715
81	0xbcf5c270	-0.029999942
82	0x3d3670a1	0.044541005
83	0xbd8ff8fc	-0.07029912
84	0x3db24871	0.08705223
85	0x3d5ca498	0.053867906
86	0x3c97d930	0.01853618
87	0xbd1d6d9d	-0.038434613
88	0xbd794cce	-0.060864262
89	0x3d284c93	0.041088652
90	0x3cf93ee5	0.030425498
91	0x3d35d707	0.04439452
92	0xbd248491	-0.040165488
93	0xbd335549	-0.043782506
94	0x3da5dc7e	0.08098696
95	0x3cc08678	0.02350162
96	0xbcc220c8	-0.023697272
97	0x3a95b944	0.0011423011
98	0x3c93eb62	0.018056575
99	0x3c145d14	0.009055395
100	0x3d348d5e	0.04408013
101	0x3b10189e	0.002198733
102	0x3d29840c	0.041385695
103	0x3cd602b4	0.026124336
104	0xbd1c76b1	-0.03819913
105	0xbc1a620f	-0.009422793
106	0xbbb33391	-0.0054687937
107	0x3cf222d5	0.029557625
108	0x3c064f0c	0.008197557
109	0x3c2b4a7c	0.01045477
110	0x3cb484cd	0.02203598
111	0x3cafe75b	0.021472624
112	0x3ca3b0e6	0.019981813
113	0xbd474bec	-0.04865639
114	0x3c2547e4	0.010087941
115	0x3ccb6f45	0.02483333
116	0xbc30717b	-0.010769243
117	0x3d52d131	0.05146903
118	0x3d08e0bc	0.03341745
119	0xbd2824a8	-0.041050583
120	0x3d197cfe	0.037472717
121	0xbc92d4de	-0.017923769
122	0x3d0653ff	0.03279495
123	0xbcbe4759	-0.02322738
124	0x3adfcabe	0.0017073972
125	0x3d40b6cc	0.04704933
126	0x3d39b824	0.045341626
127	0xbcbb5d2e	-0.02287158
128	0x3c3a2e08	0.011363514
129	0xbca87173	-0.02056191
130	0xbdb201cd	-0.0869175
131	0x3d867a7f	0.06566333
132	0xbced7b66	-0.028989505
133	0xbd2b732b	-0.04185788
134	0xbb76c84d	-0.003765601
135	0xbce12a7c	-0.027486078
136	0xbc5f8a42	-0.013643803
137	0xbb1c22fe	-0.0023824568
138	0xbd3b1df0	-0.045682847
139	0xbd0060c9	-0.0313423
140	0x3d08668c	0.03330092
141	0x3a23c38b	0.0006247095
142	0xbd1fa3f1	-0.038974706
143	0xbd23e690	-0.040014803
144	0x3e03f60b	0.12886827
145	0xbd48c875	-0.049019296
146	0x3c93eba0	0.01805669
147	0x3c4a79b2	0.012358116
148	0x3d0442c6	0.032290243
149	0x3d21cd30	0.039502323
150	0x3a85c697	0.0010206279
151	0x3d1d60cf	0.038422402
152	0x3d92be80	0.07165241
153	0xbd203997	-0.039117422
154	0x3d1f1853	0.038841557
155	0x3c24082c	0.010011714
156	0x3cb06ca8	0.021536186
157	0xbd377e47	-0.04479816
158	0xbd1ebeac	-0.038756058
159	0x3cfe4586	0.03103901
160	0x3cd3e09a	0.025863934
161	0xbc5e0e47	-0.013553209
162	0x3b957169	0.0045606387
163	0x3dd095f9	0.10184855
164	0x3c7e60d0	0.015526012
165	0xbd0ce81f	-0.034401055
166	0x3e08d6b4	0.13363153
167	0x3d629d34	0.0553257
168	0xbdb510ac	-0.088410705
169	0xbd134c32	-0.035961337
170	0x3cbf0d82	0.02332187
171	0x3b00e197	0.0019665712
172	0xbd1ac4ea	-0.037785448
173	0x3b465eca	0.00302689
174	0x3d6b91ca	0.057512082
175	0x3d220b9e	0.03956186
176	0x3d0a51d2	0.033769436
177	0xbd57c351	-0.052676503
178	0xbb4b9265	-0.00310626
179	0xbcd80d64	-0.026373573
180	0x3d52a32d	0.051425148
181	0xbba4418f	-0.005012698
182	0x3d4b0adb	0.0495709
183	0xbb8a9277	-0.0042288858
184	0x3d4eba14	0.050470427
185	0x3cca3e47	0.0246879
186	0x3b018a5c	0.0019766307
187	0x3d84049a	0.0644619
188	0xbd0f3081	-0.034958366
189	0x3c2a49ec	0.010393601
190	0x3bda60b7	0.0066643613
191	0xbd36d1b8	-0.044633597
192	0xbd092501	-0.033482555
193	0xbd034fea	-0.032058634
194	0x3c655896	0.013998171
195	0xbd8efd8f	-0.06981956
196	0xbcc3997d	-0.0238769
197	0xbcee7a38	-0.029111013
198	0x3d35c5c7	0.04437807
199	0xbd01671a	-0.031592466
200	0x3d332fdb	0.04374681
201	0xbd18cf73	-0.037307214
202	0x3d0b8f6d	0.03407233
203	0x3c74ea3d	0.014948425
204	0xbbd77448	-0.006575141
205	0x3d99c3b8	0.075080335
206	0x3d4ab3e2	0.049487956
207	0xbb0a1c0e	-0.002107385
208	0x3c94fdec	0.018187486
209	0x3cdbaaa6	0.02681477
210	0x3bb9e8c2	0.005673499
211	0x3db0c2cd	0.08630905
212	0xbd21e1a7	-0.03952184
213	0x3d89033d	0.06690071
214	0xbd2c3d58	-0.04205069
215	0x3d057a08	0.03258708
216	0xbd4b97bb	-0.04970525
217	0xbc05267c	-0.008126851
218	0xbd427f3f	-0.047484633
219	0x3d8a2831	0.06745947
220	0xbc82a8b6	-0.015949588
221	0xbd476874	-0.0486836
222	0xbbb89e2d	-0.0056340904
223	0x3dd6319b	0.1045868
224	0xbd27051d	-0.04077636
225	0x3da83134	0.0821251
226	0xbce57597	-0.028010173
227	0x3d9593e5	0.07303599
228	0x3d30b336	0.04313966
229	0xbcd066f1	-0.025439711
230	0x3d72053f	0.059087034
231	0x3bd0c15f	0.006370708
232	0x3d7d9bf9	0.061916325
233	0x3d767763	0.06017245
234	0x3c90fde9	0.017699199
235	0xbd31194d	-0.04323702
236	0x3dc098d1	0.094041474
237	0x3b8623d4	0.0040936265
238	0xb9228c78	-0.00015501853
239	0xbd6ccc9e	-0.057812326
240	0xbc5cff1e	-0.013488559
241	0x3d2a192f	0.041527923
242	0xbca29839	-0.019847976
243	0x3d4f15e0	0.05055797
244	0x3d81e3c1	0.06342269
245	0x3cac3e99	0.021025943
246	0x3d5d51b4	0.054032996
247	0x3c30e89c	0.010797646
248	0x3c6a5a8e	0.0143038165
249	0xbd7cf24d	-0.061754514
250	0x3ca2660e	0.019824054
251	0xbd9cba47	-0.07652717
252	0x3d94ce54	0.072659165
253	0xbd0330f0	-0.032029092
254	0xbce3cd9e	-0.027808007
255	0xbd4ac798	-0.049506754

model.6.weight f4 [256, 256]
0	0xbd0de4b1	-0.034641925
1	0x3cd9c581	0.026583435
2	0x3c4a37c1	0.012342394
3	0x3d372d31	0.044720832
4	0xbca001b5	-0.019532064
5	0x3c0f2590	0.008736983
6	0xbdb08c30	-0.08620489
7	0x3d6e27cf	0.058143433
8	0x3d951b3c	0.07280585
9	0xbc022625	-0.007943665
10	0xbe364654	-0.17800266
11	0x3dbc70bf	0.09201192
12	0xbcf8dbf5	-0.030378321
13	0x3df341c1	0.11877776
14	0x3d77e369	0.06051961
15	0x3c756071	0.014976607
16	0xbd04c22c	-0.03241174
17	0x3bfd8a21	0.0077374135
18	0x3c9ffb84	0.019529112
19	0x3d8dce60	0.069241285
20	0x3dd9f083	0.10641577
21	0x3dece9de	0.11568044
22	0x3d6657bc	0.056236014
23	0xbcb9a735	-0.022662738
24	0xbcaa7212	-0.020806346
25	0xbcbacc82	-0.022802595
26	0x3d340b98	0.04395637
27	0x3d86d090	0.06582749
28	0x3e03f16f	0.12885068
29	0x3c5db43c	0.013531741
30	0x3a71a62d	0.00092181825
31	0x3d9018cd	0.070359804
32	0x3cfed6eb	0.03110834
33	0xbc57e2a8	-0.013176598
34	0x398d38a3	0.00026935813
35	0xbdb08099	-0.08618278
36	0xbbb8f86c	-0.0056448486
37	0x3d921bc8	0.07134205
38	0xbe732c89	-0.23747458
39	0xbc2841b7	-0.010269574
40	0xbc0f570e	-0.008748783
41	0xbd307b34	-0.043086246
42	0x3cbb3b65	0.02285547
43	0xbd06bab7	-0.03289291
44	0x3dca562a	0.09879716
45	0xbb2a3731	-0.0025972838
46	0xbcb57620	-0.022151053
47	0x3dcfab6f	0.1014012
48	0x3d7733a7	0.060351994
49	0xbe88ecbc	-0.26743114
50	0x3d79aa91	0.06095368
51	0x3d5a6d3e	0.053326838
52	0x3da87bd7	0.082267456
53	0xbd4a465b	-0.049383502
54	0xbd64543f	-0.055744406
55	0xbd736225	-0.05941977
56	0x3c5024d9	0.012704098
57	0x3dd753c7	0.10514026
58	0xbd24a239	-0.04019377
59	0x3c92f6d1	0.017939957
60	0x3a5c59c0	0.0008405708
61	0x3cd60cb5	0.026129106
62	0xbcd49bc8	-0.025953189
63	0x3e2920d7	0.16516434
64	0xbbb54e5f	-0.005533024
65	0x3d9e3223	0.077244066
66	0xbd3ee234	-0.046602443
67	0x3e204beb	0.1565396
68	0xbc147d82	-0.0090631265
69	0xbd21d93b	-0.039513808
70	0xbe00ca41	-0.12577154
71	0x3cb1f59b	0.02172356
72	0x3d4cdbcc	0.050014302
73	0xbe0ef554	-0.13960773
74	0x3c86b1ff	0.016442297
75	0xbd621a55	-0.055200893
76	0x3ca48c68	0.020086482
77	0x3daf6acb	0.08565291
78	0xbd3cc2fb	-0.046084385
79	0x3dd3bb03	0.10338404
80	0x3d6ac0c0	0.057312727
81	0x3cbebd8b	0.02328374
82	0xbd4e13ad	-0.050311733
83	0xbc99d57f	-0.01877856
84	0x3c9d0b75	0.019170502
85	0xbd14e85b	-0.036354404
86	0xbc0aaaf4	-0.00846361
87	0x3e0a6f3f	0.13519
88	0x3ad56040	0.0016279295
89	0xbddb6855	-0.10713259
90	0xbc5065e7	-0.012719608
91	0xbc135931	-0.008993433
92	0xbcc06cc4	-0.023489363
93	0x3d974f29	0.073881455
94	0xbcb178d8	-0.021664068
95	0xbd6d61c0	-0.05795455
96	0xbcf326d5	-0.029681602
97	0xbd485e34	-0.048917964
98	0xbd8808cc	-0.06642303
99	0x3d8515f1	0.064983256
100	0xbdbfedae	-0.09371506
101	0xbca52818	-0.02016072
102	0x3d7b69f0	0.061380327
103	0xbab304de	-0.0013658067
104	0x3d2452f4	0.040118173
105	0x3d9f734f	0.07785665
106	0xbb633f21	-0.003467508
107	0x3c9a7cef	0.018858401
108	0x3d999ef5	0.07501022
109	0x3c05039d	0.008118537
110	0x3de4472c	0.111463875
111	0xbd304238	-0.0430319
112	0x3d62e098	0.05538997
113	0x3dcd7af5	0.10033218
114	0xbc9b619c	-0.018967442
115	0xbdae24a8	-0.085030854
116	0x3cb5aef8	0.022178158
117	0x3ca9c2f2	0.02072284
118	0x3d4eb0b8	0.0504615
119	0xbe20537f	-0.15656851
120	0x3d397063	0.045273196
121	0x3de91038	0.113800466
122	0xbd7eb6a0	-0.062185884
123	0x3c5fc48b	0.013657699
124	0xbccd5730	-0.025065988
125	0xbd0c490c	-0.03424935
126	0xbbb76afe	-0.0055974713
127	0x3e016092	0.12634495
128	0x3def1bc0	0.11675215
129	0x3db7fe6b	0.08984073
130	0x3e0a7afc	0.13523477
131	0x3bb0210e	0.005375034
132	0x3d06c566	0.032903098
133	0x3d80fbbe	0.06298016
134	0x3e17ddbe	0.14830682
135	0x3d08095e	0.03321206
136	0x3d837600	0.06418991
137	0x3dafbcf6	0.08580963
138	0x3b9e8509	0.0048376364
139	0xbc033af2	-0.008009659
140	0xbcb648f1	-0.022251578
141	0x3d877ca8	0.06615573
142	0x3dbfce63	0.09365537
143	0x3d96de4e	0.0736662
144	0x3dfe0748	0.124037325
145	0xbd1c024d	-0.03808813
146	0x3cd2bab8	0.0257238
147	0xbd101be2	-0.03518284
148	0x3d06cf2e	0.032912426
149	0x3d10e65c	0.035375938
150	0x3da68941	0.08131648
151	0xbcddfa07	-0.027096761
152	0xbc3644b6	-0.01112478
153	0x3db5f098	0.0888378
154	0xbcd53c3d	-0.0260297
155	0xbd0e08db	-0.034676414
156	0x3d3da6fb	0.046301823
157	0x3d6a2a95	0.057169516
158	0x3cebaca8	0.028768852
159	0xbb9dc6ee	-0.004814974
160	0x3d359d3e	0.04433941
161	0x3ca23b79	0.01980375
162	0xbd6fe568	-0.05856839
163	0xbe831183	-0.25599298
164	0x3d199238	0.03749296
165	0xbc67d848	-0.014150687
166	0x3d7375b1	0.05943841
167	0xbd675796	-0.056480013
168	0xbd073d29	-0.03301731
169	0xbdf65a4b	-0.12028941
170	0x3c71b142	0.014751734
171	0x3d3555d1	0.044271294
172	0xbc7e5cb7	-0.015525035
173	0x3e0e519a	0.13898316
174	0x3deb0152	0.11474861
175	0x3d7a8ad0	0.06116754
176	0x3e44368a	0.1916143
177	0x3d317989	0.043328796
178	0x3cdb3230	0.02675733
179	0xbcd39c4c	-0.025831364
180	0xbd402db5	-0.04691859
181	0xbd02b535	-0.031911094
182	0xbd0e0017	-0.034668054
183	0x3d6b3517	0.057423677
184	0x3c84ff9d	0.016235167
185	0x3d9d7f19	0.076902576
186	0x3d28a8db	0.041176658
187	0xbcc328a4	-0.02382309
188	0x3ca1d67e	0.019755598
189	0xbd74cfff	-0.059768673
190	0x3dc0b05f	0.0940864
191	0x3d8069f4	0.06270209
192	0x3d2bc7c6	0.041938566
193	0xbc98e365	-0.018663118
194	0x3c8b6f41	0.017020823
195	0x3dc1e651	0.094677575
196	0x3d8c8ce0	0.06862807
197	0x3d9ac718	0.07557505
198	0x3d05545e	0.032551162
199	0x3d0a7a2c	0.03380792
200	0x3dfd2f7e	0.12362574
201	0xbc1cc24a	-0.0095678065
202	0x3d83fcc8	0.064446986
203	0x3d74620d	0.05966382
204	0xbc445c1f	-0.011984854
205	0x3bfc2a96	0.0076955063
206	0x3b30b2fb	0.002696215
207	0x3d83fecb	0.06445082
208	0x3c339c81	0.010962606
209	0x3e0cfd1d	0.1376843
210	0xbdf98552	-0.12183632
211	0x3d5a6c20	0.053325772
212	0xbd58e7bc	-0.052955374
213	0x3d1c9243	0.038225424
214	0xbac553ee	-0.001505492
215	0xbd07bc42	-0.03313852
216	0xbc579d94	-0.013160128
217	0xbd1e6e83	-0.03867961
218	0xbcf707df	-0.03015512
219	0xbca69215	-0.02033333
220	0xbd08e8cb	-0.033425134
221	0xbd5f51f2	-0.05452151
222	0x3bb56f48	0.0055369474
223	0x3b3d9c46	0.0028932258
224	0xbd34a915	-0.04410656
225	0xbd93376e	-0.07188307
226	0xbcaa9c1d	-0.020826394
227	0xbd305444	-0.043049112
228	0x3d22bc1f	0.039730188
229	0x3d86c48d	0.06580458
230	0xbc197169	-0.009365418
231	0x3c9d0c07	0.019170774
232	0xbda8259f	-0.08210301
233	0x3cd69c8d	0.026197696
234	0xbca834df	-0.020533023
235	0x3d546e9c	0.051863298
236	0x3d9fa42e	0.07794987
237	0x3cbdd225	0.023171494
238	0x3c367da5	0.011138354
239	0xbc6220a4	-0.013801727
240	0x3de5e19d	0.11224673
241	0x3bab6a5b	0.0052311844
242	0x3d3097dc	0.043113574
243	0x3d3bd6ee	0.04585927
244	0x3da83c1e	0.082145914
245	0x3dfd3645	0.12363867
246	0x3d08a200	0.03335762
247	0x3d4c684f	0.049904164
248	0xbd96d3a3	-0.07364585
249	0x3d31e331	0.043429557
250	0xbe2570b3	-0.16156273
251	0x3b29f2c2	0.0025932048
252	0x3ce567d7	0.028003616
253	0x3d2f7497	0.042835798
254	0x3be5173f	0.0069912965
255	0x3d36d04f	0.044632252
