exported_models/neural_networks/history_mlp/trained_models/model_hist_3_epoch_100_batch_64_lr_1e-05_vs_30_hl_128_128_128_128/mlp_dynamics.pth (torch, 212181 bytes, 10 tensors)

model.0.weight f4 [128, 15]
-0.06470006 -0.26873755 -0.07549372 0.14060025 -0.03007884 0.058848362 -0.17684254 0.1601857
-0.2111926 -0.16009645 -0.21811381 0.1730584 0.016614402 0.12376732 0.18252695 0.038804073
0.26857594 -0.072839655 0.026093896 -0.20311408 -0.19669244 0.17900869 -0.056610867 0.13409455
0.02172029 0.2342388 -0.08031213 0.2865462 -0.0902819 0.15002255 -0.2150428 -0.050155386
0.22272661 0.005042496 -0.016111327 -0.009897383 -0.06944445 0.04370406 0.13030098 -0.22460322
-0.1130165 0.22668947 0.09647522 -0.1240223 0.18888812 -0.060276877 0.11701588 -0.0035021044
-0.12825926 0.06308597 -0.06995761 -0.044708926 -0.18849397 0.15902302 0.035012387 -0.16929896
0.034941085 -0.29349962 0.04797663 0.047148716 0.07707902 -0.12991929 -0.055835113 -0.028012885
-0.23718706 -0.11488691 -0.22081897 0.13549012 -0.09943278 -0.034744713 -0.12721077 0.036284268
-0.19703896 -0.12982365 0.20531622 -0.033228565 -0.003778338 0.26688305 0.003422771 0.11512245
0.20966785 0.14966317 0.25872698 0.10490798 -0.07605815 0.066423245 0.24551457 -0.20315078
-0.13490918 0.088966526 -0.17151196 -0.14436181 0.2363998 0.07049987 0.007969101 0.21820334
0.20304078 -0.058578484 0.045785457 0.21826945 -0.21439637 0.19706902 -0.20760027 -0.1209144
-0.13835624 0.12780972 0.025752874 0.22398902 0.13804714 -0.008501942 -0.04102303 0.06315069
0.27403456 -0.18562591 0.042817898 -0.1862053 0.105520986 -0.20879336 0.21696842 0.10091904
0.20048063 -0.02890732 0.15003672 -0.17545566 0.22387147 0.11869622 -0.236968 -0.09650526
0.1825559 -0.1342568 0.18510507 -0.13268183 -0.14684641 0.09156385 -0.15368882 -0.16334453
-0.22250818 -0.106009506 0.16596368 0.017078072 0.08024602 -0.14982352 -0.02316425 -0.0039925855
-0.03448926 -0.17039786 0.1299257 0.18827803 -0.05358018 0.01904389 0.13395217 0.19857405
-0.0653248 -0.12946968 0.014528719 0.11391825 0.09313938 0.014288691 -0.1755481 0.20584245
-0.22848204 -0.07192976 -0.25691703 -0.07491075 0.09375113 0.25594494 -0.034246497 -0.08527295
0.06830312 -0.21611412 0.18139172 -0.24764168 0.07574837 -0.1005536 -0.056424115 0.058493067
-0.16373315 -0.21675119 -0.17937541 -0.22399418 -0.2159605 0.27202877 -0.22000025 0.10248199
-0.23189536 -0.2724433 0.048051666 0.18271807 0.18586071 -0.10808639 0.20327093 0.19997478
-0.09933011 -0.078928225 0.047313053 -0.17669298 -0.11905634 -0.24793003 0.186093 0.08406637
-0.26477817 -0.012200271 0.11870195 0.028413175 0.21297783 0.005312637 0.038824115 -0.17444165
0.16012807 -0.15821627 -0.20591313 0.21819584 -0.24999973 0.03472683 0.13074754 -0.016751233
-0.12231346 0.063492574 0.22365262 -0.17546698 0.061148155 -0.21765272 0.18395585 0.037933834
0.09163831 -0.23866035 0.27179393 0.17643814 0.20897926 -0.07211669 -0.12373609 0.25983623
-0.09138419 -0.10350214 0.0036052119 0.22733077 0.014938799 0.012945101 -0.050169047 -0.028615385
0.1728257 0.17589134 -0.21564671 0.14361398 -0.2087894 -0.18995723 0.032027077 -0.18323432
0.064537704 -0.15562382 0.25026155 -0.028998956 -0.28105512 -0.17654334 -0.21920858 0.2570413
00000000: 7781 84bd f897 89be 749c 9abd 83f9 0f3e
00000010: e667 f6bc fb0a 713d 3616 35be b807 243e
00000020: df42 58be 53f0 23be 3a59 5fbe 3936 313e
00000030: ed1a 883c b879 fd3d 58e8 3a3e 05f1 1e3d
00000040: c982 893e f52c 95bd dec2 d53c 23fd 4fbe
00000050: be69 49be 0e4e 373e cce0 67bd 1550 093e
00000060: c0ee b13c 4cdc 6f3e b07a a4bd 2fb6 923e
00000070: b7e5 b8bd 839f 193e 2e34 5cbe bc6f 4dbd
00000080: 7212 643e 863b a53b e7fb 83bc a228 22bc
00000090: e438 8ebd 0703 333d 9f6d 053e 63fe 65be
000000a0: 3275 e7bd 4921 683e cd94 c53d 67ff fdbd
000000b0: e36b 413e e3e4 76bd 06a6 ef3d 9083 65bb
000000c0: 6556 03be 3833 813d ef45 8fbd b520 37bd
000000d0: 9004 41be eed6 223e 2669 0f3d b55c 2dbe
000000e0: 621e 0f3d 9545 96be 2583 443d 031f 413d
000000f0: 9bdb 9d3d 9009 05be 5cb3 64bd 477b e5bc
00000100: 2ae1 72be d449 ebbd 5e1e 62be ecbd 0a3e
00000110: 6aa3 cbbd 7950 0ebd 8a43 02be d09e 143d
00000120: 95c4 49be 7ef0 04be 6a3e 523e ad1a 08bd
00000130: fe9d 77bb e5a4 883e 9250 603b 52c5 eb3d
00000140: 2bb3 563e 4d41 193e dd77 843e ffd9 d63d
00000150: 60c4 9bbd e908 883d 2c68 7b3e c206 50be
00000160: a225 0abe 1534 b63d d5a0 2fbe 95d3 13be
00000170: ca12 723e 3c62 903d d590 023c b270 5f3e
00000180: ece9 4f3e feef 6fbd 8889 3b3d 0782 5f3e
00000190: b98a 5bbe 76cc 493e 2a95 54be f8a1 f7bd
000001a0: 42ad 0dbe 8de0 023e b1f7 d23c 615d 653e
000001b0: 3b5c 0d3e bb4b 0bbc c407 28bd 2655 813d
000001c0: 424e 8c3e b814 3ebe d261 2f3d 9aac 3ebe
000001d0: 631b d83d edcd 55be f82c 5e3e a4ae ce3d
000001e0: cb4a 4d3e 0bcf ecbc 3aa3 193e a6aa 33be
000001f0: 903e 653e 0117 f33d bda7 72be 8da4 c5bd
00000200: efef 3a3e 9d7a 09be 2f8c 3d3e bfdd 07be
00000210: e85e 16be d485 bb3d 9a60 1dbe ca43 27be
00000220: 2fd9 63be 831b d9bd 62f2 293e 50e7 8b3c
00000230: 0658 a43d 566b 19be f4c2 bdbc 3cd4 82bb
00000240: 9c44 0dbd c77c 2ebe 3e0b 053e f5cb 403e
00000250: e476 5bbd ef01 9c3c c22a 093e ff56 4b3e
00000260: 02c9 85bd b393 04be dd09 6e3c f94d e93d
00000270: dcbf be3d 1d1b 6a3c e2c2 33be 5dc8 523e
00000280: 32f7 69be e94f 93bd a18a 83be cf6a 99bd
00000290: 9800 c03d 370b 833e 0e46 0cbd 96a3 aebd
000002a0: 82e2 8b3d 054d 5dbe c0be 393e c895 7dbe
000002b0: f621 9b3d 0cef cdbd f91c 67bd 6d96 6f3d
000002c0: aaa9 27be 06f4 5dbe 30ae 37be bb5e 65be
000002d0: c024 5dbe 5b47 8b3e bf47 61be 14e2 d13d
000002e0: fa75 6dbe b07d 8bbe d3d1 443d 721a 3b3e
000002f0: 4552 3e3e 665c ddbd 4126 503e 30c6 4c3e
00000300: 966d cbbd 1fa5 a1bd 55cb 413d 01ef 34be
00000310: cfd3 f3bd 5fe1 7dbe 2a8f 3e3e fd2a ac3d
00000320: 0191 87be a5e3 47bc 021a f33d bfc2 e83c
00000330: dc16 5a3e a115 ae3b 0906 1f3d d5a0 32be
00000340: 9df8 233e 7203 22be e4da 52be bb6e 5f3e
00000350: eeff 7fbe b83d 0e3d afe2 053e e239 89bc
00000360: 7b7f fabd 6508 823d 3105 653e 9ead 33be
00000370: 7d76 7a3d 5be0 5ebe ec5e 3c3e 8260 1b3d
00000380: deac bb3d 6163 74be 9328 8b3e 33ac 343e
00000390: a9fe 553e eab1 93bd 5969 fdbd 4109 853e
000003a0: a227 bbbd eef8 d3bd 6b45 6c3b 66c9 683e
000003b0: ddc1 743c b017 543c 0f7e 4dbd d06a eabc
000003c0: 38f9 303e dc1c 343e 7ed2 5cbe 8b0f 133e
000003d0: e3cc 55be 2684 42be d32e 033d c7a1 3bbe
000003e0: 582c 843d da5b 1fbe 4822 803e 388f edbc
000003f0: 75e6 8fbe c7c7 34be 3778 60be eb9a 833e

model.0.bias f4 [128]
0.2247511 0.263171 -0.044215865 -0.17489554 -0.106025726 0.057971697 0.02229029 0.07826265
0.17403041 -0.084655985 0.06353647 0.2616688 0.106457196 -0.1357141 0.20325822 -0.029941946
-0.085764654 -0.20640534 0.16778322 -0.03511497 -0.23611553 -0.049186748 0.015740847 0.105536826
0.037374843 -0.10593004 -0.09939644 0.07464831 0.091295384 0.255359 -0.12879543 -0.10358533
-0.24293797 0.110805996 0.21685717 -0.21986203 0.25165185 -0.18412423 0.13268861 -0.16532665
0.0250807 0.055138517 -0.09762787 0.08561052 -0.18460584 -0.00092319015 -0.25242767 -0.02966582
-0.012696713 -0.16432028 0.07389509 0.032019764 0.20202175 -0.110351495 -0.10613236 -0.2597235
0.09848248 -0.20737477 -0.028378721 -0.12567252 0.162318 -0.26194558 0.021878302 -0.16542576
0.06985184 -0.09065558 -0.04997344 0.0070149996 -0.12325213 -0.10679605 -0.10784469 0.22230597
0.08954699 0.15773965 0.2613843 0.10014216 -0.1712877 -0.014167509 0.19199562 0.1492464
0.24137588 -0.10358083 0.19528727 -0.17821051 0.09092065 0.015081881 0.22890687 -0.2628832
-0.0030951789 0.13845082 -0.08548388 -0.23174472 0.07890805 -0.009401287 0.18508749 0.11756577
0.24735054 0.03255151 0.2483662 0.14814596 0.2276288 0.1650776 0.043600406 0.20667315
-0.06758916 -0.06301997 -0.21812221 -0.21666785 0.1801198 -0.0074566086 0.05365733 0.026513493
-0.22576556 0.18360654 0.2143 -0.047781322 -0.18107648 0.26624414 -0.0010491966 0.08771006
-0.1837282 -0.094038054 0.19460222 -0.02286584 -0.02032959 -0.14376886 0.15534404 0.045727003
00000000: 2725 663e 59be 863e b21b 35bd d117 33be
00000010: 0424 d9bd bb73 6d3d 209a b63c 2b48 a03d
00000020: 0735 323e 1e60 adbd 691f 823d 74f9 853e
00000030: 3b06 da3d a3f8 0abe ec22 503e d048 f5bc
00000040: 61a5 afbd ec5b 53be 5dcf 2b3e b7d4 0fbd
00000050: 45c8 71be 0b78 49bd f3f2 803c b123 d83d
00000060: 5d16 193d d9f1 d8bd 5c90 cbbd 37e1 983d
00000070: 13f9 ba3d 6abe 823e f3e2 03be 8c24 d4bd
00000080: bbc4 78be 41ee e23d ce0f 5e3e 8323 61be
00000090: 83d8 803e 108b 3cbe 86df 073e 644b 29be
000000a0: 0a76 cd3c edd8 613d 1ff1 c7bd 9154 af3d
000000b0: 5009 3dbe 3e02 72ba 333e 81be bc05 f3bc
000000c0: e005 50bc 9343 28be 4f56 973d 2827 033d
000000d0: cade 4e3e f7ff e1bd ec5b d9bd 7bfa 84be
000000e0: 2fb1 c93d 0d5a 54be 7e7a e8bc 4cb0 00be
000000f0: b136 263e bb1d 86be 203a b33c 5f65 29be
00000100: 7b0e 8f3d a2a9 b9bd f3b0 4cbd 15de e53b
00000110: 9d6b fcbd e3b7 dabd addd dcbd 2da4 633e
00000120: 6a64 b73d 8186 213e 2ad4 853e 5517 cd3d
00000130: 0b66 2fbe d71e 68bc 809a 443e 0cd4 183e
00000140: 3d2b 773e 3022 d4bd 63f9 473e d17c 36be
00000150: 9b34 ba3d fe19 773c 9066 6a3e a098 86be
00000160: 7cd8 4abb 0dc6 0d3e 2c12 afbd 7d4e 6dbe
00000170: 8b9a a13d db07 1abc 9387 3d3e 53c6 f03d
00000180: 7649 7d3e bb54 053d b653 7e3e 93b3 173e
00000190: 8617 693e 1a0a 293e 5796 323d 20a2 533e
000001a0: 2f6c 8abd 9d10 81bd 6e5b 5fbe 2dde 5dbe
000001b0: 5371 383e 9156 f4bb cac7 5b3d d332 d93c
000001c0: 162f 67be 5a03 3c3e 7671 5b3e 59b6 43bd
000001d0: 1d6c 39be 2751 883e 3285 89ba 55a1 b33d
000001e0: 3f23 3cbe 0697 c0bd ce45 473e 2451 bbbc
000001f0: 3e8a a6bc 2538 13be 8212 1f3e 3d4c 3b3d

model.2.weight f4 [128, 128]
0.042745877 0.045000892 -0.022074439 0.040691745 -0.026069788 -0.03847891 -0.030627536 0.09792217
0.09380954 0.032796364 -0.0011759005 -0.06855714 -0.07197858 -0.006020228 0.05160274 -0.05082985
0.093478955 0.005235422 -0.047142856 -0.016417349 0.0031634732 0.10481387 -0.006101574 0.06625987
0.06544388 -0.016871078 0.082031526 0.027392242 0.015886093 -0.008612392 -0.061385218 -0.01549007
0.058645803 0.024027178 0.004000714 -0.047360983 -0.029690895 -0.043575898 0.10410334 -0.07144622
-0.01826926 0.033340037 0.07673876 -0.06921845 -0.052214973 0.07279076 0.020560732 0.029841146
-0.027162353 -0.02449022 -0.019911472 0.023779757 0.04097398 -0.085030936 -0.04227162 0.040740624
-0.01587762 0.0112882275 0.00041219484 -0.022386586 0.06849212 0.06754952 -0.005130166 0.09151837
0.03239458 0.0066222283 -0.024851417 0.024906714 -0.019086394 -0.018702565 -0.045877483 -0.044446453
-0.06157781 -0.0580896 0.062103953 0.044029765 0.0009422543 -0.027124183 -0.0077790907 0.010598219
-0.043232504 0.094801776 -0.047671508 0.10595751 0.02655535 0.117723726 0.013603953 -0.0663308
-0.022615388 -0.02658314 -0.057988644 0.035511535 0.036290653 0.08387876 0.0005351036 -0.0010054541
-0.0019837231 0.07013693 -0.016796725 -0.022498973 -0.07361549 -0.029414091 0.023111606 0.0424514
0.022124777 -0.035972886 0.0035697646 0.057367675 -0.06955267 0.11209724 -0.00851707 0.0062382226
0.006983166 -0.048289753 -0.00496036 0.010991131 -0.052529957 0.08459676 -0.1104462 0.104087725
-0.14106674 0.10369692 -0.009690114 -0.01819187 -0.022615481 0.009678605 -0.034647677 -0.009909413
0.045024 0.067729935 0.10430546 0.02892972 -0.05884106 0.011717513 0.029359385 0.094709866
0.056418624 0.14269122 0.026827412 0.03459181 -0.015437641 -0.08079735 0.06526784 0.024848072
-0.011469884 -0.007919113 0.064661436 -0.070826694 -0.054464053 0.043726183 0.08492772 0.06712488
0.0964835 0.023931365 -0.05109187 -0.04367057 -0.0510994 -0.01908908 0.0929302 0.058522254
-0.031719133 0.051207688 -0.09444246 0.079533815 -0.036118902 0.012282436 0.14277169 0.028197967
-0.009860583 0.006197968 0.0654745 -0.036377825 0.01249455 0.103956416 -0.0063415 -0.03875718
-0.009076832 -0.05159124 0.036323905 0.08650249 -0.033731133 -0.12366754 0.079173274 0.08430351
0.07966371 0.08475676 0.01725229 0.079830095 0.053973705 0.09760173 0.037841678 0.058749992
0.02427266 -0.015865128 -0.0073951543 0.06735422 0.05841907 0.07820317 0.053129576 -0.06931714
-0.049190037 0.08056526 -0.05216289 0.01753143 -0.05807224 0.026234176 0.09837942 -0.04548527
0.05541795 0.010701323 0.07584503 0.060958505 -0.02950657 0.06688893 0.041267302 -0.050385054
-0.08632893 0.067591354 -0.0698795 0.035969604 -0.003744427 -0.017387282 0.0032381823 0.017288834
0.09034922 -0.019700047 -0.014130112 -0.009562346 0.062861994 0.06582521 -0.06839516 0.017576912
-0.01859089 0.012039542 -0.038134173 0.01488813 0.05032918 -0.045339625 0.035709146 0.016200881
0.11961162 0.056535624 0.040431507 -0.0462073 0.027555453 0.014948549 0.052442946 0.049811453
-0.12603073 -0.0747662 -0.03652617 0.09581341 0.07288381 -0.02798332 0.047283277 -0.075447686
00000000: 4d16 2f3d db52 383d 74d5 b4bc 63ac 263d
00000010: 4f90 d5bc 109c 1dbd 99e6 fabc 6b8b c83d
00000020: 371f c03d 7b55 063d ac20 9aba b067 8cbd
00000030: 8169 93bd 5545 c5bb 655d 533d f632 50bd
00000040: e571 bf3d e78d ab3b de18 41bd ad7d 86bc
00000050: 4652 4f3b a7a8 d63d b6ef c7bb 41b3 873d
00000060: 7107 863d 3735 8abc 2500 a83d b265 e03c
00000070: 8d23 823c fd1a 0dbc 116f 7bbd 10ca 7dbc
00000080: 9536 703d a5d4 c43c 6c18 833b 97fd 41bd
00000090: 523a f3bc a47c 32bd 2234 d53d 6552 92bd
000000a0: 6aa9 95bc 908f 083d 3629 9d3d 67c2 8dbd
000000b0: 5edf 55bd 5213 953d fb6e a83c 6b75 f43c
000000c0: 9583 debc b79f c8bc 621d a3bc c4cd c23c
000000d0: 55d4 273d b324 aebd 0225 2dbd a4df 263d
000000e0: c811 82bc 42f2 383c db1b d839 1364 b7bc
000000f0: 9945 8c3d 6757 8a3d f41a a8bb fc6d bb3d
00000100: 2eb0 043d 47ff d83b 3395 cbbc 2a09 cc3c
00000110: 125b 9cbc 1f36 99bc 07ea 3bbd 7c0d 36bd
00000120: 0439 7cbd 5cef 6dbd b760 7e3d 8e58 343d
00000130: 9e01 773a 8933 debc bee7 febb 27a4 2d3c
00000140: 9114 31bd 6f27 c23d 3343 43bd 4000 d93d
00000150: 9b8a d93c 2319 f13d 1de3 5e3c 71d8 87bd
00000160: e843 b9bc e3c4 d9bc 8085 6dbd 8b74 113d
00000170: 82a5 143d a1c8 ab3d 3246 0c3a 71c9 83ba
00000180: 5a01 02bb f3a3 8f3d 4999 89bc c44f b8bc
00000190: b8c3 96bd d2f5 f0bc 8d54 bd3c 85e1 2d3d
000001a0: 053f b53c 4e58 13bd b6f2 693b 5efa 6a3d
000001b0: a171 8ebd 3d93 e53d 2e8b 0bbc 016a cc3b
000001c0: 0bd3 e43b 7acb 45bd 848a a2bb 2514 343c
000001d0: a729 57bd 1141 ad3d 9e31 e2bd f22b d53d
000001e0: cd73 10be 0d5f d43d 49c3 1ebc 1e07 95bc
000001f0: 1a44 b9bc 0393 1e3c b9ea 0dbd 175b 22bc
00000200: 166b 383d feb5 8a3d 1a9e d53d 05fe ec3c
00000210: 5303 71bd d0fa 3f3c 1883 f03c 3ff7 c13d
00000220: 3717 673d a61d 123e 29c5 db3c 24b0 0d3d
00000230: 29ee 7cbc 1579 a5bd 25ab 853d 2f8e cb3c
00000240: 2eec 3bbc 2bbf 01bc 376d 843d 960d 91bd
00000250: b315 5fbd 3a1a 333d 96ee ad3d c578 893d
00000260: 2499 c53d b60b c43c b545 51bd e9df 32bd
00000270: 9b4d 51bd b460 9cbc 3052 be3d 08b5 6f3d
00000280: eceb 01bd 27bf 513d 0c6b c1bd a0e2 a23d
00000290: 6af1 13bd 453c 493c be32 123e 6cff e63c
000002a0: 488e 21bc 5318 cb3b 7f17 863d ea00 15bd
000002b0: f1b5 4c3c 1ae7 d43d 5ccc cfbb d9bf 1ebd
000002c0: feb6 14bc 5651 53bd 60c8 143d 3828 b13d
000002d0: a829 0abd 6845 fdbd 9925 a23d 52a7 ac3d
000002e0: ba26 a33d f494 ad3d ad54 8d3c f67d a33d
000002f0: 8813 5d3d 6ae3 c73d e0ff 1a3d d5a3 703d
00000300: 75d7 c63c 96f7 81bc 0d53 f2bb 02f1 893d
00000310: d648 6f3d fc28 a03d 669e 593d 25f6 8dbd
00000320: 7e7b 49bd 66ff a43d c1a8 55bd 139e 8f3c
00000330: 28dd 6dbd 0ee9 d63c 267b c93d c34e 3abd
00000340: effd 623d 9a54 2f3c a454 9b3d a0af 793d
00000350: c3b7 f1bc 10fd 883d e707 293d 8f60 4ebd
00000360: 39cd b0bd 566d 8a3d fc1c 8fbd dd54 133d
00000370: 1065 75bb c66f 8ebc af37 543b 50a1 8d3c
00000380: 0309 b93d fe61 a1bc fc81 67bc 63ab 1cbc
00000390: cabd 803d 5ecf 863d c312 8cbd 75fd 8f3c
000003a0: ec4b 98bc 8041 453c 9432 1cbd 58ed 733c
000003b0: f825 4e3d 0bb6 39bd c143 123d b6b7 843c
000003c0: f0f6 f43d e691 673d 829b 253d de43 3dbd
000003d0: f9bb e13c c2ea 743c 6ace 563d 1807 4c3d
000003e0: 330e 01be 051f 99bd 779c 15bd d239 c43d
000003f0: 1b44 953d 473d e5bc 1cac 413d 5184 9abd

model.2.bias f4 [128]
-0.060741194 0.04355506 0.06005277 0.107975386 0.032670032 0.072765686 0.063464046 -0.06260805
0.094337985 -0.113327965 0.05034226 0.011236058 0.061213356 -0.058785092 0.08171477 -0.0053384486
-0.08145659 -0.08918385 0.055407874 -0.085688286 -0.04484381 -0.04511188 -0.033380236 -0.06615545
0.03994966 -0.062340174 -0.08571888 0.057798363 -0.057577986 0.017712848 0.07425814 0.09250559
-0.015756648 -0.08143421 -0.055189025 0.037708044 -0.025875034 -0.07560954 -0.06711809 0.0016916061
0.032197397 -0.030594967 0.016413266 0.05264678 -0.041521154 0.004781695 0.06927593 -0.05405709
0.08517351 -0.039986935 0.07545299 -0.032247685 0.04879928 0.06335336 0.060866058 -0.008923039
0.007425384 0.043747466 -0.058462836 0.08094096 -0.019804232 0.083951406 0.03690614 0.06677333
0.021366088 0.046849094 0.031829298 0.0017066926 -0.038160376 0.06153156 0.09514138 -0.03453868
0.012581166 -0.08797156 -0.019513585 -0.049680572 0.0027629342 0.023510747 -0.06607811 -0.008196251
0.08811736 0.05222756 0.035822187 -0.048365097 0.028922012 -0.027685655 -0.08126021 -0.070272505
0.03164386 0.066693276 -0.08730199 -0.043116383 0.03452903 0.036001705 -0.009828492 0.01051554
-0.081142716 0.030963417 0.008252599 -0.07701634 -0.03218487 -0.042796224 -0.023051724 -0.0207983
0.097521186 0.040143114 0.010195468 0.055612218 0.028605381 0.0109245 -0.030693403 0.07380056
-0.039235048 -0.037287463 0.0039180894 0.048770092 0.052078463 0.086318254 0.08552658 0.07468529
0.05065286 -0.027816188 -0.0388051 -0.03548948 -0.10418112 -0.006665341 -0.06497001 0.10338668
00000000: c2cb 78bd ca66 323d e5f9 753d 3322 dd3d
00000010: 03d1 053d 2d06 953d 70f9 813d a638 80bd
00000020: 4634 c13d 7e18 e8bd b033 4e3d 7117 383c
00000030: dbba 7a3d a3c8 70bd 135a a73d 27ee aebb
00000040: b6d2 a6bd 06a6 b6bd 5ef3 623d 577d afbd
00000050: 25ae 37bd 3cc7 38bd b7b9 08bd 827c 87bd
00000060: 41a2 233d 6958 7fbd 618d afbd fabd 6c3d
00000070: e5d6 6bbd 891a 913c a714 983d 9273 bd3d
00000080: 1614 81bc fbc6 a6bd e30d 62bd c073 1a3d
00000090: e1f7 d3bc 2dd9 9abd 3675 89bd e2b8 dd3a
000000a0: 6be1 033d 4ca2 fabc 1d75 863c 26a4 573d
000000b0: 1612 2abd c4af 9c3b 8ae0 8d3d f86a 5dbd
000000c0: 736f ae3d 57c9 23bd 1987 9a3d 2616 04bd
000000d0: c1e1 473d 68bf 813d b04e 793d f031 12bc
000000e0: a350 f33b 8b30 333d ba76 6fbd 60c4 a53d
000000f0: 7c3c a2bc b7ee ab3d e52a 173d 75c0 883d
00000100: ef07 af3c d6e4 3f3d 705f 023d 1ab3 df3a
00000110: 0e4e 1cbd 8408 7c3d 7cd9 c23d 6e78 0dbd
00000120: 3c21 4e3c 6f2a b4bd f4da 9fbc db7d 4bbd
00000130: 5812 353b 9c99 c03c f653 87bd 9149 06bc
00000140: e076 b43d 91ec 553d 49ba 123d 7b1a 46bd
00000150: dbed ec3c 07cd e2bc c16b a6bd 08eb 8fbd
00000160: fe9c 013d 7c96 883d 63cb b2bd ce9a 30bd
00000170: 506e 0d3d 8676 133d af07 21bc 5f49 2c3c
00000180: 272e a6bd fea6 fd3c e935 073c beba 9dbd
00000190: 48d4 03bd 184b 2fbd f8d6 bcbc 3261 aabc
000001a0: 30b9 c73d 1b6d 243d e40a 273c a3c9 633d
000001b0: d555 ea3c adfc 323c bb70 fbbc bf24 973d
000001c0: eeb4 20bd bdba 18bd 5163 803b 26c3 473d
000001d0: 3a50 553d a0c7 b03d 8f28 af3d 9af4 983d
000001e0: 6079 4f3d c6de e3bc 19f2 1ebd 6b5d 11bd
000001f0: e95c d5bd ef68 dabb ff0e 85bd 65bc d33d

model.4.weight f4 [128, 128]
-0.005323059 -0.04208788 0.021566795 0.05643236 -0.0018878059 0.035334915 0.065138675 -0.041844044
0.076534495 0.048884597 -0.032977536 -0.0026420937 0.007837856 -0.057744663 -0.03025693 0.0028391557
0.03131474 -0.02461762 -0.06941879 0.040757194 0.08195352 0.09938332 -0.0069307354 -0.07084901
-0.06277416 0.071327016 0.092030644 -0.03792013 0.051469214 0.011554045 0.037833504 -0.076969594
-0.03506631 -0.030308736 0.07077237 -0.016362393 0.0681813 0.014051921 -0.09707335 -0.020874368
-0.064578645 0.08348804 0.05794282 0.07401735 0.070210986 0.040578704 0.028028153 0.020977128
0.08374902 -0.01621755 0.028521482 -0.073525466 0.09954394 0.0146627575 0.09373835 -0.033560276
-0.014417284 0.020832311 -0.03562645 0.006207617 -0.056137167 0.0353476 -0.04264278 0.102940276
0.02173704 -0.011901408 -0.06838325 0.038898148 0.0230954 0.047068406 -0.05644124 -0.049611565
-0.03880063 -0.018180694 0.07700277 -0.0051227803 0.046022188 -0.009451426 -0.049020175 -0.07393376
-0.07762098 -0.057791937 -0.0069377962 0.09430724 0.010536175 0.0067717927 0.064807005 0.079699986
0.06425836 -0.04411176 -0.04997491 0.020758428 -0.05559688 0.07720857 0.0070786416 0.036835335
-0.031041352 0.035329826 -0.041274827 -0.018286573 0.019443663 0.019182254 0.060039785 0.08464151
0.0007596505 -0.04741716 -0.061210368 0.0477357 0.071665965 0.028360015 -0.03375623 0.08475023
0.045162853 0.03877652 0.031037135 -0.01416428 0.003904558 0.033408064 0.08616776 0.03339958
-0.042590994 -0.072975725 0.06991208 0.037360877 0.021862859 -0.060655408 -0.0658537 -0.00874346
-0.06936117 0.025716754 -0.0060250415 0.078037366 0.06312866 -0.06844547 0.065346666 0.047879945
-0.039704464 0.07469983 0.017316164 0.11194161 0.07107727 -0.026348198 0.024389163 -0.04028163
-0.03029277 -0.013241316 0.076307565 0.073084615 -0.044902153 -0.024725996 -0.027532212 0.08319521
0.044562493 0.03415719 0.027542045 0.0030179815 0.051253278 -0.01644588 0.073179 -0.03237301
0.08800658 -0.08423607 0.049625427 0.030565185 0.063159704 -0.04597702 0.08444348 0.08981366
-0.014129408 0.062179454 -0.0197779 0.023288194 0.058562625 -0.054149948 -0.019494154 -0.059318684
0.0023809914 0.043812532 -0.07733395 0.018588431 -0.019311454 0.012326164 -0.05988665 0.0700002
-0.032705527 -0.024722958 0.063206054 0.014617432 -0.059854873 0.0062135155 -0.06864012 0.067495815
0.057954203 0.0017402478 -0.013822415 -0.0008516078 0.034427814 -0.006674487 -0.057065386 -0.043761674
-0.04547151 -0.022649018 -0.07294144 -0.008427659 -0.043637577 0.05710031 0.026942426 -0.046095066
-0.022594798 0.07867975 0.03962334 0.056262203 -0.049325973 0.056957275 -0.026771948 0.069467
0.081532896 -0.041979942 0.07856403 -0.05546576 0.031061366 -0.006241884 0.046280846 -0.043866977
0.013527536 -0.09682444 -0.044837955 -0.027882963 -0.07929469 -0.009984808 -0.07252755 -0.06051967
-0.06403377 0.07849189 0.007486385 0.006952855 -0.052115105 -0.04076628 0.08271176 0.009863608
-0.0025919843 0.040958587 0.07892237 0.057056107 0.016916588 -0.04910767 0.05966993 -0.0258966
-0.04445058 -0.045277808 0.046945512 0.06956551 -0.06890721 0.06070723 0.07685956 -0.064208865
00000000: 0e6d aebb 5764 2cbd d9ac b03c 9e25 673d
00000010: 4170 f7ba 58bb 103d 6d67 853d a964 2bbd
00000020: 1ebe 9c3d 373b 483d 7413 07bd fa26 2dbb
00000030: 5a6a 003c ab85 6cbd 62dd f7bc 2111 3a3b
00000040: e343 003d e4aa c9bc 702b 8ebd 04f1 263d
00000050: 3fd7 a73d 7b89 cb3d 391b e3bb 4919 91bd
00000060: bd8f 80bd e613 923d 907a bc3d 2352 1bbd
00000070: 62d1 523d 2d4d 3d3c 4ef7 1a3d 3ca2 9dbd
00000080: b1a1 0fbd 074a f8bc 1bf1 903d 6d0a 86bc
00000090: a3a2 8b3d 073a 663c 64ce c6bd b900 abbc
000000a0: cf41 84bd c7fb aa3d 7355 6d3d 6996 973d
000000b0: c7ca 8f3d db35 263d 4c9b e53c 3ad8 ab3c
000000c0: 9b84 ab3d abda 84bc e2a5 e93c 8594 96bd
000000d0: b1dd cb3d 103c 703c e4f9 bf3d 8076 09bd
000000e0: 7936 6cbc 86a8 aa3c 0aed 11bd 4469 cb3b
000000f0: 16f0 65bd a5c8 103d 32aa 2ebd 5ad2 d23d
00000100: e011 b23c 20fe 42bc 840c 8cbd aa53 1f3d
00000110: 9032 bd3c cdca 403d ee2e 67bd 7f35 4bbd
00000120: 69ed 1ebd aeef 94bc a1b3 9d3d ffdc a7bb
00000130: c381 3c3d 27da 1abc 61c9 48bd 956a 97bd
00000140: c0f7 9ebd 3db7 6cbd 7456 e3bb 2724 c13d
00000150: ec9f 2c3c eae5 dd3b 89b9 843d bf39 a33d
00000160: e399 833d 88ae 34bd 7eb2 4cbd 940d aa3c
00000170: 8eb9 63bd 871f 9e3d f3f3 e73b a6e0 163d
00000180: 6f4a febc 02b6 103d cb0f 29bd b9cd 95bc
00000190: 5148 9f3c 1a24 9d3c 47ec 753d 8758 ad3d
000001a0: 4823 473a 7f38 42bd b9b7 7abd 8286 433d
000001b0: 9bc5 923d 4353 e83c f943 0abd 8791 ad3d
000001c0: affc 383d 21d4 1e3d 9741 fe3c 4c11 68bc
000001d0: 9de3 7f3b e5d6 083d b978 b03d ffcd 083d
000001e0: e573 2ebd 4c74 95bd 112e 8f3d b807 193d
000001f0: bd19 b33c ce71 78bd 4ede 86bd bb40 0fbc
00000200: 3b0d 8ebd f1ab d23c b66d c5bb 0ed2 9f3d
00000210: 9949 813d 232d 8cbd 79d4 853d c31d 443d
00000220: 26a1 22bd 39fc 983d a1da 8d3c a541 e53d
00000230: f690 913d 2dd8 d7bc c8cb c73c 5afe 24bd
00000240: 8b28 f8bc 1bf2 58bc 2447 9c3d 63ad 953d
00000250: 52eb 37bd 2c8e cabc 3c8b e1bc 4062 aa3d
00000260: 2987 363d 69e8 0b3d db9f e13c 54c9 453b
00000270: f5ee 513d 83b9 86bc dfde 953d 9099 04bd
00000280: cb3c b43d f683 acbd 0844 4b3d d763 fa3c
00000290: e059 813d 6652 3cbd b4f0 ac3d 39f0 b73d
000002a0: 087f 67bc e2af 7e3d 4305 a2bc e2c6 be3c
000002b0: 5ddf 6f3d 56cc 5dbd 34b2 9fbc 26f8 72bd
000002c0: 680a 1c3b c574 333d 4361 9ebd c446 983c
000002d0: 0e33 9ebc aef3 493c b44b 75bd 445c 8f3d
000002e0: 3bf6 05bd cd87 cabc 2d72 813d f47d 6f3c
000002f0: 622a 75bd bf9a cb3b 3193 8cbd 3f3b 8a3d
00000300: 6361 6d3d 0719 e43a 6977 62bc 6f3e 5fba
00000310: 2e04 0d3d a8b5 dabb 65bd 69bd 713f 33bd
00000320: 5640 3abd 6f8a b9bc 5262 95bd 2a14 0abc
00000330: 51bd 32bd 04e2 693d 5db6 dc3c 2ece 3cbd
00000340: ba18 b9bc d922 a13d 154c 223d 3273 663d
00000350: 080a 4abd 084c 693d d850 dbbc b744 8e3d
00000360: b8fa a63d 29f3 2bbd 2ee6 a03d 1130 63bd
00000370: 6874 fe3c b888 ccbb fc90 3d3d dcad 33bd
00000380: 99a2 5d3c e44b c6bd 01a8 37bd d06a e4bc
00000390: 4165 a2bd 5297 23bc 5389 94bd 79e3 77bd
000003a0: 2324 83bd 5bc0 a03d 5950 f53b c6d4 e33b
000003b0: a676 55bd 8bfa 26bd c964 a93d f89a 213c
000003c0: 48de 29bb 31c4 273d 0da2 a13d aab3 693d
000003d0: a894 8a3c 2025 49bd 7568 743d 1b25 d4bc
000003e0: d011 36bd 3975 39bd f049 403d 5d78 8e3d
000003f0: 391f 8dbd 25a8 783d 8c68 9d3d f07f 83bd

model.4.bias f4 [128]
0.0031096288 -0.011410471 -0.05244235 -0.08510466 0.028868271 0.033837944 0.021741912 0.08249426
0.05758853 -0.016602222 0.029615577 -0.008030739 -0.06101206 -0.0650417 0.042195376 0.08017355
-0.034718957 0.061836455 0.034160767 0.08825616 0.08607942 -0.0332736 0.038195457 -0.04503531
-0.0118755475 -0.008140501 0.005112541 -0.016445246 -0.011029275 -0.004276941 0.025098484 0.030318614
-0.0043742773 -0.0200378 0.013687846 -0.018661432 0.018886087 0.03551047 -0.04070512 -0.0006557044
0.03687789 0.103875645 -0.033431064 0.10158214 -0.062382456 -0.0011925992 -0.070144065 0.07966841
0.1043157 0.028870517 0.028714538 -0.005312419 0.019238241 -0.0043218015 -0.01816473 -0.08930522
-0.015651146 -0.06692333 -0.05598476 0.018619321 -0.062005326 -0.021020051 -0.017890185 -0.00058135105
-0.05573959 -0.030170461 0.0079737 0.052685153 -0.025986401 0.015736114 0.0997155 -0.04940981
0.01968557 -0.053486485 -0.062370896 -0.08283382 0.044697993 -0.07938504 0.08020531 -0.006674933
0.097339675 -0.06906395 0.059641026 -0.017329989 -0.022830216 0.07082184 -0.036000323 -0.03195339
-0.04512941 0.0031828966 -0.055556167 0.019615494 -0.017077085 -0.081857555 -0.03704437 0.06212118
-0.032183412 -0.0075094453 0.049465615 0.05220811 -0.03417166 0.0027923048 0.015495844 0.07890262
0.0060277665 0.060501896 0.03663017 0.026445888 0.0035496564 0.053431224 -0.008258115 0.085442014
-0.0010035017 -0.07026274 0.08785411 0.079035476 -0.057134673 0.053643674 0.08396436 -0.040104967
-0.07978733 -0.03561944 0.0023663132 -0.09091527 0.014201597 0.055255175 0.047667827 0.06432165
00000000: eaca 4b3b fcf2 3abc cacd 56bd 5a4b aebd
00000010: 277d ec3c a899 0a3d 181c b23c c0f2 a83d
00000020: f3e1 6b3d 6201 88bc 5e9c f23c 5c93 03bc
00000030: c8e7 79bd 9534 85bd 0fd5 2c3d 0832 a43d
00000040: 7735 0ebd 3948 7d3d 29ec 0b3d a5bf b43d
00000050: 684a b03d e649 08bd d772 1c3d f276 38bd
00000060: a891 42bc bc5f 05bc 1a87 a73b 2eb8 86bc
00000070: 22b4 34bc 9525 8cbb 569b cd3c be5e f83c
00000080: 1956 8fbb 5026 a4bc fd42 603c dcdf 98bc
00000090: ffb6 9a3c 6d73 113d 69ba 26bd 94e3 2bba
000000a0: 450d 173d c1bc d43d 03ef 08bd 4c0a d03d
000000b0: bf84 7fbd fd50 9cba b1a7 8fbd 3129 a33d
000000c0: 78a3 d53d dd81 ec3c c03a eb3c cd13 aebb
000000d0: 8499 9d3c e69d 8dbb 33ce 94bc a8e5 b6bd
000000e0: d536 80bc 190f 89bd 4750 65bd 8c87 983c
000000f0: 4cf9 7dbd 3e32 acbc 708e 92bc cf65 18ba
00000100: 324f 64bd 0b28 f7bc 1fa4 023c 63cc 573d
00000110: 6fe1 d4bc 06e9 803c a437 cc3d f161 4abd
00000120: a243 a13c a514 5bbd a078 7fbd c7a4 a9bd
00000130: 3e15 373d a094 a2bd ae42 a43d 65b9 dabb
00000140: 065a c73d 6671 8dbd 264a 743d 9ff7 8dbc
00000150: 6f06 bbbc 0a0b 913d 1375 13bd 8fe1 02bd
00000160: 9ed9 38bd 2598 503b dd8e 63bd acb0 a03c
00000170: 3ee5 8bbc efa4 a7bd d6bb 17bd c772 7e3d
00000180: c1d2 03bd cb11 f6bb 759c 4a3d 2cd8 553d
00000190: 95f7 0bbd 1aff 363b 48e2 7d3c b297 a13d
000001a0: 9284 c53b d6d0 773d 8409 163d 0ca5 d83c
000001b0: 5aa1 683b b3da 5a3d 0b4d 07bc 39fc ae3d
000001c0: ee87 83ba e9e5 8fbd dbec b33d 5add a13d
000001d0: 0c06 6abd 78b9 5b3d 82f5 ab3d 1b45 24bd
000001e0: 8a67 a3bd b1e5 11bd 2614 1b3b c931 babd
000001f0: d1ad 683c 4053 623d 573f 433d 12bb 833d

model.6.weight f4 [128, 128]
0.033370804 -0.020007664 -0.03153059 0.03791755 -0.042748183 0.082913205 0.06443741 -0.039646856
0.07903078 0.07101778 0.0078625735 0.09486559 0.07018683 0.0038352578 0.071018025 0.10593171
-0.08059316 0.09430053 0.055811685 -0.08596243 0.052799415 -0.07769133 -0.053511 0.044724178
-0.08755792 -0.08406053 -0.062113013 0.061471764 0.11105632 -0.055839702 -0.037684903 -0.034469847
-0.05510853 0.086462796 0.06812132 0.04001453 0.08532588 0.08809956 -0.08364881 0.033701513
-0.074210145 -0.029581241 0.02304275 0.02071952 -0.011368179 0.047512837 0.02851529 -0.042797953
-0.01766103 -0.0023603884 0.1125077 0.030501314 0.031927418 0.065637134 0.056151055 -0.0009727195
-0.04506827 0.07036504 -0.05745154 0.020114444 0.048410326 0.07278218 -0.054386385 -0.07294755
0.05039139 0.040402014 0.03059295 -0.0078554815 -0.050175376 0.07083886 -0.0177677 0.006403299
-0.040276214 0.045773562 0.099950776 0.063185506 0.0135403825 -0.0063469596 0.01871775 -0.07598909
0.09919945 -0.0058073057 -0.036717273 -0.028280666 -0.0356765 -0.04770494 0.018635232 0.034437437
0.02811195 0.05405788 -0.00069573335 -0.07941275 0.005777546 0.04600377 0.05251676 -0.031310033
0.041597385 -0.052964475 0.0709474 0.021280896 0.1052388 0.047418226 -0.08664096 0.10032199
-0.016541524 -0.059396643 -0.0025039911 -0.025111778 0.014853309 -0.0038699906 -0.064868264 0.0213678
0.026707146 -0.029263183 -0.05247615 -0.03789056 0.016670166 0.0726886 -0.044828895 0.077086434
-0.025311325 0.040783152 -0.055092853 -0.070352405 -0.017865727 0.03263311 0.044270482 0.010638593
0.027617536 0.0027448293 -0.08627632 0.05682673 -0.08590092 -0.09900769 0.049350683 -0.004740087
0.012486899 -0.082528144 0.06599884 0.04934039 0.06304287 -0.037649855 -0.008416209 -0.018962897
0.02081967 0.024308749 0.1067091 -0.0496211 0.051879514 0.040978454 0.09040252 0.09989814
-0.022502642 0.061436664 -0.049412172 0.10542586 0.081445545 -0.070122704 -0.01221841 -0.060776625
-0.053709175 0.040944304 0.078222975 0.026208589 -0.034605954 0.0031941216 -0.05584722 -0.054174773
-0.0651267 0.023392903 -0.06912953 0.09605052 0.046572886 -0.062270366 0.025804946 0.003339591
-0.03962887 -0.04181105 0.05740967 0.066122904 0.057126388 -0.080925494 0.08164341 0.040287662
-0.10636636 -0.07535232 0.0480439 -0.08528844 0.06734423 -0.027259465 0.07749754 0.06306158
0.053571194 0.08173937 0.035345756 -0.054076277 0.09645629 -0.06359075 0.070553154 -0.08464671
0.051459227 -0.050230805 0.07585918 0.082264476 -0.05110119 -0.045731556 -0.0051936274 0.004291401
0.010350435 0.070123844 -0.0739549 0.06777265 -0.074936666 0.017779449 0.042856004 0.03974418
-0.07235149 -0.08760806 0.076356605 -0.012790938 0.0034356464 -0.0063558468 -0.04615102 -0.0514881
0.07406442 0.07374807 0.05183135 0.055244856 -0.05048526 0.006469691 -0.064253315 -0.046967667
0.007839368 0.04271963 -0.048983503 -0.10057209 0.08255279 -0.027146176 0.04047281 -0.087423205
-0.058047168 -0.05321431 0.08165203 0.08380422 -0.043045584 0.06042797 -0.07249031 0.093282655
-0.07565822 -0.034122888 -0.017433349 -0.005676928 -0.0474305 0.04975458 -0.04249591 -0.010081091
00000000: d3af 083d 1de7 a3bc 3826 01bd 6f4f 1b3d
00000010: b818 2fbd 66ce a93d c3f7 833d be64 22bd
00000020: e4da a13d c571 913d 06d2 003c e448 c23d
00000030: 1dbe 8f3d f358 7b3b e671 913d b9f2 d83d
00000040: 070e a5bd a320 c13d cb9a 643d 120d b0bd
00000050: 3344 583d a21c 9fbd 5a2e 5bbd b330 373d
00000060: 9151 b3bd ed27 acbd 376a 7ebd d1c9 7b3d
00000070: 7f71 e33d 2cb8 64bd 7c5b 1abd 4130 0dbd
00000080: 7bb9 61bd 6813 b13d 3183 8b3d 47e6 233d
00000090: 56bf ae3d 8b6d b43d 1150 abbd 990a 0a3d
000000a0: 7dfb 97bd 5c54 f2bc 26c4 bc3c fcbb a93c
000000b0: 9941 3abc d29c 423d e698 e93c e84c 2fbd
000000c0: ddad 90bc bfb0 1abb 706a e63d e4dd f93c
000000d0: 53c6 023d c36c 863d a6fe 653d 1afe 7eba
000000e0: 8299 38bd 8c1b 903d 4e52 6bbd 0cc7 a43c
000000f0: e849 463d d30e 953d 42c4 5ebd 8665 95bd
00000100: 3467 4e3d 957c 253d 119e fa3c 47b4 00bc
00000110: b284 4dbd f713 913d 918d 91bc c4d2 d13b
00000120: acf8 24bd 0f7d 3b3d feb2 cc3d 6767 813d
00000130: 7bd8 5d3c 28fa cfbb f855 993c 2ba0 9bbd
00000140: 1529 cb3d 364b bebb da64 16bd dbac e7bc
00000150: 8621 12bd 4166 43bd eaa8 983c 450e 0d3d
00000160: 084b e63c cc6b 5d3d e061 36ba 27a3 a2bd
00000170: 9251 bd3b 736e 3c3d d01b 573d f33e 00bd
00000180: 0562 2a3d 47f1 58bd df4c 913d 4655 ae3c
00000190: 7187 d73d 9d39 423d d170 b1bd 9e75 cd3d
000001a0: 1782 87bc e549 73bd 001a 24bb 37b7 cdbc
000001b0: 4b5b 733c ab9f 7dbb a7d9 84bd 860b af3c
000001c0: f2c8 da3c 58b9 efbc 3bf1 56bd 2233 1bbd
000001d0: df8f 883c c3dd 943d 819e 37bd 7edf 9d3d
000001e0: b259 cfbc 3c0c 273d 0ba9 61bd ec14 90bd
000001f0: 255b 92bc 4caa 053d f754 353d 7e4d 2e3c
00000200: 2c3e e23c 98e2 333b a4b1 b0bd 25c3 683d
00000210: d2ec afbd 8bc4 cabd f123 4a3d bb52 9bbb
00000220: da95 4c3c 8404 a9bd 662a 873d 2619 4a3d
00000230: 9f1c 813d bc36 1abd 24e4 09bc 1458 9bbc
00000240: 038e aa3c 2423 c73c 4d8a da3d 7f3f 4bbd
00000250: 9d7f 543d 06d9 273d f524 b93d 6597 cc3d
00000260: 7657 b8bc 03a5 7b3d 6b64 4abd 83e9 d73d
00000270: eccc a63d 7e9c 8fbd ba2f 48bc e9f0 78bd
00000280: 27fe 5bbd 37b5 273d 5e33 a03d 65b3 d63c
00000290: f9be 0dbd 7854 513b 0ec0 64bd 5ee6 5dbd
000002a0: 2661 85bd 79a2 bf3c c893 8dbd 23b6 c43d
000002b0: 36c3 3e3d 360f 7fbd e564 d33c 0add 5a3b
000002c0: e251 22bd 1042 2bbd 6726 6b3d 726b 873d
000002d0: 5cfd 693d 44bc a5bd a934 a73d ad04 253d
000002e0: 9bd6 d9bd 5152 9abd aec9 443d b5ab aebd
000002f0: c6eb 893d 3e4f dfbc 08b7 9e3d 6e26 813d
00000300: 786d 5b3d f966 a73d b6c6 103d 167f 5dbd
00000310: e08a c53d de3b 82bd 2c7e 903d 415b adbd
00000320: e9c6 523d d1be 4dbd 0f5c 9b3d 477a a83d
00000330: 7b4f 51bd 0351 3bbd 4e2f aabb e19e 8c3b
00000340: df94 293c 179d 8f3d ab75 97bd 63cc 8a3d
00000350: 6578 99bd 35a6 913c c789 2f3d cbca 223d
00000360: 052d 94bd db6b b3bd da60 9c3d 1591 51bc
00000370: 9528 613b b544 d0bb da08 3dbd 30e5 52bd
00000380: 16af 973d 3a09 973d 1c4d 543d 6e48 623d
00000390: a2c9 4ebd b4ff d33b 3e97 83bd 2b61 40bd
000003a0: b170 003c c7fa 2e3d eda2 48bd bdf8 cdbd
000003b0: 7011 a93d a861 debc d1c6 253d f00a b3bd
000003c0: dec2 6dbd 40f7 59bd 2e39 a73d 8ca1 ab3d
000003d0: 9150 30bd 5283 773d cd75 94bd fa0a bf3d
000003e0: b2f2 9abd 71c4 0bbd 62d0 8ebc 8605 babb
000003f0: 7c46 42bd 75cb 4b3d 3110 2ebd 292b 25bc

model.6.bias f4 [128]
-0.06332655 0.045041565 0.013344 -0.012331274 0.037088703 0.03663377 -0.0570202 0.101832315
-0.018645627 -0.008823835 0.089545496 0.060062595 0.018043783 -0.044467125 -0.058052026 0.026119616
0.0036782955 0.047155757 -0.042521276 -0.019471908 -0.082035735 -0.052454077 0.06344771 -0.05566392
-0.07465941 0.05308582 0.069958985 0.05822555 0.037093822 -0.038133748 0.0758233 0.06649106
-0.022369472 0.071626805 -0.05809129 0.05849314 0.07200344 -0.04539796 -0.029499529 0.044492517
0.02645612 0.08557762 0.022805596 0.027993295 0.004643569 0.061759323 0.09456653 -0.02068756
-0.0041806744 -0.007606716 0.06289099 -0.08754086 0.0012385163 -0.0067779594 -0.05226887 0.023231573
0.046596136 0.02015337 0.039395824 -0.023673328 -0.052744813 0.037894584 -0.014117879 0.012136628
-0.051320013 -0.029067323 -0.014930904 0.096610606 -0.057461105 -0.04079934 -0.07430948 -0.022310987
-0.06616343 0.08026905 0.11487057 -0.0213239 -3.9724848e-05 -0.03297573 0.008103437 0.10106519
-0.055435613 0.08630226 0.05716836 -0.043329194 0.0034749403 -0.023947196 0.04788937 0.044632822
-0.052776933 -0.0016231866 0.009091908 0.008258042 -0.075482965 0.00579078 0.013943719 0.059291717
0.018937983 0.06114206 -0.085799426 -0.087723054 0.03273442 -0.06505462 -0.070178226 -0.060280815
-0.006024127 0.053695742 0.092233405 0.07134163 0.0025290526 0.07887304 0.05445069 0.04412162
0.049720757 -0.056171592 -0.019692402 0.08044044 0.06627887 -0.0706321 -0.007508334 -0.0047224904
0.08821784 0.028050836 -0.05678117 -0.015250112 -0.018727394 0.018651236 0.045494046 0.009722495
00000000: 5ab1 81bd 817d 383d cba0 5a3c 1d09 4abc
00000010: 53ea 173d 4b0d 163d 038e 69bd 768d d03d
00000020: b7be 98bc d991 10bc a163 b73d 3204 763d
00000030: 8ed0 933c 2923 36bd f6c7 6dbd cef8 d53c
00000040: 8f0f 713b 6526 413d ca2a 2ebd 8d83 9fbc
00000050: 5a02 a8bd 16da 56bd dff0 813d daff 63bd
00000060: 08e7 98bd 8470 593d a846 8f3d ea7d 6e3d
00000070: b1ef 173d 2232 1cbd 3f49 9b3d 772c 883d
00000080: 2f40 b7bc 13b1 923d 22f1 6dbd 8196 6f3d
00000090: 8a76 933d 36f3 39bd ffa8 f1bc c93d 363d
000000a0: 81ba d83c 5243 af3d cdd2 ba3c 3252 e53c
000000b0: 1429 983b 58f7 7c3d 19ac c13d f578 a9bc
000000c0: 0afe 88bb c241 f9bb fecc 803d 9f48 b3bd
000000d0: b655 a23a a519 debb e217 56bd 2450 be3c
000000e0: 97db 3e3d ae18 a53c 845d 213d 91ee c1bc
000000f0: f20a 58bd 5a37 1b3d ad4e 67bc b5d8 463c
00000100: ef34 52bd 981e eebc c0a0 74bc c8db c53d
00000110: 565c 6bbd 351d 27bd 922f 98bd 88c5 b6bc
00000120: b180 87bd 1a64 a43d 4341 eb3d 76af aebc
00000130: 3b9e 26b8 8f11 07bd 47c4 043c 44fb ce3d
00000140: 7410 63bd 3dbf b03d 5f29 6a3d f479 31bd
00000150: d3bb 633b e92c c4bc a527 443d e8d0 363d
00000160: a02c 58bd 1bc1 d4ba 3af6 143c bd4c 073c
00000170: d096 9abd 95c0 bd3b 3274 643c dfdb 723d
00000180: d423 9b3c 1970 7a3d 9cb7 afbd 25a8 b3bd
00000190: 8714 063d 5b3b 85bd 9ab9 8fbd 04e9 76bd
000001a0: 0a66 c5bb 11f0 5b3d dee4 bc3d 8f1b 923d
000001b0: 76be 253b 3088 a13d b007 5f3d dfb8 343d
000001c0: fea7 4b3d 2f14 66bd f651 a1bc f5bd a43d
000001d0: 37bd 873d 90a7 90bd 7808 f6bb 1fbf 9abb
000001e0: 8eab b43d deca e53c 5f93 68bd 9bdb 79bc
000001f0: 316a 99bc 7aca 983c f757 3a3d 1a4b 1f3c

model.8.weight f4 [3, 128]
0.09166692 0.027402956 -0.09980612 -0.06874686 0.08019738 -0.06628854 -0.081420705 -0.0006281203
-0.060515128 -0.00819735 0.09618506 -0.085085995 0.08153206 0.08478201 -0.083951235 -0.0861687
0.015760252 -0.0426515 -0.022938024 -0.109831974 0.11060933 -0.07626814 0.047416955 0.09311551
0.04056962 0.02034095 0.059045605 0.07288706 0.005996257 -0.0011794405 0.08304126 5.3009026e-05
0.08878932 0.050379537 -0.07461643 0.083944365 0.058189858 0.0006880266 -0.041809525 -0.04205041
-0.11374241 -0.08282186 0.07916167 -0.09268368 -0.034550156 -0.01608091 -0.0937754 0.055737488
0.09333016 0.02959499 0.027968885 -0.005580178 0.015934393 -0.09546404 0.040227234 -0.006893109
-0.11451818 0.07176239 0.027356658 -0.08617915 -0.11652511 0.09188932 -0.08777908 0.067376465
0.034447774 -0.01540456 -0.07842432 0.046348706 -0.07095779 -0.028738417 -0.042839766 -0.09208597
-0.066681966 -0.06008214 0.034723092 -0.01864229 -0.028776666 0.008939723 0.05688587 0.08549669
0.1037457 -0.036144983 0.048971076 0.011341587 -0.10272979 -0.08775032 0.03402263 0.10025722
0.09581022 -0.06050574 0.0012386545 0.119214475 0.058625028 0.06610068 0.019429699 0.0024470033
-0.056188583 -0.038835365 0.08383907 -0.019738307 -0.065897875 0.03652274 0.0241651 0.005017527
0.049824815 -0.04741212 0.10705552 -0.08218643 0.033204857 -0.00019867132 0.04922771 0.07843734
-0.029238993 -0.07100928 0.06333576 0.087499686 0.044506576 0.0079123005 0.030961595 -0.03915317
0.008726622 0.074741796 0.085981786 -0.021223059 0.028350053 0.056330435 0.0896383 0.06501852
0.074899524 0.109295614 0.057642873 -0.04313587 -0.090470634 -0.097158164 -0.040778704 -0.021548122
0.07493295 0.049926206 0.00013135825 0.085629426 -0.11145317 -0.09301231 -0.1037955 0.056539316
-0.0133209005 -0.021880493 0.017465001 0.11429968 0.009967189 -0.044754256 0.070740744 0.054957613
-0.07054996 -0.026589017 -0.054648075 0.031557836 0.0010106073 -0.06358505 -0.061304852 -0.05888622
-0.06839046 -0.099462874 -0.08850877 -0.0024561957 0.091553725 -0.013955272 0.053789802 0.06817994
-0.019341106 -0.040190596 -0.09839132 0.08886387 -0.07001544 -0.016338931 -0.06744337 0.06814024
0.044268854 -0.027852297 0.05724944 0.010515423 0.10958287 -0.061072446 -0.11601582 0.04571497
0.034310773 0.07743723 -0.033874605 -0.047275573 -0.0029221857 -0.02550084 0.10120289 0.07437366
0.035659548 0.0141346725 -0.07697139 0.079744495 0.06374223 0.06912014 0.0009459671 0.080824144
-0.034655333 0.08651725 -0.018204536 0.0011102865 0.040483944 0.028079856 0.058089253 -0.07556903
0.08214 -0.090363346 -0.029359838 0.07506606 -0.10526187 -0.07521657 -0.07171476 -0.018964263
0.052027322 -0.06555046 -0.021783372 0.03047728 0.088978335 -0.0071786423 -0.071365066 0.06819228
-0.0498677 -0.007938887 0.056573786 0.11148558 0.078712165 -0.003125998 0.06415316 0.08867647
0.057134815 -0.05644017 -0.07495278 -0.049795423 -0.10376086 -0.057397194 -0.07112014 -0.07292201
0.07368861 0.081337616 -0.061879277 0.026997704 -0.038809657 0.059902016 -0.098899625 -0.03174233
0.10111608 0.07433944 0.054947637 -0.10556622 0.07945349 -0.024355013 -0.050053097 -0.043084018
00000000: debb bb3d 2a7c e03c 2767 ccbd 27cb 8cbd
00000010: 863e a43d 49c2 87bd e6bf a6bd 71a8 24ba
00000020: b6de 77bd 2e4e 06bc acfc c43d 9141 aebd
00000030: 48fa a63d 31a2 ad3d a0ee abbd 3779 b0bd
00000040: a51b 813c 57b3 2ebd 86e8 bbbc 96ef e0bd
00000050: 2587 e23d 7832 9cbd 4838 423d 58b3 be3d
00000060: 542c 263d 10a2 a63c ced9 713d d045 953d
00000070: 407c c43b 7597 9aba 8911 aa3d 0256 5e38
00000080: 2dd7 b53d c65a 4e3d 80d0 98bd 06eb ab3d
00000090: 7d58 6e3d af5c 343a 7740 2bbd 0d3d 2cbd
000000a0: c8f1 e8bd 829e a9bd 831f a23d f1d0 bdbd
000000b0: 7784 0dbd 1dbc 83bc 510d c0bd fe4c 643d
000000c0: e223 bf3d 3171 f23c 011f e53c edd9 b6bb
000000d0: d888 823c a782 c3bd 50c5 243d 97df e1bb
000000e0: 8288 eabd 29f8 923d 121b e03c b27e b0bd
000000f0: b8a4 eebd 7830 bc3d 85c5 b3bd acfc 893d
00000100: 1c19 0d3d 6863 7cbc ee9c a0bd 24d8 3d3d
00000110: 5152 91bd d46c ebbc c078 2fbd 9297 bcbd
00000120: 8e90 88bd b118 76bd cd39 0e3d b7b7 98bc
00000130: 0bbd ebbc ea77 123c 2801 693d e318 af3d
00000140: a078 d43d c30c 14bd e595 483d 10d2 393c
00000150: ff63 d2bd 71b6 b3bd 505b 0b3d a853 cd3d
00000160: 2638 c43d ded4 77bd 595a a23a b826 f43d
00000170: cc20 703d cb5f 873d 082b 9f3c e75d 203b
00000180: 0026 66bd d511 1fbd d1b3 ab3d 3bb2 a1bc
00000190: 77f5 86bd de98 153d e3f5 c53c 116a a43b
000001a0: 1b15 4c3d 3633 42bd ed3f db3d 5c51 a8bd
000001b0: d101 083d 6d52 50b9 ffa2 493d c2a3 a03d
000001c0: 9d86 efbc 506d 91bd 2eb6 813d 0933 b33d
000001d0: 874c 363d 98a2 013c 2ca3 fd3c 135f 20bd
000001e0: 1bfa 0e3c 3a12 993d 3817 b03d fbdb adbc
000001f0: 5f3e e83c beba 663d 4994 b73d 6e28 853d
00000200: ec64 993d 61d6 df3d ef1a 6c3d 3daf 30bd
00000210: ab48 b9bd dcfa c6bd 9207 27bd b085 b0bc
00000220: 7276 993d 6c7f 4c3d 36bd 0939 7b5e af3d
00000230: 8f41 e4bd 3d7d bebd bc92 d4bd c595 673d
00000240: e83f 5abc b83e b3bc c312 8f3c f315 ea3d
00000250: 6c4d 233c 3d50 37bd 86e0 903d 3c1b 613d
00000260: 7f7c 90bd 36d1 d9bc a9d6 5fbd ca42 013d
00000270: 5b76 843a e138 82bd cc1a 7bbd ad32 71bd
00000280: 4c10 8cbd 31b3 cbbd 1644 b5bd 20f8 20bb
00000290: 8580 bb3d a7a4 64bc b252 5c3d eda1 8b3d
000002a0: 3d71 9ebc e59e 24bd 6381 c9bd 43fe b53d
000002b0: 4164 8fbd 39d9 85bc c01f 8abd 1c8d 8b3d
000002c0: 4253 353d 802a e4bc 647e 6a3d e148 2c3c
000002d0: fc6c e03d 1a27 7abd b499 edbd 9f3f 3b3d
000002e0: 7489 0c3d 6997 9e3d 19c0 0abd 08a4 41bd
000002f0: 2482 3fbb 23e7 d0bc 7643 cf3d 3851 983d
00000300: bf0f 123d 1d95 673c 2da3 9dbd 1551 a33d
00000310: 498b 823d dc8e 8d3d c7fa 773a 2187 a53d
00000320: c0f2 0dbd f52f b13d ae21 95bc 0887 913a
00000330: 7ed2 253d ba07 e63c ffee 6d3d f0c3 9abd
00000340: 0439 a83d 6b10 b9bd 0b84 f0bc 3cbc 993d
00000350: 8993 d7bd 250b 9abd 30df 92bd f15a 9bbc
00000360: 9a1a 553d 523f 86bd 0b73 b2bc 7dab f93c
00000370: 463a b63d d13a ebbb d927 92bd 65a8 8b3d
00000380: 1342 4cbd 1b12 02bc eab9 673d 8d52 e43d
00000390: d833 a13d 8bdd 4cbb bb62 833d 029c b53d
000003a0: 3206 6a3d cf2d 67bd d880 99bd 49f6 4bbd
000003b0: 9380 d4bd 5219 6bbd 70a7 91bd 2358 95bd
000003c0: 0eea 963d 5694 a63d 2075 7dbd 4a2a dd3c
000003d0: e0f6 1ebd d15b 753d e38b cabd 3f04 02bd
000003e0: f315 cf3d 473f 983d c610 613d 1a33 d8bd
000003f0: 83b8 a23d 2a84 c7bc 7a04 4dbd de78 30bd

model.8.bias f4 [3]
-0.08314108 0.03506758 0.05816339
00000000: df45 aabd 06a3 0f3d bc3c 6e3d
