exported_models/neural_networks/raw_mlp/trained_models/model_epoch_10_batch_64_lr_0001_vs_30_hl_128_128_128/mlp_dynamics.pth (torch, 140435 bytes, 8 tensors)

model.0.weight f4 [128, 5]
00000000: 6382 6cbc a56a cdbe d52d 19be 094c 6abd
00000010: a5ea 1cbd 55f9 d0be de9c 2f3c cb79 d5be
00000020: 7285 ee3b 6d32 c13d e8d0 793c 7736 7ebe
00000030: 513e 7b3e 5330 bb3e a224 b33d 9b53 c2be
00000040: 5370 fbbd 369b c43e f311 923e ab46 3b3e
00000050: 54f3 9fbe d3c2 d93e ca13 29be e5a2 263e
00000060: 1e3b 76be b15d f0bd 014f 84be de19 9b3e
00000070: 2eca 7fbc a45a 39be c90c 47be 3a18 db3e
00000080: c031 babe c4a5 093e 0ef3 c0bc 28ca ccbe
00000090: 1d75 65be c0ad c3bc 270a 483e bac5 803e
000000a0: 0ed6 80be 31f4 e0be cdd2 9e3e 44c7 953e
000000b0: 08ad ef3c df29 71be 6486 88bb 17c2 ddbc
000000c0: 45bf 9fbd 757b ad3d 506d 833d f416 e8bd
000000d0: 5d5b d7be 0c17 48be 649d 39be 5922 f43d
000000e0: 694b 60be 8ad3 aebd 8f04 633e 1245 2b3e
000000f0: cc8d c03e ada8 44be a76f af3e 4029 a23d
00000100: 68c9 8f3e f251 52be ee28 ae3e 3590 d13e
00000110: 2e30 163e d325 363e ff02 58be a1b1 94be
00000120: 05d7 bcbe 66dd 59be f479 bdbe e5ba aabe
00000130: 51d4 843e ac6f 723d 3940 59bb 4256 84be
00000140: 6953 bd3e 9758 723e 01bf adbe 45f8 6cbe
00000150: 36ac a03d 632e 00be 9d81 a03e b365 2a3e
00000160: 25be 4e3e 55b2 cebc 70ba b63e 8094 f7be
00000170: 062b 3f3e a1b5 3ebe d9b3 8c3e 1284 52be
00000180: 4f89 d23d 2ae8 da3e 919e b63c 0279 b33e
00000190: 5795 b4bd b88a 463e 6f91 04be 8446 763e
000001a0: 3a79 54be e047 5cbe 5061 f1bd 3879 ce3d
000001b0: 4b56 cd3d f897 213e 4a16 aebb 4ac8 84be
000001c0: d20d 143d b702 d13e 6b98 6bbe e4a0 73be
000001d0: 95cd 5e3e ef69 9dbe 28b4 7fbe 34a8 51be
000001e0: ecde 86be cca3 a4be 9a2a 47be 18ef b7bd
000001f0: 5372 50be ce0d 8d3e 24cf 6d3e 970f 64be
00000200: 20b1 72be 1248 6dbe 9a85 873c 4d8b c83e
00000210: 3601 f83e 41ed 153d eb90 95be 84cb 923e
00000220: caa4 96be d000 afbe c0d5 a3bc 03aa 2dbe
00000230: 3006 bebe a5ac 5ebe 04b7 62be 1a36 17be
00000240: 53bc 4bbe 6986 4d3d 5e36 363e 3e27 a43e
00000250: 62c3 b43e 8102 60be 8f95 cb3e 7509 55be
00000260: 7d4f 803e 785c 863e 7f46 8a3e 43dd 63bd
00000270: 4918 debe 76f4 863e f518 e2bc ff45 523e
00000280: 1d5d 31be 63b2 9dbe 516c a43e 1160 31be
00000290: d00e 153d dea9 083e 7b15 863d 3cd7 0dbe
000002a0: de33 273e 7531 a63d 0fc5 33be 444c 69bd
000002b0: 2308 d5be fa88 563e 0385 fcbd 53a8 f93d
000002c0: 5f39 a43e 657e b3be e3c5 993e e693 b33d
000002d0: 37a1 94ba 2a2a 463e 7c8b b93e 5d31 963e
000002e0: b022 b23c bf1e 6b3e e287 a53e 54ba 973e
000002f0: 6f9c 0f3e 08ba 543e ed9b a93d 006a 063c
00000300: 02c1 b33e c957 59be f2d3 9e3e b228 ec3c
00000310: c70a cb3e 7c19 92be dbd4 25be 6ff0 febd
00000320: 7f80 84be d104 b8be 64e6 28bd 8949 e83d
00000330: ce5c 023e 87b7 c0bc 23c1 39bd 2366 693e
00000340: ebbb c53c be43 d13d fc42 a6be fb50 91be
00000350: c06c b9be 9a9a 2b3e 6973 0abe da63 4bbe
00000360: 9910 36be 1882 e43e 6f24 cd3e 6e92 57be
00000370: edb0 82be 7db8 2ebd c047 cbbe be56 9d3e
00000380: 9213 c7be ec9d 1c3e a5c8 833e 8195 873e
00000390: 404d 643d c800 a93e cba5 df3e c582 cfbb
000003a0: cdbb e23e 0920 14bc a018 cebd aaee fb3d
000003b0: 48b7 e2bd e78e b8be 108c aa3d c0fd cebe
000003c0: 7781 d6be a2a7 c2bd 2a36 9d3e 6426 8d3e
000003d0: d936 963e 04e1 793d 33d1 ec3d 4575 a33e
000003e0: d684 14be 3163 143e 5cb4 d2be 69ce a03e
000003f0: 54e3 d23e 485e fbbd 51b0 873e 8995 31be
-0.0144353835 -0.40120426 -0.1495889 -0.05720142 -0.038309712 -0.40815225 0.010718552 -0.41694483
0.0072790915 0.09433446 0.015247561 -0.24825464 0.2453549 0.36560306 0.087472215 -0.3795441
-0.122772835 0.38399667 0.2852932 0.18288676 -0.31240332 0.42531452 -0.16511455 0.16273077
-0.24045989 -0.1173662 -0.25841525 0.30293173 -0.015612168 -0.18100983 -0.19438471 0.4279192
-0.3636608 0.13442141 -0.023553398 -0.39997983 -0.22407956 -0.023886561 0.19535123 0.25150853
-0.2516331 -0.43936303 0.31020203 0.2925359 0.029257312 -0.23551129 -0.0041664112 -0.027070088
-0.07800154 0.08470813 0.06417334 -0.11332503 -0.42061892 -0.19540042 -0.18126446 0.11920614
-0.21903767 -0.085364416 0.22169708 0.16725567 0.37608182 -0.1920497 0.3426487 0.07918024
0.28083348 -0.20539072 0.34015602 0.40930334 0.14666817 0.17787866 -0.21094893 -0.2904177
-0.36882797 -0.21275863 -0.37007105 -0.33345714 0.25943235 0.05918853 -0.0033149852 -0.2584706
0.369777 0.23666607 -0.33934787 -0.23141582 0.07845347 -0.12517695 0.31348887 0.16640358
0.20189722 -0.02523152 0.35689116 -0.48355484 0.18668756 -0.18623973 0.27480963 -0.20558193
0.10280096 0.42755252 0.022292407 0.3505326 -0.08817547 0.19388855 -0.12946104 0.24050337
-0.2074937 -0.21511793 -0.11786139 0.100817144 0.10026225 0.15780628 -0.0053127157 -0.25934058
0.036145993 0.40822384 -0.23007362 -0.23791844 0.21758111 -0.30744883 -0.24971068 -0.2047432
-0.2634195 -0.32156217 -0.19449845 -0.089811504 -0.20356111 0.27549595 0.23223549 -0.22271572
-0.2370038 -0.23172024 0.016543198 0.39168778 0.48438424 0.036603216 -0.29212126 0.28670895
-0.294226 -0.34180307 -0.019999385 -0.16959386 -0.37114096 -0.21745546 -0.22140127 -0.14766732
-0.19896059 0.05017701 0.17794177 0.3206119 0.35305315 -0.21875955 0.39762542 -0.20804389
0.25060645 0.26242423 0.2700691 -0.055630933 -0.43377903 0.26358384 -0.027599791 0.20534514
-0.17320676 -0.3080016 0.3211389 -0.17321803 0.03639108 0.13346049 0.06547066 -0.13851637
0.1632838 0.08114902 -0.1755564 -0.0569575 -0.4160777 0.2095069 -0.123300575 0.121903084
0.3207502 -0.3505737 0.30033788 0.08768444 -0.001133955 0.19352022 0.3623923 0.29334536
0.021745056 0.22960947 0.32330233 0.29634345 0.14024518 0.2077409 0.082816936 0.008203983
0.3510819 -0.21224894 0.31021076 0.028827999 0.3965666 -0.28535068 -0.16194479 -0.12448203
-0.25879285 -0.35941175 -0.041235343 0.11342151 0.12730715 -0.023525013 -0.045350205 0.22792868
0.024137458 0.10217999 -0.3247298 -0.28382096 -0.36215782 0.16758195 -0.13520588 -0.19862309
-0.17779769 0.44630504 0.4006686 -0.21051952 -0.2552561 -0.04265641 -0.39703178 0.30730242
-0.38882118 0.15294617 0.25739017 0.2648125 0.055737734 0.3300841 0.43681177 -0.0063327276
0.44283906 -0.009040841 -0.100632906 0.12301381 -0.110701144 -0.36046526 0.08327496 -0.4042797
-0.4189565 -0.0950463 0.30705386 0.27568352 0.2933872 0.061005607 0.11563339 0.31925407
-0.14503798 0.14490964 -0.41153228 0.31407478 0.41189063 -0.12273842 0.26501706 -0.173422

model.0.bias f4 [128]
00000000: 1a18 cbbe f734 133e 6cca 883d 5411 98be
00000010: 238c 56be 2ca8 923e 5061 633b a922 6a3e
00000020: d4ec cebe 2513 4dbe 5185 9c3e 54cb b63e
00000030: 437b 923e 5794 a3be 647d 58be f1f9 33bd
00000040: 3d2a d5bd 1dcf bd3e f97a 743e 9e95 c5be
00000050: 9790 acbe 0552 3ebe 332b 363c c417 8a3e
00000060: a1c4 cbbe 2b41 b2be 0714 9a3d 33b7 1c3e
00000070: 6d72 9f3d 5705 c13e d096 b3be c47d dfbc
00000080: d602 da3e 1e62 8c3e 4eb4 05be c592 653d
00000090: de16 c0be 0b55 c73e ce7e 3cbe b38f e93c
000000a0: cfb6 71be c85f 10bf 82cf a73e efdc 08bd
000000b0: ecc0 8e3e 7587 a43e 6636 1dbe e80d b83e
000000c0: cd1c 933e 8e6a 0a3e e4a1 11bb 2a0c 2e3e
000000d0: 8442 943e f9ab 883e 3403 09be d55c 4dbe
000000e0: 277e a33e e08b 6bbe 0377 3c3e 4ee5 ae3d
000000f0: c6c9 713e 6783 3a3e 8cd6 943e 0d87 b5bc
00000100: 3855 2d3e b24f 07be 4dc8 4dbd d486 103c
00000110: 3c2b 85be c98b 6abe dc33 923e 5b38 bc3e
00000120: 13b7 04be 10a9 d3be 6595 d43e 8363 813e
00000130: 117a 953e cf9a c33e 667d 9a3e 2973 04be
00000140: 14e9 223d b5ca fd3d b0de 0b3d 7815 f93d
00000150: a06f 1bbe 8910 c53e f972 e33e 17c7 dbbd
00000160: a3bc 9fbe 4960 d1bd aa0b 313c 3df9 8f3e
00000170: c1fc 9a3d d273 b33e bfa2 c2be 677f 35be
00000180: 8791 7a3e 6c88 ae3e bcc0 0fbe 51c8 21be
00000190: bf53 85bd 3197 023e 53f4 bcbe db27 bdbd
000001a0: 2834 58be 6c68 e13e 3579 df3e c0a7 47bc
000001b0: 6f98 3dbe dddf 013e cc7b a2be 20ce 8fbd
000001c0: 3216 983d 86a2 73bd d0c7 92be 631a b3be
000001d0: 369f 623e bee7 82be ac74 653e a8b6 80be
000001e0: 90da bdbd 7439 203c f70a 5abe 1873 903e
000001f0: c764 8d3e f860 e03d cbc6 b8be d77e 98bd
-0.39666826 0.14375673 0.06679234 -0.2970072 -0.20951895 0.2864393 0.0034695454 0.22864784
-0.4041506 -0.20026834 0.30570462 0.35702002 0.28609666 -0.31949112 -0.21141583 -0.043939535
-0.10408447 0.37072077 0.23875035 -0.3859071 -0.33704063 -0.18585975 0.011118698 0.26971257
-0.39798453 -0.34815344 0.07523351 0.1530426 0.07785497 0.37699386 -0.35075998 -0.02728165
0.4258029 0.27418607 -0.13057062 0.056048173 -0.37517446 0.3893207 -0.18407747 0.028510904
-0.23604892 -0.5639615 0.32775503 -0.033413824 0.27881563 0.32134596 -0.15352783 0.3594811
0.2873291 0.1351721 -0.0022221738 0.16996828 0.28956997 0.26693705 -0.13380128 -0.20054944
0.31932184 -0.23002577 0.18404774 0.0853983 0.23612127 0.18214189 0.29069936 -0.022159124
0.1692704 -0.13213995 -0.05023985 0.008821208 -0.26009548 -0.22904886 0.2855519 0.36761746
-0.12960462 -0.41339922 0.4152023 0.25271234 0.29194692 0.38204047 0.30173796 -0.12934555
0.039773062 0.12392179 0.03414792 0.12162298 -0.151793 0.38489178 0.44423655 -0.10731333
-0.31198606 -0.10223443 0.010806004 0.2811984 0.0756774 0.350493 -0.3801479 -0.17724381
0.24469577 0.34088457 -0.14038366 -0.15799071 -0.06510114 0.12752987 -0.36905155 -0.092361175
-0.21113646 0.4402498 0.4364716 -0.012185991 -0.1851518 0.12683053 -0.31735075 -0.07021737
0.074261084 -0.059481166 -0.2866807 -0.3498107 0.22131047 -0.2556743 0.22407788 -0.25139356
-0.09270203 0.009779323 -0.21293245 0.2821281 0.2761595 0.10955995 -0.36089167 -0.07446068

model.2.weight f4 [128, 128]
00000000: 53d3 a83c ed73 aa3d 8a2c ba3c b2e5 41ba
00000010: 8153 b3bc 7f1b ffbc 7677 bcbc c1ea 9cbd
00000020: 6a09 d13c 633d be3d 03ab fd3b 65b9 d73d
00000030: b04c 253d 48f1 a93c bd6c 953d 7cb8 f6bc
00000040: ef8c e53d b1c2 f13c dfc0 afbc 172c 573c
00000050: 5970 5ebd 0032 be3b b095 8a3c a824 b63d
00000060: c9d0 913d 1861 62bd 842e 8c3c cf27 08bd
00000070: b89f e93c 6616 30bc 1131 3bbd 4a29 663d
00000080: 4491 8dbd 3622 76bd a35e 8c3d 9eb9 8fbb
00000090: 7e14 a13a 989d 50bd 38be ca3d 97dd e9bc
000000a0: 25f5 7d3d a7b9 3a3e ce29 8e3d 0724 1f3d
000000b0: 8118 d83d 1433 53bd 879a cb3d 30bc 2abd
000000c0: 2cf9 863d 1718 be3c f7ad 36bc 545f edbc
000000d0: 1834 3abc 5486 4dbc 15ac 6bbd 9d13 4d3d
000000e0: 0cd4 6e3d 893e 773b d41a e43d db2c ff3d
000000f0: 48a6 6d3d 7d5e 1d3c aa91 2cbd cb20 bc3d
00000100: 4768 013d a7f5 65bc 3fcd 2abc 9d34 cf3d
00000110: 5b09 4ebd 04df 58bc f2b1 50bd 85ec a7bc
00000120: fccf 8f3d 2633 cbbc 1a15 a23d e2d5 dc3c
00000130: b359 a73d d719 193d 06cd bb3d 656e b03c
00000140: 77a0 a73d f511 45bd 15cd 093d 0cd1 593c
00000150: 1117 073d 60ef 20bc ce1e 97bd bae3 473d
00000160: 9ce5 473d d222 d7bb a80f 2b3d 004a 843d
00000170: bea1 81bd 1176 adbc 7357 eb3d ddd2 b23d
00000180: 0078 1dbd 9db5 91bc dc5a 813d 2c70 c43c
00000190: 922f b43d b94f 91bd 2d4c a13d 4608 023d
000001a0: 0086 353d 8458 46bd 6940 853c 819d 60bd
000001b0: a63a 863b be66 833d dbe4 10bd 106d 92bb
000001c0: 2fb7 d03c 6074 6dbd 19ee 6b3d 6c59 9fbc
000001d0: e52a bc3d 1139 c13b 3e3b 9f3d 216a 0ebd
000001e0: 2b84 2cbc 9366 0c3d 8ed2 4abd 5df1 5b3d
000001f0: 0451 3b3d d87c 15bd 952a fb3a feb6 12bd
00000200: d8c9 ab3d 0a78 83bd 3ecc 373d 2bbd 3ebd
00000210: fb6f bc3c 8fc4 fe3b 6b79 913d c7a8 c3bd
00000220: 067e 953d e36f 283d cb47 963c b5e6 0dbd
00000230: eb7e 8ebd 908c 7fbd f16f 423d cc43 813d
00000240: a677 94bc 5bae 0dbd 3256 173c 8004 c33d
00000250: 2cd9 1f3d 68f2 1d3d 47bc 12bd 4fb7 afbd
00000260: eef5 fa3c f055 a0bd a6f0 7a3d db5d ddbc
00000270: 270a 86bd c3aa abbd b29e 703d 3b6e 153c
00000280: f90e 993d 4ca4 46bd a2db 063d d0be 223c
00000290: d0ef c63b 8cd4 34bd 00e6 c0bd e273 35bd
000002a0: 746f d6bc e7d4 f63c 8024 883d ed34 ffbb
000002b0: 6dff 0ebd cf69 f9bc eca6 d03b 0427 aabd
000002c0: 6697 c83b 93ad c3bc d7c1 403d 10c8 9ebc
000002d0: 12ff b83a 6f89 05bd ecff eb3d 2230 c338
000002e0: b98f af3c 8a64 e0bc f25f b7bd a0b9 443b
000002f0: 3022 a4ba 9040 313d 3a09 3d3d d777 603d
00000300: a52f ad3d 3023 013c f621 973c 5e95 583d
00000310: 7580 bf3d b718 97bd 7332 4a3d 3419 4dbd
00000320: ede8 fdbb 74ca 3fbd a4b7 b0bd 294f e03b
00000330: 878c 3c3c f4aa 293d 2d53 4d3d 0a59 f03c
00000340: 753c c53b bd54 6bbd 8eac 65bc 7309 64bc
00000350: 4a1d 373c cf17 833d 9f5d 913d b699 bf3b
00000360: fe5d d2bd 03e5 e8bb a6ec 8b3b ff1f bf3b
00000370: 9f70 3a3d f08b 173d 9ba0 9cbc 4b52 1c3d
00000380: 2b8e 94bc 1aac a9bd 60d5 febc 197a 10bc
00000390: 5f04 ae3c ee68 c6bc e4de 553d 25c7 573c
000003a0: 8bad 563d 2fc4 e43b efd8 a73d 1891 cebc
000003b0: 517d 42bd a45d 89bd 2c60 e8bd cad7 223c
000003c0: bc6a 66bd 1673 8a3d 4d0a 3f3c f59b 613d
000003d0: 26af 643d f367 4c3d 7934 05bb b0e3 673d
000003e0: a433 83bc 9e8c 0f3c 515e 1fbd 09c1 903d
000003f0: 9d10 2abc 414b 38bb 22c0 473d 98cf 53bd
0.02060858 0.08322892 0.022726316 -0.0007396593 -0.021890404 -0.03114104 -0.023006182 -0.07661963
0.025517184 0.09289052 0.0077413335 0.10533408 0.040356338 0.020744935 0.07296131 -0.030117266
0.112085216 0.029511781 -0.021454273 0.01313307 -0.05430636 0.0058043003 0.01691708 0.088937104
0.07119901 -0.055268377 0.017112024 -0.03324109 0.028518543 -0.010747528 -0.04570109 0.05619172
-0.06912473 -0.06009122 0.06853988 -0.004386141 0.0012289432 -0.050931543 0.098995626 -0.028548045
0.062001366 0.18234883 0.06941567 0.038852718 0.10551549 -0.051562384 0.09941583 -0.041683376
0.065904945 0.023204846 -0.011149875 -0.02897612 -0.011364959 -0.012544233 -0.057537157 0.050067533
0.058307692 0.0037726483 0.111379296 0.124597274 0.058019906 0.009605047 -0.042131104 0.09185942
0.031593587 -0.014035619 -0.010424911 0.10117457 -0.05030189 -0.013236765 -0.050950952 -0.020498523
0.07022092 -0.024804663 0.07914181 0.026957456 0.08171406 0.03737816 0.091699645 0.021537015
0.08184903 -0.04811283 0.033642847 0.01329447 0.032980982 -0.009822696 -0.073789224 0.04880116
0.048802957 -0.00656543 0.041762978 0.06459427 -0.06329678 -0.021174463 0.11491289 0.08731625
-0.03844452 -0.017786795 0.06316158 0.023979269 0.08798136 -0.07095284 0.078758575 0.03174617
0.044317245 -0.04842426 0.016266065 -0.054837707 0.004096347 0.06416081 -0.035374504 -0.0044685677
0.025477974 -0.057972312 0.057600114 -0.01945182 0.09187869 0.0058966954 0.077749714 -0.03476918
-0.010529558 0.03427751 -0.049517207 0.05369698 0.04573156 -0.036496013 0.0019162471 -0.035819046
0.08388108 -0.0641938 0.044872515 -0.046567123 0.023002615 0.0077748965 0.07103237 -0.09553676
0.07299428 0.04112233 0.01834478 -0.034643847 -0.069578014 -0.06238991 0.047470037 0.06311759
-0.01812346 -0.034590106 0.009236859 0.09522343 0.03902547 0.038561255 -0.035824087 -0.08579885
0.030634847 -0.07828891 0.061264656 -0.027022293 -0.06544905 -0.083821796 0.058745094 0.009120519
0.07473559 -0.04849653 0.032924302 0.009933189 0.0060710683 -0.044148013 -0.09418869 -0.044299968
-0.026176192 0.030130817 0.06647587 -0.0077882917 -0.03491156 -0.030445961 0.006367555 -0.08308223
0.0061215637 -0.023886478 0.04705986 -0.019382507 0.0014114103 -0.03260177 0.115234226 9.30729e-05
0.021430837 -0.02739169 -0.08953847 0.0030017868 -0.0012522396 0.043274462 0.046151377 0.05480179
0.08456353 0.0078819245 0.018448811 0.052876823 0.09350673 -0.07377761 0.04936452 -0.050072864
-0.007748714 -0.046823934 -0.08628777 0.006845374 0.011508114 0.0414228 0.05012815 0.029339332
0.00601917 -0.05745386 -0.014018191 -0.0139182685 0.011176417 0.064010255 0.07097935 0.005847181
-0.10271834 -0.0071073784 0.004270154 0.0058326717 0.04551756 0.03699869 -0.019119551 0.03816442
-0.018134197 -0.08284779 -0.031107605 -0.008818173 0.021242319 -0.024219956 0.05221452 0.013170038
0.052411597 0.0069813947 0.08195674 -0.02521567 -0.047482792 -0.06707314 -0.11346468 0.009939143
-0.056254134 0.06760232 0.011660171 0.055080373 0.055831097 0.04990382 -0.0020325466 0.056613624
-0.016015835 0.008761553 -0.038908307 0.070680685 -0.0103799375 -0.0028121027 0.048767217 -0.05171165

model.2.bias f4 [128]
00000000: 4e66 61bd 2dc8 ac3d ac8f 58bb 8ef8 29bd
00000010: 4293 843d d03d 50bd 585d cf3d c908 423c
00000020: 71dd 753d 8bc3 5dbc fe19 aa3d 9951 82bd
00000030: a4c2 85bc 67f4 553d a38f 6ebd 6269 ccbd
00000040: b3fa 703c 60f0 cf3d 8cb9 f9bd a503 923d
00000050: 83a0 ca3d ad50 103d 328e a8bd aef3 493d
00000060: be6a 19bd 1e2a 0f3d 3d1c 26bd 6407 99bd
00000070: 9e61 a3bd c2c1 7b3d 67dd 9c3d a0c7 8dbd
00000080: db44 8bbd da38 c73d 5aee a0bd 47dc c53c
00000090: 3c3e 85bd fe99 a53d 5b41 cf3d 888e 5bbd
000000a0: 6949 5e3d d5e0 4a3d d21b b93c 5e69 293d
000000b0: d5ed b63d 06cd bd3d cc35 123e b411 a1bd
000000c0: 340b b03d 4f90 5cbd 576a a539 b28f 5f3d
000000d0: 3ffc ba3d 635a 2a3d effa 0fbd c7cc 88bd
000000e0: bb3c d13d 977d 93bd c5d4 a23d d3bc 96bd
000000f0: c2f2 a53d 7d6f a4bd 909c b3bd c674 f53d
00000100: 0d61 de3c 29ae 4dbd bba8 15bd c442 be3d
00000110: 2d5b ad3d 05ec 23bd 949e 8c3d 1a08 f0bd
00000120: b3eb 313d 69fa 3dbd 7c69 133d 8e57 133e
00000130: 9d97 c93d 8a00 8f3d 2d31 0c3d 5189 2fbd
00000140: 5be9 7e3c e94e 70bc ae30 873d d560 9d3d
00000150: cfbc 4a3c d69e 883d fb90 e03d 06d0 653c
00000160: 9356 bbbd dfd4 b6bc 78bc 91bc ffb7 c23c
00000170: e359 b0bd 3c57 acba e271 9d3d 3afa 863d
00000180: bbc5 333d 9a37 04bd 31e3 6abd 7a4e 313d
00000190: 0b9d ccbb 749d 343d 061a f3bc aceb 7dbd
000001a0: 8fb5 dfbd 40b5 683b 811b 6dbd 29dc 4fbd
000001b0: 278e 0cbd 2cce e53b c35e 3bbd 5a12 483d
000001c0: 598e b23c 2e9a 2bbc 0fd3 b9bc ccce 90bd
000001d0: 3d6f 22bd 7adc 913d 25cf 88b9 0ea4 673d
000001e0: 209c 9b3d 972b 54bd dc7b 003e 3dc0 4c3d
000001f0: 5487 aabd 7fd8 8d3c ec22 04bc 2036 553d
-0.055029206 0.08436618 -0.003304462 -0.041496806 0.064734 -0.0508402 0.10125226 0.011842915
0.060025636 -0.013535391 0.08305739 -0.0636322 -0.016328163 0.052235033 -0.05824245 -0.09981038
0.014708209 0.1015327 -0.121935934 0.071296014 0.098938964 0.03523319 -0.082302466 0.049304657
-0.037455313 0.034952275 -0.040554274 -0.07472113 -0.079776034 0.06146408 0.07659417 -0.06922841
-0.068002425 0.097276405 -0.07857962 0.024152888 -0.06506011 0.08086012 0.101198874 -0.053602725
0.054269228 0.049530823 0.022596274 0.04136025 0.089320816 0.09267621 0.14278334 -0.07864705
0.08595887 -0.05384856 0.00031550482 0.054580398 0.091301434 0.041590106 -0.03515142 -0.06679683
0.102166615 -0.07201689 0.07950739 -0.07360234 0.08102943 -0.08029077 -0.08770096 0.119851634
0.027145887 -0.05021492 -0.036537867 0.09290078 0.08464656 -0.040020008 0.06866184 -0.11720295
0.04343767 -0.046381388 0.03598927 0.14388868 0.09843371 0.06982525 0.034226585 -0.042855565
0.015558566 -0.014667251 0.06601082 0.07684485 0.012374117 0.066709206 0.10965153 0.014026647
-0.09147372 -0.022318302 -0.017790064 0.023769377 -0.086108945 -0.0013148556 0.07687737 0.06590696
0.043889742 -0.03227959 -0.057345573 0.04328773 -0.006244307 0.04409547 -0.029675495 -0.061992332
-0.109233014 0.0035508424 -0.057887558 -0.05074707 -0.034315255 0.007013103 -0.04574467 0.048845626
0.021796392 -0.010473771 -0.022683648 -0.070706934 -0.039656866 0.07122131 -0.00026094276 0.05655294
0.07598138 -0.051799383 0.12547249 0.04998802 -0.08326593 0.017315147 -0.008064967 0.05205357

model.4.weight f4 [128, 128]
00000000: 79f9 833c 158c 113d cc00 973d c6eb bbbb
00000010: 507e 4bbd a959 63bd 642d ab3d 13c2 383d
00000020: bcc5 1e3d 357d 5f3d 6949 d23c c919 853d
00000030: a824 7f3c 2281 50bd 6fd9 323d 57ae 5e3d
00000040: bb18 6bbd 19f0 8b3d 6cdd 0dbd 323f 91bc
00000050: 6e19 5a3d d342 95bc 3d51 933d 3292 983d
00000060: 02fe 84bd 0e77 5dbd 268a 73bc 4a1d b8bc
00000070: ed50 dcbd 0bb3 923d 5771 80bc 9e8e b23c
00000080: cfe8 243d 73ff a93d babf 4a3c 6e4d 8bbd
00000090: f8ac 543d c869 913d 0312 3fbc f7ca fe3c
000000a0: 2808 623b 4b96 9ebd fb7d a73d 5411 8b3c
000000b0: 7652 b33d c776 753d 7df4 bebc c856 4ebd
000000c0: bb77 943d 1e7c 67bd d498 b13d aac1 6ebc
000000d0: 8488 853c 74a5 813c 8746 b2bc 582d 013d
000000e0: 6d3f debc 657d 5dbd 1a4d b9bc a24f 133c
000000f0: 2a9f 4737 af72 313d ae22 913d ba36 d23d
00000100: 5749 873d be89 2ebd 2e02 2f3c 856b 5339
00000110: b63d 8c3d e02a 923d 9fc4 373d 3ceb b53d
00000120: ab5d 12bd 98f6 2cbc 9758 d33c 3e49 c6bd
00000130: cae3 ffbc bdea 8dbd f02b 923c fcc5 63bd
00000140: a853 a83c e2cc d03c ee81 5abd faf9 5f3d
00000150: 5a09 3b3d 4194 a13d af58 b33d efb8 8cbd
00000160: 0276 34bc 5740 cd3d 3577 bd3c de97 753d
00000170: b799 803d 6fc6 95ba 0370 ec3c 9594 6fbd
00000180: 9a55 c3bd 8cd3 233d ee3c 5abd cf9a 933d
00000190: 0ca1 2ebc b389 f43c 76f3 d73b a679 48bd
000001a0: dba7 90bc 8ad6 82bd 7739 883d 7db5 57bd
000001b0: 4f5f 363d d8b6 e53c 7216 4dbd 448c a53b
000001c0: 1b5f 23bc ac3f 6bbd 49eb 6ebd 6413 fd3b
000001d0: 5c54 243d 319e e7bc 3c86 4cbd 6bd5 9d3d
000001e0: 92f4 96bd f86f 21bd 1b48 82bd 01d5 233b
000001f0: 258d 34bd 4de1 31bc 1bb7 1b3d 103f 4f3d
00000200: 9a30 943d f367 f43b 8059 b53d 5994 ad3d
00000210: e5b1 1a3d c017 893d 65d0 3ebd 2a10 7fbc
00000220: 0500 3e3c 156a 593d f961 53bd 1194 f83c
00000230: f84f 04bc 5f38 9abb 3c33 62bd 2177 943d
00000240: e81d a63c 8844 9ebd f9ff 393a 9759 47bb
00000250: aa61 1b3a 1e29 b4bd a6a2 e93c 570c c23d
00000260: 90b0 813c 77e3 89bd bcf9 51bc 28d2 53bc
00000270: 2ce1 86bc ae70 ac3d 3db4 cf3d b362 8d3c
00000280: 1847 a0bd e6bc bb3b 3a4a 97bd bc0c 60bd
00000290: 49f5 0c3d 1b1b a33d 336c bcbc 33c4 453d
000002a0: e9e7 9b3d f702 85bc a86a 593d afa5 c93d
000002b0: 22ae 783d be36 863d e087 0dbd b2eb 9c3c
000002c0: 40ca a5bb 418b 8cbc a6e9 883d d955 873d
000002d0: 4677 963b fad2 aa3d 7f0b 923d 41df e53a
000002e0: d2ee 2abd 8045 84bd 4af0 cd3c 944c fb3c
000002f0: a1b6 e13c 78da 16bd 2c04 3e3c f312 cebc
00000300: 539c 7bbd d667 b33d 1e6d d53c 49b5 553d
00000310: da2b 863d 5453 78bd 7fa0 c93c 5e2e 3ebd
00000320: 4dcd 0f3d c496 883d f7ba 633d d028 193d
00000330: 6851 273d 53a4 e33d f4ee 7e3d 718b 48bd
00000340: de52 3b3c 9932 ddbc ca9d f0bc 8e70 373d
00000350: 4707 babb 48fe 49bd b600 4b3d 09f5 653d
00000360: 350d 993c 0674 bb3c 1b73 9abd 505c ae3c
00000370: 49f3 15bd a53d 2c3d 5c84 85bc 2dc1 b4bc
00000380: 849e 043d 833b d6bb b453 54bb 25d9 adbd
00000390: dee1 863d ca0c 89bd 9408 05bd 5fee 18bd
000003a0: ed14 4abb a2a5 b53d 2703 d03c b4ce 943d
000003b0: 6751 9ebd 7f1c 48bb a9ee 89bb 7673 de3c
000003c0: f163 673d 8db2 46bc d7c2 7e3c c3b5 5c3c
000003d0: 21e0 d1bd fa72 94bd 8852 1ebb c9a3 af3d
000003e0: 0145 3abb 8b7a a23c 9f79 91bd d7ba b83d
000003f0: 0402 5a3d 61ba 3bbb c4a6 52bd f0d0 723d
0.016110169 0.035533983 0.07373199 -0.0057348935 -0.049681008 -0.05550543 0.08358267 0.04510696
0.038762793 0.054562766 0.02566977 0.06499059 0.015572704 -0.0509044 0.043664392 0.054365482
-0.05739663 0.06832904 -0.034634992 -0.01773033 0.053246908 -0.01822034 0.07193229 0.074497595
-0.06493761 -0.054068618 -0.01486448 -0.022474904 -0.10757623 0.07163056 -0.015679045 0.02179652
0.040261086 0.08300676 0.012374813 -0.06801878 0.05192277 0.07100254 -0.011662009 0.03110264
0.0034489725 -0.0774351 0.08178326 0.016976036 0.087559626 0.059927728 -0.02330994 -0.05037573
0.07249399 -0.05651485 0.08671728 -0.01457254 0.016300447 0.015825965 -0.021762146 0.031537384
-0.027129853 -0.054074664 -0.022619773 0.008991154 1.1898383e-05 0.04332226 0.07086693 0.102643445
0.06605785 -0.04261183 0.010681672 0.00020162582 0.06847708 0.07137084 0.044865247 0.08882758
-0.03573386 -0.010556839 0.025799079 -0.096819386 -0.031236548 -0.069295384 0.017843217 -0.055608734
0.020547703 0.02548832 -0.053346567 0.054681756 0.045663215 0.07889605 0.087571494 -0.06871211
-0.011014463 0.100220375 0.023128131 0.059959285 0.06279319 -0.0011426936 0.028862005 -0.05849131
-0.095378116 0.03999667 -0.053280763 0.07207262 -0.010658514 0.029850816 0.006590302 -0.048944138
-0.017658165 -0.06388576 0.066515855 -0.052663315 0.044524487 0.028041288 -0.050070234 0.0050521214
-0.009971405 -0.05743377 -0.058329854 0.007723259 0.040119514 -0.028273674 -0.049932703 0.07706722
-0.07370867 -0.039413422 -0.06361409 0.0024998786 -0.04407992 -0.010856939 0.03801642 0.05059725
0.072358325 0.007458681 0.088549614 0.08475561 0.03776731 0.06693983 -0.04658546 -0.015567819
0.011596684 0.053079683 -0.051607106 0.030344041 -0.008075707 -0.004706427 -0.055224642 0.072492845
0.020277932 -0.07727915 0.0007095333 -0.003041839 0.0005927334 -0.08796905 0.02851994 0.0947501
0.015831262 -0.067328386 -0.012815889 -0.012928523 -0.016464792 0.084199294 0.101417996 0.017258978
-0.0782606 0.0057293056 -0.073872045 -0.054699644 0.03441361 0.07964154 -0.023000812 0.048282813
0.07612593 -0.016236765 0.05308023 0.09846055 0.06071294 0.0655341 -0.03455341 0.019155357
-0.0050595105 -0.017156245 0.0668519 0.06608171 0.004591855 0.08341022 0.07131099 0.0017537848
-0.041731663 -0.064585686 0.025138993 0.030676164 0.027552905 -0.03682944 0.011597674 -0.02515552
-0.06142838 0.087600395 0.026053008 0.05217484 0.06551333 -0.060626343 0.024612663 -0.046430938
0.0351079 0.06669381 0.055598225 0.037392437 0.04084912 0.11115327 0.062239602 -0.048961107
0.011433331 -0.027001666 -0.029372115 0.044785075 -0.005677137 -0.049314767 0.049561225 0.056141887
0.018683055 0.022882473 -0.07541486 0.021284252 -0.036608968 0.042050976 -0.016298465 -0.02206477
0.032377735 -0.006537856 -0.0032398524 -0.08488683 0.065860495 -0.066918924 -0.032478884 -0.037336703
-0.0030835227 0.088694826 0.025392128 0.07265988 -0.0773037 -0.0030534563 -0.0042093587 0.027154665
0.056491796 -0.012127531 0.015549383 0.01347107 -0.10247827 -0.072484925 -0.002415808 0.085761614
-0.0028422477 0.019833824 -0.071032755 0.09020012 0.05322458 -0.0028645026 -0.05142857 0.05928129

model.4.bias f4 [128]
00000000: 98e6 02bb f4db 56bd f0c3 8d3d 9ae5 2a3d
00000010: 0f19 c0bd f8e9 26bd 524a 8d3d 6ad8 81bd
00000020: fcb2 8b3d 72ed 053c 4293 99bd bfd4 6bbb
00000030: fcf7 f83c bdf4 5bbd d842 883d 46e9 a13d
00000040: fbe6 8d3d 743c d6bd 3570 87bd b939 643d
00000050: 5fd4 dcbc 4ed2 b13d 2f1a da3c f075 c63d
00000060: 8762 4fbc 8622 8b3d 36ce b4bd 5eb4 983d
00000070: eb5b 6fbd 13b4 0e3c e940 d63c 5438 b5bd
00000080: 1f13 583d f79e 6fbd 726b e0bb 4a9e b23d
00000090: 39a0 b53d 323a 8f3d 0b64 243d d931 0338
000000a0: 1990 1a3d 3586 733d 4828 5e3d fb2f b0bc
000000b0: 1bd3 6fbd 8d59 c03d 5921 9c3a bdb4 023d
000000c0: 0373 dcbc 1b13 8eba c65b 4f39 95ec e93d
000000d0: 680a 96bd af1f fcbc 4b90 52ba 831c e1bc
000000e0: 382b 3d3d 80a0 6a3c be3d 45bc 56f7 223c
000000f0: d45e 6b3c 8ca4 d63d 6c18 3e3d 8f55 8a3d
00000100: d349 1abd a535 293d ab53 163d 73b7 a93d
00000110: 0acf 58bd 801f fc3c e595 b2bc df74 37bd
00000120: 46c6 513c ea4b 003e c401 3b3d 4d70 58bd
00000130: e717 ba3b 7e96 d93d 86cb 7bbd 72b8 b83a
00000140: 4836 9dbd e3e1 8ebd 0974 96bc 6f66 96bd
00000150: c64c 7b3c 62ae 3e3d ef14 c73d 8957 263d
00000160: 8eec 2d3d f107 0fbc 010d 15bc 7267 b6bc
00000170: cec3 8c3d 67d5 193d 8892 1fbd dc90 6ebd
00000180: 8537 0f3d e5d4 38bc 5341 56bd 1f6a 533d
00000190: 2f16 1e3c d16b 2abd 5786 243b 7d64 c8bb
000001a0: 2f7b de3c 1986 d9bc 91d8 663d c115 38bd
000001b0: 83ae 9b3c 49c7 4c3d 5d34 5fbc 21b5 a33c
000001c0: 0970 a13d 614f a43d 748d 93bd 79c0 bd3d
000001d0: bc88 a9ba 03a0 d2bc 5950 debc e134 503c
000001e0: 6b6d 233d 19ef 3bbd 15ac 33bd 8799 adbc
000001f0: ca00 963c d9ff b83d 5210 13bc 63bc 10bd
-0.001997387 -0.052455857 0.06922138 0.04172287 -0.093797795 -0.040750474 0.06898941 -0.06340106
0.06821248 0.008174287 -0.0749879 -0.003598496 0.030391686 -0.053700197 0.066533744 0.079058215
0.06928822 -0.10460749 -0.06613199 0.05571911 -0.026956735 0.086826906 0.026623813 0.096904635
-0.012657768 0.06793694 -0.08828394 0.07456277 -0.05843727 0.008709925 0.026153998 -0.08848634
0.05275261 -0.05850121 -0.006848746 0.087215975 0.08868451 0.06993522 0.04013447 3.1279258e-05
0.03773508 0.05945416 0.054237634 -0.021507254 -0.058550935 0.093920805 0.0011911794 0.031910647
-0.02691031 -0.0010839434 0.00019775247 0.114220776 -0.073262036 -0.030776827 -0.00080323656 -0.027479416
0.046183795 0.014320493 -0.012038646 0.009946665 0.0143658705 0.104806036 0.04641001 0.067546
-0.03766806 0.041310925 0.036700886 0.08286943 -0.052931823 0.03077674 -0.02179999 -0.04478919
0.01280362 0.12528959 0.04565598 -0.052841473 0.005679119 0.10624407 -0.061473392 0.0014093055
-0.07676369 -0.06976678 -0.018365877 -0.073437564 0.015338128 0.046553023 0.0972079 0.040610824
0.042461924 -0.008729921 -0.009097339 -0.022266123 0.06873284 0.037557032 -0.038958102 -0.058243617
0.034965057 -0.011281227 -0.05230839 0.051614877 0.009648844 -0.041606728 0.0025104487 -0.0061154948
0.027158348 -0.0265532 0.056358878 -0.04494262 0.019004112 0.04999474 -0.013623324 0.01998383
0.07882697 0.08022953 -0.072047144 0.09265227 -0.0012934427 -0.025711065 -0.027137922 0.01270792
0.03989927 -0.04588232 -0.043865282 -0.021191372 0.018310923 0.09033174 -0.008976059 -0.03533591

model.6.weight f4 [3, 128]
00000000: f536 403c 36d4 823d 6af9 87bd c1d1 aebd
00000010: c939 37bd 8851 173e 79db 57bc d7e6 64bd
00000020: bd64 5c3d 915a bb3d 5351 cabd ada2 6abd
00000030: 9f73 9e3d 97e2 26bd 2db2 2ebd 6a2b bb3d
00000040: e984 7f3c 9dac 7ebd 246e c5ba 0bfd d43d
00000050: 9e18 033e 1fb0 7f3c f7d1 b93d 91a5 033e
00000060: 1475 72bc 3f25 a0bc 37f3 92bd 9ae5 27bd
00000070: 53b1 62bd b92a 67bd 7266 2d3d b96b 1d3d
00000080: 5366 603d bb39 49bd fd5c a0bd 1d62 8ebd
00000090: dfe3 d83d 1234 85bd c24e b0bd 9c1e 0f3d
000000a0: b717 843c 5639 f83d 3a80 a73d 63e8 4c3c
000000b0: d7c4 693d 4f47 e6bc cea9 c13d a777 063c
000000c0: 5e36 c8bd c1b9 a83c 02ad 893c 5a6a fe3d
000000d0: 22bc fabd 6a25 c9bc e4c4 073e 6dd5 a2bd
000000e0: bec0 64bd f174 07bd e2e7 93bd 4b76 e8bb
000000f0: bdab f73d d731 aebd 23c2 83bc 0c73 dd3c
00000100: 9da0 a13d 7006 053d 8442 f9bc e05e e43d
00000110: e7a1 053e c007 68bd b0ce 68bd 6090 153c
00000120: 1abb f9bd e8c4 803d 52b2 93bd f024 aabc
00000130: 03e1 43bd fffb 873d 1cc0 95bd bf95 8bbd
00000140: 00a2 b5bd 2208 68bd 23fe 703d 9137 4bbd
00000150: 2100 42bd cd02 57bc 9d9f d73d eee9 25bd
00000160: 2725 f9bd 77e5 163e 1d2c 0c3d 91e5 8a3d
00000170: f232 5b3c bf1a 9ebd 6a53 cebc 21b1 9ebd
00000180: ded8 00be 9c45 343d 9a41 ddbd dce3 4f3c
00000190: 5ef2 d5bd e9de fabd c9a8 8fbc 4470 bd3d
000001a0: c48f 08bc 1ce0 973d d289 bb3b 8aff 16bd
000001b0: 7953 8b3c ea72 7a3d 3e05 ac3d 1cf8 f93d
000001c0: 7fbb 3abd e2c2 5b3d c989 873c 3197 213c
000001d0: db30 4d3d 11d1 07be 18d8 8ebd 15ff ecbd
000001e0: 200b fabd 8f1f 75bd 536e d43d 7536 0ebd
000001f0: fa27 753d e392 0cbe e127 2a3d a0d0 113c
00000200: c150 c7bc d4a1 693d 6449 d5bc 2625 cd3d
00000210: 59b7 ac3d cc2e 8cba 022b 06bc 6e29 053d
00000220: cd47 853c 5879 ecbc 8f63 dabd b877 853d
00000230: 2b05 c2bd 227e acbd f3a6 403d 8c13 a8bd
00000240: 574f f43c d2c9 013e 5dfd b4bd ac91 d63b
00000250: 04aa a4bd 4f7a 553d 347e 9c3d 3756 6d3d
00000260: 27ab e43d f956 f33a aead 0f3d 0aa3 ad3d
00000270: 21b9 a83d bad1 343d f610 b43d 960c 87bc
00000280: dd2c 6c3d f5cf 673d 226a 083d 82ab 6b3c
00000290: 4e43 2c3d c847 003e e8e3 a4bd 2ac5 403c
000002a0: 59fb 2e3d 4e27 9b3d ff1a c03d 302b 8a3d
000002b0: 2559 c43d 1a97 04be 9faf d83d e8c0 98bd
000002c0: 9be9 7dbc a5a2 b13d 3edd 2bbc 561b edbd
000002d0: 5175 503d 71e1 803b c93b 13bd 8575 973d
000002e0: d48f 9fbb 470f b6bd 0550 8c3d 67e4 853c
000002f0: cedc 9b3b 5831 a43c 424f e43d c0f0 b3bd
00000300: 36a0 f8bc b7dc c23d bad2 50bb 9e0d 943d
00000310: fdbb 3ebc 0dc1 b13c 1a5e f63d 9148 283c
00000320: 452d 8dbc b4db 203c 949d 3b3d f821 413c
00000330: 56d9 893b 35b8 27bc f8f7 64bd e746 d0bd
00000340: 7934 a6bc 9781 e43d 3995 35bc 8d43 e1bd
00000350: 7025 e33d 01a0 ccbd c587 ecbd e42c a53c
00000360: 7d86 103d 9593 3d3d 9ca3 e9bc 84dc 2abd
00000370: fe6c 5bbd 6d7f 48bd 1646 dfbd c1a2 a43d
00000380: dce7 343b 7788 1c3c 4509 0b3d 40a8 003d
00000390: 091e a23d 6490 b63d d875 d13d b7d8 7ebd
000003a0: 6782 ba3d 4b5b 093d 757b f0bd 1162 3a3d
000003b0: 9949 d13d a8f5 2e3d cf9c 12bd 96da 3fbd
000003c0: da0f a8bd cd69 373d bec3 20bd 95ab a8bd
000003d0: 9310 1a3d 7f34 0bbd 380f f2bd 706d 2bbd
000003e0: 09b2 ccbd eeba ffbd 6f21 793d cce1 44bd
000003f0: 2b4f 4fbd 3d09 b0bd d617 2cbd 823a b4bc
0.011731853 0.06388132 -0.06639369 -0.08536101 -0.044732843 0.14777195 -0.013174885 -0.05588421
0.05380701 0.091481335 -0.098787926 -0.057284046 0.07736897 -0.040743437 -0.04265039 0.0913914
0.015595653 -0.062176336 -0.0015062732 0.103998266 0.1280236 0.015605955 0.09073251 0.12856127
-0.014798421 -0.01954901 -0.07175296 -0.04099045 -0.05534489 -0.056437228 0.042334028 0.03843281
0.054785084 -0.04912732 -0.07830236 -0.069523074 0.10590338 -0.06504072 -0.08608772 0.0349413
0.01612459 0.12120311 0.08178754 0.012506577 0.057072487 -0.028110174 0.09456216 0.008207238
-0.09775995 0.020596387 0.01680613 0.12422629 -0.12242915 -0.024553973 0.13258702 -0.07950864
-0.055847876 -0.03307051 -0.072219625 -0.0070941797 0.12093303 -0.085056 -0.016083783 0.027032398
0.07891963 0.032476842 -0.030427225 0.111509085 0.13050042 -0.056648016 -0.056837738 0.00912866
-0.1219389 0.06287557 -0.07211746 -0.020769566 -0.04782201 0.06639861 -0.073120326 -0.06815671
-0.0886879 -0.05664838 0.058836114 -0.04961354 -0.047363404 -0.013123226 0.10528491 -0.040506296
-0.12165289 0.14735971 0.034221757 0.067820676 0.0133788455 -0.07719945 -0.02518626 -0.077486284
-0.12582728 0.044011697 -0.10803528 0.012688603 -0.104466185 -0.12249548 -0.017536538 0.092499286
-0.008335058 0.07415792 0.0057232166 -0.036864795 0.017007576 0.061144747 0.08399437 0.12205526
-0.045588966 0.05365265 0.016545193 0.009862707 0.05009542 -0.13263346 -0.0697481 -0.115720905
-0.12209153 -0.05984455 0.10372605 -0.034719903 0.059852578 -0.13727908 0.041541938 0.008899838
-0.024330499 0.057039097 -0.026035972 0.10016851 0.08433408 -0.0010695099 -0.008188965 0.032510214
0.016269589 -0.028866455 -0.106635205 0.06516975 -0.09473642 -0.084224954 0.047034215 -0.08206853
0.029822988 0.12674645 -0.08837388 0.006548127 -0.080402404 0.052118596 0.07641259 0.05794355
0.11165457 0.0018565349 0.035077743 0.08478363 0.082384355 0.044145323 0.087922975 -0.016485494
0.057659972 0.056594808 0.03330434 0.014384152 0.042056374 0.12527382 -0.08051282 0.011765758
0.042720173 0.07575856 0.09380149 0.067465186 0.095873155 -0.12948266 0.10580372 -0.07458669
-0.01549759 0.086736 -0.01048976 -0.115774795 0.05089313 0.0039331247 -0.035945687 0.07395462
-0.0048694406 -0.08889633 0.068512 0.016344262 0.0047565466 0.02004306 0.1114793 -0.08786154
-0.030349832 0.09514754 -0.0031863884 0.0722916 -0.0116415 0.0216985 0.12029667 0.010271207
-0.0172335 0.009818006 0.045804575 0.011787884 0.0042068167 -0.0102367895 -0.055900544 -0.101697735
-0.020288693 0.1115753 -0.011082941 -0.109992124 0.11091125 -0.09991456 -0.115493335 0.020163007
0.035284508 0.046283323 -0.028520398 -0.041714206 -0.05357074 -0.048949648 -0.1090204 0.08038855
0.002760402 0.00955402 0.033944387 0.031410456 0.07915885 0.08914259 0.10227555 -0.062218394
0.091069035 0.03353433 -0.117422976 0.04550368 0.10219116 0.042714745 -0.035794076 -0.04683932
-0.082061484 0.044778634 -0.039249174 -0.08235852 0.037613463 -0.03398561 -0.11819309 -0.041852415
-0.09994895 -0.12486826 0.0608229 -0.0480669 -0.05061261 -0.08595512 -0.04201492 -0.022000555

model.6.bias f4 [3]
00000000: 4165 91bd f3af 9bbd 1b56 393d
-0.07099391 -0.07601919 0.045248132
