exported_models/neural_networks/original_mlp/trained_models/mlp_dynamics.pth (torch, 22097 bytes, 6 tensors)

model.0.weight f4 [64, 5]
0	0xbe8df7d6	-0.27728146
1	0xbea88f9e	-0.3292207
2	0xbec0929d	-0.37611857
3	0x3ea580d6	0.32324857
4	0xbe60f9f1	-0.21970345
5	0x3e8b4a22	0.27204996
6	0xbef3ea0f	-0.4763951
7	0xbedcc7d2	-0.431212
8	0xbea17d60	-0.31540966
9	0x3e2df15e	0.16986606
10	0xbe8d97e6	-0.27654952
11	0x3e14c3d3	0.14527826
12	0xbe81a476	-0.25320786
13	0xbea07532	-0.31339413
14	0x3eb30f07	0.34972402
15	0x3e78fbdc	0.24314827
16	0x3e510d9c	0.20415348
17	0x3f0187c1	0.5059777
18	0x3e4c83dd	0.19972177
19	0x3eca98e0	0.3956976
20	0x3e83ed69	0.25767067
21	0x3ed66454	0.4187342
22	0xbce56d68	-0.02800627
23	0xbdfef55d	-0.12449143
24	0x3d4d8da0	0.050183892
25	0x3ec8fc46	0.3925497
26	0x3ed54a84	0.41658413
27	0x3ed47de7	0.41502306
28	0xbea36dcb	-0.31919703
29	0x3e8fd44e	0.28091663
30	0xbe61a0f8	-0.22034061
31	0xbf0c82b8	-0.5488696
32	0x3cf2b34c	0.029626511
33	0x3dfe5d5d	0.124201514
34	0xbd0148ac	-0.031563446
35	0x3e12d140	0.14337635
36	0x3d73c5ac	0.059514686
37	0x3efabf42	0.48974043
38	0x3e9737b8	0.29534698
39	0xbeed9d46	-0.46409053
40	0xbedfde46	-0.4372427
41	0x3ead9342	0.3390141
42	0x3e210615	0.15724976
43	0xbe921142	-0.28528792
44	0x3e58bef6	0.21166596
45	0xbbe9f67d	-0.0071399794
46	0x3e4fd389	0.20295538
47	0xbefa6e56	-0.48912305
48	0x3e2e90a0	0.17047358
49	0x3e11ab29	0.14225449
50	0x3ea9d534	0.33170474
51	0x3e2f3d3f	0.17113207
52	0xbe112e27	-0.14177762
53	0x3df4097f	0.11915874
54	0x3df62e3e	0.12020539
55	0x3ed59012	0.4171148
56	0xbec50ea3	-0.3848773
57	0xbddd359b	-0.1080124
58	0x3e810a5c	0.25203216
59	0xbe534988	-0.20633519
60	0xbe8d010b	-0.27539858
61	0xbd6a49ff	-0.057199474
62	0x3dfd0da9	0.12356121
63	0xbe048532	-0.12941435
64	0xbe9d81fd	-0.30763236
65	0x3e2041f3	0.15650158
66	0xbe06660d	-0.13124867
67	0xbeaca5ab	-0.33720145
68	0xbc9cf72f	-0.019160835
69	0xbdb4d574	-0.088297755
70	0x3e70de74	0.23522359
71	0xbd862b29	-0.06551201
72	0xbed26395	-0.410916
73	0xbd1b4cdc	-0.037915096
74	0x3e8d2444	0.2756673
75	0x3ee2b88d	0.44281426
76	0xbde7a3d9	-0.11310548
77	0x3d13527c	0.035967335
78	0x3e8d8964	0.27643883
79	0xbe89f87a	-0.26947385
80	0x3e981914	0.29706633
81	0x3e9ab371	0.30215028
82	0xbe6adbee	-0.22935459
83	0xbe87abe5	-0.26498333
84	0x3e03fe9e	0.12890097
85	0x3e5acc14	0.21366912
86	0xbd70cf52	-0.058791466
87	0xbe494198	-0.19653928
88	0x3e828570	0.2549243
89	0xbe8a94f7	-0.27066776
90	0x3eb2b29e	0.349019
91	0x3e95c147	0.2924902
92	0xbe7c48ff	-0.24637221
93	0xbd346373	-0.044040155
94	0xbc3dc5d6	-0.011582812
95	0xbc79377f	-0.015210985
96	0xbd6caadc	-0.05778013
97	0x3ed8453e	0.42240328
98	0x3e9ec145	0.31006828
99	0xbeabc0e0	-0.3354559
100	0xbeccb6f3	-0.3998333
101	0xbecf6086	-0.4050333
102	0x3e9be168	0.3044541
103	0x3eb6658c	0.3562435
104	0xbe3161ff	-0.17322539
105	0xbedd898b	-0.43269
106	0x3ec7fc34	0.39059603
107	0x3e022c63	0.12712245
108	0xbe887894	-0.26654494
109	0x3e548ab6	0.20756039
110	0x3d6bfa46	0.057611726
111	0x3eeb06a5	0.45903507
112	0x3df9f03a	0.12204023
113	0x3e6afa63	0.22947077
114	0xbdf74343	-0.12073376
115	0x3bfbbf57	0.0076827216
116	0xbed172ff	-0.40908048
117	0x3ecb4f58	0.39708972
118	0x3cb29999	0.021801757
119	0x3eb2ed65	0.34946743
120	0x3e00cc37	0.12577902
121	0x3e4e6dea	0.20159116
122	0x3e1cd610	0.15316033
123	0xbe61aed0	-0.22039342
124	0xbd107917	-0.03527173
125	0x3e110697	0.1416267
126	0xbeec4fb0	-0.46154547
127	0x3eee9014	0.46594298
128	0xbecc022a	-0.398454
129	0xbe9045fd	-0.28178397
130	0xbdd6d413	-0.10489669
131	0x3e805e89	0.25072125
132	0x3ef2a619	0.47392347
133	0x3e7f9db8	0.24962509
134	0xbe1ae8d4	-0.1512788
135	0xbe98e1b4	-0.29859698
136	0x3e9e5ab8	0.30928588
137	0x3ec4d7bf	0.3844585
138	0x3daf8453	0.08570161
139	0x3d8247bf	0.06361341
140	0x3ec20aa6	0.3789875
141	0xbe1da73e	-0.15395829
142	0xbeb2d43f	-0.34927556
143	0xbea5771d	-0.3231744
144	0xbe0e4811	-0.13894679
145	0xbee54943	-0.44782457
146	0xbe0a201f	-0.13488816
147	0x3edf7493	0.43643627
148	0x3dfed5e7	0.124431424
149	0xbec154d0	-0.3776002
150	0xbda8d348	-0.08243424
151	0xbede0077	-0.4335973
152	0xbe9bd605	-0.3043672
153	0xbe1e049f	-0.1543145
154	0x3ddefacd	0.1088768
155	0xbee54ef0	-0.44786787
156	0x3cb9e349	0.022691386
157	0xbe58f65b	-0.21187727
158	0xbe2699ef	-0.16269659
159	0xbda2e36e	-0.07953535
160	0xbc48f0cb	-0.012264441
161	0xbe8c55ea	-0.27409297
162	0x3e9bf114	0.30457366
163	0x3e290b6a	0.1650826
164	0x3e9b64e8	0.30350423
165	0x3e5b699c	0.21427006
166	0xbed2225d	-0.41041842
167	0xbe8179d6	-0.25288266
168	0x3e8de04b	0.27710184
169	0xbe3c00f0	-0.18359733
170	0x3e4ad0fb	0.19806282
171	0x3e7a6b53	0.24455003
172	0x3eea0553	0.45707187
173	0xbe352c0b	-0.17692582
174	0x3c5a6872	0.013330566
175	0xbed9e585	-0.42557922
176	0x3dd66b6f	0.1046971
177	0xbcd854b9	-0.026407586
178	0xbe865328	-0.26235318
179	0x3e7d2f60	0.24725103
180	0xbec99d30	-0.39377737
181	0xbeea6bfc	-0.4578551
182	0xbd0d0874	-0.03443189
183	0xbeb4338d	-0.3519558
184	0xbbc53dbb	-0.0060193217
185	0xbeaf91ee	-0.34291023
186	0xbe9640db	-0.29346356
187	0xbd8e3670	-0.06943977
188	0x3e977b3f	0.29586217
189	0x3e23bec9	0.15990748
190	0xbec23c5a	-0.3793667
191	0x3ed3c425	0.41360584
192	0x3d72f749	0.05931786
193	0xbca8f06f	-0.02062246
194	0x3dfce8dc	0.12349102
195	0xbda002fb	-0.078130685
196	0x3e386759	0.18008174
197	0xbeb611c0	-0.35560417
198	0xbdb0220f	-0.08600246
199	0xbe59b6a0	-0.21261072
200	0xbf04addd	-0.51827794
201	0xbec9d648	-0.39421296
202	0xbcec6d4f	-0.028860716
203	0xbe4b25ba	-0.1983861
204	0xbe78d889	-0.24301352
205	0x3e6ace6b	0.22930305
206	0x3eb485c0	0.35258293
207	0x3efb8876	0.4912755
208	0xbeb6a3e5	-0.35671917
209	0x3e51fd6d	0.2050683
210	0x3bf49b4d	0.0074648024
211	0xbc2809de	-0.010256259
212	0x3ebcf58d	0.3690609
213	0xbe23bcf2	-0.15990046
214	0x3d2ac785	0.041694183
215	0xbe2cf35d	-0.1688971
216	0xbe08c47a	-0.133562
217	0xbec9beb1	-0.39403298
218	0xbe270ed9	-0.16314258
219	0xbe9ee71a	-0.31035691
220	0xbeb9215a	-0.36158258
221	0x3e670e1e	0.22563979
222	0xbe92791c	-0.28608024
223	0xbebbe30c	-0.3669666
224	0x3ed841c8	0.42237687
225	0xbc0bc83c	-0.008531626
226	0x3e80423a	0.25050527
227	0xbe760e6d	-0.2402894
228	0xbc3e2c93	-0.011607307
229	0xbe765d90	-0.24059129
230	0xbec1f325	-0.37880817
231	0xbe5ae835	-0.21377642
232	0xbe2d030d	-0.16895695
233	0xbd700cce	-0.05860596
234	0xbdd82bb4	-0.10555211
235	0xbeaa318b	-0.33240923
236	0xbea0b7f2	-0.3139034
237	0xb9c0f5c3	-0.000368042
238	0xbeae197d	-0.3400382
239	0x3e368941	0.17825796
240	0x3ef11764	0.47088158
241	0xbe4a4c17	-0.19755588
242	0xbe8961e0	-0.26832485
243	0x3ea569b0	0.32307196
244	0xbacc24f6	-0.001557498
245	0x3eb6c144	0.35694325
246	0x3cc01d51	0.02345148
247	0xbdf84558	-0.12122601
248	0x3e03d4c3	0.12874131
249	0xbe2f1321	-0.17097141
250	0x3e4442b6	0.19166073
251	0xbde0c1a2	-0.109744325
252	0xbe65158a	-0.22371498
253	0x3be22534	0.0069014076
254	0x3eccf588	0.40031075
255	0x3e9bdc44	0.30441487

model.0.bias f4 [64]
0	0x3d53c8bf	0.05170512
1	0xbd173a5d	-0.036920894
2	0xbcc7cd93	-0.024390018
3	0xbd811f90	-0.06304848
4	0x3d323580	0.043508053
5	0xbe083b35	-0.13303836
6	0xbe3f7119	-0.18695487
7	0x3ec587c3	0.3858014
8	0x3e533b0e	0.20627996
9	0x3e7ed528	0.24886
10	0x3c139914	0.009008665
11	0x3ed75413	0.4205633
12	0x3e87b322	0.26503855
13	0x3e8158b4	0.25262988
14	0xbe9d1021	-0.30676368
15	0xbe9a03ba	-0.30080968
16	0xbe69933d	-0.22810073
17	0x3f05496f	0.52065176
18	0x3e1bfcaf	0.1523311
19	0x3f0ce597	0.55037826
20	0x3e9d5534	0.30729067
21	0xbede44d9	-0.43411902
22	0xbc4d76f2	-0.012540566
23	0x3e823760	0.25432873
24	0x3e3d8314	0.18507034
25	0xbe99b315	-0.3001944
26	0x3dca1a7d	0.098683335
27	0xbeb396d4	-0.3507601
28	0x3ea8d0c3	0.32971773
29	0x3db7882e	0.08961521
30	0x3e992bb4	0.29916155
31	0xbdea0397	-0.11426466
32	0xbde772df	-0.11301207
33	0x3d7c9cee	0.061673097
34	0xbcac1d32	-0.021010015
35	0x3e91cb5a	0.28475457
36	0x3e993a27	0.2992718
37	0xbe52dbda	-0.20591679
38	0x3e526e0a	0.20549789
39	0x3b40ebe2	0.0029437472
40	0xbecf5de3	-0.40501317
41	0x3cc47f5f	0.023986517
42	0xbe7bacc8	-0.2457763
43	0xbd03e903	-0.03220464
44	0x3ecca2dc	0.39968002
45	0xbe24e376	-0.16102394
46	0x3eb9db25	0.36300007
47	0xbe293473	-0.16523914
48	0xbdc7dd83	-0.09759047
49	0x3cced38e	0.025247362
50	0x3e99b4ed	0.30020848
51	0xbe0c077c	-0.1367473
52	0xbe4612a8	-0.19343054
53	0x3cf94460	0.030428112
54	0xbe3d3863	-0.18478541
55	0x3e8d2eef	0.2757487
56	0x3d3f8681	0.046759132
57	0xbd096b42	-0.033549555
58	0x3ebb1e93	0.36546764
59	0xbea98212	-0.33107048
60	0xbe4d47f2	-0.20046976
61	0x3ec22aa1	0.37923148
62	0x3f0a3c49	0.5399824
63	0xbdde1f22	-0.10845782

model.2.weight f4 [64, 64]
0	0xbe07d45b	-0.13264601
1	0x3ce1cbb7	0.02756296
2	0x3d841fff	0.06451415
3	0xbdc8f28f	-0.098118894
4	0x3c6c0d7d	0.014407513
5	0x3d3db5d8	0.046315998
6	0x3c1b4a8d	0.0094782235
7	0x3deabe0d	0.114620306
8	0x3d762a28	0.060098797
9	0xbdd7b926	-0.10533361
10	0xbd8bcc34	-0.06826058
11	0xbdd88c68	-0.10573655
12	0x3d0289ba	0.031869628
13	0xbe4ed3f0	-0.20198035
14	0xbd9b5b2f	-0.07585751
15	0x3dd43dea	0.10363372
16	0xbdbbc4ab	-0.09168371
17	0x3bac2039	0.0052528647
18	0x3d3aadb9	0.04557583
19	0xbdcbca4f	-0.09950697
20	0x3d4e033b	0.05029605
21	0x3d85ab88	0.065268576
22	0x3e1a4277	0.15064417
23	0xbd96d4dd	-0.07364819
24	0x3db1ef73	0.086882494
25	0x3cd18748	0.025577202
26	0xbd0f40f9	-0.034974072
27	0x3dc6d616	0.097088024
28	0x3d85f83d	0.06541488
29	0x3d31f0d6	0.04344257
30	0x3d844139	0.06457753
31	0x3d9b04c9	0.07569272
32	0x3c118c4c	0.008883547
33	0x3bd70562	0.006561921
34	0xbd7af30b	-0.06126694
35	0x3c9a40f1	0.018829795
36	0xbc680690	-0.014161721
37	0xbd07b442	-0.03313089
38	0x3e32f2f6	0.17475495
39	0xbc516111	-0.01277949
40	0x3ddbbaea	0.107290104
41	0x3df38fec	0.11892685
42	0xbc3f000b	-0.011657725
43	0x3dd48a18	0.10377902
44	0xbd50855e	-0.05090844
45	0x3e8377c2	0.25677305
46	0x3da972ff	0.08273887
47	0xbc1e43d8	-0.00965973
48	0x3de67f4e	0.1125475
49	0x3da5f28a	0.08102901
50	0x3e088a94	0.13334113
51	0xbd2c88ef	-0.042122778
52	0xbe751b82	-0.23936275
53	0xbd5b25dc	-0.053502902
54	0x3db2532b	0.08707269
55	0x3dc880dd	0.09790204
56	0xbbaa5a55	-0.0051987567
57	0xbcb2a2d0	-0.02180615
58	0x3c71cc5c	0.014758196
59	0x3cef2022	0.029190127
60	0xbd2f5b2f	-0.04281157
61	0x3dad5c79	0.084649034
62	0xbd975a37	-0.07390254
63	0x3d4c7ab0	0.04992169
64	0x3da1419a	0.07873841
65	0xbdeea89f	-0.11653256
66	0x3d195842	0.037437685
67	0xbd4fb5ad	-0.05071037
68	0xbc8aa4e3	-0.016924327
69	0xbd391d48	-0.04519394
70	0x3e190896	0.14944682
71	0x3c4ef76e	0.012632234
72	0x3dc04ac3	0.0938926
73	0xbc22bf0f	-0.009933247
74	0x3d34077f	0.04395246
75	0xbdeaf673	-0.11472788
76	0x3d068eea	0.032851137
77	0xbd155a66	-0.036463164
78	0xbdec7cf8	-0.115472734
79	0xbcaebd94	-0.021330632
80	0xbdda5996	-0.106616184
81	0xbcdfc164	-0.027313896
82	0x3e46a213	0.19397764
83	0xbd9c986c	-0.0764626
84	0x3d95511b	0.0729086
85	0x3e0f7472	0.14009264
86	0xbcd159de	-0.025555547
87	0x3d3dd04e	0.046341233
88	0xbdd72ab0	-0.10506189
89	0x3dc318d1	0.09526218
90	0xbc12ad55	-0.008952458
91	0x3e21702b	0.15765445
92	0x3ce85811	0.028362306
93	0x3e17208a	0.14758506
94	0xbda6d7aa	-0.081466034
95	0xbb2d7b56	-0.002647122
96	0x3e114eeb	0.14190261
97	0x3d871f78	0.06597799
98	0xbdb97088	-0.09054667
99	0x3dca6448	0.098824084
100	0xbbc3a5d6	-0.005970697
101	0x3dbcf67c	0.09226701
102	0x3db6c601	0.08924485
103	0x3d5982ad	0.053103138
104	0xbd300382	-0.042972095
105	0x3cf3b93e	0.029751416
106	0xbd0d73dc	-0.03453432
107	0xbd06deea	-0.03292743
108	0xbc5118e2	-0.01276228
109	0x3d0dddd9	0.0346354
110	0x3e0a626e	0.1351411
111	0x3d937520	0.07200074
112	0xbd896eed	-0.067106105
113	0xbb6d63f4	-0.0036222907
114	0x3d97727c	0.07394883
115	0x3d82f6a0	0.06394696
116	0x3ce53a8b	0.027982017
117	0xbb9fd7da	-0.0048780264
118	0xbd4903b7	-0.04907581
119	0xbdfd3218	-0.1236307
120	0xbb036a56	-0.0020052395
121	0xbcc2d506	-0.023783218
122	0xbd931e58	-0.07183522
123	0xbbaf0545	-0.0053412043
124	0x3d043c08	0.032283813
125	0x3cd4ed0d	0.02599194
126	0x3e0264e3	0.12733798
127	0x3d8e4acd	0.06947861
128	0xbdf5291b	-0.11970731
129	0x3cd65571	0.026163789
130	0x3e11d88a	0.1424276
131	0xbc8a62fd	-0.016892904
132	0xbd35a269	-0.04434434
133	0x3e222fdc	0.1583857
134	0x3c393cac	0.011305969
135	0xbc8cb258	-0.017174885
136	0xbc572281	-0.013130785
137	0x3d98def1	0.07464398
138	0x3d0fe465	0.035129923
139	0x3dcdefb8	0.10055488
140	0x3d13e78d	0.036109496
141	0xbcd88240	-0.026429296
142	0x3c7acb68	0.015307285
143	0x3df91576	0.121622965
144	0xbd84ad26	-0.06478338
145	0x3c863c84	0.016386278
146	0xbd0c81ec	-0.03430359
147	0x3e0857ce	0.13314745
148	0xbd1f79a6	-0.038934372
149	0x3d136107	0.035981204
150	0xbd876a1a	-0.06612034
151	0x3e5971e9	0.2123486
152	0x3b574c72	0.0032851961
153	0x3cabb2c8	0.020959273
154	0x3d849ab5	0.064748205
155	0xbac40234	-0.001495427
156	0xbd215c96	-0.039394937
157	0x3c8b83e9	0.017030673
158	0x3daaa65e	0.08332513
159	0xbb80c540	-0.003929764
160	0x3c03330c	0.008007776
161	0x3e0c1215	0.13678773
162	0x3e257542	0.16158012
163	0xbd232ee9	-0.03983966
164	0xbc9d6022	-0.019210879
165	0x3d817d6b	0.0632275
166	0x3c3eef56	0.011653742
167	0x3ddf865d	0.109143
168	0xbdc7deed	-0.097593166
169	0x3d3b36f9	0.045706723
170	0x3cf0c3e8	0.02939029
171	0x3d02d6f2	0.03194327
172	0xbd064d3f	-0.03278851
173	0xbd5259ea	-0.05135528
174	0x3d9df76f	0.0771321
175	0x3d1d8703	0.038458835
176	0xbc6a67fd	-0.014307019
177	0x3d97bfbc	0.07409617
178	0x3dd6b3f1	0.1048354
179	0x3c483a15	0.012220879
180	0x3e11844d	0.14210625
181	0xbdc0b118	-0.09408778
182	0xbc5d636f	-0.013512476
183	0xbda4c8e6	-0.08046131
184	0x3d96c2a4	0.073613435
185	0xbd49245b	-0.049106937
186	0x3cb9633c	0.022630326
187	0x3dd0e0e0	0.101991415
188	0xbd0184f6	-0.031620942
189	0xbc68d5ee	-0.014211161
190	0x3d1a222f	0.037630256
191	0x3c22757c	0.009915706
192	0x3c32efd0	0.010921434
193	0xbcf7a639	-0.030230628
194	0x3d80d99e	0.06291507
195	0xbe069228	-0.13141692
196	0x3e0f5137	0.13995825
197	0xbdc6bfd1	-0.09704555
198	0x3d323739	0.043509696
199	0xbbf8fe3c	-0.0075986665
200	0xbcc02cef	-0.023458926
201	0xbdc8ba6c	-0.09801182
202	0xbd93b384	-0.07211974
203	0xbe127ff1	-0.14306618
204	0x3d5c0ea8	0.053724915
205	0xbe039bfa	-0.12852469
206	0x3df05482	0.117348686
207	0x3d62fbbd	0.055415858
208	0xbe0346ee	-0.12820026
209	0x3e0c2306	0.13685235
210	0x3c82126b	0.015877923
211	0xbd2126c7	-0.03934362
212	0x3c38cddb	0.0112795485
213	0x3da8a46e	0.082344875
214	0xbd6263b3	-0.05527086
215	0x3dc0fac4	0.0942283
216	0x3d58952b	0.052876633
217	0xbbb3bed9	-0.0054853973
218	0x3d606da9	0.05479208
219	0x3dc53bbd	0.09630535
220	0x3d68ed1b	0.056866746
221	0xbdc34ce4	-0.0953615
222	0x3dca1dc6	0.0986896
223	0x3cf8b6bf	0.030360578
224	0x3d31803f	0.043335196
225	0xbde1e4df	-0.11029982
226	0xbd831616	-0.06400697
227	0xbdad255b	-0.084543906
228	0x3c06b1e0	0.00822112
229	0xbd2a21dd	-0.0415362
230	0xbca60c64	-0.02026958
231	0xbd75c36f	-0.060000833
232	0x3c62c6ff	0.01384139
233	0x3ddab565	0.106791295
234	0x3dbf3e71	0.09338082
235	0xbd1282db	-0.035769325
236	0x3d4bbd29	0.049740944
237	0xbd896ec1	-0.06710578
238	0x3dcc71ce	0.09982644
239	0xbd056191	-0.03256375
240	0xbd939671	-0.07206429
241	0xbd1cc9ee	-0.038278513
242	0xbd3d75d0	-0.046254933
243	0xbe98e561	-0.29862502
244	0x3b9e5efc	0.0048331004
245	0xbdbc5fa8	-0.091979325
246	0x3e0c47ba	0.13699237
247	0xbbefa339	-0.007313159
248	0xbc8c5ea5	-0.017134974
249	0xbce67451	-0.028131636
250	0xbd3aba41	-0.04558778
251	0xbda1e0b8	-0.0790419
252	0x3d6e7ef6	0.058226548
253	0xbd0cb9e7	-0.034356978
254	0xbe15ed69	-0.14641346
255	0xbc464a43	-0.012102666

model.2.bias f4 [64]
0	0xbdccc8aa	-0.09999211
1	0xbdebbec2	-0.115109935
2	0x3d8128aa	0.06306584
3	0x3c94f825	0.01818473
4	0x3dabff03	0.08398249
5	0x3e02e8d5	0.12784131
6	0x3c5a8248	0.0133367255
7	0x3daa46f4	0.083143145
8	0x3db59e55	0.0886809
9	0x3e1b4f53	0.15166979
10	0x3d9c9ac1	0.076467045
11	0xbcaf179e	-0.021373566
12	0x3e0b79a2	0.13620618
13	0x3d7becae	0.061505012
14	0x3daae248	0.08343941
15	0xbd1fb664	-0.0389923
16	0xbd042ad1	-0.032267395
17	0x3cab20df	0.020889698
18	0x3dd118c4	0.10209802
19	0xbe027b85	-0.12742431
20	0xbdcb89a6	-0.09938364
21	0xbd409bd6	-0.047023617
22	0xbd306865	-0.04306831
23	0xb88c9501	-6.703474e-05
24	0xbdd27578	-0.10276312
25	0xbc9502b1	-0.01818976
26	0xbd46485b	-0.048408847
27	0x3dbab1b0	0.091159225
28	0xbd55a7c3	-0.052161943
29	0x3ce72ad9	0.028218674
30	0x3d85b957	0.065294914
31	0x3db1ba06	0.08678059
32	0x3d667c99	0.05627117
33	0x3ddaccdb	0.10683604
34	0x3da3b254	0.07992998
35	0xbc9097fe	-0.0176506
36	0x3e33ebfe	0.17570493
37	0xbdbeb330	-0.09311521
38	0x3ca74e21	0.020422997
39	0x3bcba4b4	0.0062147025
40	0xba686adb	-0.00088660204
41	0xbdaa27de	-0.08308385
42	0xbe1478a5	-0.14499147
43	0x3dbbbe04	0.09167102
44	0x3e0caa6c	0.13736886
45	0x3b3ac3e6	0.0028498112
46	0x3d8c5174	0.068514735
47	0x3df63149	0.12021119
48	0xbdaea3ab	-0.08527311
49	0x3e2abccc	0.16673583
50	0x3c9ddf41	0.019271495
51	0xbd059e9f	-0.032621976
52	0xbdc315de	-0.09525655
53	0xbbe228e3	-0.0069018467
54	0xbd9d5342	-0.07681896
55	0x3dbc138c	0.09183416
56	0x3d8c572c	0.06852564
57	0x3e191ba4	0.1495195
58	0x3d83dfbc	0.06439158
59	0xbde9def2	-0.114194766
60	0x3dbf28bc	0.09333941
61	0x3c6b808a	0.014373908
62	0x3e12f99c	0.14353031
63	0x3b190afb	0.0023352492

model.4.weight f4 [3, 64]
0	0xbdbdeab3	-0.09273281
1	0xbe4419ff	-0.19150542
2	0x3e15df7a	0.14636031
3	0x3dd1c199	0.10242004
4	0x3d606669	0.054785166
5	0xbe20b807	-0.15695201
6	0x3d04777b	0.032340508
7	0x3d10fa63	0.035395037
8	0xbd09c5f2	-0.03363604
9	0xbdc03224	-0.093845636
10	0x3d5c45b1	0.0537774
11	0x3da68f59	0.0813281
12	0xbd659c51	-0.056057278
13	0xbe21bc88	-0.15794575
14	0xbd8ea13c	-0.06964347
15	0x3e46fb6b	0.19431846
16	0x3d8fe1dc	0.07025501
17	0x3d9bb4bd	0.076028325
18	0xbde74479	-0.11292357
19	0xbccc53a4	-0.024942227
20	0xbd38229a	-0.044954874
21	0x3e10defa	0.14147559
22	0x3e08ae3f	0.1334772
23	0x3d030dac	0.03199546
24	0xbd9edb0c	-0.077566236
25	0xbe084500	-0.13307571
26	0xbe230fe9	-0.15924038
27	0x3e1034cf	0.14082645
28	0x3d27a94d	0.040932942
29	0xbde14397	-0.1099922
30	0xbe277347	-0.16352569
31	0x3ddb3ca4	0.10704926
32	0x3d6c1f5b	0.05764709
33	0x3e2fb576	0.17159066
34	0xbd5ab2f2	-0.05339331
35	0x3cdf2a6d	0.02724191
36	0x3d54e9b2	0.05198068
37	0xbe132dcd	-0.1437294
38	0x3e0d8436	0.13819966
39	0xbd170a54	-0.036875084
40	0xbd725ab1	-0.05916852
41	0xbc683193	-0.014171976
42	0xbdb6aaf5	-0.08919326
43	0xbcce8769	-0.025211053
44	0x3e1c8bd5	0.15287717
45	0x3e000f3b	0.1250581
46	0x3d3405f0	0.043950975
47	0xbe138a9f	-0.14408349
48	0x3e2187d2	0.15774468
49	0xbe2193a2	-0.15778974
50	0x3e0efc24	0.13963372
51	0x3dfe6055	0.124207176
52	0xbe0e990c	-0.1392557
53	0x3a4b8c61	0.00077647535
54	0xbd43383a	-0.047661044
55	0xbd3d2da2	-0.046186097
56	0x3db72561	0.08942676
57	0xbe259f77	-0.16174112
58	0xbde7546d	-0.112954
59	0xbe28d80c	-0.16488665
60	0x3de098d5	0.109666504
61	0xbdc78ed8	-0.09744042
62	0xbe26e2d0	-0.1629746
63	0x3dc9e36d	0.09857831
64	0x3e1e9ffc	0.15490717
65	0xbd489fe7	-0.04898062
66	0xbda06074	-0.07830897
67	0xbdc7064f	-0.09718
68	0xbda71b30	-0.081594825
69	0x3dd7c404	0.10535434
70	0xbe1a3ae5	-0.15061529
71	0x3d506fcd	0.05088787
72	0xbce06219	-0.027390527
73	0x3e1faed0	0.1559403
74	0xbd142f34	-0.03617783
75	0x3e5fddab	0.21861903
76	0x3dfb2573	0.12263002
77	0x3dd176e0	0.10227752
78	0xbe3223df	-0.17396496
79	0x3c948a66	0.0181324
80	0x3cf9b723	0.030482834
81	0xbe24a788	-0.16079533
82	0x3d43a55e	0.04776513
83	0xbdc13714	-0.094343334
84	0xbe253d7d	-0.16136737
85	0x3dc307cf	0.09522974
86	0xbe50f4ec	-0.2040593
87	0x3c9f4e7b	0.019446602
88	0xbe0eaa0e	-0.13932058
89	0xbd7fcd33	-0.062451553
90	0x3d61fefa	0.055174805
91	0x3d6cc4a9	0.057804737
92	0xbcaed6f6	-0.021342736
93	0x3cf3e990	0.029774457
94	0xbdd6e333	-0.104925536
95	0xbd8fcc2b	-0.07021364
96	0x3cba29ba	0.022724975
97	0x3daa7b24	0.083242685
98	0xbe2bbd49	-0.16771425
99	0xbdc35d17	-0.0953924
100	0xbd67229d	-0.056429494
101	0xbbd466fb	-0.006482003
102	0x3d96779e	0.07347034
103	0x3af202a4	0.0018463922
104	0xbe0d2dee	-0.13787052
105	0xbdedf08d	-0.11618147
106	0xbe4d39c4	-0.20041567
107	0xbe1eb1cb	-0.1549751
108	0x3e0e1aac	0.13877362
109	0xbd4a171d	-0.04933845
110	0x3e244c6e	0.1604478
111	0xbdc48749	-0.09596116
112	0xbdef3fea	-0.116821125
113	0x3dd8a120	0.10577607
114	0xbd98135c	-0.074255675
115	0x3e4d4876	0.20047173
116	0x3e15054e	0.14552805
117	0x3db6d12c	0.08926615
118	0xbd3ed476	-0.046589337
119	0xbd679b8a	-0.056544818
120	0x3d4d1178	0.050065488
121	0x3e297095	0.16546853
122	0xbc354861	-0.01106462
123	0xbdafcca0	-0.08583951
124	0xbd0007d7	-0.031257477
125	0x3db17711	0.08665288
126	0x3db4cf5a	0.08828612
127	0x3d9b236a	0.07575114
128	0xbb34d9a1	-0.0027595537
129	0x3dfd4f6e	0.12368666
130	0x3de717ed	0.1128386
131	0x3dc45e5c	0.0958831
132	0x3de10b17	0.10988443
133	0x3d5cf59a	0.05394516
134	0xba4d5972	-0.0007833458
135	0x3da22dd3	0.079188965
136	0xbe0a08d5	-0.13479932
137	0x3d915ba9	0.07097561
138	0xbe2b56ba	-0.16732302
139	0xbca7c482	-0.020479444
140	0x3e156ac3	0.14591508
141	0x3d38122b	0.0449392
142	0xbd729d0d	-0.059231807
143	0x3dda60b5	0.10662977
144	0xbe27ea61	-0.16398002
145	0x3dacffc1	0.08447219
146	0x3d582b89	0.052775893
147	0xbe0fd654	-0.14046603
148	0xbc552f12	-0.013011711
149	0xbd6199a1	-0.055078153
150	0x3d0c29db	0.034219604
151	0x3e0cf189	0.13764013
152	0xbb51a29b	-0.003198779
153	0xbe1a3b53	-0.15061693
154	0xbe37a553	-0.1793416
155	0xbcaef1d3	-0.021355545
156	0x3e142ba1	0.14469768
157	0x3e2c028b	0.16797845
158	0x3e2b8c8c	0.16752833
159	0xbdfa6450	-0.12226164
160	0xbd0c2ee3	-0.034224402
161	0xbddfed49	-0.109339304
162	0x3d8b5560	0.06803393
163	0x3dca09a2	0.098651186
164	0x3de5188e	0.11186324
165	0xbcbe2da2	-0.023215119
166	0x3d71374e	0.058890633
167	0xbe10a86c	-0.14126748
168	0xbd5902fd	-0.052981365
169	0xbdfa7762	-0.12229802
170	0xbd084fe2	-0.033279307
171	0x3db747f8	0.08949274
172	0xbe587d5e	-0.21141574
173	0xbe0e2609	-0.13881697
174	0x3e219d4b	0.15782659
175	0xbdc6861c	-0.09693548
176	0xbdde18dd	-0.10844586
177	0xbda7bbe8	-0.08190137
178	0x3d5ce36a	0.053927816
179	0x3d8c9be7	0.068656735
180	0xbdaef18a	-0.08542164
181	0x3e1784f0	0.14796805
182	0x3e303449	0.17207445
183	0xbd85f407	-0.06540685
184	0x3d385661	0.045004252
185	0x3bb2900e	0.0054493016
186	0xbc5dce90	-0.013538018
187	0xbd5b768a	-0.053579845
188	0xbdb0407b	-0.08606049
189	0x3d653a88	0.055964023
190	0xbc9c5b38	-0.019086465
191	0x3e4cee29	0.20012726

model.4.bias f4 [3]
0	0x3dbf1277	0.09329694
1	0x3da512e0	0.08060241
2	0xbcf36820	-0.029712737
