exported_models/neural_networks/raw_mlp/trained_models/model_epoch_100_batch_64_lr_1e-05_vs_30_hl_64_64_64_drop_3/mlp_dynamics.pth (torch, 39379 bytes, 8 tensors)

model.0.weight f4 [64, 5]
0.52768326 0.083880745 0.28355914 -0.005365824 -0.00013220176 0.52212304 0.15502045 -0.17925736
-0.008398488 -0.0009340299 0.011708502 -0.37834126 0.5005489 0.0009132649 0.0028718142 0.25765052
0.40298885 -0.47315818 -0.009648159 -0.004675409 -0.37382814 -0.43282095 -0.23440948 0.010101305
-0.005746925 0.30957603 0.31593597 0.10028773 0.0069482876 0.0038267486 -0.12632065 -0.23501523
0.36137652 0.0018270571 -0.003936988 0.052960787 -0.14079987 0.58577496 0.011723044 -0.0048013637
-0.45059526 0.51023424 -0.3618295 0.0026505345 -0.0025103157 -0.21375607 -0.0008565621 -0.3654378
-0.03971513 -0.0010005496 0.43909183 -0.23260342 -0.0312728 -0.004001886 -0.00058544567 -0.03261429
0.47354436 -0.4931455 -0.017388424 0.00057940074 0.15950409 0.3082818 0.28084818 -0.003657027
0.013769386 -0.19162498 0.3149161 0.23936003 -0.011698805 0.008178005 0.19015308 -0.16910541
-0.4878608 -0.00068962114 0.01522421 -0.11779068 -0.5406359 0.43493712 0.002051009 -0.001800829
0.20862211 -0.2643074 -0.27534917 -2.2868793e-05 0.003032555 -0.3751836 -0.28850743 -0.0742762
-0.007878432 -0.007101693 -0.2001543 0.19900876 0.47677445 0.013647935 -0.00482843 0.12723853
-0.37347612 0.5553781 0.0008148176 -0.0051720305 -0.64406866 0.16736937 -0.08391988 0.06130372
0.014144968 -0.600584 -0.16501878 -0.05181406 0.046247993 0.018162815 0.21059069 -0.38030982
-0.19447418 -0.0058792667 -0.0066010607 -0.48444545 0.13858548 0.011001231 0.00909409 0.008189027
-0.2501608 -0.3154668 -0.17306423 0.006368313 -0.01506936 -0.33966964 0.4086978 0.34890285
-0.03122317 0.0022887022 -0.43953368 0.16634072 0.25700083 0.00088890485 -0.008268243 0.44763523
0.30342007 0.09670851 -0.0037479957 -0.0018639801 -0.15916876 -0.021908129 0.58331496 -0.06111804
-0.009915287 -0.36658883 0.4393368 0.007817066 -0.0070712934 -0.021104218 0.0036457067 0.19738567
0.40500784 0.0054858956 0.001509745 0.07161317 -0.47863868 0.46250007 -0.003764322 0.0018025748
0.32620293 0.38852397 0.27510032 -0.00058361667 -0.0017899155 -0.3153059 0.2750673 0.39513195
-0.011718523 -0.0029382037 0.37545758 0.21600145 0.39492163 0.0032148035 0.004512408 0.001550826
-0.2840721 0.30967414 -0.0040473025 0.002234015 -0.19318011 0.47672632 -0.050925374 0.012569793
0.0037655178 0.3928264 -0.06398763 0.30568612 0.0030032506 -0.01111398 0.3215147 -0.21507633
-0.06814534 0.003048336 0.0028344835 0.30297276 -0.2325253 -0.31119642 0.011318614 -0.0030473203
-0.21050316 -0.4414879 -0.24475451 -0.010921932 -0.012456999 0.51187843 0.32053006 0.09445814
-0.0003689179 0.011295953 -0.30729514 0.42712393 -0.22970378 -0.0028158466 0.001126416 0.04833821
0.37736198 -0.3975831 -0.004641732 -0.0041609434 0.3008479 -0.2606691 -0.31563172 0.006953653
0.0040688235 -0.37505934 -0.46437162 -0.249676 -0.0018821602 0.013504789 0.417726 0.43765312
0.16884886 0.010555818 0.0030316482 -0.41115087 0.41192606 -0.006373056 -0.00027319684 -0.011263734
-0.29939538 -0.5346083 0.4466631 0.016956737 0.009375082 -0.50608385 -0.28674987 0.0081696
-0.0028476098 0.00070634024 -0.4240426 -0.1655886 -0.257635 -0.006503553 0.013770473 -0.4994031
00000000: 4016 073f abc9 ab3d aa2e 913e cbd3 afbb
00000010: a49f 0ab9 dba9 053f aebd 1e3e 3e8f 37be
00000020: d099 09bc afd9 74ba 04d5 3f3c f2b5 c1be
00000030: f923 003f 2c68 6f3a 0c35 3c3b c5ea 833e
00000040: 8e54 ce3e ca41 f2be 5013 1ebc 2c34 99bb
00000050: 6766 bfbe b59a ddbe 0a09 70be f27f 253c
00000060: b350 bcbb c080 9e3e 5cc2 a13e a763 cd3d
00000070: 76ae e33b 30ca 7a3b 335a 01be d5a7 70be
00000080: 5806 b93e dd79 ef3a d901 81bb 69ed 583d
00000090: d72d 10be 59f5 153f 0312 403c c254 9dbb
000000a0: 6cb4 e6be b69e 023f b741 b9be 97b4 2d3b
000000b0: 1c84 24bb dfe2 5abe e98a 60ba aa1a bbbe
000000c0: 55ac 22bd e024 83ba a5d0 e03e 972f 6ebe
000000d0: e817 00bd 4122 83bb 9878 19ba 9096 05bd
000000e0: 6874 f23e 917d fcbe 2b72 8ebc ede2 173a
000000f0: 0a55 233e 1dd7 9d3e 55cb 8f3e bbaa 6fbb
00000100: fe98 613c 5739 44be af3c a13e cc1a 753e
00000110: 58ac 3fbc 0afd 053c 7db7 423e f829 2dbe
00000120: e4c8 f9be b1c7 34ba f76e 793c 3d3c f1bd
00000130: 1d67 0abf 14b0 de3e 396a 063b cb09 ecba
00000140: 09a1 553e 4d53 87be 91fa 8cbe 5cd6 bfb7
00000150: d5bd 463b 1118 c0be 3fb7 93be 1f1e 98bd
00000160: 8a14 01bc 52b5 e8bb 40f5 4cbe f4c8 4b3e
00000170: c81b f43e 979b 5f3c ce37 9ebb d14a 023e
00000180: 4338 bfbe 422d 0e3f 7c99 553a 237a a9bb
00000190: afe1 24bf e062 2b3e 30de abbd 9c19 7b3d
000001a0: 4cc0 673c dfbf 19bf affa 28be fb3a 54bd
000001b0: 896e 3d3d 2fca 943c 16a5 573e f8b7 c2be
000001c0: 3d24 47be dda6 c0bb b64d d8bb 3c09 f8be
000001d0: 5ae9 0d3e 823e 343c 61ff 143c 452b 063c
000001e0: 1415 80be dd84 a1be c037 31be 48ad d03b
000001f0: 7ae5 76bc 2ee9 adbe d740 d13e 65a3 b23e
00000200: bcc7 ffbc 0dfe 153b 8f0a e1be 3955 2a3e
00000210: 9d95 833e 6505 693a 8677 07bc 7230 e53e
00000220: e059 9b3e 1c0f c63d efa0 75bb cb50 f4ba
00000230: 23fd 22be ad78 b3bc 2154 153f e956 7abd
00000240: ba73 22bc 88b1 bbbe c1f0 e03e 2713 003c
00000250: 4fb6 e7bb c1e2 acbc cfec 6e3b 781f 4a3e
00000260: 305d cf3e 07c3 b33b a3e2 c53a eda9 923d
00000270: 2110 f5be cfcc ec3e d8b2 76bb 6044 ec3a
00000280: 1204 a73e 9dec c63e f3d9 8c3e dafd 18ba
00000290: 999b eaba c66f a1be 9fd5 8c3e bc4e ca3e
000002a0: 0cff 3fbc e18e 40bb fa3b c03e 7c2f 5d3e
000002b0: 2b33 ca3e 74af 523b d2dc 933b 1645 cb3a
000002c0: e671 91be 9c8d 9e3e 3c9f 84bb 8d68 123b
000002d0: 02d1 45be 7915 f43e 2097 50bd 88f1 4d3c
000002e0: e8c6 763b 8b20 c93e f20b 83bd e482 9c3e
000002f0: 2fd2 443b 6917 36bc 939d a43e f83c 5cbe
00000300: c98f 8bbd 97c6 473b bec2 393b 3f1f 9b3e
00000310: 1d1b 6ebe 2355 9fbe b571 393c 8db5 47bb
00000320: 248e 57be b40a e2be eda0 7abe e7f1 32bc
00000330: 7118 4cbc 770a 033f 841c a43e 4573 c13d
00000340: 536b c1b9 a912 393c ca55 9dbe fdaf da3e
00000350: 7837 6bbe 118a 38bb 40a4 933a 49fe 453d
00000360: 9735 c13e 0390 cbbe ac19 98bb 8658 88bb
00000370: bc08 9a3e 6c76 85be 7b9a a1be 78db e33b
00000380: c453 853b c707 c0be 1ec2 edbe 11ab 7fbe
00000390: d1b2 f6ba 3143 5d3c 2fe0 d53e 1214 e03e
000003a0: b7e6 2c3e 4ff2 2c3c 9eae 463b 5e82 d2be
000003b0: f9e7 d23e 12d5 d0bb dc3b 8fb9 868b 38bc
000003c0: 5a4a 99be 17dc 08bf 07b1 e43e dbe8 8a3c
000003d0: f299 193c b68e 01bf e1d0 92be c9d9 053c
000003e0: f79e 3abb b129 393a 1d1c d9be 0f90 29be
000003f0: bce8 83be c21b d5bb 8d9d 613c c3b1 ffbe

model.0.bias f4 [64]
-0.51645267 -0.33971766 -0.1412083 -0.2268382 -0.054537095 -0.29474044 -0.09927447 -0.26265234
-0.2967613 -0.29614612 -0.055543195 -0.17849892 -0.47748408 -0.21815911 -0.5903096 -0.0754536
-0.56583226 -0.070720024 -0.05257948 -0.24417889 -0.45557302 -0.4231088 -0.48945144 -0.14243431
-0.35344672 -0.011191008 -0.39088714 -0.47780403 -0.33605078 -0.16931532 -0.4378917 -0.13189487
-0.62725043 -0.34180576 -0.5646572 0.004410141 -0.025566643 -0.22306137 -0.37004185 -0.35281464
-0.16180564 -0.16594997 -0.068863824 -0.09340223 -0.20208187 -0.237496 -0.13739504 -0.383676
-0.17194118 -0.1954624 -0.37663534 -0.50560814 -0.2715671 -0.38612685 -0.12923843 -0.19308352
-0.11048677 -0.12729363 -0.3787854 -0.32564008 -0.2896116 -0.0023171995 -0.36898383 -0.23540534
00000000: 3e36 04bf 79ef adbe e998 10be 4648 68be
00000010: 4a62 5fbd 38e8 96be 6a50 cbbd 5e7a 86be
00000020: 19f1 97be 77a0 97be 4381 63bd 6cc8 36be
00000030: cb78 f4be 1a65 5fbe 881e 17bf 6b87 9abd
00000040: 62da 10bf a9d5 90bd 955d 57bd 080a 7abe
00000050: de40 e9be b7a1 d8be 6199 fabe 4dda 11be
00000060: f8f6 b4be 7d5a 37bc 5c22 c8be bba2 f4be
00000070: d90e acbe ff60 2dbe 5733 e0be 730f 07be
00000080: 7c93 20bf 2a01 afbe 608d 10bf f282 903b
00000090: 2371 d1bc 336a 64be 2076 bdbe 1fa4 b4be
000000a0: 61b0 25be caee 29be 7a08 8dbd ab49 bfbd
000000b0: 8dee 4ebe 2732 73be 49b1 0cbe 2e71 c4be
000000c0: 5911 30be 4c27 48be 59d6 c0be 896f 01bf
000000d0: d80a 8bbe 6bb2 c5be 1457 04be b0b7 45be
000000e0: e346 e2bd 4359 02be 29f0 c1be 4cba a6be
000000f0: f947 94be 28dc 17bb 73eb bcbe 190e 71be

model.3.weight f4 [64, 64]
0.007363661 0.00866767 0.008190619 -0.02793309 -0.0016955687 0.021076888 0.09561824 0.1643136
0.02123996 -0.1087409 -0.003166639 -0.012410873 0.217604 0.07381416 -0.5444056 -0.0005727405
-0.3310018 0.008511177 0.098499715 0.019412838 0.04751597 0.0016137132 -0.10169505 0.056652267
-0.21917093 0.017354546 0.11269891 0.048142288 0.16818397 -0.052368708 0.13154933 0.024057746
0.15060467 0.029821945 0.083304524 0.0049389843 0.042160694 0.028014751 -0.006044436 -0.0724369
-0.027657187 0.009383787 0.031563956 -0.027849121 -0.035096597 -0.024742708 0.016941022 0.019076161
0.02345953 0.02002627 -0.068442434 -0.06501514 -0.102534354 0.08728432 -0.008716707 -0.08578463
0.01769626 0.016641233 -0.048285674 -0.67607856 0.00472324 0.015000273 0.014186721 0.0008711417
0.105991535 0.009817387 0.010982465 0.013321253 -0.37081382 0.16487093 0.00401364 0.070699334
0.0015363322 -0.47834823 0.021293357 -0.0013180317 0.10966161 0.047778007 -0.051347196 -0.01132353
-0.028136162 -0.6046717 0.018425016 0.027809072 -0.13652939 -0.22400866 0.0041015814 -0.00042005218
-0.79610133 0.015369774 0.084333904 0.11962293 0.07016976 0.044606976 0.11349024 0.027629646
0.12020764 0.025354886 0.13983808 0.04106909 0.016962511 0.010696021 0.039149333 0.062872946
-0.22409785 0.013590661 -0.015621785 0.0017327339 0.02165242 -0.66680086 0.035656728 0.08175413
-0.016149113 -0.20560472 -0.41480398 -0.45723003 -0.57310605 0.1090238 0.0014693094 -0.0061366097
0.07583368 0.05104412 0.044034585 -0.09271582 0.03126829 0.027138382 0.036859114 0.035576202
-0.027914194 0.008366766 0.125151 0.013523167 0.011048137 0.049518853 0.17351641 0.097587615
-1.1721785 -0.03588858 0.04006849 -0.33360794 0.12155968 -0.00653364 0.015230572 0.018747875
0.0052237464 0.019221848 0.008979222 0.044962235 -0.22723357 -0.0049051694 0.020056775 -0.21312106
0.019437175 -0.009003733 -0.008931736 0.022395901 0.08673727 -0.17587563 0.14140198 0.12677652
0.07798125 0.018451292 0.062308487 0.041737054 -0.06694159 -0.018150313 0.09945055 0.035904344
0.026858212 0.012828628 -0.6756016 -0.16116267 -0.030622743 0.023366727 0.028269555 -0.43349704
0.078370504 -0.005221646 -0.027966294 0.017024012 0.07443258 0.044172585 -0.27332324 -0.1685627
0.024080047 0.19436096 -0.030025315 -0.0066099884 -0.20095254 0.08116438 0.17016147 0.060347535
-0.47988224 -0.5165718 0.0479801 -0.3408689 -0.0027565912 -0.24398823 0.0153561765 0.02654766
0.063955076 0.029961264 -0.018813943 -0.032439884 -0.0054224087 0.049638428 0.013081446 0.06727612
0.017764917 0.09574004 0.008317604 -0.0034912738 0.13659987 0.1946629 0.09464851 -6.50548e-05
0.04877093 0.00654976 0.05043248 -0.6545787 0.057694517 0.021303957 0.08567999 0.0119660925
-0.08721232 0.039471127 -0.15099677 0.029835116 0.010142528 -0.22656356 -0.0824862 0.02395169
0.011447989 -0.43910626 0.039875757 -0.110753134 0.021222038 0.04695892 -0.077971146 0.054688785
0.053957265 0.15219104 0.08582017 0.13470723 0.03636337 -0.0052229227 -0.032201584 -0.03084757
-0.039143294 0.008039068 -0.046662673 0.036328617 0.027030231 0.008376691 -0.05225913 -0.041932035
00000000: de4a f13b d802 0e3c f231 063c f0d3 e4bc
00000010: d83d deba 70a9 ac3c 7fd3 c33d d341 283e
00000020: 6dff ad3c 8db3 debd 6387 4fbb f956 4bbc
00000030: 95d3 5e3e e12b 973d 2a5e 0bbf f723 16ba
00000040: 1179 a9be 7772 0b3c 38ba c93d ac07 9f3c
00000050: 1ba0 423d 3b83 d33a 7f45 d0bd 350c 683d
00000060: 586e 60be 1f2b 8e3c b0ce e63d d930 453d
00000070: 6b38 2c3e 9280 56bd deb4 063e c014 c53c
00000080: 1c38 1a3e 274d f43c 909b aa3d 34d7 a13b
00000090: b1b0 2c3d 317f e53c 6710 c6bb cc59 94bd
000000a0: 5391 e2bc 75be 193c 3549 013d d723 e4bc
000000b0: 73c1 0fbd 38b1 cabc e6c7 8a3c 9c45 9c3c
000000c0: 332e c03c 220e a43c 8c2b 8cbd a826 85bd
000000d0: 88fd d1bd 1fc2 b23d 85d0 0ebc daaf afbd
000000e0: bff7 903c 3253 883c 33c7 45bd 7c13 2dbf
000000f0: 69c5 9a3b b4c3 753c 6c6f 683c 545d 643a
00000100: 1712 d93d 1bd9 203c ccef 333c 6241 5a3c
00000110: 4fdb bdbe edd3 283e da84 833b d0ca 903d
00000120: c15e c93a 0fea f4be 686f ae3c cec1 acba
00000130: 4496 e03d dfb2 433d 7051 52bd 5486 39bc
00000140: cf7d e6bc c4cb 1abf 0ff0 963c dacf e33c
00000150: 5cce 0bbe 8762 65be 8f66 863b 733a dcb9
00000160: 4ccd 4bbf 81d1 7b3c 41b7 ac3d defc f43d
00000170: 2ab5 8f3d ceb5 363d 926d e83d 9157 e23c
00000180: 6c2f f63d 0db5 cf3c b731 0f3e 1038 283d
00000190: f7f4 8a3c 5d3e 2f3c 0d5b 203d 88c3 803d
000001a0: e879 65be 5dab 5e3c 84f2 7fbc e71c e33a
000001b0: 6a60 b13c 76b3 2abf ca0c 123d b66e a73d
000001c0: 254b 84bc 0b8a 52be 3061 d4be 0e1a eabe
000001d0: 14b7 12bf df47 df3d d895 c03a 9d15 c9bb
000001e0: b04e 9b3d a413 513d 9c5d 343d cbe1 bdbd
000001f0: 2e13 003d 5051 de3c 95f9 163d 5ab8 113d
00000200: 4fac e4bc c314 093c 9527 003e 4690 5d3c
00000210: 3f03 353c 48d4 4a3d 49ae 313e 04dc c73d
00000220: f209 96bf e7ff 12bd db1e 243d a9ce aabe
00000230: 48f4 f83d 2518 d6bb a689 793c 2595 993c
00000240: f62b ab3b 2377 9d3c 961d 133c 522a 383d
00000250: ebaf 68be 8bbb a0bb 1b4e a43c 683c 5abe
00000260: b63a 9f3c 6584 13bc 6b56 12bc 9c77 b73c
00000270: 4fa3 b13d be18 34be aecb 103e b4d1 013e
00000280: a2b4 9f3d 2a27 973c 2f37 7f3d 79f4 2a3d
00000290: ac18 89bd f7af 94bc bbac cb3d 6f10 133d
000002a0: c105 dc3c 2a2f 523c 3af4 2cbf d407 25be
000002b0: 8cdc fabc 946b bf3c 8e95 e73c 53f3 ddbe
000002c0: b780 a03d 571a abbb 9219 e5bc f175 8b3c
000002d0: 1c70 983d 50ee 343d 06f1 8bbe b39b 2cbe
000002e0: 8543 c53c 8f06 473e a6f7 f5bc 9a98 d8bb
000002f0: 81c6 4dbe 8339 a63d cf3e 2e3e fa2e 773d
00000300: 20b3 f5be 0d3e 04bf c886 443d 5e86 aebe
00000310: eda7 34bb 0dd8 79be 7998 7b3c 7a7a d93c
00000320: e1fa 823d 5371 f53c b31f 9abc afdf 04bd
00000330: 76ae b1bb aa51 4b3d 9053 563c 10c8 893d
00000340: bb87 913c 5b13 c43d 8f46 083c dbcd 64bb
00000350: d6e0 0b3e b655 473e 14d7 c13d 086e 88b8
00000360: 07c4 473d 5e9f d63b 4a92 4e3d 7892 27bf
00000370: 1651 6c3d a385 ae3c fe78 af3d 6e0d 443c
00000380: 5f9c b2bd 7aac 213d e69e 1abe c668 f43c
00000390: d92c 263c 4700 68be 86ee a8bd 5636 c43c
000003a0: 5990 3b3c 89d2 e0be c354 233d 8ad2 e2bd
000003b0: d7d9 ad3c ff57 403d 56af 9fbd 5901 603d
000003c0: 4b02 5d3d f8d7 1b3e 7cc2 af3d b1f0 093e
000003d0: c2f1 143d 0d25 abbb cfe5 03bd 0bb4 fcbc
000003e0: b854 20bd 4cb6 033c 5c21 3fbd 51cd 143d
000003f0: 816e dd3c 633e 093c ab0d 56bd edc0 2bbd

model.3.bias f4 [64]
0.063144684 0.03403779 0.023505865 0.028644044 0.06286175 0.03381286 0.025418421 -0.018276667
0.10950804 0.066587955 0.055205047 0.0318017 0.018117236 0.022287115 0.10534704 0.046503518
0.06071377 0.074620456 0.033174407 0.032782763 0.027760185 -0.057519205 -0.04469017 0.04592995
0.032474168 0.14791772 0.0787811 0.041885708 0.039213788 0.032243233 0.03512155 0.080082804
0.020382712 0.009680547 0.08267987 0.031790882 0.05219887 0.033914592 0.038034916 0.0679997
0.03349715 -0.051888708 0.059835773 0.03616301 0.0732717 0.075329475 0.0261463 0.06455239
0.025033278 0.04528144 0.038708173 0.044238877 -0.0671776 0.056884583 0.07127178 0.039664697
0.050815515 0.048217144 0.01303734 0.12017237 0.01870536 0.10613101 0.020716583 -0.06739633
00000000: 0052 813d 366b 0b3d 5f8f c03c eaa6 ea3c
00000010: a9bd 803d 5a7f 0a3d 4b3a d03c f3b8 95bc
00000020: c045 e03d 445f 883d b01e 623d 8042 023d
00000030: 996a 943c 7893 b63c 30c0 d73d 797a 3e3d
00000040: 01af 783d 9cd2 983d e3e1 073d 3847 063d
00000050: 5469 e33c 4299 6bbd 0a0d 37bd 0b21 3c3d
00000060: a203 053d be77 173e fc57 a13d 5990 2b3d
00000070: a39e 203d 7b11 043d 9ddb 0f3d 7402 a43d
00000080: a5f9 a63c 289b 1e3c 1054 a93d 2837 023d
00000090: 7bce 553d 07ea 0a3d 80ca 1b3d 6d43 8b3d
000000a0: 4f34 093d 4189 54bd 5b16 753d aa1f 143d
000000b0: 790f 963d 5746 9a3d c430 d63c 0b34 843d
000000c0: 9712 cd3c 0879 393d 768c 1e3d d333 353d
000000d0: 6994 89bd cfff 683d f0f6 913d 7377 223d
000000e0: ee23 503d 577f 453d 919a 553c ee1c f63d
000000f0: fc3b 993c 375b d93d d3b5 a93c 1607 8abd

model.6.weight f4 [64, 64]
-0.5025684 -0.047651034 0.013865598 -0.000564085 0.013777719 -0.1317051 0.03694354 -0.061008565
0.007719563 -0.63520706 -0.03497166 -0.0025972 0.025428383 -0.02145694 0.00014463997 0.01610821
-0.0041222363 0.026229994 0.023088163 -0.09876568 -0.00930502 -0.25704426 -0.046928078 0.058840517
0.06087726 0.0379131 0.048790112 -0.010271736 0.05347199 0.005943966 -0.019990964 -1.4251969
0.04894451 0.02174823 -0.97909516 0.036162548 -0.006695226 -0.007246692 0.013568067 -1.0118037
-0.0132893985 -0.027900169 -0.6890879 -0.008841028 -0.01025589 -0.35881996 -0.052421924 -0.87095106
-0.0010230881 0.0071400567 -0.016651617 0.008263548 0.024455734 0.018950153 -1.0851194 -0.0010564252
0.00762851 -0.009260637 0.011117225 0.031614017 0.07067165 -0.90489286 -0.015837042 0.0069078417
0.027873026 -0.008090153 -0.013569605 -0.02007692 -0.14251764 -0.00012903826 -0.02538307 0.045271024
-0.47125512 0.0007508089 -0.2073423 -0.027631335 0.05295486 -0.022250662 -0.13515034 -0.29508352
-0.9827365 0.008839899 0.016923694 0.048300453 0.054388143 -0.01041013 -0.47959325 0.020187216
-0.029672807 -0.16832273 -0.21950729 -0.088034704 0.04937609 -0.022113372 0.046352945 0.0386753
0.04915941 0.06429208 0.015049621 0.07125858 -0.08785591 0.019960644 0.024276095 0.07456915
0.05471904 0.026418256 0.011624903 0.04682281 -0.7343227 -0.018220268 -0.0005712524 0.006947962
0.08721212 0.04986524 -0.013489444 0.06637727 -0.73506653 -0.010325908 0.039771788 0.013451593
0.07910525 -0.056625124 0.059776757 -0.5143315 0.055806354 0.0276435 -0.018023731 0.043884676
0.03156348 -0.13509215 0.05629456 0.06424011 -0.0065031475 -0.066232316 0.049344115 -0.7066513
0.08756184 -0.0066477885 -0.008114087 -0.08319874 -0.3442233 0.038974438 0.011723328 0.07629335
0.06922195 0.025826005 0.017405545 0.07029945 0.06658945 -0.29060942 0.033148877 0.026844649
0.03131253 0.027685136 0.06884669 0.0053366707 0.03456116 -0.21079904 0.024596881 -0.002100803
0.049727384 0.018175688 0.001963309 -0.069995135 -0.0068338932 0.0766981 -0.00369977 0.0050964216
-0.034155335 0.097362325 0.010464707 -0.66883683 0.033495184 -0.022470813 0.014388338 0.07442265
-0.30627483 0.0582677 -0.044625256 -0.43165416 0.17447025 -0.050978426 -0.022949757 -0.13592571
-0.24626955 0.024305763 -0.21763758 -0.0030359754 -0.14047663 -0.020869894 0.054800443 0.09701301
-0.1626464 0.007798484 0.046199806 -0.026673352 0.0020240562 -0.056252345 -0.017832436 -0.025492033
0.0783292 -0.54586315 -0.008138062 0.017991051 0.03625697 -0.09033472 0.0005025945 0.022644002
0.0066793254 0.06082379 0.018544326 -0.21940462 -0.01676974 -0.0941465 0.009755213 0.03411436
0.08055604 0.011831823 0.02328594 0.028116722 -0.0352194 0.0033249932 0.0012400122 -0.38814634
-0.054751474 -0.017075997 -0.2718594 0.025276566 -0.014753788 0.004278344 -0.06023713 -0.7198752
-0.0051879277 0.036950804 -0.66027045 0.02517647 0.05094962 -0.22984716 -0.0012809015 -0.28698647
0.073409 -0.022158572 0.013198876 0.032445516 0.071137235 0.059186608 -0.53018284 0.02354343
0.011730417 -0.011187136 0.0617831 0.05798288 0.0002192957 -0.2809129 -0.058398757 0.042637777
00000000: 53a8 00bf bb2d 43bd 882c 633c 1bdf 13ba
00000010: f1bb 613c b4dd 06be 1c52 173d 1ee4 79bd
00000020: 63f4 fc3b ee9c 22bf 713e 0fbd c935 2abb
00000030: 2f4f d03c 77c6 afbc 7faa 1739 5df5 833c
00000040: d313 87bb 49e0 d63c 6323 bd3c a945 cabd
00000050: 1574 18bc 4e9b 83be a837 40bd c102 713d
00000060: 6f5a 793d c44a 1b3d 24d8 473d c94a 28bc
00000070: 7205 5b3d 9ac5 c23b 17c4 a3bc da6c b6bf
00000080: 0a7a 483d 5829 b23c fba5 7abf 2e1f 143d
00000090: a063 dbbb a975 edbb 994c 5e3c c982 81bf
000000a0: c7bb 59bc e58e e4bc 1168 30bf f6d9 10bc
000000b0: 5208 28bc 40b7 b7be 5fb8 56bd a6f6 5ebf
000000c0: 2419 86ba 23f7 e93b f968 88bc d563 073c
000000d0: 6457 c83c 5a3d 9b3c 31e5 8abf bf77 8aba
000000e0: 94f8 f93b edb9 17bc 0525 363c b37d 013d
000000f0: 4cbc 903d 0fa7 67bf afbc 81bc 2d5b e23b
00000100: f955 e43c 908c 04bc 0c53 5ebc 5a78 a4bc
00000110: 25f0 11be 724e 07b9 28f0 cfbc 1c6e 393d
00000120: 5a48 f1be efd1 443a 8a51 54be 1c5b e2bc
00000130: 32e7 583d 0547 b6bc da64 0abe 3015 97be
00000140: 9f94 7bbf 39d5 103c 8fa3 8a3c b2d6 453d
00000150: 1ac6 5e3d 408f 2abc 3f8d f5be a95f a53c
00000160: 6314 f3bc cb5c 2cbe 85c6 60be 8a4b b4bd
00000170: 953e 4a3d 1a27 b5bc 96dc 3d3d fe69 1e3d
00000180: 615b 493d 91ab 833d b092 763c 05f0 913d
00000190: cded b3bd 8184 a33c a9de c63c b6b7 983d
000001a0: 1221 603d 196b d83c 6176 3e3c 46c9 3f3d
000001b0: 93fc 3bbf ac42 95bc 1ac0 15ba bbab e33b
000001c0: 459c b23d 7e3f 4c3d d402 5dbc cef0 873d
000001d0: 522d 3cbf ff2d 29bc bee7 223d 1264 5c3c
000001e0: ef01 a23d bfef 67bd 79d8 743d 3bab 03bf
000001f0: 3495 643d 9f74 e23c 81a6 93bc 6bc0 333d
00000200: b548 013d 9955 0abe 2095 663d 5290 833d
00000210: 5b18 d5bb cfa4 87bd 0e1d 4a3d 19e7 34bf
00000220: 9f53 b33d b1d5 d9bb f3f0 04bc 1a64 aabd
00000230: 093e b0be a9a3 1f3d 3413 403c b03f 9c3d
00000240: 3dc4 8d3d 0f91 d33c 1396 8e3c 28f9 8f3d
00000250: 0d60 883d c2ca 94be 1ec7 073d 4fe9 db3c
00000260: 9141 003d f0cb e23c 7eff 8c3d 3ddf ae3b
00000270: 0190 0d3d b4db 57be 667f c93c a0ad 09bb
00000280: f1ae 4b3d 2ee5 943c dcaa 003b 9c59 8fbd
00000290: daee dfbb e513 9d3d d777 72bb e2ff a63b
000002a0: 77e6 0bbd e665 c73d 2a74 2b3c e438 2bbf
000002b0: 3f32 093d b614 b8bc 10bd 6b3c e76a 983d
000002c0: 0ed0 9cbe 1daa 6e3d f9c8 36bd c601 ddbe
000002d0: 54a8 323e c1ce 50bd 2101 bcbc 1c30 0bbe
000002e0: 162e 7cbe e11c c73c 63dc 5ebe 37f7 46bb
000002f0: 1bd9 0fbe 57f7 aabc 6e76 603d c2ae c63d
00000300: c78c 26be 6d8a ff3b 023c 3d3d 1382 dabc
00000310: 07a6 043b dc68 66bd 5415 92bc abd4 d0bc
00000320: 0f6b a03d b0bd 0bbf 8255 05bc f861 933c
00000330: 3082 143d 6901 b9bd 8cc0 033a ea7f b93c
00000340: 3ede da3b 5e22 793d 45ea 973c 9bab 60be
00000350: b260 89bc e1cf c0bd 54d4 1f3c 80bb 0b3d
00000360: 91fa a43d 43da 413c 28c2 be3c 0a55 e63c
00000370: 3842 10bd 21e8 593b e887 a23a 1ebb c6be
00000380: 1543 60bd f6e2 8bbc 2831 8bbe cd10 cf3c
00000390: dfb9 71bc 5a31 8c3b 35bb 76bd be49 38bf
000003a0: 7eff a9bb ba59 173d 7c07 29bf e23e ce3c
000003b0: 8cb0 503d 0e5d 6bbe ece3 a7ba e4ef 92be
000003c0: 7557 963d e585 b5bc 1940 583c 97e5 043d
000003d0: 66b0 913d a86d 723d 10ba 07bf 27de c03c
000003e0: ef30 403c 404a 37bc 4710 7d3d 757f 6d3d
000003f0: bef2 6539 d1d3 8fbe 8933 6fbd f3a4 2e3d

model.6.bias f4 [64]
0.24916014 0.21837218 0.21257782 0.34358934 0.13425684 0.21781795 0.2641706 0.20699446
0.1525983 0.30255684 0.25814632 0.16591777 0.23540069 0.31646574 0.22885713 0.22434461
0.24324448 0.116374075 0.2959172 0.25452283 0.26487523 0.16682349 0.25931284 0.20134579
0.23480736 0.26312563 0.3106776 0.2403865 0.22911476 0.23719952 0.15744574 0.2702054
0.21675007 0.14852126 0.17448463 0.27072304 0.30604035 0.23170644 0.25688958 0.116141506
0.23084019 0.27573782 0.1638407 0.22558565 0.25936878 0.29836163 0.25057864 0.2320425
0.28706548 0.3173991 0.27604476 0.19497898 0.1916948 0.20735522 0.15927723 0.18346931
0.16336866 0.22652566 0.27002513 0.22172023 0.25429732 0.13160662 0.14482838 0.28814143
00000000: d623 7f3e f59c 5f3e 00ae 593e f1ea af3e
00000010: a07a 093e ab0b 5f3e 5e41 873e 5bf6 533e
00000020: bb42 1c3e bbe8 9a3e c12b 843e 59e6 293e
00000030: e10c 713e cc07 a23e 8659 6a3e 98ba 653e
00000040: 1515 793e 8855 ee3d 7682 973e d150 823e
00000050: ba9d 873e c7d3 2a3e a7c4 843e 972d 4e3e
00000060: 5771 703e 67b8 863e 2211 9f3e e127 763e
00000070: 0f9d 6a3e 6ee4 723e 7539 213e 5d58 8a3e
00000080: bbf3 5d3e f515 183e 19ac 323e 369c 8a3e
00000090: 52b1 9c3e 7444 6d3e 0887 833e 99db ed3d
000000a0: 5f61 6c3e 822d 8d3e dbc5 273e edff 663e
000000b0: fccb 843e dbc2 983e d84b 803e 8d9c 6d3e
000000c0: 3ffa 923e 2382 a23e bd55 8d3e 92a8 473e
000000d0: a44b 443e ed54 543e 9219 233e 61df 3b3e
000000e0: 1d4a 273e 58f6 673e bc40 8a3e a10a 633e
000000f0: 4233 823e e3c3 063e e44d 143e 4687 933e

model.9.weight f4 [3, 64]
0.07487047 0.057476427 -0.1033698 0.07301619 -0.11273204 -0.10885333 -0.021975735 0.10800034
0.07353557 0.07135997 0.026255691 -0.053629212 -0.09859321 0.18915506 -0.12870653 -0.17510322
-0.10119765 -0.12304978 0.0571294 0.21058436 0.12021551 -0.14153627 -0.08818094 0.19256474
0.24211834 -0.053081922 0.16345608 0.28135985 -0.1535255 0.1402861 -0.12462478 0.23624572
0.19205661 -0.20819986 -0.07894843 0.18211141 0.19364518 -0.15447828 -0.09716265 0.1090396
0.30279952 0.11365162 -0.14887495 -0.11482467 0.1967556 0.0018573013 -0.1476678 -0.10407941
0.18627949 0.10089405 -0.09307334 0.06401035 -0.041992325 -0.16264956 0.08924188 -0.10023044
-0.19087408 0.12251702 -0.06351294 -0.121808626 -0.06672143 -0.12326276 -0.032077946 0.14468919
-0.30411994 0.1635347 -0.111658596 -0.13620812 -0.1528021 0.024910334 -0.25050142 -0.25100476
-0.18055011 -0.2009484 0.17186907 0.14787452 0.10826707 0.026962947 -0.14584656 -0.13271922
0.075721756 0.17724349 -0.11755453 -0.1437005 0.20940548 -0.058432896 -0.07107843 0.07785238
-0.21491967 0.07962785 0.11474389 0.014099181 -0.06981639 0.18329808 -0.08905735 -0.011335523
0.16529176 0.047631644 0.14684665 -0.12711884 -0.053649105 -0.0644043 -0.13883819 0.19302408
-0.10888487 -0.28348872 0.15109658 0.110084385 0.15005639 -0.16808985 -0.080260865 -0.14538871
0.08580115 -0.14842132 -0.07465761 -0.01775723 -0.08653868 -0.16102624 0.17089976 0.0049343104
0.008210121 -0.23280077 0.08825659 0.047557104 0.09033619 0.1058721 0.10337813 0.16112016
-0.24512118 0.104268834 0.033308167 -0.11754527 0.15078793 0.19732584 -0.23407094 0.038897667
0.1625332 -0.18924563 0.15443772 0.05077752 0.1767998 0.035818707 -0.07124816 -0.0820497
0.15876779 -0.08211243 -0.16308813 0.025118 0.16914476 0.10078519 -0.18622029 -0.07748154
-0.059059087 0.1256715 0.08846576 0.047954086 -0.20267592 0.10943524 0.21381152 -0.033290185
0.024041109 0.061959285 0.050469976 -0.09325552 -0.042596523 -0.16535947 -0.06899314 -0.091678575
-0.016561408 -0.2074796 0.09956551 0.16528185 0.07076718 -0.24419811 -0.19450162 -0.050228126
0.022867197 -0.12431536 -0.16407664 0.14028378 0.1873332 -0.14516868 0.008622683 -0.2190744
-0.10076304 0.11031385 0.12641141 0.14277954 0.13708086 -0.14853367 -0.17524782 0.12769412
00000000: b055 993d 676c 6b3d 8cb3 d3bd 8389 953d
00000010: 0ee0 e6bd 7fee debd 7506 b4bc 482f dd3d
00000020: d199 963d 2d25 923d 2d16 d73c 4eaa 5bbd
00000030: 3deb c9bd ddb1 413e a5cb 03be 424e 33be
00000040: b740 cfbd 8601 fcbd 8500 6a3d 6da3 573e
00000050: 8d33 f63d e2ee 10be 3598 b4bd b12f 453e
00000060: dfed 773e 6e6c 59bd 0861 273e 660e 903e
00000070: ca35 1dbe 29a7 0f3e 473b ffbd 66ea 713e
00000080: 7daa 443e 5832 55be b7af a1bd 6a7b 3a3e
00000090: ec4a 463e 8e2f 1ebe 36fd c6bd 2750 df3d
000000a0: 8a08 9b3e 2ec2 e83d ad72 18be 3229 ebbd
000000b0: 4d7a 493e b170 f33a 3a36 17be 9627 d5bd
000000c0: 0dc0 3e3e 8aa1 ce3d 3c9d bebd dc17 833d
000000d0: 2500 2cbd 9b8d 26be 72c4 b63d 9e45 cdbd
000000e0: 7f74 43be 34ea fa3d 1313 82bd cd76 f9bd
000000f0: 3fa5 88bd 3071 fcbd 2a64 03bd 6729 143e
00000100: 9cb5 9bbe a475 273e 43ad e4bd 247a 0bbe
00000110: 2778 1cbe c210 cc3c b941 80be b283 80be
00000120: 21e2 38be 6bc5 4dbe 72fe 2f3e 6b6c 173e
00000130: 20bb dd3d 66e1 dc3c cd58 15be 8ce7 07be
00000140: 0214 9b3d 517f 353e 6ec0 f0bd 3926 13be
00000150: 646e 563e 5557 6fbd 9191 91bd 1271 9f3d
00000160: e713 5cbe ed13 a33d d8fe ea3d 4000 673c
00000170: e5fb 8ebd 7eb2 3b3e b363 b6bd a1b8 39bc
00000180: 3e42 293e 6619 433d f85e 163e 712b 02be
00000190: 2abf 5bbd 67e6 83bd 992b 0ebe 1ba8 453e
000001a0: 08ff debd 6f25 91be 10b9 1a3e ec73 e13d
000001b0: 62a8 193e bf1f 2cbe cf5f a4bd c7e0 14be
000001c0: 83b8 af3d c2fb 17be 17e6 98bd 9c77 91bc
000001d0: 313b b1bd 10e4 24be 5900 2f3e ffaf a13b
000001e0: be83 063c 5363 6ebe dfbf b43d 3dcb 423d
000001f0: 2e02 b93d 79d3 d83d eab7 d33d affc 243e
00000200: 0c01 7bbe e68a d53d 256e 083d 93bb f0bd
00000210: 2768 1a3e c90f 4a3e 4bb0 6fbe 2953 1f3d
00000220: 1a6f 263e 9bc9 41be ec24 1e3e 17fc 4f3d
00000230: 020b 353e a3b6 123d 8eea 91bd ac09 a8bd
00000240: 0694 223e 902a a8bd 9300 27be 44c4 cd3c
00000250: 4934 2d3e 7768 ce3d 88b0 3ebe a4ae 9ebd
00000260: f1e7 71bd 08b0 003e 892d b53d 816b 443d
00000270: 478a 4fbe 951f e03d 68f1 5a3e 4a5b 08bd
00000280: dcf1 c43c 05c9 7d3d 9bb9 4e3d c0fc bebd
00000290: b179 2ebd fe53 29be 464c 8dbd fac1 bbbd
000002a0: caab 87bc 8875 54be 01e9 cb3d a53f 293e
000002b0: 62ee 903d 120f 7abe 6f2b 47be 02bc 4dbd
000002c0: fd53 bb3c 0d99 febd b503 28be 8da6 0f3e
000002d0: 46d4 3f3e 19a7 14be 2746 0d3c 0a55 60be
000002e0: da5c cebd 3aec e13d fe71 013e cd34 123e
000002f0: ed5e 0c3e 3619 18be 2a74 33be 3fc2 023e

model.9.bias f4 [3]
0.017480059 0.08156287 -0.0061005396
00000000: 5732 8f3c 6f0a a73d 09e7 c7bb
