exported_models/neural_networks/raw_mlp/trained_models/nmpc_model_epoch_100_batch_64_lr_1e-05_vs_30_hl_128_128_128_drop_3/mlp_dynamics.pth (torch, 140499 bytes, 8 tensors)

model.0.weight f4 [128, 5]
00000000: a794 f43d 26f9 83be 67a6 85be 4ee9 68bb
00000010: 6984 6a3b 83cd de3d f561 f6be a9d7 44bd
00000020: faa1 95bb ef95 3abc 3d03 10be 87f0 003f
00000030: 43f4 aebe f0df c63b 4b6d 003c 8912 f53e
00000040: 1724 8cbe e6ef e8be e505 95ba 67d6 47ba
00000050: 88e2 e9bd 909f 4a3e 25ee 03bf 84f3 60bb
00000060: b36d b63a 0b2a 5d3d 1603 dbbe 10de e13e
00000070: a940 1e3c 1c47 993b 4edd ae3e 9641 8b3e
00000080: 7ea7 c3be 7aee b9ba a850 14bc 5bd1 fdbe
00000090: c76f 6d3c 7c09 a2bd 364b 063d 2ad3 ba3b
000000a0: 630a e13e ae41 383d 2895 ee3d dbb5 8fbc
000000b0: cd97 0b3c 78ea 5b3e 0b4b 613e 2ab3 ae3e
000000c0: 173a 14bb a960 1ebc 0fd1 ad3e c42c a13e
000000d0: b5f0 f0be de44 ff3b de15 6539 06e4 633e
000000e0: 52b6 debe 1e42 aa3e 6e71 5dbb 931f 2f3c
000000f0: cf7d c33d b878 333d 0069 e43e ff3e 3c3a
00000100: 5fc4 b4bb 2bbd a6be d9af b2bd e399 083f
00000110: 6ce1 8dbc 4b96 873a 83ba b33e 16cc bebe
00000120: 768a 4e3d 4f4c f3ba 3185 b5ba 4dfa 903e
00000130: f5fa 66be 489f 84bd bf57 f6ba 0290 8f3b
00000140: 20bf d8be 02c3 a3bd d8f7 57bd d638 37ba
00000150: 110f 9c3a 5060 afbd 28eb dbbe 0985 a03e
00000160: c2c7 d438 7440 54ba ca5f dbbd bab2 bcbe
00000170: 0123 ab3c 663a 0fbb 8213 02bc e072 e93c
00000180: 947c c7be 7e25 a73e e99c 913b 7eb2 8c3b
00000190: 2fa6 edbb 3555 2b3e c7d4 a03e 511f 323c
000001a0: d520 403c 5137 25bd bfde b13e 85c8 d6be
000001b0: 47bb 4bbc a6fa e5bb bae9 c4bd 7d8c d0be
000001c0: 2a7c 5c3e a732 b4b9 1da7 f7b9 be15 c0be
000001d0: 678a 1bbe b8d2 8fbe f007 8c3b c324 063c
000001e0: 3127 943e d497 51be 7bb1 92be bbbc 833b
000001f0: aee6 163b f39c 90be 2488 98be 7d91 cf3e
00000200: f7ba 2abb 83ef 0e3c cf42 8e3e 9341 f6be
00000210: b19b aa3e d59c cebb 4aec 143b 7b24 06bf
00000220: bae4 7abd 2a6f 3c3e 339a 573d d122 74bc
00000230: 9baf 9fbe f79d c93e d03b 663e d6b6 743a
00000240: e592 f9bb 49c0 51be c293 cdbe bd10 02be
00000250: 8c6d 2bbc 0c34 70bc ddbd b0be ba18 14be
00000260: 31be 19be 49b4 d9bb 0e5d 45bb d4cb 8b3c
00000270: 3f89 dabc a55d f8be ec2f b03b b1c6 b23b
00000280: 82d0 20be 3eaa 3e3e bc84 c73e bfdb 723b
00000290: 1e0e 3e3c ed05 b7be 7bfc 64be f91a cd3e
000002a0: 7a40 28bc 9814 b23b b3f3 adbe 6a04 b6bd
000002b0: 5e67 5fbd f5fa 763c 72bc 0b3c dda0 873e
000002c0: e288 f8bd 8ad8 d0be 47f8 883b 51db 7f3b
000002d0: 64a2 e83e 6762 01be b3b2 cc3e 325d 1b3b
000002e0: 5ac9 893a e814 f2be 9b50 9e3e 5845 753e
000002f0: 5590 21bc cc9e 0dbc cbb8 00bf ccc6 b0bc
00000300: 70a5 823e fb8a 1cbc 4fd5 353c 8855 b8be
00000310: af29 2cbe 0735 b9be fc48 60ba f0cf 913a
00000320: 2b6f f23c 3a68 dc3e 7c0d c9be 3acf 933b
00000330: 2e68 a5bb 6cf6 4ebe 8f47 bfbe 6af3 b43e
00000340: 9984 92bb c9aa 7a3b 6a26 443e 5928 283e
00000350: 291b cbbe 7ba1 243b 8492 ad38 912a 8c3e
00000360: a543 993e 1a5a ba3e 529d d8ba d0a0 cbbb
00000370: cb99 c13e 8337 6ebc 0e82 7b3e c3aa dfba
00000380: d748 fc3a 12f8 e9be a4ab 5dbe b436 b03d
00000390: a33f 243c c576 e93a fa04 febd 44a4 a43e
000003a0: a68a 883e 356b 4b3a 66ac 523c 1b4c 553e
000003b0: d285 063e eb69 d43e d604 313c 55b8 ebb9
000003c0: 601f cfbe 27a8 143d a06c e2be 7692 21bc
000003d0: 65be 6339 36ad e6be f8d5 c63d 353a 8b3e
000003e0: 13ee 49bc 7668 d539 4a36 af3e 2199 da3e
000003f0: a8db 9bbe 26fa 1ebc af4f 61ba 5ea9 053e
0.11942416 -0.25776023 -0.26103517 -0.003553945 0.003578449 0.10879042 -0.4812161 -0.048057232
-0.0045664283 -0.011388286 -0.14063735 0.50367016 -0.34170732 0.006069176 0.0078385575 0.47865704
-0.27371284 -0.45495528 -0.0011369555 -0.0007623196 -0.114201605 0.19787431 -0.51535255 -0.0034324834
0.0013918191 0.053995173 -0.42775792 0.44114733 0.009658971 0.0046776664 0.34153217 0.27198476
-0.38213724 -0.0014185451 -0.009052433 -0.49573788 0.014491982 -0.07911965 0.03278657 0.0057014422
0.43953237 0.044984512 0.11649543 -0.01754277 0.008520079 0.21476161 0.22001283 0.34121066
-0.0022617632 -0.0096666 0.33948562 0.31479466 -0.47058645 0.007790192 0.00021847288 0.22254953
-0.43498474 0.33253568 -0.0033789533 0.01068868 0.095454805 0.0438163 0.4461136 0.0007181018
-0.0055165733 -0.325662 -0.087249465 0.5335981 -0.017319404 0.0010344473 0.35103235 -0.3726508
0.050425015 -0.001856217 -0.0013848898 0.28315964 -0.2255667 -0.06475693 -0.0018794461 0.0043811807
-0.42333317 -0.07996179 -0.052726597 -0.0006989365 0.0011906346 -0.08563292 -0.42952847 0.31351498
0.000101461555 -0.00080967625 -0.1071163 -0.36855108 0.020890715 -0.0021854877 -0.007939221 0.02849716
-0.38962233 0.32645792 0.004443754 0.004293739 -0.0072524766 0.16731723 0.31412336 0.010871724
0.011726578 -0.040335957 0.34740254 -0.4194986 -0.012434787 -0.007018405 -0.09614892 -0.40732184
0.2153174 -0.00034370014 -0.0004723602 -0.37516588 -0.15189515 -0.28090453 0.004273407 0.008187476
0.2893615 -0.20468074 -0.28651032 0.004020301 0.002302568 -0.28244743 -0.29791367 0.40540686
-0.002605138 0.008724096 0.27785346 -0.48096904 0.33321908 -0.006305317 0.0022723847 -0.52399415
-0.061253287 0.1840178 0.05263729 -0.014900879 -0.31188664 0.3937833 0.22483754 0.0009335106
-0.007616388 -0.20483507 -0.40151793 -0.12701698 -0.01046313 -0.014660846 -0.34519854 -0.14462557
-0.15013959 -0.006643806 -0.003011528 0.017064966 -0.026676772 -0.48508945 0.0053768065 0.005455815
-0.1570454 0.1861963 0.38968456 0.0037057248 0.0116000455 -0.3574671 -0.22361939 0.4005964
-0.010269279 0.005434584 -0.3397499 -0.08887561 -0.054541938 0.015074481 0.008528816 0.26489916
-0.12135483 -0.40790206 0.0041799876 0.0039040635 0.45436394 -0.12635194 0.39980087 0.0023706672
0.0010512278 -0.47281575 0.30920872 0.23952234 -0.009861072 -0.008643817 -0.5028197 -0.021579169
0.25516844 -0.00955462 0.01109822 -0.36002755 -0.16812776 -0.3617327 -0.00085557974 0.0011124592
0.029594025 0.4304827 -0.392681 0.0045107873 -0.0050478196 -0.2021119 -0.37359282 0.3534196
-0.0044713733 0.0038248769 0.19155279 0.16421641 -0.3966916 0.0025120664 8.2765735e-05 0.27376226
0.2993442 0.36396867 -0.0016526377 -0.0062142387 0.37812647 -0.014539602 0.2456133 -0.0017064441
0.0019247782 -0.45697075 -0.21647507 0.08604184 0.010024938 0.0017811885 -0.12403293 0.32156575
0.2666828 0.00077598105 0.012858486 0.20829813 0.13136986 0.4148706 0.010804376 -0.0004496003
-0.40453625 0.036293175 -0.442235 -0.009861579 0.00021719334 -0.45054024 0.0970878 0.27192846
-0.012324828 0.00040704355 0.34221107 0.42694953 -0.30441022 -0.009703195 -0.00085949426 0.1305289

model.0.bias f4 [128]
00000000: a924 06bf bfe0 dfbd b6f9 fcbd 8ee0 bbbe
00000010: 77a4 23be c7d6 f4bd a3c9 74be 84d5 babe
00000020: 47f2 f43b dce9 0ebf 341b 43bd e1f3 5dbe
00000030: 7743 bbbe f4eb c9ba cf04 8bbe 3ff9 21be
00000040: b8ea 1cbe a4cf 7ebd a8f9 5ebe 55c0 3fbd
00000050: bfd0 9ebe 08d7 2bbd ab3b 13bd 3378 99be
00000060: 6da8 c0be 56ac 1cbe e2d6 eebe d43d a7be
00000070: 6f07 87be 8427 39be ceb0 a5be d72d d9be
00000080: 15e6 debe 33a2 65bd 24e5 91be 845c 03bf
00000090: e863 dabe dc76 01bf dc7b 0abe 0cde 1dbe
000000a0: eb29 76bd b7da 16be 9954 70be 600b eabe
000000b0: 6aab a6be 8433 74be 7d80 9ebe 584a c3bd
000000c0: cc98 c3be c8c0 f3be b4e9 debe bdd4 cebc
000000d0: e9d1 9abe c46a 3cbe c509 8fbd fe33 5bbe
000000e0: 248c c7bc da8e b6be ce21 9dbe afcb 25be
000000f0: c776 edbe dd92 e7be dcb3 6cbe a128 94be
00000100: c40b 03bd 2ee1 b7be b565 5dbd 80bc cbbe
00000110: e032 55be b6f5 cfbd c248 0c3d cc53 a9be
00000120: b332 f3bd 3c9e 1abe 0101 d2bd 6209 9bbe
00000130: 0374 91bd 6ad2 b8be 1add f4be fdeb aabe
00000140: 8a4f fdbd 3e93 c43b 06cb 50bd b668 01be
00000150: 437f 8dbe 8fa5 1abe fbd2 f3bd 8cd7 17be
00000160: 1342 ffbe eb7e fcbe 7a29 fbbe 08c8 52be
00000170: 5900 a4be e72f 1ebe 6dca dabe cf7b 6abd
00000180: 72dc 11be a353 01bf b141 c9be a562 13bf
00000190: 5ff2 a6be fb55 b1be 0c26 d8be cda8 32be
000001a0: 2a74 ffbe 23e1 cebd af0c 7cbe e0e5 4cbe
000001b0: c812 d0be 835e 07be ad01 e7be fa04 eabe
000001c0: 5290 a9be 7e03 37bd 50cd 98be f5c6 15be
000001d0: ba9a 25bf f05c 26bd 10d5 bdbd d7b2 3bbe
000001e0: 402d 1abe bf8a bfbd ec49 aabe 113c bdbe
000001f0: 75bd 92be 462d 82bd ea53 94bd 6eda 91bd
-0.5239969 -0.10931539 -0.12352316 -0.3669476 -0.15980707 -0.11955028 -0.23905043 -0.36491024
0.007475171 -0.5582559 -0.047633365 -0.21675064 -0.3657491 -0.0015405403 -0.27152106 -0.15817736
-0.15323913 -0.06220974 -0.21774924 -0.04681428 -0.31018636 -0.041953117 -0.035945576 -0.29974517
-0.376285 -0.15300116 -0.46648318 -0.3266436 -0.2637286 -0.1808148 -0.32361454 -0.42417786
-0.43534914 -0.05606289 -0.28495133 -0.5131304 -0.42654347 -0.5057199 -0.13523811 -0.15416735
-0.06009857 -0.1473187 -0.23469771 -0.45711803 -0.32552654 -0.23847777 -0.30957404 -0.09535664
-0.38202512 -0.47608018 -0.43537676 -0.025247926 -0.30238274 -0.18400103 -0.06984285 -0.21406552
-0.024358816 -0.35655862 -0.30689853 -0.1619098 -0.46379682 -0.45229235 -0.23115486 -0.28937247
-0.031993642 -0.35913986 -0.054052074 -0.39792252 -0.20820189 -0.101542875 0.034249075 -0.33071744
-0.118749045 -0.15099424 -0.10254098 -0.30280596 -0.071022056 -0.36098033 -0.47824937 -0.3338317
-0.123686865 0.005998998 -0.05097487 -0.126376 -0.27636155 -0.15102218 -0.11905476 -0.14828318
-0.49855098 -0.4931558 -0.49055082 -0.20584118 -0.32031515 -0.15447961 -0.42732564 -0.05724698
-0.1424425 -0.50518245 -0.3930793 -0.57572395 -0.3260679 -0.3463591 -0.42216527 -0.17447205
-0.49893314 -0.10101535 -0.24614213 -0.20009565 -0.4063933 -0.13219647 -0.45118466 -0.45706922
-0.3311792 -0.044681065 -0.2984414 -0.14626677 -0.6468922 -0.040615976 -0.09269154 -0.1832994
-0.15056324 -0.093526356 -0.33259523 -0.3695989 -0.2866017 -0.063562915 -0.07242568 -0.0712174

model.3.weight f4 [128, 128]
00000000: 4ec9 00be 036f 2e3c e461 fdbb 41ea 363d
00000010: 2015 a2bc 4ecd 6b3c 503c 95bc 6ad7 d13d
00000020: 39b0 173c d34a 1f3d e5eb a9bc d142 c73c
00000030: 0a19 d93c 828d abbb c9ec 3e3c 9025 993d
00000040: d3d3 c73c 0d18 143d 958e 0fbe 7058 b93b
00000050: ec6f cdbc f200 213d 15b4 82bd 45d6 d4bd
00000060: 0a04 a8bc 16c4 943d eb22 113a 1a16 303d
00000070: e04c 2ebb cf5d 26be 1dd9 e6bc d3b6 c5bd
00000080: 9ae3 08be 4bd6 90bc 504a 8a3d 7ee7 0ebc
00000090: 4be5 d3bd a88f ed3d 5dc2 7e3b da56 12be
000000a0: 30c6 ddbb 02c7 c03b 1d5a 7dbc 1e72 a4bd
000000b0: 47c6 e83c 1c34 983c 5b75 bbb9 f86b d43c
000000c0: 50c0 76bd 45cb d2bc 6545 87bd 6e91 1a3d
000000d0: 31f6 8e3b e8f8 6bbc 754c 81bb b414 703d
000000e0: d992 8cbe f0a6 e4bc 5411 87bd c7ac 013c
000000f0: 8fa2 e63d 2748 603d 35ec d2bc 5773 81bb
00000100: 47ae a4be 6528 2dbe 4183 de3c 6d61 0dbe
00000110: bbff e13b c32b cc3c b59e 24be 21b6 8c3d
00000120: a8a2 123c 66b9 983c 680b bbbd 5eb2 8dbd
00000130: 87c6 6abc 1bfe 17bd f49c c9bc de93 0dbe
00000140: a969 9ebc beff b2bb c43c aebc 3c1a ab3d
00000150: a079 ab3d 6c75 6b3b 1d6d e6bd 7c18 1d3c
00000160: 6eac 5cbc 4064 96bd 4942 023d 91db 783d
00000170: 48ea c1bd 3160 8a3d 416e 8e3d 6e52 78bd
00000180: 2370 ec3c 2883 bdbd 1a61 ae3c c237 2c3e
00000190: a464 10be 6cdd 4ebc 769b b6bd ff51 64bd
000001a0: e6b6 0fbd dac6 ecbb 3679 ac3d 9cab 31bc
000001b0: b50c 01be dee6 1fbd 6bf0 06be 6688 2b3c
000001c0: 84eb ad3c cb66 55bc cb9d bc3c 6d25 f23d
000001d0: 9eff 833d 8346 8f3b c5be e6bc c8a2 64bc
000001e0: a33d a43d 6fb0 1c39 39d6 debd 46f5 cdbc
000001f0: 226e 923d b9e4 66be ee2a 30bb 9f23 33bd
00000200: 9e3a f9be 5cb0 f0bc 64d9 a13b 9d9a 64bd
00000210: df75 24be bc11 033c 3acf 953c b143 3b3d
00000220: a118 363c 77e1 e63d e331 4ebc 803e 833c
00000230: 167e 093e b786 1a3d 144c 30bb 0f44 f2bc
00000240: 177e 253d 166f bd3c d376 b0bd 5b84 7d3c
00000250: 39a6 153e ad0e 90bc 5cec c13c d815 dbbd
00000260: 8942 28be 25ef 003b aee6 2d3d 933b 813d
00000270: db46 febc c4fb 90bd 0a21 e3bd 2a3f 5dbe
00000280: 9b66 203d 8371 103d b3ab ff3c d923 b7be
00000290: dce4 033d e5a8 a23c 35c9 253d 7599 17bc
000002a0: 2d0b 253c 954e a9bb b564 f3bd 3add 743b
000002b0: 4ff3 ff3b 1f83 733d db21 72bd 5f7c b3bc
000002c0: 3b3f 8fbd 2a71 b43d b197 3dbb a294 03bd
000002d0: 1aaa b2be 6579 bc3c 90fb 50bd 6b32 953d
000002e0: b06e 0dbd 4524 bbbe 3266 56bc 1271 07bd
000002f0: dedc e53c c663 4aba bb05 863c a4ad 923b
00000300: 8c1c 29bc e614 d03c 1b2a 263d 9496 6abe
00000310: 2158 60be bb4c 12bc 5fc3 533c ecd6 1a3d
00000320: a1d1 0a3d 79fc e03c 3f74 b23b db0c 9e3c
00000330: dc83 013c 0125 e4bc 237f 87be cda7 39be
00000340: 2939 513c 04a9 1a3c 905d fd3b b4e2 c2bc
00000350: 753b 16bc c985 00bb ea68 853c 7655 52bd
00000360: 3fdb 07bc f572 fd3b 00df b93d e53f f93b
00000370: d805 4ebe 8157 aa3c 7c19 283b 01c7 33b9
00000380: 3308 9c3c 8a62 d0be 2ad5 803d b910 3abc
00000390: 64b8 ccbc ffa3 bf3d cf65 703c 1d1a 7b3b
000003a0: 7d76 e5bd ce2c 663c 1e88 993c f277 6ebd
000003b0: 38b3 08b9 9ee2 cabc c0de 353d 82c0 2dbd
000003c0: e54d 91bd 5b87 233d 9ac9 0f3c e045 e1bd
000003d0: e694 a23d 0be7 993b 5235 433d a991 eabe
000003e0: 1ebb a83c dae8 5d3c 53f1 403c 41c6 18bd
000003f0: 41d7 583e 7eb4 acbc dad8 8f3c ac8f 8f3c
-0.12576792 0.010646584 -0.0077326167 0.044656996 -0.019785464 0.01439221 -0.018217236 0.10246165
0.009258323 0.038889717 -0.020742366 0.024323853 0.026501197 -0.005235375 0.011653134 0.074778676
0.024392998 0.03615575 -0.14019234 0.0056562945 -0.025077783 0.039307542 -0.06382004 -0.10392431
-0.020509738 0.07263963 0.0005536514 0.042989828 -0.0026596114 -0.16246723 -0.0281797 -0.096540116
-0.13368073 -0.017680308 0.06752455 -0.008722184 -0.103464685 0.11599666 0.0038873174 -0.14290944
-0.0067680106 0.0058830986 -0.015463379 -0.080295786 0.028414859 0.018579535 -0.00035754856 0.02593039
-0.060241997 -0.025731692 -0.06605033 0.03773635 0.0043628444 -0.014402606 -0.003945882 0.058613494
-0.27455786 -0.027911633 -0.06595102 0.0079147285 0.11261474 0.05475631 -0.025747398 -0.003950517
-0.32164213 -0.1690994 0.027162196 -0.13806696 0.0068969405 0.024923211 -0.16076167 0.06870676
0.008949913 0.018643092 -0.09133035 -0.069187865 -0.014329559 -0.03710757 -0.024610974 -0.13825938
-0.019337492 -0.0054626158 -0.02126921 0.08354613 0.083728075 0.0035928143 -0.112512805 0.009588357
-0.013468845 -0.0734334 0.031801496 0.06075627 -0.09468514 0.06756628 0.06954623 -0.060625486
0.028862065 -0.09253532 0.021286536 0.16818145 -0.14100891 -0.012626033 -0.089163706 -0.05574226
-0.035086535 -0.0072258534 0.08421557 -0.0108441375 -0.12602504 -0.03903853 -0.1317765 0.010469532
0.021230467 -0.013024996 0.02302446 0.11823545 0.064452395 0.0043724193 -0.028167138 -0.013954826
0.08019569 0.00014943046 -0.108807035 -0.02514137 0.071499124 -0.22548188 -0.0026881057 -0.043735143
-0.48677534 -0.02938097 0.004939245 -0.055811513 -0.16060589 0.007999834 0.01828729 0.045718852
0.01111427 0.11273473 -0.012585136 0.016021013 0.13427004 0.03772613 -0.0026900815 -0.029573468
0.04040345 0.023124259 -0.08616414 0.0154734505 0.1461419 -0.017585123 0.023672275 -0.10697526
-0.16431631 0.0019673791 0.04245632 0.06310191 -0.031039646 -0.070792705 -0.11090286 -0.21606126
0.039160352 0.035264503 0.031209802 -0.35769537 0.03220068 0.019855926 0.04047509 -0.009252896
0.010073465 -0.0051668384 -0.11884443 0.0037363307 0.007810987 0.05945122 -0.05911432 -0.02190989
-0.06994482 0.08810647 -0.0028929526 -0.03212417 -0.34895402 0.023007104 -0.05102116 0.07285007
-0.034529388 -0.3655111 -0.013085889 -0.033066817 0.02805942 -0.0007720556 0.016360154 0.004476266
-0.0103217475 0.02540059 0.0405675 -0.22909003 -0.21908619 -0.008929427 0.012924998 0.03780262
0.033891324 0.027464138 0.0054459865 0.01929324 0.007904973 -0.027849676 -0.26464185 -0.18130417
0.012769976 0.0094397105 0.007732101 -0.023789741 -0.009169449 -0.0019610992 0.016285378 -0.051351033
-0.008292018 0.007734651 0.09075737 0.007606494 -0.20119417 0.020793678 0.0025649955 -0.00017144905
0.019046878 -0.4070018 0.06290658 -0.011356526 -0.024990268 0.09357452 0.014672711 0.0038315125
-0.112042405 0.014048768 0.018741664 -0.058219858 -0.00013036735 -0.024766263 0.044401884 -0.042419918
-0.07094935 0.039924007 0.008776093 -0.10999656 0.079385564 0.004696732 0.047658272 -0.45814255
0.020597037 0.013544286 0.011776286 -0.037298445 0.21175863 -0.02108216 0.017559458 0.017524563

model.3.bias f4 [128]
00000000: bdf6 c0bc ca66 b03d 3c5c 62bd c389 483d
00000010: f3bb 333d aee3 043e 0d7d b13d 7168 423d
00000020: c9c3 f73c 5589 173d 4236 24bd 0739 953d
00000030: c76d 453d 4a85 1d3d 46fd 1b3d f28d 96bd
00000040: c325 213d 0269 353d be60 343d 7b35 5d3d
00000050: beea 8f3d 3dd0 95bd d52b 223c 1929 833d
00000060: 97cb aa3d f528 243d 92d5 b73c d54e 1e3d
00000070: 6239 f4bc e683 133d 0fc2 fd3d 582f 7d3d
00000080: 12cb 39bd 4906 2c3d 6404 b83c fb92 123d
00000090: f0e5 493d 2927 563d 8e92 4dbd 6b87 ca3c
000000a0: 229f 7c3c 891a 24bd 53b0 283d eb41 ea3c
000000b0: fea3 953b efa0 c33c 57a4 a53d 855f 403d
000000c0: 84ad 893d 24c2 ed3c ad15 293d b6ca eb3c
000000d0: 40f9 323d 6978 913b d5ba 8d3d 023e 803d
000000e0: 9c20 443d c010 b23b 6fcd 7d3d e63b 303d
000000f0: 7dfa 5dbd 0566 3e3d b245 753d 8b2a 0d3c
00000100: b940 013d 54c3 e73c 1de6 753d 64fc e53c
00000110: a9a0 8e3c f133 8b3d 00c0 363d 5a26 1a3d
00000120: f930 52bd c29f 0b3d dc5b 0a3d 2d85 ea3d
00000130: bcdd 0dbd 5d98 173d a77b 223d 4f63 21bd
00000140: 8ee1 693d f05b 99bc bd72 a93c eee7 f23d
00000150: 08bb 02bc 25ce 683d cee7 4a3d 06ee eb3c
00000160: c96e 1ebd 3c8a 4c3d e93d 0b3e a813 19bd
00000170: c36e 843d 7085 383d 8088 1e3d 043f 7d3d
00000180: 2bc0 873d c702 483d c418 07bd e209 163d
00000190: e846 053d 4c51 ec3c 8d0b 2b3d cf09 8c3d
000001a0: 5e32 9c3d cfb2 ec3c 12d7 193d b6f9 c33c
000001b0: 26cb 323d 0cce 933d 7549 5d3d 8c67 853d
000001c0: 99f8 203d 1f32 9a3d b61d 643d 2303 c33d
000001d0: dd74 ad3d 4f49 553d 9d5c 2f3d e2db 8a3d
000001e0: 8708 e53c 01d5 c03d 54c9 c4bc 8b90 393d
000001f0: b195 253d 1969 953b 0117 f73c c574 423d
-0.023555154 0.086133555 -0.055263743 0.048959505 0.043880414 0.12977478 0.0866643 0.047462884
0.030244725 0.036996204 -0.040090807 0.07286268 0.048200395 0.038457192 0.038083337 -0.07351293
0.039342653 0.044289596 0.044037573 0.05400608 0.070271954 -0.07315109 0.009898146 0.06404323
0.08339613 0.040078122 0.022440705 0.0386494 -0.029812519 0.03601446 0.12390529 0.06181273
-0.04535968 0.04199818 0.022463031 0.035784703 0.04929155 0.05228344 -0.050188594 0.024722775
0.0154188 -0.04006437 0.04118378 0.028595885 0.0045666685 0.02388045 0.08087986 0.046966095
0.067225486 0.029023238 0.041280437 0.028783184 0.043694735 0.004439403 0.06920401 0.06261827
0.04788266 0.0054341257 0.061963495 0.043025874 -0.054193962 0.046484012 0.05988092 0.0086161
0.031555865 0.028291382 0.060033906 0.02807445 0.017410593 0.067970164 0.0446167 0.03763423
-0.051316235 0.034087904 0.03377901 0.114511825 -0.03463529 0.03701054 0.039668705 -0.03940135
0.05709987 -0.018720597 0.020684594 0.11860643 -0.007979162 0.05683722 0.049537472 0.028800022
-0.03867987 0.049936518 0.13597836 -0.03737226 0.064664386 0.04504913 0.038704395 0.061827675
0.0662845 0.048830774 -0.032982603 0.03663052 0.032538325 0.02884736 0.041759063 0.06837808
0.07626794 0.028893856 0.037558623 0.023922782 0.04365077 0.07217035 0.054025132 0.065138906
0.03929958 0.07529091 0.055692397 0.09522083 0.084695555 0.052071866 0.042812932 0.067802206
0.027958168 0.09415627 -0.024021782 0.045303863 0.04042596 0.0045596478 0.030162336 0.04747464

model.6.weight f4 [128, 128]
00000000: 3d65 babc 527b 9fbd 7065 dd3b 05c4 83bb
00000010: af63 18be 041e 3f3d c680 96bd b41a d0bc
00000020: d40e 0e3d d771 b93c bcb9 c4bb 1a24 8dbd
00000030: e9c9 343a be85 fb3c 2f68 eebc 7e83 2c3d
00000040: 1b83 69bb 6ad7 533c 98a9 ae3c dbdb 483d
00000050: df09 1f3c 2e92 86bb 9c3b 8ebc 054a e2bc
00000060: ba99 283d ca61 483c 1011 653d b3d7 20bd
00000070: 5a41 80bc fcea 24bc e632 bebb d96c 453d
00000080: b713 97bc fb68 813d d771 9dbd b288 fa3b
00000090: ce19 7bbb 42ed 0dbc 8755 bf3d 0bce c73c
000000a0: 0654 2abe d555 bcbd c5f9 7dbb 7953 183d
000000b0: d39c 913d 22e4 4dbd 11af 8dbc f16b 163d
000000c0: de88 253d 00f9 943c 8ec0 83be 0f66 1b3d
000000d0: 422a 6f3d 02eb 6e3d 51a5 1c3b e54d f7bd
000000e0: 08c4 b8b9 1f8a 3fbd 81ee 193d 4509 623d
000000f0: d09b 343d 1ed2 523c d9cf 2b3d 2833 b0bc
00000100: 68db 823b 6584 edbc 54cc 343d 2908 34be
00000110: e97e 743d 2769 bebc 9bd2 613d e5fd ffbe
00000120: 8ae4 f9bd c15a 1a3d 1420 12be e709 9b3c
00000130: 0a5e 85be 33cc 05be 0e7c e63c 6915 c0bd
00000140: 1bfb 8fbe 74f0 b63c f90e 293d 9313 3dbd
00000150: eb3d 303d b5e3 07bd b111 bebb 2fe2 11ba
00000160: dd4d 6abd 0cd6 06bf 3814 0c3c 7b34 193d
00000170: 8203 ebbc e9c3 d83c e1d0 3ebd 3fd6 26bd
00000180: aa9f 48bc 6d3b 78bd 6597 7d3c 05e5 603b
00000190: 937f 5f3d 809b 76bc abe0 c63c 3bb5 80bc
000001a0: 6ccb 4f3c 3973 bebd c82d d93c 403d 5b3d
000001b0: d329 46bc 06a2 1d3b 4a08 013d 0f41 f23c
000001c0: de54 bc3c 9a60 123d f652 efbe aa4a ec39
000001d0: 724d 043d fa60 0cbf 94cf b33c 1c0c cdbd
000001e0: 756a 46bc 2b46 e5bd d526 913d f5ec 7a3c
000001f0: f0a7 dbbb 6600 f43b eb06 0d3c 1889 33bd
00000200: e026 653d bc38 0ebd 6374 e33c 6cf9 693c
00000210: af77 3bbe 8ad3 183c 7017 58bb 15ed 673d
00000220: 74d2 1cbc 504d 8539 ed80 30bd 8d13 2bbd
00000230: 75c2 91bc ddc8 b0bc f1a6 6a3c edb9 563d
00000240: e0ac ed3b 25ac c93c 5bdb b3bb 8403 0c3d
00000250: 1990 593c d153 c03c 025a 1d3b fdf2 cdbc
00000260: 0fcb 18bd f704 fcbc 381c 0b3d d706 aebb
00000270: c83b 1dbc 78f0 48bc 4d90 123d c642 833b
00000280: b629 8a3c f5fa 9d3c b282 c2bd 8f0e ce3c
00000290: 4be4 60bd 70d5 b53c 06b3 ee3c e5f7 87bc
000002a0: 73f6 16be a412 5dbe d1f3 efba cbe7 33bc
000002b0: 4917 743d 3aa9 11be 8505 01bd 6197 8dbc
000002c0: 998a 9f3c 565e 0cbd 2ee8 5cbe a1d1 fb3b
000002d0: 0c40 463d 081c b53d 0e0e f73c 36b0 0fbe
000002e0: 82aa 533c 8f04 ee3c 90d7 eb3a 993a 2a3d
000002f0: 1081 1f3d 615f 353d 0bd8 7ebc d400 373d
00000300: eb8a 543d e4b5 0a3d cc2a af3c 8c9b a5be
00000310: 7634 1d3d 96cd eaba ff6a 663c 3581 abbe
00000320: 87e2 82bd 48c4 a23d a28b 36be dcaa 933b
00000330: e133 b7be 82d0 0bbe 81d5 cb3c e470 4dbe
00000340: ffc2 e2be 002e 6cbc 3825 86bc acaa e8bc
00000350: 233b ca3d 13d2 04bd b9bd 353d 44de c93c
00000360: 1576 10bc e591 dabe d81c 333c 2986 ec3c
00000370: 66c0 71bc 03f4 1e3d 311f 243c 0015 9a3c
00000380: 0c33 05bd 7345 afbd fde8 1a3d 5411 e93c
00000390: e2e5 d73c 9969 fdbb 4e53 0d3d 3dae 333d
000003a0: e87c b9bc 60fb 2cbd a804 5d3d 0be7 473b
000003b0: 30dd c03c 1ef8 f13c e463 3a3d 9c79 1a3d
000003c0: c00b 6c3d b8c6 22bd ae15 95be fd18 043d
000003d0: 36ea 033d c974 13bf f234 a9ba c9a0 b5bd
000003e0: 3cd2 f23c 05c5 23bd 59ac 793d 5c10 ab3c
000003f0: b69b 0bbc d20c 4abd fe3c f13c e968 80bd
-0.022753352 -0.07787193 0.006756477 -0.00402117 -0.14881776 0.046659485 -0.0734878 -0.025403358
0.03468211 0.02263729 -0.0060035866 -0.068916515 0.0006896542 0.030703422 -0.029102413 0.04211759
-0.0035631123 0.012929777 0.021321103 0.049037796 0.009706943 -0.0041067814 -0.017362408 -0.027623186
0.04116223 0.012230346 0.055924475 -0.039268207 -0.015656162 -0.01006579 -0.0058044074 0.04819951
-0.018442018 0.063188516 -0.07687729 0.00764569 -0.0038314941 -0.008662524 0.09342485 0.024390241
-0.16633615 -0.09196059 -0.003875361 0.03718898 0.0710999 -0.050266393 -0.017295392 0.036724035
0.04041373 0.018185139 -0.25732845 0.037939128 0.05838991 0.05832959 0.0023902247 -0.12075404
-0.0003524127 -0.046762582 0.03758097 0.05518462 0.044093907 0.012867479 0.041946266 -0.021508768
0.0039934404 -0.028993795 0.044140175 -0.17581238 0.059691343 -0.0232435 0.05513249 -0.49998394
-0.122017935 0.037684206 -0.1427005 0.01892562 -0.2604831 -0.13066177 0.028135326 -0.09379084
-0.28121266 0.022331454 0.041274045 -0.046161246 0.0430278 -0.033176143 -0.005800449 -0.0005565015
-0.057203162 -0.5267036 0.008549742 0.037403565 -0.028688196 0.026460605 -0.04658592 -0.040731665
-0.012245098 -0.060603548 0.01547799 0.0034316194 0.054565024 -0.0150517225 0.024277052 -0.015711417
0.012682777 -0.09299321 0.026511088 0.05352521 -0.012094933 0.0024052872 0.031502046 0.029572038
0.022989687 0.035736658 -0.46742982 0.00045069057 0.03230042 -0.54835474 0.021949567 -0.10012075
-0.012110342 -0.11195024 0.07087485 0.015315284 -0.0067033693 0.0074463366 0.008607606 -0.043831915
0.055945277 -0.034722075 0.027765458 0.014280658 -0.18307374 0.009327779 -0.0032972954 0.056622583
-0.00957166 0.0002542534 -0.043091703 -0.041766692 -0.01779292 -0.021580154 0.0143220285 0.052423406
0.0072532743 0.024618218 -0.0054887957 0.03418304 0.013278984 0.023477467 0.0024009948 -0.02514028
-0.037303027 -0.030764086 0.03396246 -0.005310874 -0.0095967725 -0.0122643635 0.035782147 0.0040057627
0.016865592 0.019284705 -0.094975844 0.025153426 -0.054905217 0.022196501 0.0291381 -0.016597698
-0.1474245 -0.21589142 -0.0018306916 -0.010980557 0.05959252 -0.14224711 -0.031499404 -0.017284097
0.019475268 -0.034269653 -0.21572945 0.007684902 0.048400924 0.08843237 0.030158069 -0.14032063
0.01291907 0.029054908 0.001799332 0.04155979 0.038941443 0.044280414 -0.015554438 0.044678524
0.051890295 0.03386487 0.021382712 -0.32345235 0.03838011 -0.0017914053 0.014063596 -0.33497015
-0.06390863 0.07947594 -0.17826703 0.004506452 -0.35781768 -0.13653758 0.02488208 -0.20062596
-0.44289395 -0.014415264 -0.01637517 -0.028401695 0.09874561 -0.032426905 0.044370387 0.024642117
-0.008817215 -0.42689434 0.01093217 0.028872566 -0.014755344 0.038806926 0.010017202 0.018808842
-0.032519385 -0.08558168 0.03781985 0.028450646 0.026354734 -0.0077335355 0.034503274 0.04386734
-0.022642568 -0.042231917 0.05395952 0.0030502703 0.02354297 0.029537257 0.04550542 0.037713632
0.057628393 -0.039740294 -0.29118103 0.032250393 0.032205783 -0.57600075 -0.0012909456 -0.08868558
0.029641263 -0.039982814 0.06095538 0.020881824 -0.008521011 -0.049328633 0.029448029 -0.0627001

model.6.bias f4 [128]
00000000: 5df3 3f3e e66a 1e3e c683 163e 9dd0 4d3e
00000010: c298 983d 8a50 243e 6a5a 6b3e 2dd8 603e
00000020: 2856 5f3e 0e1e 0f3e a5e5 8a3e 084c 2f3e
00000030: 916c 3b3e f4b8 103e 1fec 123e 5cd9 753e
00000040: bb74 7c3e f831 833e bc5f 683e b4fb 533e
00000050: f799 753e 34f5 8f3e 325f b13d 11ac 873e
00000060: d1c8 303e a215 673e 6166 c13d 14d2 563e
00000070: 301e 413e d907 183e 676e 443e c52c 7b3e
00000080: b2be 5e3e ead3 673e 830a 383e ca68 523e
00000090: f2bc 953e ce8d 423e a821 5d3e 67fb 103e
000000a0: e521 893e bffb 4a3e 596f 233e a038 233e
000000b0: 828c 503e 20d4 123e 82a6 763e 3441 883e
000000c0: 1587 493e f5bb 173e 2298 643e f1f7 c73d
000000d0: 12b2 5f3e d3d8 3a3e 6c18 4c3e e203 303e
000000e0: deae 813e 4adf 0e3e aa8f 233e 38ff 543e
000000f0: b761 6c3e 415f 583e 7f5d 6d3e 1f9e 4b3e
00000100: d7b3 3f3e 747d 033e 891b 9f3e 254f 8e3e
00000110: 67b0 623e 8206 6d3e ab4b 7f3e 227d 633e
00000120: e18f 693e 1751 673e 25b3 3d3e 987a 633e
00000130: cabf 4c3e 318a 693e 24c4 763e 28fc 613e
00000140: 0b4c 663e 56b3 7d3e bc43 503e 7c13 543e
00000150: 45b6 693e 1d60 2c3e 1e40 453e 8243 213e
00000160: fb1d 3b3e d90c 8a3e 2c75 823e ca6a 6f3e
00000170: 92d1 7e3e fa22 4f3e 881f 493e 893b 0e3e
00000180: a59d c73d 684e 413e 730d 523e 56f7 283e
00000190: f0f7 283e fb6d 633e 7e8c 223e b9ab 583e
000001a0: 60da 333e 872c 403e ede2 523e 43e1 933e
000001b0: 4c95 f23d 05a4 653e ed7f 3c3e 9239 823e
000001c0: 8a86 873e 2ddc 403e 3b93 073e 633f 2d3e
000001d0: 7d0a 593e 178b 1d3e 8aeb 843e 509f 643e
000001e0: 45aa 543e 331d 873e 920b 3a3e 37ee 353e
000001f0: b7f3 763e 57d3 613e 4ec6 673e 0af1 383e
0.1874518 0.15470466 0.14698705 0.20099111 0.07451011 0.16046348 0.22983709 0.21957465
0.2181021 0.13976309 0.2712833 0.17118847 0.18303134 0.14133054 0.14347886 0.24008697
0.24653904 0.2562406 0.2269277 0.20701486 0.23984514 0.28116763 0.08660735 0.26498464
0.17264105 0.22566846 0.09443355 0.20978576 0.18859172 0.14846744 0.1918274 0.24528797
0.21752432 0.22639433 0.1797276 0.20547786 0.29245716 0.18999407 0.2159487 0.14158402
0.26783672 0.19822596 0.15960445 0.1593957 0.203661 0.14338732 0.24086955 0.26612246
0.19680436 0.14817794 0.22323659 0.09764088 0.21845272 0.18246774 0.19931191 0.17188981
0.25328726 0.13952366 0.15972772 0.20800483 0.2308415 0.21130086 0.23180197 0.19884537
0.18720947 0.12840825 0.31075695 0.27794757 0.22137605 0.23147014 0.24931209 0.22215703
0.22808792 0.22589527 0.1852537 0.22214735 0.19995037 0.22806622 0.24098259 0.22068846
0.22489946 0.24775442 0.20338339 0.20710558 0.22823437 0.1683354 0.1926274 0.15748408
0.18273155 0.26962927 0.2548002 0.2338058 0.24884632 0.20228186 0.19640934 0.13889898
0.09746865 0.18877566 0.20512943 0.16500601 0.1650083 0.22209923 0.15873906 0.21159257
0.17563772 0.18766986 0.20594378 0.288828 0.11844882 0.2242585 0.18408175 0.25434548
0.26469833 0.1883399 0.13239758 0.16918711 0.21195407 0.1538509 0.25960952 0.22326398
0.20768078 0.26389465 0.18168476 0.17766653 0.24116407 0.22053276 0.22634241 0.18060699

model.9.weight f4 [3, 128]
00000000: 14e7 52bd 8bd8 7ebd 1946 f8bd 8cf5 2ebd
00000010: 0f49 e83b 2d04 cfbc 8ef5 073e 9c6e 37bd
00000020: 2ff1 f93d d0f2 c4bd 6b87 6e3d 9bb0 72bd
00000030: d3c3 90bd 025d 2bbd 2031 0abe 4212 f53d
00000040: 3b90 08bd 7144 3bbd bd33 b13d fa89 afbd
00000050: 603a 883c 1482 d93c ac93 b6bd 85a7 64bd
00000060: a1ea a1bd 0714 18bd 88ca ae3c 4b9d bdbd
00000070: 1666 233e c19e 9fbd 22f3 aabd 08c0 933d
00000080: 2928 ee3d 58aa 173d 886f 133e 2d45 db3d
00000090: 49f5 e13c d3f5 d4bd 4b1f 7bbd 897e 8dbd
000000a0: 7f16 e13d c976 6b3d 40a4 c73d 494a b0bd
000000b0: 2d4c 0b3e 423f bdbd c921 013e 4f1f 543d
000000c0: 4ae3 f7bd 27c4 00be 13f0 97bd ffd2 9abd
000000d0: e7ed 7cbd 82df a43d f606 803d bdbb 063d
000000e0: 9ab9 973d c006 ccbd ec6a 59bc 58ee a5bd
000000f0: 36f6 d73d 11ac 0f3e 63c3 c13c ce40 b7bd
00000100: f244 f83d 4d54 623d e424 533d 3c99 763d
00000110: adab ec3c e77d a4bd 8c35 933d cb76 f3bc
00000120: 7cae 41bd 5c8e d7bc 8c62 183e a0b7 0a3e
00000130: 52c8 793d b880 0c3e e162 1e3d cda1 a2bd
00000140: 5108 2abd 0b7e f33d 383b a1bd 7a16 cf3d
00000150: 6478 7dbd 68d4 963c fc9a 82bd 5a14 b2bd
00000160: 5ce6 e53c 05d9 f73d 9d03 673d 8e6d 8b3d
00000170: cc96 8b3d 06af 82bd 3fcf 5ebd 6e60 10be
00000180: 3af3 893d 8f80 b3bd f108 86bd 031b 4d3d
00000190: 7eec 803d f17f 25bd 1d4d 013e 8ebc f83d
000001a0: 012a 133d 57ae d3bd a9c4 153e 6304 00bd
000001b0: d30d 63bd d90b 86bd 9bd6 dd3c 9a15 a53b
000001c0: f969 4c3d faba 963d d94f 02be 132a 303e
000001d0: 5837 59bd 231a 42bd 2e62 683d 4729 bf3d
000001e0: bf33 73bd a3bb efbc 5289 6cbd 1a44 30bd
000001f0: f166 47bd 04a5 a2bc 1521 843d 51f7 d23d
00000200: 582f 8ebc 1aaf 09bc b381 6a3d 43a1 c33d
00000210: 6bd1 053e 5158 ef3d cbf8 71bd 457d 86bb
00000220: 9398 54bd 7af7 1ebc 0771 e73d b3f4 c4bd
00000230: ae41 a03d a5bc 83bd bd52 89bc fb17 a8bd
00000240: 993e 5e3d 8cc3 2e3d 8730 e43d d395 ab3d
00000250: fa34 12be 8c3b aabd ae15 afbd 2f65 2e3d
00000260: bb53 c8bd 3076 fdbc 1b88 04be 80c9 1b3d
00000270: 8e34 823d 078b debd d7b4 39bd c34e 693d
00000280: 6cc4 a03d b455 ea3d cfc6 0d3d 7c94 07be
00000290: 3f54 c8bd 9468 a8bd 3bb0 a2bd a416 d03d
000002a0: a81d 203d 4c42 e03d f207 e4bd 3290 02bc
000002b0: 7b07 50bd e982 8a3d 8129 533d aa84 b4bd
000002c0: 30c6 3b3d 5ae2 6bbd e8bc d1bc 7747 c73d
000002d0: 12f6 1ebd 77ce 0dbe 8bc2 133e 3f5a 063e
000002e0: 931c ca3d d754 24bd 4769 a638 8d64 483d
000002f0: 1025 c0bd d523 74bc 8476 843c 3d3a a9bc
00000300: d4dd b939 6b24 1f3d b9c9 7e3d 733b f33d
00000310: b060 273e 7ad3 3a3d f7a9 a43d 1f2d af3d
00000320: 5201 2bbd 329d a53c 9971 3238 2464 863c
00000330: 7662 ebbd 9953 9e3d 611d 3fbe fc23 1cbd
00000340: 9451 3e3d f6a2 5e3c 5fb6 8f3d 24e7 9fbd
00000350: 6afd 7f3d 6ece f1bd 330a 66bd 77d7 34bc
00000360: 4528 0cbe 503f e2b8 af73 afbd 6e92 2a3d
00000370: 0727 00be 1bc7 633d d8fa e63d 80ae 38bd
00000380: bd0f b93d 460c 9ebd 2710 c53d 3558 29be
00000390: 623d 053e c509 4bbd 50f6 c03d ba91 503d
000003a0: 4566 b0bc 4d26 203d 6a6c 0e3e a93d 223d
000003b0: 95df 683d 3dd3 623d 127b ecbd b1c4 ee3d
000003c0: b35b cb3d 796d 78bb 441c ffbc ce63 523b
000003d0: 849f 1dbd f42a b2bd ecf9 a1bd 60b5 ba3d
000003e0: 41d8 8d3d 1028 10be d700 9dbd 7b79 a9bd
000003f0: c17e 0bbd db0b 72bd c715 ddbd 5cf9 ffbd
-0.051489905 -0.06221823 -0.12122745 -0.04271464 0.0070887874 -0.025270546 0.13277265 -0.04478322
0.12204205 -0.09616625 0.058234613 -0.059250455 -0.070686005 -0.041836746 -0.13495302 0.11966373
-0.033340674 -0.045719568 0.086524464 -0.08571239 0.016629398 0.026551284 -0.08914885 -0.05582382
-0.0790608 -0.037128475 0.021336809 -0.09258517 0.15956911 -0.07793952 -0.08347155 0.072143614
0.11628754 0.037027687 0.14398015 0.107065536 0.027582781 -0.1039845 -0.06130914 -0.069089
0.10990619 0.05748633 0.09748125 -0.08607919 0.13603278 -0.09240581 0.12610544 0.05178767
-0.12103899 -0.12574826 -0.074188374 -0.075597756 -0.06175032 0.08050443 0.06251328 0.032893885
0.074084476 -0.09962225 -0.013270121 -0.08102101 0.10545008 0.14030482 0.023652738 -0.089479074
0.12122525 0.055256177 0.051548854 0.06020473 0.028890455 -0.080318265 0.07187948 -0.02971973
-0.047285542 -0.026313 0.14881343 0.1354661 0.060982056 0.13720977 0.038668517 -0.07941017
-0.041511837 0.11889275 -0.07872623 0.10111709 -0.06188239 0.01841183 -0.06377217 -0.08695288
0.028063945 0.1210194 0.05639993 0.06808005 0.068158716 -0.06381039 -0.054396864 -0.14099285
0.06735845 -0.08764755 -0.06544674 0.05007459 0.06295107 -0.040405218 0.12627073 0.12145339
0.03592873 -0.10335987 0.14625801 -0.031254184 -0.055433106 -0.065452285 0.02707987 0.0050379755
0.04990575 0.07359882 -0.12725772 0.1720355 -0.053031296 -0.047388207 0.056734256 0.09334045
-0.05937552 -0.029264277 -0.057748146 -0.043033697 -0.048682157 -0.019854076 0.064516224 0.10301078
-0.01735656 -0.008403564 0.057252597 0.095522426 0.13068168 0.11686767 -0.059075158 -0.0041042888
-0.05190332 -0.009702558 0.11300855 -0.09616985 0.078250274 -0.064324655 -0.016763085 -0.08207699
0.054258917 0.042666957 0.11142068 0.08378186 -0.14278021 -0.08312139 -0.08549057 0.042576965
-0.09781595 -0.030940145 -0.12942545 0.038033962 0.0635768 -0.10866361 -0.045338478 0.05695988
0.078499645 0.11442128 0.034613427 -0.13240236 -0.09781694 -0.08223072 -0.079437695 0.10160568
0.039090782 0.10950145 -0.11134328 -0.007968949 -0.050788384 0.067632504 0.051553253 -0.08814366
0.045843303 -0.057588913 -0.025602773 0.09730428 -0.03880889 -0.13848291 0.14429681 0.13120364
0.09868731 -0.040119972 7.935106e-05 0.048924018 -0.09382069 -0.014901121 0.016169794 -0.020657653
0.00035451225 0.03885309 0.062204096 0.118765734 0.16345477 0.045611836 0.08040231 0.08553528
-0.041749306 0.020216558 4.2544303e-05 0.016405173 -0.11493389 0.07730789 -0.18663551 -0.038120255
0.046464518 0.013588658 0.070172064 -0.078077585 0.062497534 -0.118069515 -0.05616207 -0.011037699
-0.13687237 -0.00010788313 -0.08566987 0.041643552 -0.12514888 0.055609804 0.112783134 -0.04508829
0.09036205 -0.07717185 0.096222214 -0.16537555 0.13011697 -0.049569864 0.094219804 0.050920226
-0.02153314 0.039099026 0.13908544 0.039609585 0.05685385 0.055377234 -0.11546911 0.1165861
0.099295996 -0.0037907048 -0.031141408 0.0032102945 -0.038482204 -0.08699599 -0.07908997 0.09116626
0.06926013 -0.14077783 -0.07666176 -0.08275124 -0.03405643 -0.059093338 -0.10795169 -0.124987334

model.9.bias f4 [3]
00000000: cee8 a53c 97e9 97bc 1fe3 90bd
0.020252611 -0.018544002 -0.0707457
