exported_models/neural_networks/history_mlp/trained_models/model_hist_5_epoch_400_batch_64_lr_1e-05_vs_30_hl_256_256_256_256/mlp_dynamics.pth (torch, 823509 bytes, 10 tensors)

model.0.weight f4 [256, 25]
00000000: aa8e 69bd 57b2 9abd 085a a83c 73dc 87bd
00000010: e6a4 41be 5d7d 35be d57c 223d 1331 c33d
00000020: 50e1 283e e808 513d 873e 9c3d 5889 0ebe
00000030: a10d 463e d35d d6bd d921 a73c bd6d 093e
00000040: fe83 36be d9e4 b0bd ffd3 86bd 49a5 923d
00000050: 3df8 12bc fd9e 8f3d c992 d3bc 46ab f3bd
00000060: a664 7fbe d3b6 28bd b06f 30be 0c7e 443e
00000070: 322b 6cbd 8b5a 3a3d 8328 4b3e f769 a6bd
00000080: 446c 2e3e f8c5 0e3d 7c35 f3bd 7fca f1bd
00000090: 8271 44bc 50cc 2f3d 6553 893d 0846 eb3d
000000a0: e09f 30be 4bcc 073e 8303 853e 09d9 26bd
000000b0: 9b1e 8fbb be12 03be 2233 09be 5247 153e
000000c0: 2b81 1cbd fdcf 53bd ab5e da3d c99c 8cbd
000000d0: 3a1c 243e 600a a7bd bd7e 223d 5408 5dbd
000000e0: c7b2 bb3d 9655 2cbe 0830 193e f426 bb3d
000000f0: 1489 0abe 776f 873d 8e7c f2bc e714 08be
00000100: 0671 a13d 82a7 0fbd 588d 953d d51b 32be
00000110: 16a5 cfbd ac57 02be 7911 093e a840 05be
00000120: f933 babc b5a1 f63b be07 6d3e 6081 d63c
00000130: 4b41 ab3d bac2 933d 5c35 e0bd a5dc 15be
00000140: e036 dfbd c476 64bb b8f2 e63d 81a8 d23d
00000150: 8cbe cb3c 012c 4ebd 4897 25be ba7c 08be
00000160: 1e61 f83d 9509 2abe ec84 f23d b8c6 fd3d
00000170: f8c9 afbd 11c0 f83d 2f3c 3d3e c56d 3bbe
00000180: ffc4 0ebe f0bb 1f3e 5651 3f3e 8f94 11be
00000190: a9c2 fe3d 1bfa 473c 7583 6e3d fc45 0d3d
000001a0: 16ef 0abd 9616 463d 2c12 183e e0bc 4dbd
000001b0: 9e90 a8bc cbef 43be 69ae 1d3d 6a34 243e
000001c0: c46d 9f3b 2a31 9a3d b996 a73d f09f 663d
000001d0: bcea 0a3e 313a f53d 985f a8bd bb65 4cbe
000001e0: 866b f73d ef82 4cbe 9a6b 733e a2c9 3ebc
000001f0: 3192 c53d f903 fd3c de33 bf3d a0af c3bd
00000200: 69c2 edbc a3c4 7c3d 3473 4e3c e11d bfbd
00000210: 3e62 1cbe 62b0 95bd 54ff 0fbe 058f 203e
00000220: 785e 3a3e de7a 41be 65e2 c03d 30fb a5bd
00000230: 37c0 5cbd c718 b93d e123 c93c 7d3c 213e
00000240: a276 203e b8e6 c5bd 2325 fb3b faaf 303e
00000250: 4082 9e3d d400 3f3e 4e6c 3b3e 2519 30be
00000260: b327 173e e663 f0bc c5f7 a33c 838f 16be
00000270: aeda 703d c688 d93d 98c0 2d3d d3ec e93d
00000280: 9108 453e 430d b63d 128d 2f3a 4d5e 19bc
00000290: 5180 61bd 8cb4 3c3e 7fc8 dfbd a8a8 053e
000002a0: 74c2 be3c 5df1 233d 3ec0 f9bd fabe b43d
000002b0: 0a35 db3d 6f06 d43d a4ad 643c cb34 bbbd
000002c0: dcf5 6b3d d206 c2bc 3f3c 23bd b87f 04be
000002d0: 6c65 00be bc4e fcbd a19a 0fbe 128e 82bd
000002e0: 8353 403e e46e b6bd b66e f4bd 779d 00be
000002f0: ab63 2b3d 4815 c93d d8bf 04be 9eee 943d
00000300: 4ba5 8bbd 8e6b b0bd e8c3 f6bd f321 4b3e
00000310: 9ebe 443e de75 ea3d c60a 6ebd 6407 273e
00000320: a283 e3bd 60e4 3c3d 01f0 273e 8147 4fbd
00000330: 80a5 d73d 2c2f 0b3e e086 08be cd23 6dbe
00000340: ae8b 053e 673c 6fbd c43c d93d e9f5 02be
00000350: d402 273e 0261 053c acbe f73d 643e 9d3d
00000360: ae38 813d cf2f 5abe a590 a1bd c356 573d
00000370: 33b8 71be c400 3e3e 9039 113e 7715 e4bd
00000380: 801c 40be c1d3 b8bd 4104 6e3e adee 1f3d
00000390: 5339 e93d f95e 4abd 8e7a a6bd 2be6 fe3d
000003a0: 76d1 0c3e 9f75 de3d 7e3c c23d 25fe 3d3d
000003b0: bf85 f1bd 8a5b 29be 4e17 a4bd 0a3a f2bd
000003c0: c08f 513e 18d1 0b3e d535 333e 73eb c63d
000003d0: 442b c9bb a3fc 4dbd 4c5c 5b3e 2638 10bd
000003e0: b600 2cbe 07d2 e1bd 250a 0f3d 5342 913d
000003f0: c404 73bd a1c7 81bd ab7d 883d ab8d 0e3d
-0.05702082 -0.07553547 0.020550743 -0.06633844 -0.1891056 -0.17723604 0.03966983 0.095308445
0.164922 0.051033884 0.07629114 -0.1391958 0.19341137 -0.10467114 0.020401882 0.13420768
-0.17823789 -0.08637399 -0.06583404 0.07160432 -0.008970317 0.070127465 -0.025826829 -0.11897902
-0.24940738 -0.04118998 -0.17230105 0.19188708 -0.05765838 0.045496505 0.19839673 -0.0812568
0.17033488 0.034856766 -0.11875436 -0.11806201 -0.011989953 0.042919457 0.06705359 0.11487967
-0.17248487 0.13261525 0.25979242 -0.040734325 -0.004367662 -0.12800118 -0.13398412 0.14577988
-0.03820912 -0.051712025 0.10662588 -0.06865842 0.16026393 -0.08156276 0.03967165 -0.05396302
0.091649584 -0.16829523 0.14959729 0.09138289 -0.13528854 0.06613057 -0.029600408 -0.13289224
0.07882886 -0.035071857 0.0730235 -0.1739343 -0.101389095 -0.12728757 0.13385572 -0.13012946
-0.02272986 0.007526601 0.23147485 0.026184738 0.08362063 0.072148755 -0.109476775 -0.1463495
-0.108991385 -0.003486083 0.11276764 0.10286046 0.024871133 -0.050334934 -0.1617099 -0.1332883
0.12127899 -0.16605218 0.11841759 0.12391418 -0.08583444 0.12146009 0.1847999 -0.18303593
-0.13942336 0.15599036 0.18683371 -0.14216827 0.12439472 0.012205626 0.058230836 0.03449057
-0.033919416 0.048361383 0.14850682 -0.050228953 -0.020576771 -0.19134443 0.03849641 0.1603562
0.00486538 0.075289086 0.08183045 0.056304872 0.13566107 0.1197399 -0.08221358 -0.19960682
0.12081055 -0.19971822 0.23771515 -0.011644753 0.096470244 0.030885683 0.09336065 -0.09554982
-0.029023366 0.061710965 0.012600709 -0.09331871 -0.15271851 -0.07309033 -0.14062244 0.15679558
0.182001 -0.18894526 0.09418181 -0.08104551 -0.053894248 0.09037929 0.024553241 0.1574573
0.15670255 -0.09663147 0.007664339 0.1725463 0.07739687 0.1865266 0.18303034 -0.17197092
0.14761238 -0.02934451 0.020015607 -0.14703183 0.0588023 0.106217906 0.04242 0.11422124
0.19241549 0.08889248 0.00066967413 -0.009360862 -0.055054013 0.18428248 -0.109269135 0.13052619
0.023286082 0.040025104 -0.121948704 0.088254884 0.10703476 0.103527896 0.013957415 -0.09140929
0.057607517 -0.023684893 -0.039852377 -0.12939346 -0.1253869 -0.12319705 -0.1402383 -0.06374754
0.18781857 -0.089078695 -0.11935179 -0.12560068 0.041843098 0.09818512 -0.12963808 0.07272075
-0.068186365 -0.086142644 -0.12049085 0.1983717 0.1921334 0.11448263 -0.058115743 0.16311413
-0.11109091 0.046116233 0.16400148 -0.0506053 0.105296135 0.13592213 -0.133327 -0.23158188
0.13041565 -0.058407214 0.10607293 -0.1278912 0.16309673 0.008140804 0.12096915 0.07677916
0.06309639 -0.213073 -0.07888917 0.052572977 -0.23605423 0.1855498 0.14182115 -0.111369066
-0.18760872 -0.09024764 0.2324381 0.03904598 0.11387887 -0.04940698 -0.08128844 0.12446245
0.13751778 0.10862278 0.09484194 0.04638495 -0.11793088 -0.16538826 -0.080122575 -0.11827476
0.20464993 0.13653982 0.17501004 0.09712877 -0.006139191 -0.05028976 0.21421927 -0.035209797
-0.16797146 -0.11026388 0.034921784 0.070927285 -0.059330717 -0.06336904 0.06664594 0.034803074

model.0.bias f4 [256]
00000000: 2842 3ebe 8c2f a7be 4905 57bd 132f 6d3e
00000010: 3eab 2abe 9275 6f3e d57c f03b 185d 883e
00000020: 5477 f3bc 8bcf 88be dd5f 513c 1660 3b3e
00000030: be32 b73c 833f 19be 7b56 e93d 7177 6bbe
00000040: 8517 22be 010b 473e 9bd5 fdbd 8afc 1c3e
00000050: 80f8 813e 7d57 c0bd d88e c73d 126e 53bd
00000060: 0e64 7cbe 35e1 4abe f7f0 38be a11a 77bd
00000070: f30c c33d 383e 8f3d bb73 553c 18f1 223e
00000080: 40d0 f63c 3750 95be 1669 c53d 7ad8 95be
00000090: 3265 eebd e447 debd dce6 653e 07b2 f2bd
000000a0: 31ca 253e 684b 7abd ae34 bb3d 13cd 06be
000000b0: 7131 0abe cd67 c43c aeba 6abe 6d9a 56be
000000c0: 5dd7 153e f6ee a4bd 9a97 af3d 75ca 2c3e
000000d0: 32e9 e7bc 620a 8bbe 3611 673e acab 32be
000000e0: 192d bcbd ff5a 473e e8dd 223d c497 a8bd
000000f0: 7091 21bc 3cc9 3fbe 6892 143c f085 d3bc
00000100: 8090 543e 99d0 28be bc58 703d 5a93 dbbd
00000110: 7758 0f3e a9d5 29be a07c b23d a82c f9bc
00000120: a492 823d a67e 253e 1113 e03d b71b 09be
00000130: 1cff 993e f9ca 2fbe f5fb 473c 0dd3 0c3e
00000140: c57f 883d d023 543e 8ca8 673e 23ad 3c3d
00000150: 22f1 063e 6524 ba3d 9438 cebd c901 13be
00000160: f003 523e eb06 7abe f462 d33d aa8f 213e
00000170: 3e8f 56be e55a 35be 0126 39be fd3d 303e
00000180: 9432 873d 4102 fabb 4f01 5abe 4b0e 413e
00000190: 0626 37bd 1d9d 2f3e ea7a 56be 0b6b 5abe
000001a0: 0af9 9c3c e4ce b33e 0cc7 9a3d 1c23 49be
000001b0: fdb4 043e f8b6 553e e60d 623e c0c6 bfbd
000001c0: 31c1 95be 034c 6d3e 77bd 7c3e 8529 1dbe
000001d0: f6e9 b6bd 4150 f6bb 8a56 d9bd 7acd 89be
000001e0: 8bb4 15be f686 313d ab08 823e 769d e63c
000001f0: 6a84 58be 50ff 443e 81bd 923e d837 143e
00000200: 1bac 2c3d 31d0 1a3e 935b 9f3c a78f 9a3d
00000210: 7a7b d53d 9c38 d13d 2588 723e f808 813e
00000220: 002f f23d 27b8 893e b8de 773e 22ed 683e
00000230: 89d9 8c3e cc9a 0c3e 597a 46be 036a d83d
00000240: 0da0 cabd 1631 b0bc 08f9 e9bb be00 683e
00000250: 5257 35be 7bce 72be 2003 c23c 4158 10be
00000260: 2532 4a3e b1e4 4d3e b2b6 0abd 6ec9 1f3e
00000270: ea41 82be 1984 04be 95cb 8ebe 5256 e9bc
00000280: e705 013e ed5e 4d3e 2494 983c 157b 78bd
00000290: c4fb d23b c326 40be 7d54 eebd 3ff4 233e
000002a0: 1d50 243d 605f 1abe 34f6 3a3e 9abe 8bbe
000002b0: 90ab 39be c3b7 413e a379 80bc 1a03 093e
000002c0: 3da3 77be 899b ccbd 7995 c33d 8778 533e
000002d0: 3f4d e13c bc88 fcbd d66d 02be 362d 933d
000002e0: de0e 9b3e 58fd 213e b66f ea3d c06e 22be
000002f0: aeee e93d 2877 f9bd 5401 7a3e f43e e53d
00000300: ce37 cdbd 276c cf3d 22fc 823e bc71 423e
00000310: 7e1e c33b 9c2e 73bd 4f70 2b3e e398 60bd
00000320: 3cfd 6fbe fc1c 8b3d bbb7 8bbd 7bea b5bd
00000330: 745d 8b3e 7824 b3be 679b 59be c186 933e
00000340: 776f 54be 0ca8 c8bd 8b33 023e 89cd 7dbd
00000350: e4a4 91bd fb30 8bbd 9dba 1dbe 6fae be3e
00000360: 17c9 1c3e e443 d4ba ea98 423e 4b46 84bc
00000370: 1c4d f43c 02c2 563e a9d2 963e 4527 c33d
00000380: 7897 4cbe e7c8 a93c 5c6f 21be 34ec b3bc
00000390: 200c d1bd 466a 863e ce76 1c3e a6da db3d
000003a0: 024b 19be 0727 623e 1f0a eebd d95a 35bc
000003b0: 16f7 3b3d 0c3c 46be 8172 ab3d 7e57 053d
000003c0: 33f9 253d c83e ec3d 517d 283d d68e 533e
000003d0: e09d bcbd 555c 683e a323 023d 2219 583e
000003e0: 720b 85be 145c a0bd 0e50 27bd e8f6 36be
000003f0: 459c 073e 973a dcbc 8bef 983e fa82 31be
-0.18579924 -0.32653463 -0.052495275 0.23162489 -0.16666886 0.23384693 0.0073391 0.26633525
-0.029719986 -0.26720843 0.012779203 0.18298373 0.022363063 -0.14965634 0.11393448 -0.22994782
-0.15829284 0.19437791 -0.12394258 0.15330711 0.25384903 -0.09391687 0.09744042 -0.051618643
-0.24647543 -0.19812472 -0.18060671 -0.06032813 0.09523954 0.06994289 0.013028081 0.15912282
0.030128598 -0.29162762 0.09639184 -0.2926672 -0.11640395 -0.10853556 0.22451347 -0.11850362
0.16190411 -0.06110707 0.09140907 -0.13164167 -0.13495423 0.023975277 -0.22922775 -0.20957346
0.14632936 -0.08053391 0.085738376 0.16874106 -0.028309438 -0.2715636 0.22565159 -0.174483
-0.09188289 0.19468306 0.039762408 -0.08232072 -0.009861335 -0.18729109 0.009068109 -0.025820702
0.20758247 -0.16485824 0.058678374 -0.107214645 0.1399859 -0.16585411 0.087151766 -0.030416802
0.06375626 0.16161594 0.10941137 -0.13389479 0.30077446 -0.17167272 0.012206067 0.13752384
0.06664995 0.20716786 0.2262289 0.046063554 0.13177922 0.09088973 -0.10069385 -0.1435615
0.20509315 -0.24416701 0.10321608 0.1577746 -0.2095308 -0.17710455 -0.18080904 0.17211147
0.06601444 -0.007629663 -0.21289562 0.18853109 -0.044713996 0.17149778 -0.20945325 -0.21329896
0.01916172 0.35118783 0.075574964 -0.196423 0.12959667 0.20870578 0.22075614 -0.093640804
-0.29248956 0.23173527 0.2468165 -0.1534787 -0.08931343 -0.007516891 -0.10612209 -0.2691458
-0.14619653 0.0433416 0.25397238 0.028151255 -0.21144262 0.19238019 0.28660205 0.14474428
0.04215632 0.15118481 0.019452846 0.07546931 0.10423942 0.102158755 0.23684748 0.25202155
0.11825371 0.2689831 0.24206054 0.22746709 0.27509716 0.13730925 -0.1938261 0.10567095
-0.098938085 -0.021507781 -0.0071402825 0.22656533 -0.17709091 -0.23711579 0.02368313 -0.14096166
0.19745691 0.2010677 -0.033865638 0.15604183 -0.25440913 -0.12941016 -0.27889696 -0.028483544
0.12599908 0.20055743 0.018625326 -0.060664255 0.006438704 -0.18764786 -0.116372086 0.16011141
0.040115464 -0.15075445 0.18257982 -0.27293855 -0.18131852 0.18917756 -0.015683 0.1338009
-0.24183364 -0.099906035 0.09549994 0.20651446 0.027502654 -0.123307675 -0.12737212 0.07186358
0.3028478 0.15819299 0.114470884 -0.1586256 0.11422478 -0.121809304 0.24414569 0.11193648
-0.100204095 0.1012805 0.25582987 0.18988699 0.0059545627 -0.059370622 0.16742061 -0.054833304
-0.23436445 0.06792638 -0.06822153 -0.08882614 0.27219737 -0.3498876 -0.21250688 0.28813747
-0.20745645 -0.097976774 0.12714975 -0.06196359 -0.071115285 -0.06796452 -0.15403219 0.37242457
0.15311085 -0.0016194549 0.19003645 -0.0161468 0.029821925 0.20972446 0.29457596 0.095289744
-0.19979656 0.02072568 -0.15765136 -0.021963216 -0.10207391 0.26252955 0.15279695 0.10735063
-0.1497002 0.220852 -0.11623024 -0.011069023 0.045889936 -0.19358844 0.08371449 0.032554142
0.040520858 0.11535412 0.041135136 0.20659956 -0.092098 0.22691472 0.031772267 0.21103337
-0.25985295 -0.078300625 -0.04084783 -0.17867625 0.13243206 -0.026883407 0.29870257 -0.1733512

model.2.weight f4 [256, 256]
00000000: 2bb1 c83b 2101 69bd e443 a93d cfae 193c
00000010: cb90 1cbc 0abc 003c 4bec ac3c 7083 c6bc
00000020: 21da 3e3d 876d b7bd c84d 9c3d c3c1 86bd
00000030: 512a 943d 1277 eb3c c932 4fbd a523 d8bc
00000040: 3c82 47bd efae 1b3c c967 42bd 7bf5 103d
00000050: 8117 4ebc df39 243d 79e8 e23c 55a4 9b3c
00000060: 8f69 a0bd 1c98 3a3d 8096 6b3b 84a7 c83d
00000070: ea32 1b3d a47c 693d 41d6 043d d8e3 a43d
00000080: bacf 05bd 0ef7 a1bc b6aa 193d e19f 65bd
00000090: 9981 07bd af18 b83c c088 903d 5019 013d
000000a0: 7f75 f83c 91de 1b3d 4774 5ebc 869a e7bb
000000b0: cbef 9c3b 534a 34bc e87c 6dbd 193e adbd
000000c0: 3016 293c 6c06 93bc 8fbd 5ebd 35b2 55bb
000000d0: a872 3fbb 935c db3c 155d 31bd 26d2 2e3d
000000e0: bc69 9fbd bb6e 713d ec98 a13d 12af ce3d
000000f0: ff3d 26bc 5a3b cb3c b5fa 373d 9c79 74bd
00000100: 0ef2 94bc fc6c 5abc 6df2 25bd b9d3 71bd
00000110: 7bb2 d33c 321b cc3c 963d 63bd 7678 983c
00000120: e31f b7bc 4c76 c93d f50f 103d 27f1 b33c
00000130: 8408 833d 00d1 86bd 1df9 b13c 5f0c 57bc
00000140: 55b3 0fbd eb2c 2ebd 23bd cc39 e2f4 883d
00000150: a960 0abd 9365 4dbd 0bd6 223d 83cb 86bd
00000160: 39c1 083c 789f 233c dfcd 433d eaf9 05bd
00000170: 61d4 ed3c 1b5f 87bd ec8d f23c b341 3fbd
00000180: 4e06 c73c 64e5 afbb 9bcf 12bd 9873 c83d
00000190: 4e84 d93c 1fa1 28bd 863d 55bd a111 07bd
000001a0: d028 723c 9831 5f3d 73c2 673d 1d3a 483c
000001b0: dee2 ea3b 439d 363d d23f 743d 8292 32bd
000001c0: 4e8b 97bc 1f7c 973d 1f39 3fbd 6f39 53bc
000001d0: e5b3 763c 5f94 12bc f628 34bd bad3 2cbd
000001e0: 3608 adbc 4e1d 073d 3847 0c3d 0591 303d
000001f0: c3e3 0a3d 95a3 193b 2390 543d cd1e 563d
00000200: 5d21 023c b66a 813d ceb2 6c3d e6a5 633d
00000210: 8447 43bd 14d7 e23c 62e3 713b 89c0 f03d
00000220: 5cde e6bb 8f9c 23bc 05b9 6d3d 173d 913d
00000230: 1ae9 efbb 1ae9 7a3d afe7 fabc bdb2 813d
00000240: 0e7a 68bc bf48 773d 9df9 82bd 9565 9f3c
00000250: 7355 7cbd b23b b1bd b5a8 9b3c b50a 9c3b
00000260: 8464 8a3d bade 753d 7372 32bb a3b4 6e3c
00000270: 8898 26bd 9059 963d c82f 46bd c3dd f5bc
00000280: da7b 5e3d 5bf9 503c f442 273d af34 543d
00000290: 2f70 bb3c 8ec8 12bc d9ca ab3a 4ef1 983d
000002a0: 705e c8bc 2e6d f4bc 346f 3fbd 24fb 3f3d
000002b0: ec6a 823b 3119 b1bc 0f81 913d a96f 173b
000002c0: 4d7f 7ebc 6085 963b 0285 c1bd 8bb0 5e3b
000002d0: 56e9 9dbd 8ec6 a0bb 48be 0bbd 5209 01bd
000002e0: 0db6 db3c a1e4 51bd d29e bb3b effa aa3d
000002f0: addd 133d 7c28 9e3c b759 3b3d d2e2 873d
00000300: d039 25bc 4da4 bcbc 0c1f c63d 985f 12bd
00000310: b65b 0b3d 9bdc 9fbc 036a 19bd 407b 05bb
00000320: 6385 05bd 64f7 263d 6f8d 4abd 02ba a1bd
00000330: 5702 143c 23a3 a0bd eb74 2b3d a636 2a3c
00000340: 1ec8 01bc ac64 dcbc 2ea5 0b3d 084d 22bd
00000350: 5625 18bd 2dd2 173d e681 9cbc e5e2 31bd
00000360: 5431 b33b b349 21bd 7b4a 92bd b65d 18bd
00000370: fbb4 673b 584d ed3d 793d 823d 1411 0a3d
00000380: 1f90 a4bd 3eac a93c 215a 833d 5fd4 583c
00000390: 0055 653d 2ccd 863d 107a 2d3d f18b c83d
000003a0: 2a86 183c fb85 38bb 3e94 8039 5e0f 063d
000003b0: ca9c 69bd 5702 373d fbf6 ac3c 12d9 433c
000003c0: aa26 39bc 846b 713c 5fb1 2c3c de2f b03d
000003d0: 8a4f cdbc 256b ec3d 87af 10bd d023 1dbd
000003e0: 905f 3abd 083f 433d 031b e33b 289d b4bd
000003f0: 882a 853d 75cc 0cbd 376f 9d3d 5585 e9bc
0.0061246357 -0.056885842 0.08264902 0.0093800565 -0.009556006 0.007857332 0.021108767 -0.024232596
0.046594743 -0.089564376 0.07632023 -0.06579926 0.07234634 0.0287433 -0.050585542 -0.026384184
-0.048708186 0.009502157 -0.04746226 0.03539036 -0.012578846 0.040094253 0.027698742 0.018999258
-0.07832634 0.04555522 0.003594786 0.09797576 0.037890352 0.057003632 0.03243089 0.0805127
-0.032668807 -0.019771125 0.03751632 -0.056060676 -0.03308258 0.022472708 0.07057333 0.03151828
0.030329464 0.038054053 -0.013577527 -0.007067981 0.0047893277 -0.011004048 -0.057980448 -0.0845911
0.010320231 -0.017947398 -0.054379996 -0.003260744 -0.0029212628 0.026777541 -0.04330166 0.042680882
-0.07783839 0.05894349 0.07890496 0.10091986 -0.010146617 0.024808574 0.044916827 -0.05968629
-0.018181827 -0.013331648 -0.0405144 -0.059039805 0.025841942 0.024915311 -0.055478655 0.018612128
-0.022354072 0.098370165 0.035171468 0.021965576 0.063981086 -0.06582832 0.021725232 -0.013125508
-0.035083134 -0.042523306 0.0003905083 0.06687333 -0.03378359 -0.050145697 0.03975491 -0.065817855
0.008346849 0.009986751 0.047803756 -0.03270904 0.029031934 -0.06609937 0.02960869 -0.046693515
0.024294998 -0.0053679217 -0.03584252 0.09787673 0.026552346 -0.041169282 -0.052060626 -0.032975797
0.014780238 0.054490656 0.056581926 0.012220887 0.007168158 0.04458357 0.059631176 -0.043596752
-0.018499043 0.07396721 -0.046685334 -0.012892111 0.015057539 -0.008946507 -0.043984376 -0.042194106
-0.02112208 0.03298693 0.034247607 0.04310705 0.033908617 0.002344345 0.051895272 0.052275468
0.007942525 0.063191816 0.05778771 0.055578135 -0.047675624 0.027690448 0.0036909212 0.11755473
-0.0070455503 -0.009986057 0.058037776 0.0709173 -0.007321489 0.06125746 -0.030628053 0.0633292
-0.014189256 0.06037211 -0.06395266 0.019457618 -0.06160493 -0.08653964 0.019001344 0.0047620186
0.06757453 0.06002686 -0.0027228862 0.014569434 -0.04067281 0.073413014 -0.04838541 -0.03001297
0.054317333 0.0127547635 0.040835336 0.051808055 0.022880642 -0.008958949 0.0013106718 0.074679
-0.024459094 -0.029837217 -0.04673691 0.046870366 0.0039800312 -0.021618458 0.07104694 0.0023107326
-0.015533281 0.0045935363 -0.09449197 0.003397974 -0.07710521 -0.004906482 -0.034117013 -0.03150303
0.026820207 -0.05124343 0.00572572 0.08348643 0.03610008 0.019306414 0.045739856 0.066350594
-0.010084584 -0.023027563 0.096738905 -0.035735697 0.03402301 -0.019514373 -0.037454616 -0.0020367652
-0.03259791 0.040763274 -0.049451288 -0.07896806 0.009033761 -0.07843616 0.04185955 0.010389006
-0.007921247 -0.026903473 0.034093075 -0.039624244 -0.03714498 0.037065674 -0.01910491 -0.043429274
0.005468527 -0.039376926 -0.07143112 -0.037198745 0.0035355675 0.11587018 0.06359381 0.033707693
-0.080353014 0.020712014 0.06413675 0.013234227 0.055989265 0.06582102 0.042352736 0.09792317
0.009309331 -0.002815603 0.00024524512 0.0327295 -0.05703429 0.044679966 0.021113863 0.011953609
-0.011300722 0.014735106 0.010540335 0.0860288 -0.025062341 0.11543874 -0.035323646 -0.03836423
-0.04550129 0.047667533 0.0069307103 -0.08819038 0.06502253 -0.034374673 0.07687228 -0.02850596

model.2.bias f4 [256]
00000000: 49f5 9a3d e966 433d b67d e73d 9b5e 063e
00000010: a5e3 fb3d c750 2e3d 7977 243d 26b0 d33d
00000020: d55c d43d d47f b7bc aaae 5e3d 860a e83d
00000030: f62d 16bd 6c14 2d3d b55a e03d c9e0 b93c
00000040: 2ea0 013e 187b 163e 1b2b 26bd c678 223d
00000050: aa88 893d a4cd 283e 73fa cdbb d5e9 bc3c
00000060: 438b babd f0d8 783d 5ef9 b83d 5050 08bd
00000070: 048d 96ba e49e 40bd 040d 0b3d f717 fb3a
00000080: 0a8e b43d 1295 c43d 4f36 153d 6095 d93d
00000090: 804a e83d fa4b 883c 18df a53d 68c5 48bd
000000a0: cca9 debc 5d7a 2dbd 77af c93c fbf6 903c
000000b0: 882e adbd 24ad fbbd 8162 0f3e 1fb0 66bc
000000c0: 23a7 dbbd a6b7 eb3d 6daa babc 248c 143d
000000d0: 127a 803c 7814 463d bd02 c53c 9a2d 503d
000000e0: d0a7 0e3c d74d a93d ff6b 063d 12ef 0a3d
000000f0: 0943 06bd 2876 9abc 06f5 06bd 3d11 7cbd
00000100: afc2 22bd c134 5dbc b4a2 97bc 2bd6 0a3e
00000110: 852d cc3d 731f 913d 41d3 95bd e6b1 3e3d
00000120: adb5 f23d 0f44 b2bc 7d64 343d 5ff8 463d
00000130: 9bdf 1d3d acea 66bd b66c ee3d 8dc9 fa3d
00000140: c5a0 9c3a bb62 56bd 69e2 cc3c 5457 1f3d
00000150: 9107 b2bc 483c a63c 1288 fa3d 8faf 8a3c
00000160: 978f 983d d8b2 243b 501d 253c b178 5f3d
00000170: e904 d9bd 3381 44bd f09d 09be 6d51 abbd
00000180: 840c 09bc 8cd2 193e 5f1c b5bd 51c0 593d
00000190: acf0 0bbe 6652 d83d 9a77 a7bd e06d 013d
000001a0: 94d2 c1bd 56d5 b13d 7e35 c73d fc84 793d
000001b0: 9550 38bd 5407 3f3b f513 b53d e0dc 3fbd
000001c0: 0fe3 0ebd 7bfd 1cbc baec aa3a aa49 903b
000001d0: 2bd0 44bd 6ecb 033e e15a 0d3e 249a 913d
000001e0: 0339 39bd f74b 813d 82ca 7c3b aa2e b7bd
000001f0: 0a9e cfbc 916e 873d 82fd f33d 7263 913d
00000200: b638 c23b 41f8 0039 e336 d73d f0fa 61bd
00000210: f2b0 cb3d 336f acbd 0ccf 263d d434 fd3c
00000220: cd05 9c3d dee2 c5bc 3a7f 113d 87f5 093d
00000230: 5950 c1bd 0d77 a0bd 963e 25be 54c1 fa3c
00000240: bcd4 923d a097 b83d 69b0 ce3d f05c 9f3d
00000250: 4251 b93d 8b5b e23d a6fb df3d 138a 4c3d
00000260: 18df 1c3d bbf6 a9bd e42c a73b dbdf 9c3d
00000270: f3fd a7bd c6bb a23d da99 9b3d 80bc 1e3d
00000280: b913 fbbc ee51 1abd 53b4 883d 979b 0a3d
00000290: 71d8 8f3d ea33 993d 256b 293d 414f c4bb
000002a0: 266d 113d 10dc fa3d 2d58 94bd f61d c23d
000002b0: cc1b 033e 5c52 01be d06f 373e 7b41 65bc
000002c0: efc4 8bbd 907d b7bd 564e 90bd e893 ca3d
000002d0: b29f 20be 165b 13bd 820b ec3d dc6f 223c
000002e0: d61c a13d 7a9e 173e 7792 193d ad1f 503e
000002f0: 4058 ccbb 5125 293d 9e56 5f3d f427 c63d
00000300: 8312 2b3d eaf1 17bc d13b 1d3d 60bf 17bd
00000310: 25d5 963d c955 863b b36c c73d e938 863d
00000320: 7a01 d13c f3e9 523d 2cdf e73b 9494 183e
00000330: a4d9 c23a d04a 24be c3e6 333d 402d 80bd
00000340: b96a 8fbd c4dd 8d3d 81aa 953d c281 803a
00000350: 8eed a63d 9806 aabd 2a3a 44bd 4049 d73d
00000360: 2a1c fb3d 5fe9 043e 06d0 d7bd 25d1 50bd
00000370: 7724 6a3d 6477 3ebd 3bff aa3c 12d8 8c3d
00000380: ee58 bc3d 9335 063e 649a b83d e6ad d53d
00000390: 35ac 21bd 0342 00bd 64bf 163d 361f 9f3d
000003a0: 9c8b 833c a8ce 493d 3f00 d7bc fe82 8cbd
000003b0: b1c4 c6bc 23f8 8c3d 0de6 343d 8684 5a3d
000003c0: 0bf2 a4bd 160f a0bc 6a22 ae3d 0e1f 943d
000003d0: 1990 0a3d 6174 54bd 6bb1 25bd f69f 053e
000003e0: 33f9 27be 523f e83d 7428 9ebd 4ef7 05bd
000003f0: 09fe cabc 724a 8a3c f04f 4fbd 3bec ecbc
0.07566316 0.047705565 0.11303274 0.13122027 0.12299279 0.042557504 0.040153 0.10336332
0.10369269 -0.02239982 0.05436579 0.11330132 -0.036664926 0.042255804 0.10954801 0.022690194
0.1265876 0.14695394 -0.040568452 0.03966596 0.0671552 0.16484696 -0.0062859594 0.023060719
-0.09108593 0.060753763 0.09031938 -0.033279717 -0.0011486118 -0.04702653 0.03394796 0.0019156922
0.08816154 0.095987454 0.036428746 0.10624194 0.11342335 0.016637791 0.080991924 -0.049016386
-0.027180575 -0.042353023 0.024619801 0.017695894 -0.08456141 -0.12288883 0.1400242 -0.0140800765
-0.10725238 0.115096375 -0.022786343 0.03626646 0.015683208 0.048359364 0.024049157 0.05082474
0.008707002 0.082668 0.032817837 0.0339194 -0.032778773 -0.01885517 -0.032948516 -0.061539877
-0.039736446 -0.013501347 -0.0185102 0.13558261 0.0996962 0.070860766 -0.07315684 0.046556376
0.11851058 -0.021760968 0.044041146 0.04857671 0.038543325 -0.056376144 0.11641829 0.12245474
0.0011949769 -0.05234025 0.025010305 0.038901642 -0.021732124 0.020292416 0.122329846 0.016929416
0.074492626 0.0025131013 0.010077789 0.05455846 -0.1059664 -0.047974776 -0.13439155 -0.0836514
-0.0083648 0.15021724 -0.08843302 0.053161923 -0.13666028 0.10562591 -0.08177109 0.031598926
-0.09463993 0.08683269 0.09727 0.06091784 -0.044998724 0.0029148655 0.08841697 -0.046841502
-0.03488451 -0.009581919 0.0013040521 0.0044033127 -0.048050087 0.12870571 0.13804199 0.07109478
-0.045220386 0.06313317 0.0038572852 -0.08944447 -0.025343914 0.06612886 0.11913587 0.07099046
0.0059271706 0.00012299513 0.10508516 -0.055170953 0.09945859 -0.08419647 0.0407248 0.03090898
0.07618294 -0.02415603 0.035521723 0.03368142 -0.09439153 -0.07835207 -0.16137156 0.030609764
0.07169482 0.09013295 0.10092241 0.07781398 0.09048702 0.11052617 0.1093667 0.049936365
0.038298696 -0.08299013 0.005101787 0.076598845 -0.08202734 0.07945971 0.07597704 0.038753986
-0.030649053 -0.03767579 0.06675019 0.03383979 0.07023705 0.07480605 0.041361947 -0.005990893
0.035504483 0.12249005 -0.07243381 0.09478371 0.12803572 -0.12629074 0.17913747 -0.013992663
-0.068246715 -0.08959496 -0.070461914 0.09891492 -0.15685919 -0.03597554 0.115256324 0.009914365
0.07866828 0.14806548 0.037493195 0.20324583 -0.006236106 0.041295353 0.054525964 0.09675589
0.0417657 -0.009273985 0.038387123 -0.037047744 0.07364873 0.004099582 0.097375296 0.065538235
0.0255134 0.051492643 0.0070761647 0.14900428 0.0014865887 -0.16044164 0.043921243 -0.06258631
-0.070027776 0.06927064 0.07307912 0.0009804296 0.08150779 -0.08302039 -0.047907032 0.10512018
0.12261231 0.12979649 -0.10537724 -0.050980706 0.05716368 -0.04650058 0.020873656 0.0687715
0.091966495 0.13106374 0.09013823 0.10433559 -0.03947087 -0.031312954 0.036803618 0.07769625
0.016057782 0.04926935 -0.026245235 -0.06860922 -0.024263712 0.06883266 0.044164706 0.05334904
-0.080539785 -0.019538444 0.08502658 0.07232486 0.03382883 -0.0518688 -0.040452402 0.13049302
-0.16403656 0.113402024 -0.077225596 -0.03270655 -0.024779337 0.016881201 -0.050613344 -0.028921237

model.4.weight f4 [256, 256]
00000000: 3165 333d 7f55 b03c 29be 3a3d b984 153b
00000010: 9838 4bbc 721f f6bc 12c6 20bc 323e 42bc
00000020: 6b1c 8fbc 3161 59bd 75c8 623d b602 04bc
00000030: bd85 533d 6108 09bd 83d2 00bd eadc db3b
00000040: 3889 55bd 9129 5dbd ee74 b13c c1a5 3dbd
00000050: e38d 083c fd8b 20bd 1d24 bd3c 3553 92bd
00000060: 5765 883c 2ebe 483d 5315 ad3c 0330 54bd
00000070: e4ea 4e3d e0f4 56bd b51f 25bc 0442 73bc
00000080: 9d03 24bd 9f54 903d b9b6 d9bb 9edd 7bbd
00000090: 9211 233d f75c 1cbd c843 ecbb 888c 94bc
000000a0: 8e4b 1f3d ffe1 45bd 8942 5c3c d2a7 bb3c
000000b0: 89ff 78bd e938 033c 7b72 213d 1562 08bd
000000c0: 9b56 a7bb 492b ce3c e616 95bc 79c9 0f3d
000000d0: dd44 3abd b21a 3b3d 8f0d 523d 9fe7 b93d
000000e0: eede 083d ddde 72bd 2391 203d 00e6 0ebd
000000f0: e2b4 d8b9 abea 85bc 9c1b 04bd e693 93bd
00000100: f8fc 073d cc2e e13c b959 b7bb a8a7 4bbd
00000110: 2320 ddbb f41d efbc bcd3 003c c894 973d
00000120: bff1 383d 446b 753c 9b35 f13c e271 c73d
00000130: a044 6b3c f081 0cbd 4633 483d 3d45 e03c
00000140: 1eaa 93bd 17c5 2abb cd2e 5e3d 3927 5a3d
00000150: d310 c3bc 68c3 5bbd c34b 463d b7f5 29bc
00000160: 47a2 fdbc a8a2 b53c 1380 34bd 5f8a 85bd
00000170: 5518 04bd fa3d 83bd 9cb9 4dbd fa2f a63d
00000180: 83b2 803c f733 ed3d 9bfc 0cbe 2079 433d
00000190: 4760 4fbd 745c 8bb9 2c05 ccbc e5f4 c8bc
000001a0: efdf 0dbe 9809 733d 99a6 4e3d 0bbe 753b
000001b0: 9ded a1bd 9d03 2c3d 5b87 b8bc a32e 433c
000001c0: eb64 f33b 6634 aabc ea06 58bd fe64 73bd
000001d0: 7ca2 c7bc 947d a23a 79f7 7b3d 2e75 1e3d
000001e0: e3e2 b53c 57aa 813d 7314 8d3d cbe7 67bc
000001f0: 1559 f0bc 43fa 963c e25c 623d 683c 7cbd
00000200: cc47 cabc 8fbc 69bd 03ca 683d 5220 7e3c
00000210: 10e5 353c dd2b 023d 9e0b 443d 2aad 07bd
00000220: 9439 7d3c 2fae c6bd 77be 533d a81d d03b
00000230: 3400 20bc 6d13 dbbb d652 c9bc 44f4 16bd
00000240: d80b 653d a121 a73d a025 8e3d 14d7 733d
00000250: bdf6 9abc b14e 8f3c 74d5 38bd 331a 463d
00000260: 394e fc3c 5b7e 1dbd 9b7b eabc 8929 b0bc
00000270: 915b 17be 3997 babc a8bf 333d 59df 48bc
00000280: 9450 533c 7bbe 3c3d 4d8e fe3d 54ea 923b
00000290: f929 bd3c 5d07 bf3d 3af8 c73c b686 2abd
000002a0: 88bb 053d 0d2e 0abb f2a0 acbc a1fe 023b
000002b0: 85d4 9d3c 0b5b 66bc a6b8 3a3d 80d9 43bd
000002c0: 5549 9abd fb14 f03c d0ab 1c3b 23eb 833d
000002d0: 7143 953d b417 14bd 0ba9 cbbc 67f8 34bd
000002e0: 3e01 6dbb 02e7 ea3c 3d73 54bd 7b74 2cbb
000002f0: a7f9 343b b033 76bd ea09 ee3b 7c0f 9d3c
00000300: 9145 3d3d 8632 d23c b0b5 37bc 5f88 1a3d
00000310: 4755 0f3d 751d 0cbc 75a3 203d bf2c 793d
00000320: 96cf f03a b2a0 1a3b c12f 853d 522b 37bc
00000330: 1a29 d1bc 05ed d7bc fbcd cd3c a059 05bd
00000340: df6c c7bd 9116 8dbc 120a 853d dbfb ab3b
00000350: b679 68bd f0cc a9bc 56e2 493d 054d 5e3d
00000360: e8ac 10bd b282 06bd f139 5b3b e8f4 aebc
00000370: e29c 573c cb62 96bd 20bf 16be a2cc 853d
00000380: de69 383d 0afd 8abb 7a13 473d a581 0abd
00000390: af2e 983d 0ada 683d d456 b13c a961 b33d
000003a0: 1ab2 99bb 1342 173d 4ffc c6bc e66e 8dbb
000003b0: dd17 26bd 3e5f b53c dd66 323d d701 50bc
000003c0: 2d9e 25bd 14b0 d13a 3010 8fbd a0d6 913c
000003d0: 4a9a 7c3d e642 8c3c 6459 83bc 1282 80bc
000003e0: 6bea ab3c 6816 2a3d 3c1c 71bd 227a 22bd
000003f0: 8c22 0bbd 4110 443d 2379 b23c 1db3 13be
0.043797676 0.021525143 0.045591507 0.0022814705 -0.01240363 -0.030044291 -0.009812849 -0.011855649
-0.017469605 -0.053071205 0.055366952 -0.008057287 0.051641215 -0.033455256 -0.03145076 0.0067096846
-0.052132815 -0.05399472 0.021662202 -0.046300653 0.00833461 -0.039196003 0.02308851 -0.07144777
0.016649885 0.049009494 0.021128332 -0.0518036 0.050516978 -0.052479625 -0.01007836 -0.014847282
-0.04004251 0.0704739 -0.0066440967 -0.061490647 0.03981168 -0.038174596 -0.0072102286 -0.018133417
0.038890414 -0.04831123 0.013443598 0.022907171 -0.060790572 0.008009174 0.039415818 -0.033296663
-0.0051067597 0.025167124 -0.018199395 0.03510425 -0.04547583 0.045679756 0.05128246 0.09077381
0.033415727 -0.05929457 0.039200913 -0.034887314 -0.000413335 -0.01634725 -0.032252893 -0.07205944
0.033200234 0.027488135 -0.0055954126 -0.049720436 -0.0067482158 -0.029189087 0.007862981 0.07401425
0.045152422 0.014979187 0.029444506 0.09738518 0.014359623 -0.034303606 0.048877023 0.027376765
-0.07210182 -0.0026057416 0.05424385 0.053260062 -0.023811733 -0.05365315 0.048412096 -0.010373524
-0.030961169 0.022172287 -0.044067454 -0.06520533 -0.032249767 -0.064083055 -0.05022584 0.081146196
0.015710121 0.11582177 -0.13768236 0.047722936 -0.050628927 -0.0002658103 -0.02490481 -0.024530837
-0.13854955 0.05933532 0.05045185 0.0037497308 -0.07906649 0.041995633 -0.02252548 0.0119129745
0.007427802 -0.020776939 -0.05274097 -0.059422486 -0.02436947 0.0012397044 0.061515305 0.03868597
0.022202915 0.06331318 0.06888666 -0.014154385 -0.029339353 0.018429881 0.05526436 -0.061581045
-0.024692439 -0.05706459 0.05683328 0.015510635 0.011101976 0.031780113 0.04786264 -0.033124126
0.015455622 -0.09701192 0.051695313 0.0063511916 -0.009765673 -0.0066856653 -0.024575632 -0.036854044
0.0559195 0.08160711 0.0694077 0.059531286 -0.018916482 0.017493578 -0.04512544 0.04836483
0.030799018 -0.03845058 -0.028623393 -0.02150418 -0.14781024 -0.022777187 0.04388395 -0.0122602815
0.012897629 0.046080094 0.124294855 0.0044835005 0.023091303 0.09327576 0.024410356 -0.041632377
0.032649547 -0.0021084577 -0.021072838 0.0019988196 0.019266376 -0.014059792 0.04558625 -0.047814846
-0.07533518 0.02930688 0.002390612 0.06441333 0.07288254 -0.036155418 -0.02486088 -0.044182207
-0.003616407 0.028674606 -0.051867712 -0.0026314545 0.0027614625 -0.060107887 0.0072643654 0.019172423
0.04620892 0.025658857 -0.011212751 0.03772771 0.034993436 -0.008551945 0.039218385 0.06083369
0.0018372412 0.0023594317 0.06503249 -0.011179762 -0.025532294 -0.026358137 0.025122633 -0.032556176
-0.097375624 -0.017222675 0.064960614 0.0052485294 -0.056756698 -0.020727605 0.049288116 0.05427267
-0.035321146 -0.032839485 0.0033451284 -0.021357015 0.013159962 -0.07343062 -0.14721346 0.06533171
0.045022838 -0.0042415904 0.04860256 -0.033815045 0.07430779 0.056848563 0.021647848 0.087588616
-0.004690421 0.036928248 -0.024290232 -0.0043161986 -0.0405501 0.022140142 0.04355513 -0.012695751
-0.04043405 0.001599791 -0.069855094 0.017802536 0.06167058 0.017121743 -0.016033836 -0.015687022
0.020985803 0.041525275 -0.058864817 -0.039667256 -0.033968493 0.047867063 0.021786278 -0.14423795

model.4.bias f4 [256]
00000000: c4fe b43d 2c79 1abd e80b 0d3b fc78 e7bc
00000010: dcaa c43d 0e81 a73d bbfc 50bd 9fa9 e33c
00000020: 54b9 36bd a959 653d a082 ea3c 6fda 8cbd
00000030: 749f 43bd ee59 8fbc 40f9 7b3b 0a28 053e
00000040: 60dc cbbc 3443 babc d06e 2abd 8954 ae3d
00000050: f310 423d 9b16 8dbd a474 be3b 911e 0a3d
00000060: 550f e93b 6811 8e3d 51b1 9d3d 8968 c33d
00000070: 58c7 d83d a768 483d b663 a93d 8b37 323e
00000080: a71b 6d3d 0333 50bd 3b87 b53d 4d1a e13c
00000090: ddac 16bd e2fa 173b 5d11 403d 7b91 983d
000000a0: 78aa da3c 2287 5e3c 4d1b 213d ebde 40bd
000000b0: 50a9 673c 83ed 66bd d0a5 7f3d 7b13 213e
000000c0: aad0 07bd 82d6 b43d 9482 0d3e f8d5 ca3c
000000d0: 580e 053d 0330 d33c 3eed b23d 1696 21bd
000000e0: 5432 3ebd ac0d 01bd d70f 9c3d c69d 8ebc
000000f0: f8ec 0d3e 2f94 8fbc 8cdd 163d a815 6e3c
00000100: 57ad 4bbd 9b7a dd3d b396 83bb 5c72 1a3d
00000110: 3df7 3abd 0608 293d 96b6 a83d 211a b43d
00000120: 9837 f53d d2af 84bd 1470 713d 92fe 163d
00000130: 1a61 ec3d 5298 1ebc 31f6 62bd 0e9f d2bb
00000140: 8f24 ad3c b2cc 26bd a82e 823d 46e3 3abd
00000150: 7d91 653d 97cd 08bd 3cfa e63d 701e a13d
00000160: f247 f63b e3f5 2e3d 11a9 2dbd 12e4 ae3d
00000170: 376d 113d 2f8f adbc af02 043d a4be 323d
00000180: 4e67 723d 1f9e 79bd fca9 0d3d 2ef5 b53c
00000190: 5b54 c43d 60fb 6fbd 70dd dc3b 918e 1d3c
000001a0: aebd 703d 0c71 1c3b 55fc 2d3c 15ad 023e
000001b0: f9fd f43d ae8e 2cbc b47a d13d f156 d1bd
000001c0: 4e6b 09bd 3ea4 f33d ce92 103c b066 473d
000001d0: 6785 a5bb effd 68bd 866a fa3d e401 1d3e
000001e0: 1b3d 023e beae b9bd cfbb c13d f0fa d53d
000001f0: fd75 ff3d e18b 813b 282d 823d 2adf d83b
00000200: 38df 9b3d 79b3 613d acf5 6e3d 600f 393d
00000210: f857 093e 506f 61bd 47d7 473d 53c8 c83c
00000220: 6524 b43c f11d ee3d a200 033d 4e3d 2abd
00000230: 0681 97bd 8350 773d efc2 743d cba9 20bc
00000240: b227 0dbd f5b5 1e3e c912 dd3d 558e 563d
00000250: e3b8 0b3d 8cde f03d dff2 693c a311 51bd
00000260: 32f6 82bb c470 cabc 9c19 47be b40d b53d
00000270: 5a5f e6bd 6635 a23d 04e2 7a3d d21b c73d
00000280: a551 a63d 0fd1 0e3d 5a45 c13d 4026 8b3d
00000290: 6479 ab3d 7d84 ac3d 84a3 6e3d 3044 cbbc
000002a0: 0e81 1a3d d72b 16bd 8c5b 87bc 98e7 dc3d
000002b0: bd47 883d 121c 40bd 5d13 32bc d2bb cd3d
000002c0: 7791 ee3b ce25 7f3d 7170 033d 1352 12bd
000002d0: e152 b0bd 2607 b13d 3792 79bd 1ccb 0a3e
000002e0: 8922 753d 6da7 45bd 1b66 453d 404f fc3d
000002f0: de99 9f3d f9e2 063d 6b2f 80bb 8016 d0bb
00000300: b5f4 5f3d 1f02 903d d792 f73d bcdd 8cbd
00000310: cac3 5abb 8efc ca3b bb24 2fbc 14dc fa3d
00000320: 04a1 60bd 09b6 403c c7da 89bd 6cbe cc3d
00000330: 6ff5 88bc b8e2 7a3c 623a b7bd f6b3 d43d
00000340: dee8 8b3c 1269 803d 6f4f 3abd d784 043e
00000350: 4644 ca3b 2fee 2db9 3b00 d1bb 23b1 7bbd
00000360: 0d67 073e d626 b0bd 4839 32bd 45df aabd
00000370: a8f6 c9bc 72ac 213e 9e9e 133d 6b0b d53d
00000380: 8b8c 8dbd 845f 0bbd 60e2 2c3c ed6e afb9
00000390: 9c25 e33b 0457 cebc c839 9ebd b0fd a43d
000003a0: 51d8 c53d 29ed f53c 55a7 bb3d 106d 6f3c
000003b0: 91f7 20bc 1f9f 263c 082c b53d 57ff 8a3c
000003c0: bb43 b4bc 010c aabb 3132 153e 559a a83d
000003d0: f831 723c 17ec b23d cdb7 b73d e3a0 483d
000003e0: 982b 923d 88a6 b23d 176c 9ebd e081 59bd
000003f0: 47a5 7d3c 26f6 49bd 2eb7 4e3c c11a c83d
0.08837655 -0.037713215 0.002152199 -0.028255932 0.09602901 0.08178912 -0.051022273 0.027790843
-0.044610336 0.05599371 0.02862674 -0.068776004 -0.04775949 -0.017498937 0.0038448125 0.13003555
-0.024885356 -0.022737123 -0.041609585 0.085122176 0.047379445 -0.06889077 0.0058122445 0.033720557
0.0071124234 0.06936914 0.07699836 0.09541423 0.10584897 0.04892793 0.082709715 0.17404
0.0578877 -0.0508299 0.08863684 0.027478362 -0.03678595 0.002319031 0.04689156 0.07449623
0.026692614 0.013582023 0.039332677 -0.04708759 0.014139488 -0.056378853 0.06241399 0.15730087
-0.033157982 0.088299766 0.13819343 0.024760231 0.032484382 0.02577973 0.087366566 -0.039449774
-0.046434715 -0.03150718 0.07620209 -0.017409217 0.13859928 -0.017526714 0.036832377 0.01453153
-0.049725857 0.10814401 -0.0040157675 0.037706718 -0.04564594 0.041267417 0.082379505 0.08794046
0.11973494 -0.064788476 0.058944777 0.03686387 0.11541958 -0.009679871 -0.055410568 -0.006427652
0.021135597 -0.040722556 0.06356555 -0.0456269 0.05604695 -0.03339919 0.11278197 0.078671336
0.007515901 0.042714965 -0.042397562 0.08539595 0.035504546 -0.02118644 0.03222912 0.04363884
0.05918055 -0.06094181 0.034585938 0.022211637 0.09586402 -0.05858934 0.0067402646 0.00961651
0.058774643 0.0023871092 0.010619243 0.12761338 0.11962504 -0.010532064 0.10228482 -0.10221661
-0.0335496 0.11896561 0.008824063 0.048681915 -0.005051303 -0.056882795 0.12227349 0.15332752
0.12718622 -0.090665326 0.0945965 0.10448253 0.12473676 0.0039534424 0.06356269 0.0066184
0.07610935 0.0551028 0.05833976 0.04518068 0.13412464 -0.055037796 0.04878929 0.024509585
0.02199001 0.116268046 0.031983025 -0.04156237 -0.07397656 0.060379516 0.059756216 -0.009806107
-0.034461685 0.15499099 0.107945986 0.052381832 0.03411187 0.117611974 0.014279096 -0.05104221
-0.003996634 -0.024711974 -0.19443363 0.08840504 -0.112486556 0.07920341 0.0612507 0.09722103
0.08121041 0.034867343 0.09437056 0.06794405 0.08372763 0.08423708 0.05826141 -0.024812788
0.037720732 -0.036662903 -0.016523145 0.107863605 0.06654308 -0.04690177 -0.010868874 0.100455895
0.0072805244 0.062291913 0.032089654 -0.035722803 -0.08609558 0.086439416 -0.060930457 0.13554043
0.05984739 -0.048255373 0.04819308 0.12319803 0.0779302 0.0329313 -0.0039119027 -0.0063503385
0.05467673 0.070316546 0.12088554 -0.0687823 -0.003338086 0.0061946576 -0.01068991 0.12249008
-0.054841056 0.011762151 -0.067311816 0.099972576 -0.016718594 0.015312843 -0.089466825 0.10385887
0.017078813 0.062700406 -0.04548591 0.129413 0.0061726896 -0.00016587296 -0.0063782013 -0.061448228
0.13222905 -0.08601157 -0.04351166 -0.083433665 -0.024653748 0.15788439 0.03603994 0.104025684
-0.06911572 -0.034026638 0.010552019 -0.00033461247 0.0069319736 -0.025187977 -0.07725865 0.080561996
0.096604 0.030020313 0.091627754 0.014613405 -0.009824649 0.010169773 0.08846289 0.016967459
-0.022004953 -0.0051894193 0.14569928 0.082325615 0.014782421 0.08736437 0.08970604 0.04898156
0.07137221 0.087231696 -0.0773546 -0.053102374 0.0154813 -0.04930701 0.012616916 0.09770728

model.6.weight f4 [256, 256]
00000000: 7bcb 0bbe 294c 6f3d 2c97 5f3c 2036 d7bc
00000010: 4245 b93c e36b 95bc 86da ebbb 38f7 7f3d
00000020: f022 13bd e43a 23bd 2b87 2fbd 182e 693d
00000030: 603c 18bd f1b8 90bd 925a 173d bc92 bdbc
00000040: 833f e03a a947 6d3c 17dc 7cbd 335e 37bd
00000050: 261f 29bd fe14 933c 4c54 7fbc 0f3b 8ebb
00000060: 8e04 333d c210 4abd f1da 713d fac0 5abd
00000070: b17f 173d b004 e1bb 7ce8 893d a091 3c3e
00000080: 9d71 723c 93f1 c9bc 7745 8b3c 80bf 0bbd
00000090: 8a8d 38bd 9464 35bd 734d 393c 63a3 973d
000000a0: 0246 c7bd 1500 093d 6fb5 d6bc d90e a03b
000000b0: 097d 9b3c b7fa 4cbd 94e4 413d d2d0 ba3d
000000c0: e0b0 34bd ad39 413d 6fda 673d f017 3b3c
000000d0: f962 b93c 19dd 2fbd 988f 1e3d 4577 4d3c
000000e0: 9b08 9c3c b0e3 edbc 80d4 b9bc cae9 d03b
000000f0: 83de 0a3e a882 823d 71e4 10bd 44a4 a53d
00000100: 8b21 ad3c 1c7f 443d efe0 4d3d 8409 c1bc
00000110: 4b87 183d dd71 fc3c 022c 233c 2630 4fbb
00000120: 0aad baba 44ab f23b 8512 f0bc ae26 9f3d
00000130: e8db 20bd 05ea f5bc 4ebb 19bd 9d9f eebb
00000140: 3cca 383c 85c7 453d a5a8 853c dd59 cd3b
00000150: 4daa f8bd 26e3 4f3d 94a4 24bd 1d91 9ebd
00000160: d01f 103c 3e47 303d 162e 023d d513 2fbd
00000170: c3a5 853d ca54 0fbd 27af 8bbb b924 04bc
00000180: e8a4 933d da96 993d 5984 e7bd bc26 89bd
00000190: 86f9 2cbb 7796 3cbc 764e d43d c8e0 8d3d
000001a0: 578a 25bd 1de4 81bd 6bc7 50bc 1bef 32bc
000001b0: 575a 10bd 6dd9 093d 5643 b3bd b5df 723d
000001c0: 3117 1c3d e9de 533d 1e8f 623d bb99 f9bc
000001d0: 91e1 08bd a285 763d 7a39 e1bd 6d75 ed3d
000001e0: bf96 5cbb e0af 8a3d 7e4d c8bc 11cb c1bd
000001f0: 6ec0 00bd f84e 8c3d 9754 b6bb 5d65 023d
00000200: 040a c43c aadd 1f3d bd7e 8f3d fe5b 47be
00000210: 3cee 3cbc 013b 513d 158d 5ebe 8b55 00bd
00000220: 4a3e a3bc 7668 3bbd ba4c f3bd fff1 dbba
00000230: 2f4f 3cbd 803d 583d ccd8 383d 4985 a93d
00000240: 4673 07bd 7a5e af3c 589e 383d a212 f33c
00000250: f874 5fba 826e 133d 3293 743d 1f81 0dbd
00000260: ba76 093d 9caf 193d a7c0 e9bd 0894 6fbd
00000270: a6f6 dfbb e1a5 423d d55a f5bb af0e 37be
00000280: 3664 d83d d065 6d3c ca3e b83c 78dd a0bc
00000290: 5dde eb3b a030 4abd 24b6 973d d2f2 8ebb
000002a0: f529 36bb 8389 31bd d813 863d 637f 623c
000002b0: 9ea2 cebd c36a a3bd 2eb3 f5bc fd4c c7bb
000002c0: dc92 f83c 956e 19bd 26b0 b4bd 64f5 ebbb
000002d0: 996f 83bc 37aa 0ebd ecc3 593d 975e d9bc
000002e0: 6d1f 67bd dfcb 9b3c 8790 cebc fc62 673e
000002f0: 49f5 293d 8a66 7dbe ca77 2f3d 8e84 3ebd
00000300: 9181 86bd 4f92 84bd 0d60 74be f469 04bc
00000310: 8a18 4abe 7d8d a03d b1f1 b3bc 1da3 7dbd
00000320: e648 003d 23c4 2c3c 7a1e 88bd 451b fcbc
00000330: ddda 913c 637f ac3c 8599 843c 0087 dc3d
00000340: 3279 bd3c 4c3f c83c 6bb1 623d 21e5 a93d
00000350: 000b e93c fb5b aa3d 1c9c c63c 28f0 98bb
00000360: 7c35 6abc a4f1 f33c 1399 ccbc d66f 10bc
00000370: 31f3 a13c fc1a 0dbd c09e 1b3d 8a73 353d
00000380: c842 403c a85f a53c b408 523d 13df a0bc
00000390: 1853 323d 0eb7 89bc c851 183c 9c8d d83d
000003a0: f991 d9bd f204 f83c 0edc 403d 1783 083d
000003b0: c2f0 323c 361c 8bbc 2d59 b43c 960e bbba
000003c0: 72f8 d5bc 1c6f 88bc ec82 6abd 2283 3c3c
000003d0: 08cb 713d 5ef0 5cbe e67c 5abd 28c9 9cbc
000003e0: 764d 0cbc c7e6 79bc ed12 78bd f3cf 23bd
000003f0: 509d ef3c 7cde 06bd 295d 173d ecfb 4f3e
-0.1365184 0.05842224 0.013646882 -0.026270926 0.022616033 -0.018239921 -0.007197681 0.062491626
-0.03592199 -0.039851084 -0.042853516 0.056928724 -0.037166953 -0.07066525 0.03695161 -0.023141257
0.0017108772 0.014482417 -0.06173333 -0.04476757 -0.04128947 0.017954346 -0.015584063 -0.0043405364
0.043705516 -0.049332388 0.05904669 -0.053406693 0.03698701 -0.006867014 0.06733796 0.18414927
0.014797595 -0.024651324 0.017000897 -0.034118176 -0.045056857 -0.044285372 0.011309969 0.074042104
-0.0973015 0.033447344 -0.026209561 0.0048845825 0.01898052 -0.050043788 0.04733713 0.091218606
-0.044113994 0.047174145 0.0566048 0.011419281 0.022630202 -0.042935465 0.03871116 0.012540643
0.019047072 -0.029039234 -0.022684336 0.006375526 0.13561444 0.06372577 -0.03537411 0.08087972
0.021134159 0.047972783 0.05026334 -0.023564108 0.0372384 0.030816013 0.009959223 -0.0031614392
-0.0014242243 0.0074056704 -0.029305706 0.077710494 -0.03927222 -0.030018816 -0.037532143 -0.007282211
0.011278685 0.04828598 0.016315768 0.006266816 -0.12141857 0.050753735 -0.040196016 -0.07742522
0.008796647 0.04303669 0.031782232 -0.042743523 0.06525757 -0.03499297 -0.004262823 -0.008065396
0.07209188 0.07499476 -0.1130454 -0.06696841 -0.0026393845 -0.011510483 0.10366528 0.06927639
-0.040415134 -0.06342337 -0.012742857 -0.010921265 -0.035242405 0.03365462 -0.08753078 0.059295375
0.038108055 0.051726256 0.05531227 -0.030468812 -0.033418242 0.060186036 -0.10997291 0.11594663
-0.0033659188 0.06771827 -0.024451014 -0.0946256 -0.031433515 0.068509996 -0.005564283 0.03183495
0.023930557 0.039029755 0.07006595 -0.19468686 -0.011531409 0.05108166 -0.21733506 -0.03133158
-0.019927163 -0.04575392 -0.11879869 -0.0016780494 -0.045973953 0.052793026 0.04512863 0.08277375
-0.033068918 0.021407355 0.045072883 0.02967197 -0.00085242046 0.03599406 0.05971069 -0.034546968
0.033560492 0.03752099 -0.11413699 -0.058490783 -0.0068348227 0.047521476 -0.0074876347 -0.17876695
0.10565989 0.014489606 0.022490878 -0.019636855 0.0071981386 -0.04936278 0.074077874 -0.0043624425
-0.0027796004 -0.043344032 0.06546754 0.013824317 -0.100896105 -0.079793476 -0.029992666 -0.0060821758
0.030343466 -0.037458975 -0.0882266 -0.0072008837 -0.016044425 -0.0348303 0.05316536 -0.026534362
-0.056426454 0.019018112 -0.0252154 0.22596353 0.041493688 -0.24746147 0.04283885 -0.046513133
-0.065676816 -0.06473219 -0.23864765 -0.008081902 -0.19735923 0.07839487 -0.021965833 -0.061923135
0.03131952 0.0105448095 -0.06646438 -0.030774722 0.017804557 0.021056836 0.016186485 0.10767937
0.02312908 0.024444245 0.05534498 0.08295656 0.028447628 0.08318325 0.02424436 -0.0046673007
-0.014294978 0.02977831 -0.024975335 -0.008815726 0.019769283 -0.034449562 0.037993193 0.04429964
0.011734672 0.020187214 0.05127783 -0.01963762 0.043536276 -0.01681092 0.009296842 0.10573885
-0.10623545 0.030275796 0.04708486 0.033328142 0.010921659 -0.016981225 0.022015179 -0.0014271315
-0.026119445 -0.016654544 -0.057253763 0.011505874 0.059031516 -0.21576068 -0.05334177 -0.019138888
-0.00856339 -0.0152527755 -0.060564924 -0.039993238 0.029249817 -0.03292702 0.03695408 0.20310944
