exported_models/neural_networks/raw_mlp/trained_models/model_epoch_1000_batch_64_lr_1e-05_vs_30_hl_128_128_128_128_drop_3/mlp_dynamics.pth (torch, 207125 bytes, 10 tensors)

model.0.weight f4 [128, 5]
00000000: a4d6 c7bd 5e1c d0be c58a 813d 80d8 b1ba
00000010: a949 9bbc 5d4d 95be 8e9e 0c3e fb4e 0d3f
00000020: 279d be3a f13b c13b 6d50 48be 7dbc 843e
00000030: 5ce7 57be c744 0d3b aa96 4dba d087 5abe
00000040: 0ed3 223e 6390 b13e 32e7 a03b 2efa 243b
00000050: 8702 7a3e 152d 0fbe a0ca 58be 42fb f0ba
00000060: 4a59 0fba c47c 5c3e cfd3 663e ca69 843e
00000070: f2f6 41bb f566 9aba 9501 a7be 23b7 d5be
00000080: 5306 73bd d1b3 953a b06d 56bc 6ed2 8f3e
00000090: c3b2 bdbe 4508 873e 3185 bc3a 13a7 183b
000000a0: 8337 85be 2adf b73e fd0f c4be 6230 c73a
000000b0: 78fd 35ba 8f19 5a3e 341b bfbd 470b acbe
000000c0: 828d eb3a 0db1 85bb 4b98 d03e 048a 923e
000000d0: 5241 8abd ae78 743b c06c 0abb 6c7a 803e
000000e0: 0040 1bbe 3aae 99be c085 2a3a c264 61bb
000000f0: 6112 d5be 7054 a2be ee7f df3e df07 8fbb
00000100: 9818 353b f580 b63e 9cf5 ecbe f153 913e
00000110: a74b c0b9 84b0 cb3b 0009 853e edb0 bbbe
00000120: ce2c ad3e 1daf dab9 8941 573b 8546 ecbe
00000130: 3417 86be 6336 103e 5635 7f3a 42f7 6b3b
00000140: 9256 91be f0a2 bc3e 6682 0cbe 20e1 95ba
00000150: 876b 0ebb 9980 debe df69 debe 0120 99bd
00000160: 1163 46bb a375 d63a 67d3 563e 8ed9 083f
00000170: 7ccb ffbe 4466 de3a 4087 9f3b 8c1a fbbe
00000180: 553f 013f e010 33bd 2d0a 823b 2d61 3a3b
00000190: 886e 1d3e ff80 83be 2607 de3e dbb8 a53a
000001a0: f7bf aa3b 8581 bcbe 5a48 b9be 8867 31bd
000001b0: f1fd 48ba d17b ef3a 2804 07bf ca61 b3be
000001c0: 7850 91bd d9b4 aebb ee33 093c 3433 06be
000001d0: 7c26 dbbe 5a05 963e 8fb8 7b3a 03b3 a1ba
000001e0: 9983 403e 219a ccbd 8301 a4be 7bbf 41ba
000001f0: 8c4d 2cbb 2692 f4be 380a a2bd a654 bdbd
00000200: 1b7b d53b d57c 0dbc 3b12 4dbe 4165 b73e
00000210: 3769 dcbe 9782 313b 3c42 273b b5e5 c6bd
00000220: 502d ebbe d169 ae3e c918 b63b a138 a33b
00000230: b0ed b33e 8816 b7be cbc7 f3bb 0575 ffba
00000240: 32d5 2e3b 2798 8c3e d15f 6d3e ceea a43e
00000250: 0038 f3ba 55ee d738 2330 c3be e2b0 37be
00000260: 434c 2bbe 18b4 fd3a 1ca5 27b8 8f77 e73e
00000270: 78cb df3e b1d2 7c3d a4f4 ae3a d34e 9aba
00000280: 169c 66be 8cca 973e 7dd6 a3be 37cd 5cba
00000290: 3e66 02bc d81f 243e e066 b43d 558d d8be
000002a0: ba07 36bb 86c7 7b39 7f6d 94be c470 a33e
000002b0: 443c 0f3d 83fe 81b9 d6b2 283b bd49 a23e
000002c0: 7553 00be 3753 e9be b228 c53a 156b b9bb
000002d0: 8f58 eabe 0b3c 99be 91f2 a2be c30f 113a
000002e0: b363 023b cf2a 893e 5146 9f3e 349c b43e
000002f0: a5fa 373b 6df7 78bb 72c3 3f3e a870 a13e
00000300: 333b c43e 02b2 21bb ec3e 7235 8b1e 8bbe
00000310: ed23 3b3e fb6d d03e 5eda d23a 79f7 3a3b
00000320: 49a9 893e 7f36 803e d336 f43d 4aea 61b9
00000330: cebc c4ba 9293 c2be 1ebd 843e 0c6d 863e
00000340: 69a2 613b 1e73 21ba 81ae b73e 7d22 d1be
00000350: f867 ae3e 30bd 213b ae95 5b3b 7dfa c4be
00000360: 89b4 b8be 55d4 56bd 7660 a439 9269 92bb
00000370: 7d41 af3e f757 903e a7bc 4b3d 777d 6cba
00000380: d4d0 953a c1f9 9e3e 4d7a a53e 8927 143d
00000390: 5848 73ba d297 ca3a f599 15bf f29a 893e
000003a0: bad9 7b3e b275 20bc 1aeb 083b 20b3 823e
000003b0: 14f2 ae3e af4f d43e ec2d a43a fb63 abb9
000003c0: 413c ae3e 6b64 e1be d749 823e 0562 e73a
000003d0: 2eb5 05bb bc4b d73d df65 40be 611d 98be
000003e0: ca12 693b e080 823b 2798 a0be 54e7 9ebe
000003f0: 0ae8 1bbd 9ac8 92ba bedf 2f3a eb62 273e
-0.09757736 -0.40646642 0.06325296 -0.001356855 -0.018956022 -0.29160586 0.13732359 0.5519864
0.0014542685 0.005897038 -0.1956193 0.25925055 -0.2108435 0.0021555887 -0.000784258 -0.21340871
0.15900823 0.3468047 0.004910373 0.0025173533 0.24415027 -0.13982041 -0.21171045 -0.0018385428
-0.0005468322 0.2153197 0.22541736 0.2586196 -0.0029596654 -0.0011779951 -0.32618394 -0.41741285
-0.059332203 0.0011421387 -0.013087675 0.28090233 -0.37050447 0.26373497 0.0014382956 0.0023292943
-0.26018915 0.35912448 -0.38293448 0.0015196914 -0.0006942372 0.21298812 -0.093313605 -0.33602354
0.001797125 -0.004079944 0.4074119 0.28620923 -0.0675074 0.0037303376 -0.002112195 0.250934
-0.15161133 -0.30015737 0.00065049157 -0.0034392332 -0.41615584 -0.31705046 0.4365229 -0.004364952
0.0027633067 0.3564526 -0.46281135 0.28384355 -0.0003667746 0.0062161107 0.2598343 -0.3665842
0.33823246 -0.0004171067 0.0032845458 -0.46147552 -0.26189578 0.14083247 0.00097354257 0.0036005531
-0.2838636 0.3684306 -0.13721618 -0.001143489 -0.0021731572 -0.43457487 -0.43440148 -0.074768074
-0.003027145 0.0016361963 0.20979081 0.5345696 -0.49959934 0.0016967733 0.004868418 -0.4904369
0.5048726 -0.043717265 0.003968498 0.002843927 0.15374196 -0.25684354 0.4336483 0.0012643592
0.0052108723 -0.36817566 -0.36188012 -0.043311626 -0.0007667235 0.0018271153 -0.52740717 -0.35035545
-0.07095426 -0.0053316173 0.008374197 -0.1310547 -0.428028 0.29300958 0.00096023915 -0.0012336675
0.188002 -0.09990335 -0.32032403 -0.00073908985 -0.0026291339 -0.47767752 -0.07912105 -0.09244661
0.0065149195 -0.008635719 -0.20026486 0.35819438 -0.43049023 0.0027085894 0.0025521656 -0.09711782
-0.45933008 0.34065107 0.005557154 0.004981116 0.3514228 -0.35759377 -0.0074395887 -0.0019489831
0.0026677367 0.27459833 0.23181082 0.32210392 -0.0018556118 0.00010296392 -0.38122663 -0.17938569
-0.1672831 0.001935604 -3.9969673e-05 0.45208403 0.43709922 0.06172437 0.0013348055 -0.0011772759
-0.2252048 0.29646719 -0.3199958 -0.00084229134 -0.007958947 0.16027772 0.08808684 -0.42295328
-0.0027775601 0.00024011554 -0.2898979 0.3192197 0.034969583 -0.00024794423 0.002574136 0.31696883
-0.12531836 -0.455713 0.0015042035 -0.005658517 -0.4577069 -0.29928622 -0.31825688 0.000553366
0.001989585 0.26790473 0.31108335 0.35275424 0.002807298 -0.0037989274 0.187269 0.31531262
0.38326415 -0.0024672751 9.024359e-07 -0.2717174 0.18275423 0.40708908 0.0016086807 0.0028528853
0.26886967 0.25041577 0.119245194 -0.00021544952 -0.0015009881 -0.38003212 0.25925535 0.2625507
0.003442908 -0.00061588164 0.35875323 -0.40846625 0.34063697 0.0024679415 0.0033505964 -0.38472357
-0.36075237 -0.05244859 0.00031352387 -0.0044681514 0.3422965 0.28192112 0.04974046 -0.0009021381
0.0011430033 0.31049922 0.3231987 0.036170516 -0.00092804944 0.0015456623 -0.58438045 0.26876026
0.24594775 -0.009793686 0.0020892085 0.25527287 0.34169066 0.41467044 0.0012525893 -0.00032690153
0.34030345 -0.44021925 0.2544696 0.0017653113 -0.002040218 0.10512492 -0.1878886 -0.29709914
0.0035564178 0.0039826483 -0.31366083 -0.31035864 -0.038063087 -0.00111987 0.00067090604 0.16346328

model.0.bias f4 [128]
00000000: 5ff3 35bf c6b9 083e 1996 14bd 7ee4 33bf
00000010: bd71 17bf f960 15bf dcb0 3dbf af68 a0be
00000020: c6c9 eebc bad4 cebd 9e10 1dbf b038 aabe
00000030: c850 7cbd d44c fabe 9c08 2fbd 1c77 80be
00000040: 5ccc 14be deb5 c3be 588c 97be 25ae ecbe
00000050: ef70 79be 020b 32be 00e2 08bf e4c8 b3bd
00000060: e73c 07bd c39a f4be b370 4fbe 572e af3c
00000070: 8c22 4abf 91dd 58bf bd0b c4be 3079 893d
00000080: b438 a3bd 485b a3be e920 c5bd 7ebf a1be
00000090: d029 16bf e7f4 cfbd e654 2cbd 2d18 90be
000000a0: bd01 46bf d873 d0be 0180 46bf ac60 d8be
000000b0: 1ae4 46be 73eb a93c 062b 2abf 8a3c fe3c
000000c0: 6147 28bf 7062 25bf d49e a8bd 5f73 853d
000000d0: 6ed2 3fbf 7ab2 17bf 1bb1 7fbc 62a6 a1bc
000000e0: 8b38 60bf 9662 febd 732c 04bf a96b 9fbe
000000f0: 807e 4c3d 5f44 59be a428 64be 671c a9bd
00000100: 0643 14bf ae69 b4bc eef5 c5be 7b89 03bf
00000110: d597 44be fb2e 68be 06e3 06bf 5eb5 4ebf
00000120: c93d 513d 7f8b adbe 8efd 1dbf dfee a3bc
00000130: e7e2 ccbe 85a1 7cbe 1397 c4be 4fae b7be
00000140: 2354 bdbe dc8d f4bd 3c5b 80be 3414 cbbe
00000150: f3f5 1fbf b740 87be 0680 32bd c958 90be
00000160: 02bc 9ebe 1027 f0be 9d32 4ebd 0b7e 35bf
00000170: d54f e9bc 72dc 36bf b182 24bf ac51 1dbe
00000180: 9b24 00be a3fa 3cbf 161a 32bf f948 fabe
00000190: 885c 1abe 8408 e0be 4034 3fbf d2b6 2dbe
000001a0: c833 c3bd 0bc8 bfbe e81f c8be f1b1 1bbf
000001b0: f4af a5be c66f a9be fee3 3ebf efcd d63d
000001c0: 84e4 0abf 67e4 efbd 7619 3ebc 2ea5 d4be
000001d0: 972b 1e3d f407 f7be 95ec a43a f04a a3bd
000001e0: f40d f8be 6839 0fbf 703e 4c3d b81f 05bf
000001f0: e860 58bf b5f0 71be 1570 50bf e2cc 98be
-0.7107448 0.13352117 -0.036275957 -0.70270526 -0.59157926 -0.58351094 -0.7409799 -0.31329867
-0.029148947 -0.10099168 -0.6135348 -0.33246374 -0.061600477 -0.4888674 -0.04273282 -0.25090873
-0.14531082 -0.3822469 -0.2959926 -0.46226612 -0.24359487 -0.17387012 -0.5346985 -0.08778551
-0.033017065 -0.47774324 -0.20257835 0.021384401 -0.78958964 -0.84713084 -0.38290206 0.06712568
-0.079698 -0.3190558 -0.09625418 -0.3159141 -0.5865755 -0.10154133 -0.042073153 -0.28143445
-0.773464 -0.40713382 -0.7753907 -0.42261255 -0.19422951 0.020742154 -0.664719 0.031034727
-0.65733916 -0.6460333 -0.08233419 0.06516146 -0.74930465 -0.5925671 -0.01560619 -0.019732658
-0.8758628 -0.124211475 -0.51630324 -0.31136826 0.049925327 -0.21217488 -0.22281128 -0.082573704
-0.5791477 -0.022023048 -0.38664192 -0.51381654 -0.19198544 -0.22674172 -0.5269016 -0.80745494
0.051084314 -0.3389549 -0.6171502 -0.020011364 -0.40016863 -0.2467099 -0.3839651 -0.35875174
-0.36978254 -0.1194112 -0.25069606 -0.3966385 -0.62484664 -0.2641656 -0.043579124 -0.28192738
-0.31002814 -0.46904802 -0.050341237 -0.7089545 -0.02848045 -0.7143012 -0.6426192 -0.15363187
-0.12513964 -0.7381994 -0.69571054 -0.488838 -0.1507436 -0.43756497 -0.746891 -0.16964272
-0.09531361 -0.37457308 -0.39086843 -0.6081839 -0.32360804 -0.3309309 -0.7456664 0.104884975
-0.5425494 -0.11713486 -0.01160275 -0.41532272 0.03861579 -0.48248255 0.0012582714 -0.079732776
-0.48448145 -0.5594697 0.049864233 -0.52001524 -0.8452287 -0.23626979 -0.81421024 -0.29843813

model.3.weight f4 [128, 128]
00000000: 14a1 8abd ef2c 82ba 91bb a736 6c71 1abc
00000010: cdef 34bb 8ec0 f7be a3b0 19bc 361d 10ba
00000020: d862 67b9 cb23 41ba 93fb 8a3d 90f6 7bba
00000030: 3286 85ba 3a8f 0fba a7cd 7b3a c6e3 393b
00000040: 139d 5e39 a5af 4f3d 457b a43a 5ef1 4f3d
00000050: b39c c0bb 76e1 2abd 3f94 523e d91c 973a
00000060: 8b9a bf3a fdaf 043e 8c29 a83b a15c 2039
00000070: 5488 183c 5492 88be fbf1 273f 9e81 f5ba
00000080: 77b0 1e3b d605 483c 4f3b c2ba 9771 90ba
00000090: 1067 3e3f 9a01 6abf 69fb aebf 7a8b 583a
000000a0: b044 37be d297 1e3c ad31 b13b f305 a23d
000000b0: c634 e2bb b9fc e6ba 1867 fabb ef5d 3bbf
000000c0: ed4e cd3b 9e75 5d3e dad3 35b9 2e18 16bd
000000d0: 4152 493f aad6 ce3e 6df0 c8ba 574e 8cba
000000e0: f1b1 e83e 0826 073b b05b 99bc fdf1 023d
000000f0: 4cc7 1cb9 edbf 093c a9fb bb3c c999 03ba
00000100: 4f6e f8be 2efb 29ba 807c 28bf e9d2 2f3c
00000110: c5ce f0ba b955 63ba b1a9 0c3c ce1c 14bf
00000120: bd51 c4b7 46f5 123b 21a0 08bf ea24 1039
00000130: deb7 0bbc 1109 15bb 3169 af3c 9972 aabc
00000140: c3e5 133e c026 d73a 8e8b ea3c 9e33 923d
00000150: 1986 8dbc dcf8 133b c56c 233a 631f 33bc
00000160: a332 51bd 19d2 0cbc f2df 00bb bb47 753b
00000170: 0678 d639 a043 353c d04e 3bbd 2cef 1bbb
00000180: 75c4 3139 d4e4 d83b 2dd2 35bf 47d1 313c
00000190: 5b48 2bb9 7e7d bb3d 6436 6fbc 984d f03a
000001a0: 645e e13b f9df 6dbf 0eb4 be3c 197b debc
000001b0: 0fc5 993a 24ca da3c c7e6 08be 232c d7b9
000001c0: e590 64be f309 10bb 9c21 91ba 6f90 953d
000001d0: 2681 06b8 ace1 bf3a b6c7 4eb8 80bc 2a3b
000001e0: d64a 8c3d 83d3 983b 558a a2ba 2e28 13bc
000001f0: a2b6 f5be a43b d93b 8005 483e d5ce 8d3b
00000200: f4a8 90be 354a 95bb 3fca f7bc a826 663d
00000210: fcee 923c 6759 83be ae1f 86be bb2a a53c
00000220: 6b8e 8cbd 231e c73b 244b 013e 495f 373c
00000230: 5eca 41bc 80cd 7c3c bda7 413c ffb0 0bbd
00000240: a458 fabb f22d 7fbe 8723 9d3b b4f2 b43b
00000250: 1d9a a93c 1fa3 0ebf f98d 38bf e9d4 cabd
00000260: 907f 5dbc d884 73be 32a6 84be 9cb6 13bd
00000270: 4f0e 9bbc f23e 25bc d662 9abe 1415 9bbc
00000280: cc08 d3bd 3758 86bd 09a8 613a 3a0f 363c
00000290: d5f5 89be 785f 713c e686 8d3c 2f5d 253c
000002a0: ba55 0e3e 424e b03c 92c0 cb38 e414 2cbe
000002b0: a919 263e 8a03 403d b8b3 b33c f810 c43b
000002c0: e41f f3bb afbc 65bf c41f 98bf a981 113c
000002d0: 310c 08bf eee8 aabc e060 5ebd f1e9 273b
000002e0: f3ae 4cbf 2a23 0abc 4052 983c aa6a 17bf
000002f0: 4e78 b9bc f4a5 263d 9552 31bf c454 243c
00000300: 5dca 983d 8a7b 6dbb 6367 b13c 9f61 413b
00000310: ab89 8f3c a048 fa3b 1a7d 1cbc 4bb8 953d
00000320: 958e 36bc b4f5 10bc c57d 893f 054f 333b
00000330: b9b6 443d 7537 313c 6a55 eebd 1d45 a43b
00000340: ccd6 7f3c 5109 96bc 4cec 24bb 66e2 98bd
00000350: 3fa7 853d 8326 513c 7cda 3a3c cb14 58bc
00000360: 85aa 9f3c 417a a93c 61cf 7e3c c4af 04bc
00000370: ecb5 283d fab5 a5bc df4d 5f3d 54cf 21bd
00000380: 561e ba3c eaa1 973c bfee 9dbc 2e7a aabe
00000390: c7bd ea3b bdf4 87bf ecc1 47be 300e 0ebd
000003a0: 5633 61bf ce6d d03c a17e 3a3c f880 4e3e
000003b0: e642 6dbd dcbe 0bbe 3b38 873d 92f3 9fbc
000003c0: 5e8d 483d 1aff 8a3d 3a6b 573c ae00 df3c
000003d0: b8f4 343c 3213 df3b 99a8 31bd d332 83bc
000003e0: c336 b6bc 4928 903a afa3 58bc 0f2e d13c
000003f0: a096 b73a 9f24 5abf ca1f b93d f97e 78ba
-0.067690045 -0.0009931604 4.9988234e-06 -0.009426456 -0.0027608753 -0.48389095 -0.009380492 -0.0005497517
-0.00022066699 -0.0007367699 0.06786265 -0.0009611631 -0.0010187088 -0.00054763595 0.0009605535 0.0028364523
0.00021230085 0.050704617 0.0012548944 0.050767295 -0.005878055 -0.041718923 0.20564364 0.0011528983
0.0014618201 0.12957759 0.005131906 0.00015293296 0.009309847 -0.2667414 0.6560361 -0.0018730646
0.0024214068 0.012208423 -0.0014818701 -0.001102018 0.7437601 -0.91408694 -1.3670474 0.000826053
-0.17897296 0.0096797515 0.005407533 0.07911291 -0.0069032637 -0.0017622925 -0.0076416843 -0.73190206
0.006265512 0.21626899 -0.00017340426 -0.036644153 0.78641135 0.4039815 -0.0015330442 -0.00107045
0.4544826 0.0020622034 -0.018720478 0.03196906 -0.00014951563 0.008407575 0.02294715 -0.0005020169
-0.4852166 -0.0006484267 -0.6581497 0.010731437 -0.0018372169 -0.00086721365 0.008585379 -0.5785645
-2.3403083e-05 0.0022424026 -0.5336934 0.00013746662 -0.008527724 -0.0022741 0.021412464 -0.020806598
0.14443116 0.0016414747 0.028630998 0.071387514 -0.017275857 0.0022578752 0.00062341645 -0.010932776
-0.05107368 -0.008595013 -0.0019664732 0.0037426788 0.00040906685 0.011063486 -0.04572946 -0.002379368
0.00016953221 0.0066190753 -0.7102383 0.010853118 -0.00016334785 0.09154795 -0.01460037 0.0018333672
0.0068777073 -0.9291988 0.023279216 -0.027158307 0.0011731702 0.026707716 -0.13369285 -0.0004104088
-0.22320898 -0.0021978586 -0.0011072638 0.07302939 -3.206837e-05 0.0014639399 -4.9300223e-05 0.0026052296
0.06850211 0.004663886 -0.0012400845 -0.008981748 -0.479909 0.006629424 0.19533348 0.004327635
-0.282539 -0.0045559653 -0.030247806 0.05618921 0.017936222 -0.25654146 -0.26196045 0.020161977
-0.068631016 0.0060765906 0.1262632 0.011192151 -0.011828033 0.015429854 0.011819777 -0.034104344
-0.0076399613 -0.2491987 0.004795495 0.0055220965 0.02070337 -0.55717653 -0.72091633 -0.09903891
-0.013519183 -0.23781145 -0.25908047 -0.03606282 -0.018927721 -0.010085808 -0.3015353 -0.01893095
-0.10304412 -0.065597944 0.0008608108 0.011112029 -0.26945367 0.014732234 0.017276239 0.0100930175
0.1389989 0.021521691 9.715663e-05 -0.16804844 0.16220726 0.046878375 0.021936283 0.005983468
-0.007419573 -0.89741033 -1.1884694 0.008881011 -0.531436 -0.020863023 -0.054291606 0.0025621618
-0.7995445 -0.008431235 0.018593907 -0.5914713 -0.022640374 0.04068561 -0.69266635 0.010029975
0.07460473 -0.0036236965 0.021655744 0.002950765 0.0175217 0.007638052 -0.009551311 0.07310542
-0.011142393 -0.008847643 1.0741507 0.0027360332 0.04802582 0.010816445 -0.11637385 0.0050131218
0.015615176 -0.01831499 -0.0025165258 -0.07465057 0.0652604 0.01276553 0.01140463 -0.013188551
0.01949049 0.020688178 0.015552373 -0.008098546 0.04118912 -0.020228375 0.054517623 -0.039504364
0.022719543 0.018509824 -0.019278882 -0.3329634 0.0071637365 -1.0621563 -0.19507569 -0.0346815
-0.8796896 0.025442984 0.01138273 0.20166385 -0.057925127 -0.13647026 0.06602522 -0.019525323
0.048962943 0.06786938 0.013148123 0.027222004 0.011044674 0.006807708 -0.043373678 -0.016015446
-0.02224291 0.0010998334 -0.013222619 0.025534658 0.0014006682 -0.8521213 0.090392664 -0.00094793696

model.3.bias f4 [128]
00000000: c880 283a 4a48 1dbe 78cb 99bd 09e3 733a
00000010: d3f7 1b3a df6e e4bc cef1 06bd 73cd f0ba
00000020: 2a0d 213b 1284 163b 7663 5fb6 6a3e 893c
00000030: a459 4f3b be09 fabc 1199 e83b 36e3 5a3a
00000040: c38a 013b 70cf 9a3a 5da7 cfbb 377a 0c3b
00000050: 23c2 823a 0665 f93a ca33 a8ba e60c 2bbe
00000060: e0c4 593a 29ae 20ba e1f6 d2bd 958d 1c3a
00000070: f74d 72b9 1236 0b3c a02a 0abc 1dd7 e1bc
00000080: 0bd4 f3bc 31cd 0f3a fa2c ccba ce6b 9fbe
00000090: 4159 aa3a 45a1 0e3b 66a3 da3a 87cc 17bb
000000a0: 9789 173d 24b5 55be 854f 35ba 61dc 7a3b
000000b0: 2a96 2e39 040d 4abc a8ec c7b8 5ffd 973a
000000c0: d72f 00bc 142e 4dbb 290f 593b c663 443b
000000d0: d072 2c3b 04e8 fabd 8d6d 29b9 4a1e 7039
000000e0: be04 47be c53a 3bbd eebf 55ba a45b 753a
000000f0: 19ba 57b9 c56d 033b d529 e9bd f9f3 5339
00000100: 6642 44b9 183b f1ba 0a98 2abd 8e5c 4f39
00000110: dcb4 c1bc 2634 2739 890d 41bb c2ce 85be
00000120: 0c95 42bc 142b 1dbd 02df 043b 89f7 0cbe
00000130: d4d6 c2be 655d 1e3a f1d2 4ebe 049b 92be
00000140: ba5e a2be 5733 15bc 40da 403b 8f4e 68bd
00000150: f170 c5bb 73e1 2dbe f94e 95ba be67 493a
00000160: db86 983a 7fc7 d1b9 7bfc 673b bae6 c7bc
00000170: 8048 24b9 4b19 18b9 108b 5b3b 6712 7e3b
00000180: ee53 d3bd 7497 82bb 1180 29bd 98b7 8ebd
00000190: f237 51bc c287 0db9 bc25 30bc c167 353a
000001a0: 772d 353d 7055 89be 88cc 54bb 22fc a53a
000001b0: b823 123a 486c 9c3b 1f12 86ba ea55 f639
000001c0: 7b81 cfbc 6f9c 3d3a 22df 98ba d270 cfbc
000001d0: a120 9eba 77f5 a4be 2ae0 5b3a 1996 c7bc
000001e0: f5e5 033c fe94 8e3a 1947 283c f138 bdbb
000001f0: cad0 9d3b 660d c9bd 9d84 9abc d559 9839
0.00064278813 -0.15359607 -0.07509512 0.0009303545 0.00059497094 -0.027884899 -0.032945447 -0.0018371776
0.0024574497 0.0022966904 -3.3287483e-06 0.016753394 0.0031639123 -0.030522224 0.007098325 0.0008349897
0.0019766546 0.0011811089 -0.00633709 0.002143515 0.000997607 0.00190273 -0.0012832817 -0.16704139
0.000830723 -0.00061294675 -0.10300995 0.0005972025 -0.00023107963 0.008496778 -0.008433014 -0.027568394
-0.029764196 0.0005485593 -0.0015577369 -0.31136936 0.001299657 0.0021763605 0.0016680777 -0.002316268
0.03699645 -0.20869881 -0.00069164514 0.0038278329 0.00016649874 -0.012332205 -9.53314e-05 0.0011595896
-0.007823906 -0.0031307982 0.0033120608 0.0029966696 0.002631355 -0.12251285 -0.00016157907 0.00022899467
-0.19435403 -0.045710344 -0.0008153905 0.0009359664 -0.00020573325 0.0020054441 -0.11384932 0.00020213415
-0.00018716752 -0.0018404452 -0.041648902 0.00019775538 -0.02364581 0.00015945788 -0.002945753 -0.26134306
-0.011876356 -0.03837116 0.0020274525 -0.13766302 -0.38054526 0.00060411385 -0.20197655 -0.28633893
-0.31712896 -0.009106479 0.0029426962 -0.056715544 -0.0060254266 -0.16980533 -0.0011391334 0.00076830003
0.001163687 -0.00040012223 0.0035398293 -0.024402011 -0.00015667267 -0.00014505272 0.0033499636 0.0038768293
-0.10318743 -0.00398534 -0.0413819 -0.069686115 -0.012769686 -0.00013497382 -0.010751184 0.00069200626
0.04423281 -0.26822996 -0.0032470543 0.0012663642 0.00055747805 0.0047736503 -0.0010228789 0.00046984787
-0.025330296 0.0007233088 -0.0011663178 -0.025322352 -0.0012064168 -0.32218525 0.000838759 -0.024363564
0.0080504315 0.0010878143 0.010270857 -0.00577461 0.0048161494 -0.09817009 -0.018862063 0.0002905863

model.6.weight f4 [128, 128]
00000000: ea67 2b3c 2100 0f3b 5559 513b 6702 fe3a
00000010: 7fc8 213b 2b60 833b 40da 883d fb4f 333c
00000020: aa9b 293c 9b5a 223c 5026 75bc 8da2 cd3c
00000030: dedb 803b e062 ca3b f6fa f7bb 0219 c63b
00000040: 7552 313b 23ca 5ebe 0e0b a43b b14f 1fbd
00000050: 3004 853b 8a4b 8b3b e420 483c 5380 c63d
00000060: fed0 67bd babd 813b 6282 b2be 73aa 843b
00000070: 8d4a 02bd 3748 2ebc f7dd 513c c5e2 273e
00000080: fe82 1e3a 0118 533c f2e8 603c ef70 2a3e
00000090: ce75 dc3a 1a37 1a3c a5d5 afbc 33c1 a33b
000000a0: b73b 07bd b463 4a3e 2db9 5a3b 1de8 12bd
000000b0: fadb 013c f099 823b 577a ca3b 78fc d6ba
000000c0: 2deb 293b b25a 0e3c f3ab 063a 03f2 7e3c
000000d0: 9666 9c3c 52ec 8cbb b130 88b8 31e3 9e3b
000000e0: 3779 04ba 62b1 b33b 285e 4a39 91f6 023c
000000f0: 0414 17bf e47c aabc 7bb0 bd3b 3cda d8bf
00000100: 9284 843b a655 843b 8af1 cb3b 520e 0f3a
00000110: 0984 6c3a 9eb1 e1be c182 c9bd df0a b0bc
00000120: a6a2 803b e0d8 753b 08b2 26bf 9654 b33d
00000130: 6457 dbbd 7ce1 2b3b d477 5cbc 3220 123e
00000140: 0cf0 8abc 2023 b23c c0e8 2cbe 8c0c 80bf
00000150: 3e84 f93b fcbf fc3e 3621 99ba 9ed4 f3b9
00000160: 3624 3e3c cebc 113b c8a0 443c 6245 843c
00000170: 6cd0 693b 9473 b63b ba1b 45be 008b ad3c
00000180: 3f9e 1d3b a09e bfbc eda2 3f3c 9f78 d83b
00000190: 4572 b93b ae61 12ba 99b0 a03a 01b1 3d3c
000001a0: c482 17bc 3657 8abd 914b ab3b bde7 cfbc
000001b0: 8cf7 af3b 045b c9be c260 543b 572f 8b3b
000001c0: 360b 0b3c 3d8b cd3b 5857 873c 155f 7e3e
000001d0: 7c97 e1bf 4337 5bbb 2dd0 e13b 9a93 c53b
000001e0: f392 44b9 26cd adbe 3015 ba3a 5841 9d3d
000001f0: baae f13b 36d3 bc3d 250b 923b ea84 873b
00000200: 5f36 a2bd 7def 9b3c 7d9e f0bb 1602 e1bb
00000210: 88dd dd3b 409f c73b 54f5 02bd 3aec 77bb
00000220: 201d 44bf 60f7 c43a 5855 19c0 84dc 93be
00000230: 3568 0bc0 f0a4 163c 4ec1 a1bd 744f 3dbd
00000240: e6ae 273d 31ce 1bbc 9c25 f03a 6a99 7f3d
00000250: e8ce 02bd 69da 7ebd d91d df3c 7bea c03b
00000260: e9ee ba3c ecbc aa3b e71c f53b 528d 373b
00000270: 6c7f 073d ef82 d93b cf2e ca3b 2e6d 9abd
00000280: 7d50 1b3c de6e b53c c98a bc3b 6e7d 213e
00000290: 549c 2abc 6726 1ebf 73cc 0c3b 7081 863c
000002a0: 57cc bebd d492 00bf d1fd 473b d2c4 163e
000002b0: bac3 46be d504 4c3b f81a 4abd 65ff 84bb
000002c0: 521e eebb 508d 3d35 bd57 45bc 3244 be3c
000002d0: 3a69 3a3d 4433 6c3c 4d16 78bb c2fe 14bd
000002e0: acc0 0a3d f787 933c 9b09 2fbc 58f2 f2bb
000002f0: 4c05 163c 345f be3c 4f72 063d 11bc 51bb
00000300: 38ca 41ba 8eda 193c 4ce2 89be 4877 fcbb
00000310: 1695 983a be30 183c c069 373c 13f9 a2ba
00000320: dd04 cdbd 516e 663c ca66 ff3b bcf3 1ebf
00000330: 5851 6f3e 549d 05bd 0ee4 713e c24c d93d
00000340: b747 5ebf 1825 d6be 0a29 153d a4a8 693a
00000350: e08e 873c 70d6 813d ff27 49ba 9ac4 073c
00000360: dbe6 e13b 1aa1 ba3a 1d41 2c3d 84cc a93c
00000370: 24c3 10bd 9df8 e93a d1dc 433b 3081 e23c
00000380: 66a5 b93c a05c 423c c7b4 23bc b63b e33a
00000390: a457 ef3b 3036 3a3b eb84 bebc 4ea5 a839
000003a0: 83a9 10bd 8475 e83e 2c53 b3bd 2e9c 06c0
000003b0: 8196 e4bc 0f53 9c3b 4858 5b3b 3a50 ea3b
000003c0: b607 813a fe61 013b ba90 533b 0daa 183e
000003d0: 04b8 c53c eacb a1bd 11de d2bc 20e3 acba
000003e0: 1259 debd aa94 1cbc c855 4bbe 6921 c13d
000003f0: eb38 5d3d f6c7 8a3e 826a 453c 56be 213c
0.010461787 0.0021820145 0.0031944115 0.0019379378 0.0024686155 0.004009267 0.06682253 0.010944362
0.010352055 0.009909297 -0.014962748 0.025101924 0.00393246 0.0061763376 -0.0075677587 0.0060454616
0.0027057205 -0.21756797 0.0050062006 -0.03889436 0.004059337 0.0042509483 0.012214873 0.09692445
-0.056595795 0.0039593847 -0.348651 0.0040486394 -0.03180938 -0.010637335 0.012809268 0.163951
0.0006046741 0.012884141 0.0137274135 0.16644643 0.0016819777 0.009412551 -0.021464178 0.0049973964
-0.033015933 0.19764596 0.0033374534 -0.03586589 0.007925982 0.003985636 0.006179135 -0.0016402146
0.002592753 0.008688616 0.0005137317 0.01556063 0.019091886 -0.0043006325 -6.494055e-05 0.0048488607
-0.0005053463 0.005483792 0.00019299297 0.007993356 -0.59014916 -0.020811506 0.0057888604 -1.69416
0.004044124 0.0040385304 0.006223862 0.0005457151 0.00090223603 -0.44080824 -0.098393925 -0.021489559
0.003925639 0.00375133 -0.65115404 0.08756368 -0.10710028 0.0026226928 -0.013456304 0.14270094
-0.016960166 0.021745265 -0.16885662 -1.0003829 0.0076146415 0.49365222 -0.0011682871 -0.00046506984
0.011605313 0.002223778 0.012001224 0.016146366 0.0035677208 0.005567977 -0.19248858 0.021184444
0.002405062 -0.023391068 0.011696559 0.006606176 0.005659374 -0.00055840134 0.0012259661 0.011577846
-0.009247486 -0.067549154 0.005227514 -0.025379056 0.005370086 -0.39327252 0.0032406305 0.0042475867
0.00848656 0.006272702 0.016521141 0.24840958 -1.7624354 -0.0033449687 0.0068912716 0.0060295584
-0.0001874676 -0.33945578 0.0014196988 0.07678479 0.0073755654 0.09219973 0.004456895 0.0041357176
-0.07920527 0.019035095 -0.007343112 -0.0068667037 0.0067707933 0.006091982 -0.031972244 -0.003783001
-0.7660694 0.0015027337 -2.395834 -0.28879178 -2.1782353 0.009194598 -0.07898198 -0.04621835
0.04093828 -0.009509609 0.0018321755 0.062402166 -0.031935602 -0.06222001 0.027235912 0.0058873273
0.022819 0.0052105095 0.007480252 0.0028007817 0.033080503 0.006637923 0.006170131 -0.075403556
0.009479639 0.022147592 0.005753849 0.15770504 -0.010413248 -0.6177735 0.0021484166 0.016419142
-0.093163185 -0.5022404 0.0030516277 0.14723518 -0.19410601 0.003113081 -0.049342126 -0.0040587657
-0.007266798 7.0613623e-07 -0.012044844 0.023225877 0.045510508 0.01441652 -0.003785509 -0.03637577
0.033875152 0.018009169 -0.0106834425 -0.0074141435 0.009156536 0.023238756 0.032823857 -0.0032002965
-0.00073924987 0.009390486 -0.26930463 -0.007704649 0.0011641111 0.009288965 0.011194646 -0.0012433849
-0.10010693 0.014064387 0.007794236 -0.6209066 0.23370874 -0.032620743 0.23622152 0.106103435
-0.8682818 -0.41825175 0.03641609 0.0008913374 0.01654762 0.06339729 -0.00076735014 0.00828662
0.006893975 0.0014238686 0.042054284 0.020727403 -0.03534235 0.0017850582 0.0029886256 0.027649492
0.022661876 0.011862904 -0.009991831 0.0017336521 0.0073041487 0.0028413646 -0.02325674 0.0003216662
-0.03531791 0.45402157 -0.08756098 -2.1032825 -0.027903797 0.0047706435 0.0033469368 0.007150677
0.0009844217 0.0019742246 0.0032282309 0.14908619 0.024135597 -0.07900222 -0.025740655 -0.0013190247
-0.108568326 -0.009556929 -0.19856942 0.094302006 0.05400936 0.27105683 0.012049319 0.00987204

model.6.bias f4 [128]
00000000: 5c62 a53c 3359 e73c 5c40 5c3c 9536 373e
00000010: 8c31 443c 4094 423c 13ab 423c 96e3 943d
00000020: d691 723d fd01 0c3c 8b7a 713c 2ef0 7d3d
00000030: 160c a53e 4dc6 5a3c 0a16 a73c cdf8 2d3c
00000040: cee2 703c 8241 233d e2bc 693c c754 9b3d
00000050: e285 293c e999 553e af2b 743d 3e7e 953c
00000060: 681c 393c ec5b 9c3e 1fe9 cd3c 6233 813c
00000070: 01fe 753d 101e b43c fd82 8f3d 996e c93c
00000080: c601 33bc b626 163d 5509 a73c 92d8 713d
00000090: 7221 183c 969c ab3c f22a 1b3c 31ba 083d
000000a0: 9125 ae3c e388 9a3c a2cf 263d d277 6e3c
000000b0: 9b85 083c f7bf 673c 22fb 683c fc79 8d3d
000000c0: 80bd c73c cb36 983c 998a 5c3c 5901 373d
000000d0: fd66 8a3c 3f58 1b3d d9df 333d c3da a23c
000000e0: 07cf 4d3e b7f9 de3c 8b15 36bc fbd6 433d
000000f0: 992b ce3c fa79 14bb ee25 c33b 202a 343c
00000100: a1e6 f23b 2c4e b53c a08c a33d c1d1 cb3c
00000110: eef9 e43c 1822 7b3c 9372 d13b 77cc 1e3c
00000120: 88ad 813d 979d d53c 3453 a33c 871a ae3b
00000130: 9553 cd3c c372 983c 9939 3f3d 8535 3d3e
00000140: baf8 283d be16 443c e9b1 d83c 3e76 14bb
00000150: 822e 1c3c 7963 743c 42b1 813c 116d 1f3d
00000160: 4adb 833d 95e1 193d 979c ff3b e141 453d
00000170: def5 cb3c 865c f63c 593c 1e3d a1f3 9a3d
00000180: 69fe 3c3e 395f b93c 7713 303c 5fb6 153d
00000190: eade 0a3d f235 913d 62a9 093d 3cdf da3c
000001a0: a98b 423c b943 023d 1219 633c 27ea c23b
000001b0: 84e5 633d 9662 de3d b4d3 153d 85fa 823c
000001c0: 35aa 4b3c 37e1 873c ef56 b13b 101d ba3c
000001d0: c706 ac3c 051f 7b3c bc5b 9f3c 2314 4d3c
000001e0: 6ded ae3d 52eb e93b a484 133c a08d e53c
000001f0: 51d2 623c e054 a13d a286 063c 1cff 423c
0.020188503 0.028240776 0.013443079 0.17891915 0.0119747035 0.011876166 0.011881608 0.07269971
0.05922111 0.008545396 0.014738689 0.06199663 0.32235783 0.013352943 0.020396251 0.010618401
0.014702512 0.039857395 0.014266225 0.07584529 0.010346862 0.20859493 0.059611972 0.018248674
0.0112982765 0.3053888 0.025135575 0.015771572 0.06005669 0.021986991 0.07007406 0.02458887
-0.010925716 0.03665801 0.020390192 0.05904443 0.009285318 0.02094869 0.009470688 0.03338069
0.021258147 0.0188641 0.040725358 0.014554935 0.008332635 0.014144889 0.014220031 0.06908032
0.024382353 0.018580815 0.013460779 0.04467902 0.016894812 0.037925955 0.04391465 0.019879704
0.20098506 0.027218683 -0.011113535 0.047812443 0.025167273 -0.0022655712 0.0059554493 0.0109963715
0.007412747 0.022132002 0.079858065 0.024880292 0.027951207 0.015327953 0.006391832 0.009692303
0.063319266 0.026076121 0.019937135 0.005313221 0.02506427 0.01860941 0.04668579 0.18477447
0.04125283 0.011968313 0.026452022 -0.0022653486 0.009532573 0.014916294 0.015831593 0.038922373
0.064383104 0.037568647 0.0078006494 0.04815853 0.024897512 0.030073415 0.03863177 0.07566
0.18456425 0.022628414 0.010746828 0.036550876 0.033903994 0.070903674 0.0336088 0.026717775
0.011874118 0.031802867 0.013860958 0.0059483233 0.055638805 0.108586475 0.03657885 0.015988598
0.012430717 0.016586883 0.0054119746 0.022718936 0.020999325 0.01532722 0.019452922 0.012517008
0.08541379 0.007138648 0.009003792 0.028021634 0.013844089 0.07877517 0.00821081 0.011901643

model.9.weight f4 [128, 128]
00000000: a9aa 773c ffc0 543c 7f7f e03a 1e46 5dbc
00000010: b7a9 073c 7f3b 233b 65b2 e63b d239 88bb
00000020: 7b64 09bc b77a 30c0 cb9e 2e3c e1a2 553b
00000030: e33b f2bb 56e3 b03a f233 213c 97b3 513c
00000040: 65b4 903b 2a79 b63b 0438 143c 56cb 58bb
00000050: 1115 753b e3ff 23bc 8988 6cbb 0261 7a3a
00000060: 349a 073d f075 0fbc 93a2 fd3a f2d9 c63c
00000070: 270a 223c a8a5 e4bd b9ca 7e3b b750 883c
00000080: a4a6 0d3e 3b18 d73b a3e8 013a 033a 963b
00000090: 7d6e 89bc d182 353d 289c d13c b398 b1bc
000000a0: d70b 053d 9f4c 8f3a 97bd 8939 9f41 d33c
000000b0: 9cc1 393d c08e c73c e092 b7bd f1c6 5a3b
000000c0: b3c9 b5ba c9ac 77ba 293b 4abe 2b51 f53b
000000d0: 1ce4 1dbe d3a1 783a 07c1 d73a 73bf 433b
000000e0: 634f b9bc 9e63 cb3c ff59 8c3b 3b97 bf3b
000000f0: dcfb 16bc 92b6 fc3c ed81 07bb d14a 3bbb
00000100: c1d3 31c0 55b5 56ba 26ad 14b8 fd3f 93bd
00000110: 9c3d a8bc f7f8 40bf d19f a7bf 6465 de3c
00000120: 627d 74bc 27b4 643c c6dc 8cba dafe 4ebf
00000130: 39c3 7dbc 138f 83bc 6eae a739 fdce 89bc
00000140: aafa 56bc 3ae8 033c ea11 a93a f382 e33c
00000150: 0d82 65bf f1f8 8438 f28f 563c 345e d43a
00000160: 86f4 70bd d46d 94be 8c02 373a 2965 04bb
00000170: 68be 273c 910b 44bc f5e8 07bc 0004 19bb
00000180: 298a 23bc f78a 3ebd 8cad 08be 3157 e8bd
00000190: a471 0e3c f354 4fbd a21f ce3b ba6f d7b9
000001a0: ebc4 1e3d 2d2a 2cbb 5158 92bd 0f55 0a3b
000001b0: be84 383b 65fd ae39 ff86 d23b 4919 983c
000001c0: 80c1 983b 54f0 bf3c 0b70 81c0 fa27 14bc
000001d0: 0aaa 9d3c 827c 79bb 8beb 0b3d 66c3 e13c
000001e0: 35e8 2dbb 7e8c 0cc0 e877 163d 218e a137
000001f0: a2b0 b1be 2019 843a 2c99 b63c 851c 503b
00000200: 4557 3ebf cadb cd3b 642e bd3b 02c5 bdbc
00000210: 1a5f a9b9 2485 27ba 70ed ff3b 7b00 213a
00000220: 4244 deb9 8911 9a3c 2357 a3bd 1fa7 473b
00000230: 4744 00bd 358a 10bb cb7f c2bd 777e 38be
00000240: 8957 103b 1b05 353b 2ed1 65bc bc20 d43a
00000250: 4922 98bb 3e23 33bd b2ab f7b8 9feb 62b9
00000260: b035 723d 1f71 60bd 1a39 20bf de10 11be
00000270: 89f2 2dc0 13c1 5bbd 74e9 c73b 5092 e7bf
00000280: 6e9d b23d a5de 9db9 5875 d7ba 18f6 f83c
00000290: ffd5 eb3c 9a76 48c0 db94 d83b 3a58 203c
000002a0: 8576 37bb a73a 183b 6858 7ebc 99dd 47c0
000002b0: 886d 6b3d f8ce c43d c529 02bd 45f3 21be
000002c0: 23f6 50be 8033 dcba 7f61 64bc fd56 453c
000002d0: f4f5 9eba 9fb7 283c f618 d83a 6c42 6539
000002e0: 1c1b 8bbc 3f42 98bc 6186 023d 2dcc 5f3b
000002f0: 687c f3be cd9f 493d 45be 5abc ec08 2fbc
00000300: 7ca9 11ba 2a78 2f3b f448 553c e9de b83b
00000310: e8ac 37bd 4adf aa3b a5c0 823a 7c48 ff3c
00000320: 82d1 cfb9 b666 08c0 34eb 91bf c621 5aba
00000330: b3d0 e53c ff04 333c 90b8 bc3b 1242 c7bd
00000340: 1562 29bd 9d15 1cbd 2723 dcbd 3716 2d3d
00000350: f2d4 5a3b eb4e 4bbe 6e4c 24bc 0c28 0b3c
00000360: fca2 493c f784 28bc b152 68be dac1 c23a
00000370: 92a8 e53b b114 01bf 91d9 aaba 8a07 373a
00000380: 49e5 4dbd 8175 aa3b 614b a13b 22aa 66bb
00000390: 6a4c a53c e904 003c 4da1 4abb 7868 77b9
000003a0: 1003 703c a1fd e83b 73f6 213c 5580 85be
000003b0: e398 bbbe 1458 d93a 4856 a63b 0b5a d0bc
000003c0: f686 afbd 38b0 df3c ef57 a4b8 e609 1f3a
000003d0: 1805 e6bb 9814 6dba 3533 f53c 9c9d 3c3d
000003e0: 9993 9fb9 46ac a63c 3f57 14bc 97c2 8cbd
000003f0: 63fd 203d fb8d 163c 9c3c a53c de5c 6dbb
0.015116372 0.012985467 0.001712784 -0.013505487 0.008280209 0.0024907289 0.0070403093 -0.0041572833
-0.008385773 -2.75749 0.010657976 0.0032598304 -0.007392393 0.0013495486 0.009839045 0.012799165
0.004416036 0.005568643 0.009046558 -0.0033080182 0.003739659 -0.010009739 -0.0036092123 0.00095511985
0.033106044 -0.008756146 0.0019350819 0.024273846 0.009890116 -0.11164409 0.0038878156 0.01664005
0.138331 0.006564168 0.0004955625 0.0045845523 -0.016776318 0.04431421 0.025587156 -0.021679258
0.032481994 0.0010932869 0.00026271932 0.025788127 0.045350656 0.02436006 -0.08963561 0.0033382738
-0.0013869315 -0.0009448049 -0.1974913 0.0074864826 -0.15419048 0.0009484563 0.0016460725 0.0029868751
-0.022620862 0.024827775 0.0042831893 0.0058468855 -0.009215321 0.030848775 -0.0020676807 -0.002857853
-2.7785494 -0.0008190473 -3.5447207e-05 -0.07189939 -0.02053719 -0.7537989 -1.3095647 0.027147956
-0.014922472 0.013958967 -0.0010746948 -0.8085762 -0.015488439 -0.016059434 0.00031982682 -0.016822333
-0.013121286 0.008050973 0.0012899016 0.027772402 -0.89651567 6.3406194e-05 0.013095843 0.0016202391
-0.058826946 -0.28990042 0.00069812755 -0.0020201898 0.0102382675 -0.011965648 -0.008295287 -0.0023348331
-0.00998167 -0.046519246 -0.13347453 -0.113447554 0.008694086 -0.050618123 0.006290392 -0.00041091238
0.038762014 -0.0026270256 -0.07145751 0.0021107828 0.0028155292 0.0003337666 0.006424784 0.018566744
0.004661739 0.023430027 -4.044927 -0.009042734 0.01924612 -0.0038068597 0.03416018 0.027558994
-0.0026536111 -2.196075 0.036735445 1.925888e-05 -0.34705073 0.0010078289 0.022289835 0.003175528
-0.7435191 0.0062823044 0.0057733525 -0.02316523 -0.00032305048 -0.0006390384 0.007810287 0.0006141734
-0.00042393996 0.01880719 -0.079756044 0.0030464602 -0.031315114 -0.0022055034 -0.09497031 -0.18016993
0.0022024831 0.0027621451 -0.014026923 0.0016184072 -0.004642759 -0.04373478 -0.000118098586 -0.00021640815
0.05913323 -0.05479538 -0.6258713 -0.1416659 -2.7179282 -0.053650927 0.006100828 -1.8091526
0.087214336 -0.00030111257 -0.0016438169 0.030390784 0.028788565 -3.1322389 0.006609542 0.00978666
-0.0027994227 0.002322832 -0.015524007 -3.1229002 0.057477504 0.09609789 -0.031778116 -0.15815456
-0.20406394 -0.0016800016 -0.0139392605 0.012044665 -0.0012127743 0.010297685 0.0016486931 0.00021863886
-0.0169807 -0.018586276 0.031866435 0.0034148798 -0.47555852 0.049224664 -0.013351028 -0.0106832795
-0.0005556566 0.0026774504 0.013017882 0.0056418073 -0.04484263 0.0052146064 0.0009975625 0.031162493
-0.00039638212 -2.131269 -1.1399903 -0.00083210727 0.028053617 0.010926484 0.0057593063 -0.09729399
-0.041353304 -0.03810655 -0.10748892 0.042257514 0.0033391085 -0.19854324 -0.010027988 0.008493435
0.012306925 -0.010285608 -0.22687794 0.0014858798 0.0070086205 -0.504222 -0.001303481 0.00069820194
-0.05026749 0.005201996 0.004922316 -0.0035196622 0.020178039 0.007813671 -0.0030918897 -0.00023594673
0.014649168 0.007110313 0.009885418 -0.26074472 -0.3664008 0.0016582035 0.0050762035 -0.02543356
-0.08570664 0.027305707 -7.836508e-05 0.00060668436 -0.00701965 -0.0009043901 0.029931644 0.046048746
-0.00030436812 0.020345818 -0.009054004 -0.068730526 0.03930415 0.009189124 0.020170502 -0.0036218683

model.9.bias f4 [128]
00000000: dd6c 0c3e 026a 393e 143f 233e ee1b 463e
00000010: f649 453e 1621 423e a0d0 1a3e 3eeb 323e
00000020: 5ab8 4e3e 2a00 283e 755f 373e 9871 633e
00000030: c798 183e 014a 5b3e af4c 1d3e 25c4 083e
00000040: 6fba 1e3e d1f1 303e f088 ff3d 0e7f 353e
00000050: 9caa 0b3e f30f 4d3e b8e7 0e3e ecc2 273e
00000060: ca0b 4b3e c542 273e 2e0c 133e 404a 2d3e
00000070: 2b59 0f3e d3f6 2c3e 9922 393e dbfc 163e
00000080: 8ec9 253e b2b7 e43d e492 103e 6826 333e
00000090: a18e 2b3e 1227 333e 3fbb 1b3e 4f54 543e
000000a0: 36ff 953e 5e53 1b3e 6e61 023e 0613 0d3e
000000b0: 52a9 023e cf38 3a3e 2d1c 393e 0d35 2f3e
000000c0: 22d5 2d3e 55c4 1b3e fc5b 3a3e c06b 273e
000000d0: 1582 3c3e e524 0c3e d2f6 3f3e 14ae f33d
000000e0: bbab 0f3e 92b1 3f3e 4bbb 0f3e 34e6 3a3e
000000f0: 8a1b 393e dc6a 3a3e 30b4 f13d d71a 183e
00000100: bb3b 303e d774 203e 62f8 2d3e 959c 333e
00000110: 0af5 363e d225 4a3e 3e24 653e 4dc4 eb3d
00000120: cadf 0e3e db50 3a3e 3169 363e d8b7 0f3e
00000130: dfa9 9a3e b48b 213e 6531 253e 153f 083e
00000140: 1e03 c73e 5f71 293e cc50 453e c486 193e
00000150: 296b 423e 50cb 523e fcd8 753e 2e59 293e
00000160: b8d4 fd3d a40e 033e 060a 543e 968d 093e
00000170: e3dd 123e 4625 253e c84b 543e 919d 6d3e
00000180: 7d61 593e 649a 343e 6954 4d3e b53a 103e
00000190: 10ee 773e 7a7f 323e d300 e93d ca70 9a3e
000001a0: cf8a 3a3e abde ea3d c3ae 533e 629a 693e
000001b0: 87b0 023e f143 383e 4832 2d3e c702 243e
000001c0: 1e18 0c3e 2541 0c3e f3a8 0a3e e344 603e
000001d0: 49cc 0e3e 34c7 173e a4dd 1e3e 44ed 493e
000001e0: 512a 803e c859 053e 4e03 0c3e fa49 2c3e
000001f0: 0678 263e fb1f 1b3e addc 0c3e 04f6 323e
0.13713403 0.18106845 0.15942031 0.19346592 0.19266495 0.18957934 0.15118647 0.1747255
0.20187512 0.16406313 0.17907508 0.22211301 0.1490203 0.21414949 0.15361284 0.13356073
0.15500806 0.17279746 0.12477291 0.17724249 0.13639301 0.20025615 0.13955581 0.1638295
0.19828716 0.16334064 0.14360115 0.16922855 0.13998859 0.16891031 0.18079604 0.14744894
0.16190168 0.111678496 0.14118534 0.1749512 0.16753627 0.17495373 0.15208147 0.20735286
0.29296273 0.15168521 0.12732479 0.13776788 0.12759903 0.18185733 0.18077154 0.17110081
0.16975835 0.15211613 0.18199152 0.16349697 0.18408997 0.13685949 0.18746498 0.11898437
0.14030354 0.18720081 0.1403629 0.18251878 0.18076912 0.18204826 0.11801946 0.14853989
0.17210285 0.15669571 0.16989282 0.175402 0.17866912 0.1974099 0.22377107 0.11512051
0.13952556 0.18194906 0.17813565 0.14034975 0.30207726 0.15775949 0.16132124 0.13305314
0.38869566 0.16547154 0.19269103 0.14992815 0.18986191 0.2058537 0.24008554 0.16537926
0.123940885 0.12798554 0.20706949 0.13432917 0.14342456 0.161275 0.20732033 0.23204638
0.21228595 0.1763702 0.20051731 0.14084895 0.24211907 0.17431441 0.1137711 0.30164176
0.18217014 0.11468252 0.20672135 0.22812799 0.12762652 0.17994668 0.16913712 0.16016684
0.13681075 0.13696726 0.13541012 0.21901278 0.13945116 0.14822084 0.15514237 0.19719416
0.25032285 0.1302253 0.13673136 0.16825095 0.16256723 0.15148918 0.13756056 0.1747666

model.12.weight f4 [3, 128]
00000000: 4d72 913e 4e80 2c3e df75 493e 2723 223e
00000010: 0c84 b0bd 710e ea3e 9735 d0bd 1c09 b1b9
00000020: 763e 253f 9fe4 e4bd 90b2 84bc a0b3 5cbd
00000030: 5c13 0ebe e79e 373e e9b2 3c3e cefc 00be
00000040: c34c 11be 6dd1 56be de78 15be 3fa3 13be
00000050: 53aa 0abe 8b17 5bbe 3451 303e a62a 0abe
00000060: 736d d2bd 21e7 d3bd 49c4 ab3e fa0b 8dbd
00000070: 5ed1 4cbe 61bb f9bd 463c 8b3e 9a0c 22be
00000080: c8ba 8b3e 12b9 45be efb3 2e3e d805 0f3e
00000090: a6c8 963c b0aa 523e a6d8 debd effc 993c
000000a0: e95b 29be 366a 483e f646 11be a1b4 263e
000000b0: a54b 0bbe e105 25be 08be c3bd 2463 ed3d
000000c0: 63e9 143e 98b7 fc3d 0ae3 773e 6e19 07bd
000000d0: 7ac0 febd e6da a53e d4ed c13d 96e5 8e3e
000000e0: c154 dd3d ca47 b33b 2786 e7bd 699e b0bd
000000f0: 0da7 783e f8d8 453c 1286 48be e827 f83d
00000100: 2bdf 53be 0345 f43d 3622 163e a1dc b1bd
00000110: 6444 323e f6d3 8ebd 2e96 2e3d 5b24 44be
00000120: 4507 d23e 0016 a8bd 5d1b f83d 532a 623e
00000130: c549 33bd 9625 42be a0b3 1cbe e81a 943e
00000140: ab7a d1be 1507 753d a48d 163e 2277 533e
00000150: 4c53 cb3d 9217 8bbd be15 583e ddbc f8bd
00000160: eb7c 773e 4791 813e f3b1 62bd fde3 5e3e
00000170: a7da 963e a5d6 8e3e b037 9fbd c4fc 393d
00000180: c191 cf3d c592 493e 5d45 c73d e875 853e
00000190: b7b6 35be 8993 fe3d fa9f 3dbe 317f 30bd
000001a0: 39a2 7bbd 4c93 36be 37cc 67bd 2cf6 83bd
000001b0: 646e ab3e ce18 bdbd 6038 27be 9321 e9bd
000001c0: 1cfb b2bd 52b5 0ebe 2b09 e4bd d481 2cbd
000001d0: 7eff d3bd c7f5 373e c836 01be b084 f53d
000001e0: fee1 90bd 5bac 07be 5000 443e 4506 dabd
000001f0: 4fbd d4bd 32c7 02be 0206 663e 95f1 293e
00000200: 61ae 66be 20d1 b03e 4624 1f3e 879c 843e
00000210: 96d7 ae3d 2cb6 573d 41ee 13be 2b4f 5c3d
00000220: 8c73 cbbd 8fdf 06be d9c9 b93d 56e7 9cbe
00000230: c7c3 143e 1ede b0bd f063 4abe ca96 ec3d
00000240: 4f14 02be cab5 af3d cd0d 56be 05b9 8abd
00000250: 6b33 10be 57b8 babd 4ee0 78be d91e 9f3d
00000260: d571 fe3c af8b a53d 36e5 42be 542e 203e
00000270: 0b82 1dbe d560 02be 4af4 c6bd 7702 b0bd
00000280: f85a 0dbe 794a 2bbe 8574 1dbd 206c 3f3f
00000290: eb38 3c3e 7b6b 053e 0f98 a63d b42d f2bd
000002a0: 2093 d9be 292d 8c3e 6522 0c3e 9c90 41be
000002b0: 571c f43d 1f3d a7bd 7c17 82bd f159 94be
000002c0: 6fad 65be a49a 85be 4654 fe3d 9ff0 213d
000002d0: 4b49 a6bd 42c6 3b3e d727 13be eae7 5d3e
000002e0: ef7a 84bd dbc9 d7bd afa6 073e cb2f 9b3d
000002f0: 4c12 a5bd 652c bf3c 7511 e6bd 9a9f 46be
00000300: 3383 7a3d 9013 57be 11b0 293e 3609 20be
00000310: 41ef b8be 00ec 743d 45a5 0f3f c271 e9bd
00000320: 24cd 353e 5816 8e3d 80ea 1e3e aab6 7dbe
00000330: c04c 77bd 594f 003e 8947 fa3d e22d 63be
00000340: 9760 1bbf 5de2 27bc 9c22 943e 6d8d 5b3e
00000350: de44 09be d07b 72bd d82f 2f3d 4e88 c6bd
00000360: 6c49 5f3e 7646 433e 725c 813d 138b 44be
00000370: d9a4 903e f83f 003e 39b1 463a 3e64 bcbe
00000380: 9ac2 8abe 852b d73e 7080 4e3e beed 4dbe
00000390: 31d6 09bf 8569 803e a691 13be f317 20bd
000003a0: 6646 be3d 2791 fc3d 79ea da3d 9a8a 8bbd
000003b0: 3ce5 893e c4d6 32bd 31c5 f53c 2121 95bd
000003c0: 0045 473e bf6f 24be 5644 143e 88d4 ad3d
000003d0: a503 393e 3fbb 93be 8a29 c03d 46b3 97be
000003e0: 0645 493e 33a0 26be a0e4 3fbe f74d 053e
000003f0: a5b6 c33c 99f4 f63d 38c1 3d3e 5163 133e
0.28407517 0.1684582 0.1967387 0.15833722 -0.08618936 0.45714143 -0.101664715 -0.00033766858
0.6454843 -0.111764185 -0.016198426 -0.05388224 -0.13874573 0.1793171 0.18427624 -0.12596437
-0.14189439 -0.20978327 -0.14596888 -0.14417742 -0.13541536 -0.213957 0.17218477 -0.13492832
-0.10274782 -0.10346819 0.3354819 -0.0688705 -0.20001742 -0.12193943 0.27194422 -0.1582512
0.2729094 -0.1930888 0.17060827 0.13967073 0.018406224 0.20572925 -0.10881166 0.018797366
-0.16538967 0.19571766 -0.14187226 0.16279842 -0.13603075 -0.16115524 -0.0955773 0.11591175
0.14542155 0.12339705 0.24207702 -0.032983236 -0.12439056 0.3239357 0.0946919 0.27909535
0.10807181 0.0054712044 -0.113048844 -0.08623964 0.24282475 0.012075655 -0.19582394 0.121169865
-0.206906 0.119272254 0.14661488 -0.0868466 0.17408901 -0.06974022 0.04262369 -0.19154494
0.4102117 -0.08207321 0.12114594 0.22086458 -0.043771524 -0.1895965 -0.15302896 0.28926778
-0.409139 0.059821207 0.14702469 0.20650914 0.09927997 -0.06791605 0.21102044 -0.12145398
0.24168746 0.2530615 -0.055345487 0.21766658 0.29463693 0.27898136 -0.077742934 0.04540707
0.10135222 0.19684894 0.09730027 0.26066518 -0.17745481 0.12430484 -0.18518057 -0.04309005
-0.061434004 -0.17829627 -0.05659124 -0.06443438 0.3348266 -0.09233247 -0.16330099 -0.11383357
-0.087393016 -0.13936356 -0.11134561 -0.042116 -0.10351466 0.1796485 -0.12618554 0.11988199
-0.070743546 -0.13249342 0.19140744 -0.10645727 -0.1038767 -0.127713 0.2246323 0.16596062
-0.22527458 0.3453455 0.15541181 0.2590067 0.085372135 0.052663967 -0.14446355 0.053786438
-0.09934148 -0.13171218 0.090717025 -0.30645245 0.14527808 -0.086361155 -0.19764686 0.11552198
-0.1270306 0.085795954 -0.20903702 -0.06773571 -0.14082114 -0.09117191 -0.24304315 0.077695556
0.031060139 0.08083283 -0.1903275 0.15642673 -0.15381639 -0.12732251 -0.09714563 -0.0859422
-0.13804233 -0.16727628 -0.0384412 0.7477436 0.18381087 0.13029282 0.081344716 -0.118251234
-0.4249506 0.27378204 0.13684995 -0.1890282 0.11919468 -0.08165955 -0.063521355 -0.2897487
-0.22429441 -0.26094544 0.12418418 0.039536115 -0.08119448 0.18337348 -0.14370666 0.216705
-0.0646876 -0.10536548 0.13247178 0.07577475 -0.080601305 0.023336599 -0.112337984 -0.1939682
0.061160278 -0.21003556 0.1657107 -0.15628514 -0.36120036 0.05979538 0.56111556 -0.11398651
0.17754036 0.069378555 0.15519142 -0.24776712 -0.06037593 0.12530269 0.122206755 -0.22185472
-0.6069426 -0.01024684 0.28932655 0.21440668 -0.13405177 -0.059200108 0.042770237 -0.09693967
0.21805352 0.19069847 0.06316461 -0.19193678 0.2825077 0.12524402 0.0007579509 -0.3679523
-0.27101594 0.4202539 0.20166183 -0.20110223 -0.53842455 0.25080505 -0.14411029 -0.03908534
0.09290771 0.12332373 0.10689253 -0.068135455 0.26932704 -0.043661848 0.030001255 -0.072817095
0.19459915 -0.16058253 0.14479193 0.08487803 0.18067797 -0.28853795 0.09382923 -0.29628962
0.19655237 -0.16272049 -0.18739557 0.13018022 0.023890803 0.12058372 0.18530738 0.14393355

model.12.bias f4 [3]
00000000: 64cc fa3c d35b 7d3b 5cb1 04bd
0.03061504 0.0038659468 -0.032395706
