exported_models/trained_models_V2/mlp_dynamics_v2.pth (torch, 22197 bytes, 6 tensors)

model.0.weight f4 [64, 5]
-0.85950005 0.97888744 0.21637918 -0.014896281 -0.0021474743 0.10356511 -0.10895624 0.20844287
0.0032123057 0.0025017622 0.14449564 0.4367178 -0.39447415 -0.011140789 0.0059888633 -0.6332464
0.17714326 -0.446096 0.0011167024 -0.0006512682 0.29033658 -0.5602969 -0.5737509 -0.003948533
0.008778504 0.20700839 0.31959316 0.32719517 0.0023062737 -0.0103722075 0.51881087 0.27738318
-0.30154786 0.0043404186 0.0028690563 -1.0667647 -0.48544866 0.1110979 0.02877986 -0.000494061
0.32048345 0.47278666 0.37505075 0.010368681 -0.0016114186 0.25609678 -0.8202346 0.3049557
-0.0028896867 -0.03205396 0.17100805 0.09888823 -0.52475834 0.0027531295 -0.0050607356 0.27244666
-0.11600551 0.17171495 5.7727033e-05 0.00022066949 0.28975588 -0.001923617 -0.40151623 0.0046198135
0.0035567125 0.09146326 0.14227821 0.4841255 0.008207473 0.00035962535 0.23053944 0.045069035
0.23315914 0.0036082289 0.0015697 -0.44739336 0.48930946 0.10979693 -0.0062755537 -0.003931653
-0.3954402 0.68385845 -0.5420899 -0.002302856 -0.0018371588 -1.1799916 -0.010933261 4.438309e-05
0.0020446437 -0.009695222 0.37942895 0.59530437 0.13762648 0.00088392216 -0.00711715 -0.09774761
-0.7723779 -0.2334291 0.004846052 -0.0041633965 -0.37594086 0.01375328 -0.5548658 0.009550774
0.0037748385 0.056020655 0.2804613 -0.9345167 0.005575992 -0.0109916525 -0.32380566 -0.5376406
0.24426532 0.0010661263 0.00029343265 0.007649338 -0.54503924 -0.35777816 -0.006751157 -0.0053929985
-0.17494139 -0.033845678 0.32984993 -0.0027799318 0.004300133 0.37259746 -0.008646304 -0.20427495
0.002345735 0.002225562 -0.30069295 -0.045564275 0.2895617 -0.002937331 0.0025152396 -0.4937849
-0.33100975 0.44146156 0.0027362371 -0.00046090453 -0.9372504 0.36976156 -0.30798894 0.008091892
-0.0047318535 0.27760887 0.08279527 0.15670635 0.0017040713 0.0040781996 0.14243855 0.48841223
-0.9054029 -0.010204077 -0.0012873756 0.17863485 0.3880603 -0.8547692 0.00815677 -0.0029065115
-0.8238863 0.3215763 -0.45106882 0.0030467587 0.0019881688 -0.27091005 -0.07882157 -0.43765402
-0.002427627 0.0034211872 0.2768812 -0.7303956 0.20818737 -0.008648792 -0.025185533 0.10418853
-0.078559555 0.30365363 -0.0017560369 0.00136117 -0.33252403 0.7293784 0.25480774 0.012850895
-0.0155651 0.12734716 0.56503844 -0.0031870862 -0.00061282405 0.024366504 0.5423037 -0.019190932
0.21917716 0.0078045386 -0.005630073 0.04686353 -0.43621036 -0.077980295 -7.74347e-05 -0.0042185136
-0.048406307 0.7391315 0.2608991 0.008525412 0.0022294878 0.21262333 -0.51955575 0.12496533
0.007496948 -0.012964759 0.14633766 0.31885943 0.2600449 0.0009272562 0.0051359404 -0.36468083
-0.8018999 0.20124519 -0.0075433813 0.0062667434 0.10906301 -0.23529504 0.48403305 0.0061810035
0.0024545123 0.13953482 0.041938342 -0.3949234 -0.0010368323 -0.0023354832 0.015116799 -0.24998939
-0.706745 -0.012731198 0.0029364706 0.090051346 -0.59431404 -0.40488198 0.0017971506 -0.0024772289
-0.49641484 0.10678802 -0.2637342 0.0053520743 0.0019367447 -0.8662625 0.7997773 0.05139622
-0.0067798286 -0.019770121 0.37261614 -0.24622755 0.11921 0.008645334 0.012149798 -0.93533695
00000000: 3208 5cbf 5e98 7a3f 8192 5d3e 880f 74bc
00000010: a4bc 0cbb f219 d43d 7324 dfbd 0c72 553e
00000020: 8c85 523b 9bf4 233b aaf6 133e 7a99 df3e
00000030: 84f8 c9be db87 36bc 3a3e c43b 701c 22bf
00000040: 0b65 353e b266 e4be 515e 923a deb9 2aba
00000050: ffa6 943e 9e6f 0fbf 57e1 12bf b262 81bb
00000060: b7d3 0f3c 02fa 533e b7a1 a33e 2086 a73e
00000070: da24 173b 31f0 29bc cad0 043f 2b05 8e3e
00000080: 7b64 9abe 123a 8e3b c706 3c3b bf8b 88bf
00000090: ba8c f8be 4c87 e33d bec3 eb3c df83 01ba
000000a0: 6816 a43e 1811 f23e a706 c03e 66e1 293c
000000b0: 3c36 d3ba 1e1f 833e e5fa 51bf 2723 9c3e
000000c0: e660 3dbb 034b 03bd bc1c 2f3e ea85 ca3d
000000d0: 9056 06bf d96d 343b 87d4 a5bb 217e 8b3e
000000e0: 4c94 edbd 0bd6 2f3e ee1f 7238 8463 6739
000000f0: e25a 943e e021 fcba 8993 cdbe ce61 973b
00000100: bc17 693b 1751 bb3d 61b1 113e 4cdf f73e
00000110: a378 063c 198c bc39 8812 6c3e 4f9a 383d
00000120: 45c1 6e3e 0978 6c3b 64be cd3a be10 e5be
00000130: c586 fa3e 36dd e03d 29a3 cdbb 19d5 80bb
00000140: 2377 cabe 5911 2f3f 67c6 0abf 83eb 16bb
00000150: d2cc f0ba f709 97bf 6c21 33bc fb27 3a38
00000160: 6eff 053b b5d8 1ebc 8344 c23e de65 183f
00000170: f5ed 0c3e 03b7 673a fb36 e9bb e62f c8bd
00000180: 8fba 45bf 0a08 6fbe a1cb 9e3b 1a6d 88bb
00000190: 527b c0be 7055 613c af0b 0ebf d97a 1c3c
000001a0: 4863 773b ea75 653d a098 8f3e 7d3c 6fbf
000001b0: d0b6 b63b 5516 34bc dbc9 a5be d0a2 09bf
000001c0: b020 7a3e 43bd 8b3a ddd7 9939 4ca7 fa3b
000001d0: b187 0bbf b32e b7be cf38 ddbb c0b7 b0bb
000001e0: d623 33be c4a1 0abd 17e2 a83e 842f 36bb
000001f0: 21e8 8c3b 18c5 be3e 3aa9 0dbc 742d 51be
00000200: e7ba 193b bcda 113b 6df4 99be 9ba1 3abd
00000210: 6e41 943e 3d80 40bb b8d6 243b 60d1 fcbe
00000220: 1c7a a9be 4007 e23e 7152 333b 8fa5 f1b9
00000230: a4ef 6fbf 6351 bd3e bab0 9dbe db93 043c
00000240: aa0d 9bbb c022 8e3e 9190 a93d a177 203e
00000250: 255b df3a 6ba2 853b 69db 113e 2b11 fa3e
00000260: 7cc8 67bf 002f 27bc 28bd a8ba 0eec 363e
00000270: d7af c63e 27d2 5abf f9a3 053c 2c7b 3ebb
00000280: 36ea 52bf a6a5 a43e 7ef2 e6be 21ac 473b
00000290: f04b 023b b9b4 8abe 346d a1bd 3014 e0be
000002a0: d318 1fbb ff35 603b 5fc3 8d3e 35fb 3abf
000002b0: 122f 553e aab3 0dbc e451 cebc cc60 d53d
000002c0: d5e3 a0bd 7d78 9b3e d22a e6ba 4969 b23a
000002d0: 9740 aabe 8bb8 3a3f 2976 823e 8f8c 523c
000002e0: c304 7fbc 4b67 023e 5ca6 103f 6fde 50bb
000002f0: eda5 20ba 439c c73c 6ad4 0a3f 4d36 9dbc
00000300: fa6f 603e 37bd ff3b 7a7c b8bb f9f3 3f3d
00000310: f756 dfbe 22b4 9fbd 7064 a2b8 753b 8abb
00000320: b145 46bd b937 3d3f 9194 853e 2bae 0b3c
00000330: 991c 123b eeb9 593e 9b01 05bf d3ed ff3d
00000340: f5a8 f53b 246a 54bc 8ad9 153e 8b41 a33e
00000350: 9b24 853e 1c13 733a 644b a83b 72b7 babe
00000360: 5049 4dbf 3813 4e3e 782e f7bb 4159 cd3b
00000370: 6d5c df3d 2ff1 70be 2ed3 f73e 048a ca3b
00000380: e2db 203b 37e2 0e3e 8ac7 2b3d 6633 cabe
00000390: 52e6 87ba e80e 19bb 73ac 773c 38fd 7fbe
000003a0: 3eed 34bf 8496 50bc cd71 403b d76c b83d
000003b0: f724 18bf b14c cfbe 5e8e eb3a 0159 22bb
000003c0: 162a febe adb3 da3d 2b08 87be 7460 af3b
000003d0: 5eda fd3a 61c3 5dbf 35be 4c3f d884 523d
000003e0: 5329 debb f3f4 a1bc 8bc7 be3e 1323 7cbe
000003f0: 5f24 f43d 29a5 0d3c f20f 473c 3e72 6fbf

model.0.bias f4 [64]
0.10696807 0.071304016 -0.17439778 0.23175865 0.10957414 0.08800632 -0.16586776 -0.366664
-0.7278612 -0.5093646 -0.047969628 -0.040092286 -0.13759528 -0.023977248 -0.106375225 0.3298884
0.020721113 -0.15084508 -0.5366476 0.16954397 0.33095065 0.15151395 0.046553373 0.39018136
-0.07204206 -0.11155362 0.12694803 -0.09848828 -0.09143481 -0.02115057 -0.00850286 0.0550809
0.04395123 0.27211472 -0.44036883 0.023034606 -0.7289623 -0.48974442 -0.16691 0.3831515
-0.7234799 -0.23139031 -0.4204377 -0.1482849 -0.05663113 0.07916802 -0.26659292 -0.052603357
0.33972424 -0.14214575 -0.1279687 -0.3274293 -0.12603506 0.045262948 -0.29588374 -0.04394472
-0.2887821 0.12436312 -0.30708924 0.15502486 -0.17155148 -0.040265735 0.22706 0.19683763
00000000: 1312 db3d d707 923d 5595 32be 2452 6d3e
00000010: 6868 e03d a83c b43d 3dd9 29be 62bb bbbe
00000020: 1d55 3abf b865 02bf cd7b 44bd cf37 24bd
00000030: c7e5 0cbe ef6b c4bc 41db d9bd 22e7 a83e
00000040: 53bf a93c 2277 1abe bd61 09bf ef9c 2d3e
00000050: 5d72 a93e 7926 1b3e c0ae 3e3d dac5 c73e
00000060: ca8a 93bd 3976 e4bd aafe 013e 39b4 c9bd
00000070: 2c42 bbbd f643 adbc 944f 0bbc 839c 613d
00000080: 3406 343d 9f52 8b3e 0678 e1be 12b3 bc3c
00000090: 469d 3abf c8bf fabe 74ea 2abe 6f2c c43e
000000a0: fb35 39bf 95f1 6cbe 9c43 d7be ffd7 17be
000000b0: 0bf6 67bd d822 a23d de7e 88be 9e76 57bd
000000c0: 56f0 ad3e a88e 11be 3a0a 03be d0a4 a7be
000000d0: 560f 01be a465 393d 137e 97be 61ff 33bd
000000e0: 3fdb 93be 17b2 fe3d cd3a 9dbe d6be 1e3e
000000f0: 31ab 2fbe afed 24bd 6b82 683e ce8f 493e

model.3.weight f4 [64, 64]
0.101243146 0.29621732 0.110534996 -0.15899557 0.018905414 0.051377628 0.2872845 -1.0586475
0.13433681 -0.06835351 0.14929669 0.32868922 0.1348763 0.09464022 0.23014683 0.10000222
0.1600896 -0.34413874 -0.016341355 0.014921235 -0.23183249 -0.010511055 -0.17197876 0.021779453
0.2359178 0.21962437 0.083888635 -0.26736262 -0.10101129 0.07479365 0.11218778 0.04642913
-0.2057398 -0.23265468 -0.19342405 0.11163959 0.14960204 0.12282084 -0.0014153824 0.04541241
0.24313733 -0.22981851 0.08996019 -0.26028022 -0.007916757 0.15185647 -0.82677066 -0.34658715
-0.060449623 0.13190837 0.25415316 0.054313533 -1.4151311 -0.30772692 -1.1366427 0.6715766
-1.58717 0.20509468 0.011735088 0.013080203 0.16436997 0.3294954 0.13907671 0.033055387
0.014230373 -0.18691315 0.17094818 0.03091606 0.041914903 -0.18931128 0.107232906 0.06465026
-1.2068129 -0.0150501095 0.1651911 -0.21473502 0.15887755 -0.9059998 -2.0397918 0.00050160225
0.05061051 0.06188282 -0.046671525 0.0317504 -0.06524191 0.03599501 0.016750002 0.02138567
-0.75203925 0.08810534 -0.04649283 -0.0030949842 0.05521357 -0.57148576 0.060585666 0.08825895
0.04607026 -0.07950443 0.0020107268 -0.93111587 -0.07970415 0.063917376 -0.3445999 -0.001779282
-0.16460086 0.025136903 -1.9012519 0.049620457 -0.20506911 0.05973425 0.123156495 0.014897773
0.027092792 0.009241307 -0.007043103 0.00011144267 0.04699388 0.059888005 0.02288501 -0.058067594
0.045796767 0.03697619 0.03835679 -0.07398959 -3.5584564 -0.010092031 -0.036400568 -0.051070463
-1.3730487 0.07706429 -0.34412634 0.026562959 -0.018222101 -0.8645464 0.118434824 0.012775856
-0.21837115 0.09149016 0.113599874 0.11184198 0.24896194 -1.4591384 0.06392292 -0.535094
-0.13010809 0.04131692 -2.0552897 -0.028253607 0.05331285 0.041581996 -0.014336586 -0.006251698
-0.6670166 0.093783066 -0.38400248 0.15446517 0.007384499 0.0113796815 -0.005721606 -0.00883929
-0.025250252 0.03380358 0.10317118 -0.11922693 -0.6677135 -0.75478715 -0.031804863 0.025835702
-0.4751806 0.04642302 -0.2989073 -0.03126631 0.065244906 0.080232784 -0.01900038 -0.09033599
0.037662268 -3.3026068 0.07569338 -0.8718527 -0.0030996185 0.054645535 -0.0053961156 -0.017234454
-0.015244575 -0.11603792 0.14230952 -4.21629 -1.375252 0.023181086 -3.6717389 0.042182125
-0.25115564 0.12885869 -1.291279 -0.010504413 0.033169564 -2.537942 -0.8798294 0.038847305
-0.19781508 0.08663833 0.268731 0.19427674 0.41252667 -0.46829078 -1.1823019 -0.0822017
-0.04115709 0.06532081 -0.80005485 -0.03990418 0.063503705 0.07867493 0.028412519 0.012642697
0.1081687 0.3393203 0.0010716997 0.07330308 0.02000104 -0.7547501 0.0031209507 0.1567488
-0.019200552 0.07769593 0.12052711 0.006868636 -0.48992708 -2.488524 0.17833246 0.06417991
-0.41473696 0.07416558 -0.3282085 -0.03265897 0.011803052 0.22048873 0.08764378 -0.097794145
0.013117324 -0.34223896 0.17316478 -0.21056062 0.013271019 0.076882996 0.103871085 -0.016170174
0.040433843 -0.20941353 0.16201283 -1.9649105 -0.8154962 -0.64432997 -0.52324104 0.096801065
00000000: 9158 cf3d cca9 973e 2c60 e23d bccf 22be
00000010: 87df 9a3c 5971 523d f416 933e c381 87bf
00000020: 978f 093e edfc 8bbd 3be1 183e f449 a83e
00000030: 031d 0a3e bbd2 c13d 9cab 6b3e f7cd cc3d
00000040: 87ee 233e f432 b0be 4ede 85bc 3278 743c
00000050: 7f65 6dbe 8f36 2cbc 331b 30be d36a b23c
00000060: 7094 713e 36e5 603e cecd ab3d c1e3 88be
00000070: 02df cebd 6a2d 993d b5c2 e53d 792c 3e3d
00000080: 74ad 52be 073d 6ebe f410 46be 4ca3 e43d
00000090: 4731 193e 7e89 fb3d 5a84 b9ba 5d02 3a3d
000000a0: fef8 783e 8b55 6bbe 0c3d b83d 7343 85be
000000b0: 49b5 01bc 4380 1b3e 3ea7 53bf df73 b1be
000000c0: 069a 77bd fd12 073e 5d20 823e de77 5e3d
000000d0: 0423 b5bf 628e 9dbe 827d 91bf 72ec 2b3f
000000e0: 6328 cbbf 5704 523e 8744 403c 594e 563c
000000f0: 9a50 283e 9fb3 a83e 206a 0e3e 1665 073d
00000100: 8326 693c 2966 3fbe 0a0d 2f3e ad43 fd3c
00000110: f6ae 2b3d d1da 41be ed9c db3d 5b67 843d
00000120: d878 9abf bc94 76bc db27 293e 7fe3 5bbe
00000130: ccb0 223e 9aef 67bf f38b 02c0 f57d 033a
00000140: f74c 4f3d d778 7d3d a42a 3fbd b50c 023d
00000150: 8d9d 85bd 816f 133d 4d37 893c 0031 af3c
00000160: a585 40bf 9370 b43d 446f 3ebd 38d5 4abb
00000170: a027 623d e44c 12bf ad28 783d 1cc1 b43d
00000180: 2bb4 3c3d 38d3 a2bd 66c6 033b 9c5d 6ebf
00000190: ee3b a3bd 1de7 823d 666f b0be cc36 e9ba
000001a0: 218d 28be e8eb cd3c 395c f3bf d23e 4b3d
000001b0: a3fd 51be e7ab 743d 7939 fc3d ca15 743c
000001c0: b4f1 dd3c da68 173c d5c9 e6bb 54b6 e938
000001d0: a87c 403d 204d 753d 5879 bb3c 49d8 6dbd
000001e0: 6495 3b3d 5874 173d 021c 1d3d db87 97bd
000001f0: c0bd 63c0 0c59 25bc c318 15bd 432f 51bd
00000200: 0fc0 afbf e2d3 9d3d 5431 b0be 909a d93c
00000210: 8446 95bc ea52 5dbf f58d f23d d351 513c
00000220: b09c 5fbe 315f bb3d 0da7 e83d 680d e53d
00000230: e1ef 7e3e 0cc5 babf 05ea 823d ecfb 08bf
00000240: 0e3b 05be ee3b 293d de89 03c0 1c74 e7bc
00000250: 935e 5a3d e251 2a3d 00e4 6abc 0bdb ccbb
00000260: 9ac1 2abf 5611 c03d f99b c4be 1e2c 1e3e
00000270: abf9 f13b d871 3a3c 4f7c bbbb abd2 10bc
00000280: 9ed9 cebc 9f75 0a3d 694b d33d 402d f4bd
00000290: 46ef 2abf bb39 41bf d145 02bd 65a5 d33c
000002a0: df4a f3be 1126 3e3d 610a 99be 1a11 00bd
000002b0: 1f9f 853d 1651 a43d afa6 9bbc 1302 b9bd
000002c0: c043 1a3d e95d 53c0 2105 9b3d bd31 5fbf
000002d0: f822 4bbb ffd3 5f3d e6d1 b0bb 452f 8dbc
000002e0: 62c4 79bc 4aa5 edbd 96b9 113e d9eb 86c0
000002f0: 4208 b0bf 43e6 bd3c c5fd 6ac0 2ac7 2c3d
00000300: 7997 80be 88f3 033e a148 a5bf b41a 2cbc
00000310: cfdc 073d a46d 22c0 803c 61bf 5a1e 1f3d
00000320: 0990 4abe 706f b13d 1c97 893e 7bf0 463e
00000330: b236 d33e cfc3 efbe ab55 97bf 5d59 a8bd
00000340: 5694 28bd ebc6 853d 65d0 4cbf 9172 23bd
00000350: 3b0e 823d 5220 a13d 5fc1 e83c 5123 4f3c
00000360: 8d87 dd3d 64bb ad3e 4678 8c3a ed1f 963d
00000370: 39d9 a33c 4d37 41bf dd88 4c3b c282 203e
00000380: 7a4a 9dbc 0b1f 9f3d ebd6 f63d 4b12 e13b
00000390: b9d7 fabe fa43 1fc0 c99c 363e c270 833d
000003a0: 6758 d4be 20e4 973d f20a a8be 6ac5 05bd
000003b0: 9761 413c ccc7 613e 957e b33d 4c48 c8bd
000003c0: 0bea 563c f239 afbe 1c52 313e 349d 57be
000003d0: b06e 593c d574 9d3d 5dba d43d 5077 84bc
000003e0: f59d 253d 8070 56be b1e6 253e 3082 fbbf
000003f0: 5cc4 50bf cff2 24bf 20f3 05bf a33f c63d

model.3.bias f4 [64]
0.5287229 0.16470021 0.11219619 0.04929998 0.20481071 -0.44396025 0.96601474 0.33417934
0.3484495 0.17215018 0.9015644 0.47362572 0.78868604 0.2542084 0.18433484 0.10607995
0.23796272 0.2541767 0.38757274 0.16342594 -0.047791597 0.15024656 0.24800643 0.90213865
0.22621402 -0.10557282 0.20660356 0.17213297 0.21125413 0.047924448 0.40166765 0.3077948
0.35079193 0.08002611 0.042704206 0.7024044 0.29206848 0.29008776 1.0216607 -0.113698356
0.82149714 0.35481957 0.0826932 0.3544131 0.11417524 0.26131722 0.7072871 0.103722215
0.2596013 0.342726 0.57621366 0.45893005 0.67857474 -0.15406658 0.24517061 0.23412593
0.2973208 0.2848679 0.38696378 0.30460086 0.15738651 0.14461954 0.3215245 0.030692283
00000000: 625a 073f 2ca7 283e 1ec7 e53d c7ee 493d
00000010: e6b9 513e c24e e3be be4c 773f 8e19 ab3e
00000020: f967 b23e 2348 303e edcc 663f 127f f23e
00000030: 54e7 493f 9a27 823e 46c2 3c3e 7240 d93d
00000040: 80ac 733e 7323 823e ef6f c63e 2159 273e
00000050: 1fc1 43bd 3cda 193e 66f5 7d3e 8ff2 663f
00000060: a6a4 673e 9036 d8bd e28f 533e a043 303e
00000070: 0153 583e 6d4c 443d 62a7 cd3e 4897 9d3e
00000080: 009b b33e bbe4 a33d 9bea 2e3d c6d0 333f
00000090: 008a 953e 6286 943e c7c5 823f afda e8bd
000000a0: a34d 523f e9aa b53e 0d5b a93d a275 b53e
000000b0: b5d4 e93d 5fcb 853e c410 353f 506c d43d
000000c0: 76ea 843e c879 af3e bd82 133f e1f8 ea3e
000000d0: 13b7 2d3f a1c3 1dbe 010e 7b3e b5be 6f3e
000000e0: 6f3a 983e 35da 913e 1e20 c63e a5f4 9b3e
000000f0: ee29 213e 2517 143e dc9e a43e 626e fb3c

model.6.weight f4 [3, 64]
0.0105303265 -0.047055583 0.11748942 0.005340418 0.01605284 -0.032801576 0.034620073 0.02431069
-0.056352433 -0.066550866 0.046465505 0.040677678 0.04130645 0.01950454 -0.07642747 -0.19863315
-0.04136452 -0.040221814 -0.008325848 -0.06277829 -0.0118755745 -0.055845313 0.04279849 0.03786837
0.11212479 0.032160986 -0.035386086 -0.00013135474 -0.004653526 -0.026233504 0.011971325 -0.08055561
-0.051659983 -0.21213716 0.0049122423 0.046427153 -0.023972072 0.0011477163 0.073605895 -0.047977272
-0.021777634 -0.008802792 -0.12950002 0.038129207 -0.15806498 -0.07644281 0.015752574 0.0010306045
0.09646461 0.024543978 -0.03171218 -0.0059415274 0.027279427 0.008105877 0.07059019 -0.0746224
0.038595226 0.06407 0.04641472 0.004636831 -0.060306694 0.012056233 0.053060938 0.04290326
0.035037406 -0.05095895 -0.25802174 -0.1085863 0.075310804 -0.001784099 0.022546437 0.09005691
0.010852755 -0.09139246 -0.040010512 0.107921384 0.012278739 -0.057817623 -0.12832165 -0.060369972
-0.06993335 0.052978203 0.04054352 -0.025860712 0.043003466 -0.06182906 -0.06166907 -0.022322956
0.07757888 -0.010388783 -0.07284612 -0.08575473 0.078514 0.07982011 -0.06683786 0.040920027
0.18663493 0.058750506 -0.03826045 0.010127996 0.061384894 0.0375182 -0.020627448 0.16265418
0.023397 0.06932721 -0.18988821 -0.074614316 -0.063112564 0.021401608 -0.0039332528 -0.1484307
0.1441176 0.10736623 -0.016459176 0.020340942 -0.014290955 -1.1366527 -0.1465183 0.4095977
0.09170788 -0.11818187 -0.036659632 -0.03507059 -0.08798055 -0.10430087 0.21010454 0.049984936
0.012484927 -0.1235553 -0.12814349 -0.04767826 -0.029153017 -0.041753225 0.056645755 -0.006919717
0.06525998 -0.056743443 0.011666271 0.042875156 -0.005299999 -0.03586013 -0.11132196 -0.28392205
0.0023850645 0.03183326 0.017972576 -0.0033327315 -0.009976495 -0.0037978103 -0.03999501 -0.007430368
0.015043998 0.0020114074 0.036166407 -0.017541006 0.07147326 -0.039236985 -0.028364921 0.0613758
0.1802368 -0.18940994 -0.01938735 -0.005943108 0.030754348 0.03316248 0.023492092 -0.12220134
0.02637644 0.048910197 -0.12565683 0.010789339 -0.009123675 0.021326981 0.034903876 0.11201801
-0.045363273 0.094860636 0.06037276 0.00556703 -0.006939698 -0.5641705 0.07721614 -0.02481731
0.04862729 0.009725393 -0.02722281 -0.018102657 -0.12654622 -0.006779728 0.14034136 -0.131397
00000000: 6487 2c3c 5bbd 40bd 4b9e f03d acfe ae3b
00000010: 3f81 833c f25a 06bd c7cd 0d3d 3627 c73c
00000020: cfd1 66bd d24b 88bd 9d52 3e3d a39d 263d
00000030: f430 293d fcc7 9f3c 0186 9cbd 7d66 4bbe
00000040: d86d 29bd a1bf 24bd 2369 08bc e791 80bd
00000050: c591 42bc 0ebe 64bd 784d 2f3d dd1b 1b3d
00000060: afa1 e53d 3dbb 033d 00f1 10bd 45bc 09b9
00000070: 9b7c 98bb a5e7 d6bc 6023 443c 57fa a4bd
00000080: 6b99 53bd 7c3a 59be e0f6 a03b 662a 3e3d
00000090: 1461 c4bc f86e 963a b0be 963d d183 44bd
000000a0: 0267 b2bc 9639 10bc a79b 04be 5f2d 1c3d
000000b0: c9db 21be 0c8e 9cbd 8b0b 813c 5915 873a
000000c0: 3d8f c53d 7410 c93c a1e4 01bd 25b1 c2bb
000000d0: 1b79 df3c 83ce 043c 9791 903d a1d3 98bd
000000e0: 0716 1e3d 2237 833d 5d1d 3e3d 8ff0 973b
000000f0: 2704 77bd 8287 453c 6d56 593d 54bb 2f3d
00000100: 6283 0f3d 55ba 50bd 6d1b 84be 7e62 debd
00000110: 8d3c 9a3d 6ed8 e9ba 4eb3 b83c c26f b83d
00000120: c1cf 313c f82b bbbd 10e2 23bd e305 dd3d
00000130: c42c 493c 2cd2 6cbd c066 03be 8146 77bd
00000140: 3739 8fbd acff 583d f610 263d d8d9 d3bc
00000150: 6724 303d 7840 7dbd b598 7cbd a2de b6bc
00000160: ade1 9e3d b735 2abc 5930 95bd 2da0 afbd
00000170: f3cb a03d ba78 a33d 4ae2 88bd c29b 273d
00000180: 3a1d 3f3e 5fa4 703d fdb6 1cbd e5ef 253c
00000190: ba6e 7b3d afac 193d e5fa a8bc d18e 263e
000001a0: 11ab bf3c 6dfb 8d3d 0e72 42be 64cf 98bd
000001b0: 2941 81bd 6d52 af3c 84e2 80bb 38fe 17be
000001c0: 9093 133e d3e2 db3d 65d5 86bc 0ca2 a63c
000001d0: 9c24 6abc d67d 91bf e508 16be cab6 d13e
000001e0: 57d1 bb3d 5609 f2bd 6928 16bd 2ea6 0fbd
000001f0: 262f b4bd b29b d5bd a525 573e 01bd 4c3d
00000200: 948d 4c3c 900a fdbd 0c38 03be 474a 43bd
00000210: 4fd2 eebc 6e05 2bbd 6105 683d cbbe e2bb
00000220: 06a7 853d d06b 68bd e323 3f3c dc9d 2f3d
00000230: 9dab adbb 12e2 12bd c5fc e3bd 3b5e 91be
00000240: be4e 1c3b 9863 023d 393b 933c f569 5abb
00000250: 7474 23bc afe4 78bb cfd1 23bd 727a f3bb
00000260: 1a7b 763c d1d1 033b 3a23 143d 28b2 8fbc
00000270: 9360 923d f6b6 20bd 8d5d e8bc 3165 7b3d
00000280: ff8f 383e aef4 41be 38d2 9ebc 67be c2bb
00000290: 8bf0 fb3c 61d5 073d 7d72 c03c b244 fabd
000002a0: 6713 d83c 0f56 483d 2fac 00be c5c5 303c
000002b0: 777b 15bc ecb5 ae3c 5ef7 0e3d b369 e53d
000002c0: d7ce 39bd 4b46 c23d 6d49 773d a26b b63b
000002d0: 6866 e3bb 7a6d 10bf 7f23 9e3d ac4d cbbc
000002e0: 692d 473d 4157 1f3c 5f02 dfbc 064c 94bc
000002f0: 5595 01be 7b28 debb a5b5 0f3e ef8c 06be

model.6.bias f4 [3]
0.037958167 0.064791396 0.0028277063
00000000: 067a 1b3d 5ab1 843d 0a51 393b
