exported_models/neural_networks/raw_mlp/trained_models/model_epoch_20_batch_64_lr_0001_vs_30_hl_128_128_128_128/mlp_dynamics.pth (torch, 207061 bytes, 10 tensors)

model.0.weight f4 [128, 5]
00000000: fd5a 4bbe 26ad 023e e3f3 913e 2774 e83d
00000010: 7eed fa3d 3f05 173e 26b8 89be 0c2e 533d
00000020: 1369 aebc 8948 2ebb db0f e23c 6578 653e
00000030: 8590 d33e f648 94be 0281 1bbe f10d bdbe
00000040: 012c 603d c6af a03e f617 9bbe ac27 423e
00000050: 8ee0 483e 58a1 a63d 84a2 d0be a339 6bbd
00000060: 60f6 ac3e f525 573e 9412 563e 076a 24be
00000070: 1c5d 9dbd 00c2 60bc 741a 883d b503 0e3c
00000080: d4c2 dbbc 95e7 a8bd 01a6 993e f158 cbbd
00000090: d1be aa3c b6a1 09be 39ed 263e 773a 80be
000000a0: e29b 7fbe b479 8fbd 2a3c e5bc 7064 5cbd
000000b0: 2bad 3cbd 559c e3bd 32af b13c 2c81 6c3e
000000c0: f47f be3c 737c 12be 1ae6 51be 6131 5abe
000000d0: d49a 23be 876a 99be 0e7c d33d f466 e3bb
000000e0: 0f50 1c3e 74f9 3cbe 6d84 18bb a8fc 2c3e
000000f0: 1af2 34be 0ce4 8abe 23fc bf3e 549d 693e
00000100: 1eb4 8ebe 71de 6abc 44a5 1c3e 6fa5 b8be
00000110: 24f1 8b3e ff27 bb3c cc3d 413e ed8f 893e
00000120: 1d86 93be 2543 d8bd 5d64 d13a 971b c5bd
00000130: e3b8 7d3e 4145 563c abf3 41bd 4cdd b33d
00000140: d922 0a3c eaa0 a53e d61a db3e afbc 2c3d
00000150: 7875 0d3e daa7 74be 3b8d f1be 2c69 8e3e
00000160: 70c1 c43d 1320 77be 9f88 ba3e 8144 aa3e
00000170: 2367 a3bd ffa3 58be 0711 55be 07c9 dc3d
00000180: 5004 543e aba4 7d3c aff4 6c3e 181f 923d
00000190: f67e ce3e a28d c73e 5197 8fbe 0e3c 1abe
000001a0: 6d5f 28be d5b2 203e 9787 e3bd 9d0c 8d3d
000001b0: da70 65be 2377 a83b 74c6 84be 7183 0dbe
000001c0: e018 66bd 00f9 05be 04bd 503d d652 81be
000001d0: 135b 61be d42a 10bd ab40 73be 1a37 8bbe
000001e0: 8d2a ce3d 25be 873d 9b8d c6be 4e6d 2ebc
000001f0: d3fd 88be 1bc0 c63d 8e69 963e 5a96 2a3e
00000200: cd09 b5bd d5c8 cfbd 9051 bb3e 30b3 0c3e
00000210: 7f23 bfbe 8513 bf3d a6f8 26bd d0c2 fc3d
00000220: 66f8 68bb 3e6a 48be 80c0 c5bd 3c1c 8f3d
00000230: f204 333e c137 9ebe eec0 f83e 787a 8fbd
00000240: 14bb 3bbe af0b be3d 6aea b93e c48c 1c3d
00000250: 3619 bbbd d201 e7bd 2190 6c3e e0ea 0c3c
00000260: df20 98be 2f43 aebc 97af 2abe 766f a9be
00000270: 0b0b dfbd aa1a 04be 0ff5 c83d 6b7c 95bd
00000280: 58c8 ad3e 462e a8be d744 3e3e fd86 09be
00000290: 9ed0 acbc 07b1 9cbd 622b c13d 5eb1 ac3d
000002a0: eb5d d33d fafc 733e 8d37 4f3e d181 88be
000002b0: f8bc 8dbc a217 423d 51e4 e7bc 8f86 41be
000002c0: 1838 21be 1f10 4ebe a9af fa3c 267a b83d
000002d0: fda9 823d a71f 95bd 75bb 53bc 665d 373e
000002e0: 394c e53d 0f3b 96be 3dd4 61be 8f2a fcbd
000002f0: 2cd0 1bbe f6b0 093e e701 263d 2956 a13e
00000300: eac1 72be 33f0 b73d 0528 6e3d cde6 5f3d
00000310: e7b9 f33e f343 ae3d 780d 1dbe f611 413d
00000320: 6651 5f3e f018 d4bd fd4e 9dbe 2320 1a3d
00000330: d18b 51be b38a cc3d 558a 363d a84b 153e
00000340: 2bd6 973e 58a5 90be 1672 afbe df07 9dbe
00000350: 8829 7d3e cea7 343e d7e0 a73b add8 5e3e
00000360: d0df b03e 165e 23be 3fc8 5a3d 0682 7c3e
00000370: 48aa afbe baad 39be 0223 aa3e c7d5 e0bd
00000380: 79ae c8bc 8d93 883e 0912 1bbd 8b24 69be
00000390: e379 693e 12cf 11be bf70 1cbe bf98 bbbc
000003a0: 17d4 e03e 6763 e93c c5f8 a73e f8f6 843d
000003b0: a3dc a5bd e350 0ebe 1dd1 c1bc 5cd6 123e
000003c0: 5367 75be 28d4 583e 0a69 07be 3bc0 873d
000003d0: 5308 813e d4a3 12be a48f ec3c f8d9 313e
000003e0: d080 263d a697 e93d a39e 253e 3054 a3be
000003f0: 6298 8c3d 8692 18bd cc40 c33d fba0 633e
-0.19858928 0.12761363 0.28506383 0.11350279 0.12252329 0.14748095 -0.26898307 0.051557586
-0.021290338 -0.0026593527 0.027595451 0.22409208 0.41321197 -0.28961915 -0.15185931 -0.369247
0.054729465 0.31384104 -0.30291718 0.18960446 0.19616911 0.08136243 -0.4074899 -0.057428014
0.3378172 0.21010573 0.20905524 -0.16056071 -0.07683775 -0.013718128 0.066456705 0.008667876
-0.0268263 -0.08247296 0.30009463 -0.099290736 0.020842941 -0.13440594 0.16301431 -0.25044605
-0.24961808 -0.07005635 -0.02798279 -0.053806722 -0.046063583 -0.11113802 0.021689985 0.2309615
0.023254372 -0.14305286 -0.20497933 -0.21307899 -0.15977031 -0.29964086 0.10326396 -0.006939763
0.15264915 -0.18454534 -0.0023272291 0.16893256 -0.1767048 -0.2712711 0.37497053 0.22813922
-0.27871794 -0.014335261 0.15297419 -0.36063716 0.27332413 0.02284622 0.1887123 0.2686762
-0.28813258 -0.10559682 0.0015975345 -0.09624403 0.2477756 0.013078035 -0.04735152 0.087824434
0.00843116 0.3234933 0.42793912 0.04217213 0.13814342 -0.23892155 -0.47178063 0.27814615
0.09607208 -0.24133329 0.3643236 0.3325539 -0.07978656 -0.2115631 -0.20807277 0.107805304
0.2070477 0.015481154 0.23140214 0.07134837 0.40331239 0.38975245 -0.28045133 -0.15061972
-0.16442652 0.15693219 -0.11109846 0.068871714 -0.2240633 0.0051411553 -0.25932658 -0.13819672
-0.056176066 -0.13083267 0.05096151 -0.2525851 -0.22007398 -0.035197094 -0.23755138 -0.27190477
0.1006671 0.06628064 -0.3877991 -0.010646177 -0.26756153 0.0970461 0.29377407 0.16658917
-0.0883976 -0.101457275 0.36585665 0.1374023 -0.3733177 0.09329895 -0.040764473 0.12341845
-0.0035548448 -0.19571778 -0.09655857 0.06987807 0.17482355 -0.30901912 0.48584694 -0.07005781
-0.18333083 0.09279572 0.36311656 0.038220182 -0.09135668 -0.11279644 0.23101856 0.00860092
-0.2971258 -0.02127227 -0.16668545 -0.3309285 -0.10890778 -0.12900797 0.09812366 -0.072991215
0.33941913 -0.32847804 0.18580948 -0.134304 -0.02109557 -0.07650953 0.09432103 0.084322676
0.10320648 0.23826972 0.20236035 -0.26661542 -0.017302021 0.04738582 -0.028307112 -0.18898986
-0.15744054 -0.20123337 0.03060134 0.09007673 0.06380079 -0.07281428 -0.012923111 0.17906722
0.11196179 -0.29341933 -0.22053619 -0.12312805 -0.1521613 0.13446411 0.040529158 0.31511047
-0.23706785 0.08981361 0.058143634 0.05466347 0.4760277 0.08509054 -0.15337169 0.04713627
0.21808395 -0.10356319 -0.30724326 0.037628304 -0.20463492 0.09987392 0.044565517 0.14579642
0.29655585 -0.28251147 -0.34266728 -0.30670068 0.24722874 0.17642137 0.0051232385 0.21762343
0.34545755 -0.1595386 0.053413626 0.24658975 -0.34309602 -0.18132678 0.33229834 -0.10978275
-0.024497258 0.26675072 -0.037858997 -0.22767846 0.22800402 -0.14239147 -0.15277384 -0.022899983
0.43911812 0.028489782 0.32806984 0.06492418 -0.08098724 -0.13898043 -0.023659283 0.14339584
-0.23965196 0.21174681 -0.13223663 0.06628462 0.25201663 -0.14320308 0.028877087 0.17368305
0.04065019 0.11405878 0.16173796 -0.31900167 0.06865002 -0.03724911 0.095338434 0.22229378

model.0.bias f4 [128]
00000000: 2cc4 8d3e a3d2 abbd 6810 ca3e c695 18bf
00000010: a71a 943e 8f41 dcbe 4301 cb3d b7e1 0bbf
00000020: 02bb f9be 796e 6dbe b442 8abd 5a48 e8bc
00000030: 1ec9 b1be ecc5 cf3e bdfb a83d 4e5c f4bc
00000040: 0ccf aabe 5aca 5bbe fc49 79bd c67f 5a3e
00000050: 2ae2 83be cf28 8d3e ff50 843d 8b18 99bd
00000060: 852a 6dbe e742 a9be 0b59 51be fc44 30be
00000070: 7c20 dabd 04f6 c33d 17f8 bcbe fe5e 233d
00000080: 92db 41bc e56c eabe 7eab 023e 9933 3d3e
00000090: 0931 03be 8984 f53e 6634 ebbc b8e8 bd3e
000000a0: 19d6 1ebd 0f93 7e3e 4705 99bc 0720 86be
000000b0: 2c34 6f3e df9b dd3e b828 913e 2b37 513e
000000c0: 6653 2ebe fc3f 12bf da70 02bf 57e4 afbe
000000d0: 962a f43d 9fd4 943e 99e1 cabe 2d7e 9bbe
000000e0: c1d5 de3e 27d7 5a3e e887 02bf e69a a7be
000000f0: 0ec6 88be bfc9 803e e083 e93e 1a20 a73e
00000100: 35f5 31be 8b57 e03d 225d b03e 2045 a73d
00000110: 4af2 2d3d 56e7 993e 81ea b6be b4b9 c7be
00000120: 07bb b63e 5cc1 87be a7aa 0d3e c43b 013e
00000130: e6d1 b33e 6f8c 113e d3fe 6e3c 649b dd3d
00000140: 285f 26be 25cf e6bd dc8c 1dbe a5a8 063e
00000150: 767c d43e 33ad 21be 615e 893e cf3c 903e
00000160: 5149 75be 9a68 a0be 4ac4 ce3e e299 babe
00000170: dea1 86be a98d 1dbe 5408 afbe 3344 d1be
00000180: 6746 bc3d a7dc c6bd d973 b2be 62e1 c43c
00000190: 20ef 00be 8b13 90be da38 e1bd 13de 873d
000001a0: ccb5 a3be e220 75be 1aae 2ebe fd8e 003e
000001b0: fc51 8c3c 386f a33c abdf 8cbe 241d 1e3e
000001c0: f417 833e c782 b13e 2a5c b4be 02f0 e4be
000001d0: b814 9b3d cb03 9bbe 8fa0 67be a10d c3be
000001e0: e161 6abe 055a 9bbe e66a b9be f2be 90be
000001f0: f695 b93e 1d29 f6be 05ac 83bd f255 ba3c
0.2768873 -0.08389785 0.39465642 -0.59603536 0.28926584 -0.43018767 0.0991235 -0.5464129
-0.48775488 -0.23186673 -0.06751004 -0.028354812 -0.34723753 0.4058069 0.0825114 -0.02982917
-0.3336109 -0.2146391 -0.060861573 0.21337804 -0.25758487 0.27570197 0.06460761 -0.07475384
-0.23160751 -0.33058855 -0.20444123 -0.17213815 -0.10650727 0.09568408 -0.36908028 0.039885513
-0.011832135 -0.45786205 0.12760732 0.18476714 -0.12811674 0.4795268 -0.028711509 0.37091613
-0.0387784 0.24860786 -0.018679274 -0.2619631 0.23359746 0.43282983 0.28351378 0.20431201
-0.17024001 -0.5712888 -0.5095345 -0.34353897 0.11922185 0.29068467 -0.39625242 -0.30369702
0.43522456 0.21371137 -0.50988626 -0.32735366 -0.26713604 0.2515392 0.45608425 0.3264168
-0.17378695 0.109541975 0.34446055 0.081674814 0.042467393 0.30059308 -0.35725787 -0.39008868
0.35689566 -0.2651471 0.1383463 0.12620455 0.35121077 0.14213727 0.014587122 0.10820654
-0.16247237 -0.112699784 -0.15385765 0.1315027 0.41501206 -0.15788727 0.26829818 0.28171393
-0.23953749 -0.31329805 0.40384132 -0.36445528 -0.2629537 -0.1538607 -0.3418604 -0.40872344
0.09193116 -0.09710055 -0.3485401 0.024033252 -0.12591219 -0.2813991 -0.10997172 0.06634154
-0.31974638 -0.23938325 -0.17058602 0.12554546 0.017128937 0.019950494 -0.27514395 0.15440804
0.25604212 0.34670088 -0.35226566 -0.4471436 0.07572311 -0.3027633 -0.22619842 -0.38096336
-0.228889 -0.30342117 -0.3621437 -0.2827068 0.36247224 -0.48078242 -0.064292945 0.02274606

model.2.weight f4 [128, 128]
00000000: 55f5 2d3d 1072 57bc d38b 88bd 0abc 5dbd
00000010: c8df d0bc 2d13 753c a964 d13c 5491 6b3d
00000020: be16 9d3d 6457 363d bd70 cfbc 728a d9bd
00000030: be66 98bc 70ed 24bd b040 8cbd 2a8a d9bc
00000040: c0bc 2fbd efeb a9bc f196 a33d 666c 4c3c
00000050: eddb a4bc be35 383d 810d 903d 3775 eb3c
00000060: cab7 13bd 7211 ce3c 3ed0 3a3d 7de7 a43a
00000070: b314 febd 3968 dd3d d0c5 0b3d 060e 963d
00000080: 47f5 9a3d 214e bb3d e5eb 313d c739 653d
00000090: 81be 7abd 89cf acbd 5e93 4b3d 3f24 35bd
000000a0: 1916 f33c 46d9 4a3d 8478 813c bcc1 493c
000000b0: 6998 463c 5abd 683c b865 033d e86f 663d
000000c0: f882 f1bc 9e94 b53c 5934 2e3e 71dc 2cbd
000000d0: 7985 4a3d 5a20 dd3c f425 9c3d 6493 5d3d
000000e0: a5c5 b7bd 1a06 aaba f965 f8bd 9698 ad3d
000000f0: cc69 a73d 443a 8ebc 8d36 b43d 5bdd 603c
00000100: 8851 b93d 6e59 53bd 3edd e8bb 873c 8fbd
00000110: 8992 5c3d 6a53 99bd e810 893d 7874 663d
00000120: 9fd7 133d c1a2 e03c 1f4b 4bbd 1a90 e03c
00000130: 26d6 963d 74b7 3b3d 5dea 8c3d 9027 09bd
00000140: 6d6b 89bd 6b0d 13bd e07d f7bc 8233 61bb
00000150: ab79 c0bc 83f7 9fbd 62c8 09bd eeb2 77bd
00000160: d879 29bd f5c5 ddbc 0cab 1ebd 36d2 943d
00000170: 342e 213d f90e 50bd a542 aa3c b417 bf3c
00000180: c8e1 f0bb e59c ca3c a057 ce3d 85d2 2f3d
00000190: 4823 8a3d aa50 2d3c 583c 6c3d 031e dd3d
000001a0: 9250 0abd 84bd 99bd abfa 4ebd 26cb 843c
000001b0: fe6b a0bd e15e 5cbd a6e5 9b3d 23d7 823d
000001c0: 8a45 4c3c 5b57 1ebd 36b9 11bd 9584 f73c
000001d0: 3672 0fbd d9d4 86bd 4bfa a23c d8cd 62bd
000001e0: caff 8abd 4ea6 18bd af9a bcbd 5c20 9abd
000001f0: f252 afbc dc56 c1bd 8b37 583d 4179 4fbb
00000200: 1d76 15be 3555 b43c 9fbf 3cbd 7734 2a3d
00000210: 4039 533d 9acb 833d ea34 5abd 5e5f 00bd
00000220: 6235 cabc 12f9 de3d 65c2 593d e229 573c
00000230: 5260 993d 9828 303d ecb4 c43d 4332 023c
00000240: c2cc b2bd d1f3 3bbd ecfc 753c e2b4 02bd
00000250: 2820 e9bc b374 f23c b2c4 563d cbd1 1d3d
00000260: 669c 4f3d d3e6 f83c c89b a13d a568 07ba
00000270: 21f7 ea3d 4e63 923a 18fc fa3c c5d1 153d
00000280: 6ad0 4d3d 02c8 d0bc 0b65 fa3b 95ca 543c
00000290: 4cbf 363d 3184 4bbd 943c 973d f061 17bd
000002a0: 46c7 283c 6d6f b93d 2fc3 9f3c c895 fc3d
000002b0: ec26 bbbc ea58 f83d cdfc 413d 4563 553d
000002c0: 2039 c3bc f315 b4bd 6740 bcbd 5423 423d
000002d0: 0a28 7c3d 598b 5d3d 6013 293c dbf0 1d3d
000002e0: e128 01be 693c 383d 6c42 723c d1cd c63d
000002f0: c0be 813d 70ca 443d 89ca 133e faa5 a93d
00000300: f4ff bcbb 1531 ce3d dc02 be3d a508 2f3c
00000310: 6289 e5bc cafd 093d 9bef 0e3d 8ee5 723d
00000320: b5f7 1ebe f8d9 b73d 2ffe a23d 815a 19bd
00000330: c3ca 5b3c b5b4 fa3c 906d 603d 799c ad3d
00000340: c81a 8f3d 2ec9 dc3d 6346 1b3d f34b 88bd
00000350: 53b7 81bd 5834 2f3d 3810 20bd c01b a93d
00000360: 4119 e3bb 358e cebd dfe9 0b3d 66de 103e
00000370: 3c6a cebc 38b8 183e 602f 5f3d a347 883d
00000380: 6428 6abc e811 633d d4ca a73d b364 e43c
00000390: 1c0e a2bc 3bf0 143d ef05 b33c 7260 61bc
000003a0: f6ba 353d 7c66 ce3c 3f24 613d 3c23 563c
000003b0: 9f1f ae3d 39d6 3a3c 5d82 ec3d 4550 1d3d
000003c0: 39b6 2abd 7573 1fbd 2fda b6bd 5a46 3a3d
000003d0: e481 e3bd 7342 943d 5e28 963d 8762 cebc
000003e0: acae b93c ffbb 88bc 45ec 8cbc 7469 723d
000003f0: 7437 723a 3d84 14bd 5027 27bd 4afe 873d
0.042470295 -0.013149753 -0.06667294 -0.054134406 -0.025497332 0.014958185 0.025560694 0.057511643
0.07670353 0.044516936 -0.025322312 -0.106221095 -0.018603679 -0.0402655 -0.06848276 -0.02655514
-0.042904615 -0.020742385 0.07987774 0.012477016 -0.0201244 0.044973128 0.07033826 0.028742416
-0.036063947 0.025154803 0.04560875 0.0012581196 -0.12406292 0.108108945 0.034124196 0.073268935
0.07566314 0.09145761 0.043437857 0.055963304 -0.061216835 -0.08438022 0.049701087 -0.04422402
0.029673623 0.049523614 0.015804537 0.012314256 0.012121298 0.014205301 0.03207943 0.056259066
-0.029481396 0.022165593 0.17012157 -0.042202417 0.049443696 0.026992965 0.076244265 0.05409564
-0.089732446 -0.0012971789 -0.12128825 0.08476369 0.08174476 -0.017361768 0.08799467 0.01372465
0.09048754 -0.05159896 -0.0071064522 -0.069939665 0.053850684 -0.07486613 0.06692678 0.056263417
0.036094304 0.027421357 -0.049632188 0.027412463 0.07365064 0.04582925 0.06880639 -0.033484995
-0.06709943 -0.03590147 -0.030211389 -0.0034362976 -0.023495516 -0.07810881 -0.033638366 -0.060473375
-0.041375965 -0.027071932 -0.03873734 0.07266657 0.039350703 -0.05079553 0.020783732 0.023326732
-0.007351134 0.024733016 0.10075307 0.042925376 0.067450106 0.010578314 0.057674736 0.1079674
-0.033768244 -0.0750685 -0.050532024 0.01621015 -0.07833098 -0.05380142 0.07612161 0.0638869
0.012467751 -0.038657527 -0.03557702 0.030214587 -0.03502103 -0.06583566 0.01989474 -0.05537209
-0.06787069 -0.037267976 -0.09209191 -0.07525703 -0.021401856 -0.09440395 0.052787345 -0.0031657966
-0.14595838 0.022013286 -0.04608118 0.04155394 0.05156827 0.06435318 -0.05327312 -0.03134095
-0.024683658 0.1088735 0.053163905 0.013132544 0.07489075 0.043007463 0.096048206 0.007946554
-0.08730461 -0.04588682 0.015013915 -0.031910785 -0.028457716 0.029596662 0.052433677 0.038530152
0.050686263 0.030383503 0.07891041 -0.00051654346 0.11472917 0.0011168511 0.030637786 0.036577005
0.050247587 -0.025485996 0.00764144 0.012987752 0.04461603 -0.049686614 0.07384601 -0.036958635
0.010301417 0.09054456 0.01950225 0.12333256 -0.022845708 0.12126334 0.04736023 0.052096624
-0.02383095 -0.08793249 -0.09191971 0.047396973 0.06156162 0.05408797 0.010319561 0.038559776
-0.1261325 0.044979487 0.014786344 0.09707225 0.06335211 0.048044622 0.1443273 0.08283611
-0.0057678167 0.100679554 0.09277889 0.010683213 -0.02801961 0.033689298 0.034896474 0.05930095
-0.1552418 0.08977121 0.07958638 -0.037439827 0.013415041 0.030603746 0.054791987 0.084771104
0.0698753 0.107805595 0.037908923 -0.06655111 -0.063337944 0.04277453 -0.039077967 0.08257246
-0.0069305007 -0.100857176 0.034158584 0.14147338 -0.02519714 0.14914024 0.05448854 0.066542886
-0.014291856 0.055437 0.08192983 0.027880048 -0.019782118 0.036361914 0.021853415 -0.0137559045
0.044367753 0.025195353 0.054966208 0.013069924 0.08502125 0.011403614 0.11548302 0.03840663
-0.041677687 -0.038928468 -0.08928334 0.04547725 -0.11108759 0.07239237 0.07331918 -0.025193466
0.022666298 -0.016691206 -0.017202506 0.0591826 0.00092398305 -0.036258925 -0.040808976 0.06640299

model.2.bias f4 [128]
00000000: fc9b c7bd 4b7b 6fbc c390 b43d 2160 2c3e
00000010: eca1 2dbc e074 babd f47b 8bbd 261e c03c
00000020: 9307 ad3d fc88 9b3d 55ed aabd f6d6 023c
00000030: cd90 8bbc 36fe 70bd 70bb 8d3d 7e1a 3bbd
00000040: fd31 63bc 6d1f 763b a3f1 d33c 3113 bbbd
00000050: 927e 873d e74a 05bd 09f5 833d fd5a 113c
00000060: e9ff d6bc 7a67 4e3c ab84 30bc 9d21 00bd
00000070: 98f3 bcbc c19a c2bd 38f8 26bd a08d adbd
00000080: f3fe 8fbd dd7c 7f3d 8065 a03d 7463 ec3d
00000090: 1ea0 99bd c316 53bd b912 fcbd f39d 20bc
000000a0: 14c8 5e3b a81f 33bd 9505 55bd 8585 4f3d
000000b0: f894 cb3b 08c8 183c 4a6a 46bd e3a4 ae3d
000000c0: fcff 07bd 13b5 5cbd 65a0 9bbd 0f89 883d
000000d0: 0e1b a43c 1f4c 2abd adc9 11bd d325 943d
000000e0: 422b a4bc 37c6 493c a85d 8f3d 2bf1 a7bd
000000f0: 6dfe 74bd c016 293e 9654 e33d 0fd8 87bc
00000100: 5f2d 453a bbce 13bd d4e5 0cbd b67b 9ebd
00000110: 9f95 4c3a 1465 1a3d 3ea6 983d b651 f4bc
00000120: 5cf3 4a3d eba4 873d 70db aebb d76f 293c
00000130: 9688 8a3d db92 cb3b 9fce f63c 3473 c23d
00000140: 3885 1d3b 8863 a3bd 611c a5bd 5ac8 ce3d
00000150: 5a91 2a3d 24bb 143c 60ae c63c b539 69bd
00000160: 78d2 28bd 3d26 433d a108 103c e778 603d
00000170: 1e7a 193b 5204 ad3c d2ef 0e3d c2ff 98bd
00000180: 817b 623b a9f1 43bd 8bdf 67bd e383 e4bc
00000190: f5a1 49bd 5966 eb3d bad7 393b dcc8 5ebd
000001a0: cce8 423d 1be6 773d 8491 18bd dd75 9bbd
000001b0: 4418 813d 4f90 a4bd 27b4 033c c9e6 24bd
000001c0: ffb6 81bd d27f 0a3b 7c26 613d cf35 6e3d
000001d0: cd0b babd 9f0b 90bd 993f 243c d2e1 fabd
000001e0: 6f17 d93d 8459 3a3d 1084 f63d 3414 7c3b
000001f0: 474b c439 30a2 243c 3c67 8f3b 0baa 1ebd
-0.097465485 -0.014616798 0.088166736 0.16833545 -0.010597687 -0.091043234 -0.068107516 0.023451876
0.0844871 0.07594487 -0.08346049 0.007985821 -0.01703682 -0.058836184 0.069205165 -0.04567956
-0.013866899 0.0037555352 0.025872057 -0.0913452 0.06615938 -0.032542136 0.06443221 0.008871791
-0.026245074 0.012597913 -0.010773818 -0.031282056 -0.023065373 -0.09502173 -0.040764064 -0.084742785
-0.070310496 0.06237494 0.078318596 0.11542407 -0.07501243 -0.05153538 -0.123082586 -0.009803283
0.0033993768 -0.04373136 -0.052007277 0.050664444 0.006212827 0.009325035 -0.04844121 0.085275434
-0.03320311 -0.053883623 -0.07598952 0.06666767 0.020032432 -0.0415765 -0.035592724 0.07233777
-0.020040158 0.0123153245 0.070002854 -0.08200296 -0.05981295 0.16512585 0.11100118 -0.016582517
0.00075217144 -0.036085825 -0.03439887 -0.0773844 0.00078042777 0.03769405 0.07453583 -0.029824119
0.04954849 0.066232525 -0.0053362176 0.010341606 0.06764333 0.006212575 0.030127821 0.094946295
0.0024035703 -0.079779685 -0.080620535 0.10096808 0.041642524 0.009077821 0.02425307 -0.0569398
-0.041216344 0.04764389 0.00879112 0.0548028 0.0023418735 0.021120224 0.03489668 -0.07470657
0.0034558477 -0.047837887 -0.05660967 -0.02789492 -0.04922672 0.11494131 0.0028357343 -0.054390773
0.047585294 0.06052218 -0.03724815 -0.0759084 0.063034564 -0.08035337 0.008038557 -0.040259156
-0.06333732 0.0021133316 0.054968342 0.058156785 -0.09084282 -0.070334665 0.0100249285 -0.12250103
0.10600173 0.045495525 0.12036908 0.003846419 0.0003744012 0.010048434 0.00437632 -0.038736384

model.4.weight f4 [128, 128]
00000000: 706f cebc 642c c0bd 89bc 1e3d de3c 703c
00000010: 259d 72bd 7973 943d 9739 c93c 2b92 e53c
00000020: 8fbf 18bd 47a3 6fbb 3008 233d 34ac acbd
00000030: 44e9 07be 3ce5 a43d 2104 4fbc 9f00 87bc
00000040: f349 58bd 2a05 a93b 3789 9e3d c721 b33d
00000050: 563e f73c 11e7 63bd 44d5 593d 0a8a 9abd
00000060: a58f fc3c bea5 04bd eeac 00bd 346c a13d
00000070: 2a51 b6bd 042f 9fbd 76ec b63d 7ad6 edbc
00000080: 1b6a 9f3d 449b 1cbd 196b 75bd c840 06bd
00000090: 88bb 8d3b b768 8abb 1b40 5e3d b7af b73c
000000a0: 05a3 0abc d449 b3bd 9cf3 893d f212 47bd
000000b0: 71be 253d 7d58 ccbc 4569 75bc 0e4a 693d
000000c0: 96f0 8fbb 0142 1f3c 33a4 0d3c 1f2c 6e3d
000000d0: 2b0f cabd 9c97 bfbd 3e12 0a3d 9164 623d
000000e0: 24b8 8f3d 3c1e 44bd 4fdc 2f3d 6e53 513d
000000f0: 5e11 193d f461 ffbd c8e8 bebb 9dcf 83bc
00000100: a1f5 85bc 9735 a23d d766 5ebd 6d31 8b3d
00000110: 5b99 2e3d c706 f93c b31f 8b3d 8382 a2bd
00000120: 1b24 eabb 8f1e 74bd 779b 863c 9ab1 9a3d
00000130: 8587 dd3c 909c c53c 5590 7dbd a41a d13c
00000140: 00d9 a6bd 76e7 8ebd 8e95 afbd 4b18 033d
00000150: 68f7 9abd edb0 febc f359 773d b0dc 943d
00000160: 8397 903d ee99 9539 2338 ef3d 35ff ccbd
00000170: 4ba7 6ebd 222d 733d e8fd 8ebd 8989 813d
00000180: b970 ab3d 4e67 7abd 7139 f03b f8b1 7cbd
00000190: a888 b43b 4df1 dfbc 6c77 153d 052d 453d
000001a0: c5f8 0a3d f1d5 42bc fbfa 0f3d d48e b73c
000001b0: 7e4e 9c3d e8cc adbd 3433 95bd 1eaa a23d
000001c0: d73b de3b be53 8ebc 7384 833d ab59 b4bd
000001d0: faa8 16bd ae32 21bc 38cf d4bc 5793 6439
000001e0: bca3 b1bc d931 7dbb 5f2b a23d a9b9 503d
000001f0: 168c 6ebd 2fa0 953c 3b59 f23a e10d 6c3d
00000200: 3629 b43c bc1e 29bd 385d fa3b 3244 3b3d
00000210: 7e5d 1a3c 7dce 943d 0463 7d3d 058a 60bc
00000220: ce59 633d 35f4 d13c af36 753c 79fe 02bc
00000230: 4177 55bd 7b71 b33c 1807 2c3c bec2 8f3d
00000240: 6b63 263d 3b12 62bc 9cb9 5ebd 19b1 b13d
00000250: 6c26 6d3d 3b79 b4bc 7a11 843d fd55 973d
00000260: 3dee 2fba 0bfd 05bc 6fe1 a8bd 8752 3cbd
00000270: e285 37bb 7c26 923d e79a 753c e8ff e1bc
00000280: a456 293d cfa0 823c 26ca 9ebd 7b2f c43c
00000290: 89d6 edbb 9b4c a03d 2239 c43c f1ac ea3b
000002a0: 7b10 8bbc 1539 9abd 851f 713d dd4a 49bd
000002b0: d51c e33c 5239 8a3d a085 9f3c 2dac 793d
000002c0: 36df 6a3d 8efc 78bb 18fd 8b3d 6971 b8bd
000002d0: ebab 313d 47cd 293d 6430 8bbd 930c 94bc
000002e0: a6e8 9cbd 24c2 56bd f292 94bd 01c1 8a3d
000002f0: 5277 4f3c ef2f 88bd 4e3d a13d 5926 363a
00000300: fe99 23bd 4333 0dbd 3fb8 e73c 2876 633d
00000310: 50c2 493b e32d 34bc aba6 d43c eb2d 15bd
00000320: 4a54 84bd 781f 9bbb e7f4 94bd cbda 7d3d
00000330: 3e30 77bb e2ff 503c 2ba2 80bc 3e9d fdba
00000340: 626e 193d 915d 62bd 848e 80bd 9081 2dbd
00000350: b885 8a3d 2e27 b8bc f492 473d 79c2 79bc
00000360: 8721 1bbd 0c71 823a a5b4 97bd e57a 7ebd
00000370: 208e 13bd 9ef2 2f3c 55e6 42bc d3c3 9ebd
00000380: 8250 47bc 654a 6f3c a363 a83b 7f3e 143d
00000390: a3c9 ae3d 5204 9fbd 4233 b6bd 04fa d7bb
000003a0: 0e70 48bd bd08 9bbc 2da2 11bd 7c4e 4fbb
000003b0: 2271 0ebd f910 87bb dc35 95bc 1534 9cbd
000003c0: 21e4 dabb 1f76 9d3d 6aef 3dbd 8a88 03bd
000003d0: f893 b83b dfea 15bd da77 70bc b0ab 9f3d
000003e0: 1026 85bd 490e 13bd 584c a03d 8543 6ebd
000003f0: 13d3 593d cfa1 c638 64a9 12bd 7e95 cebb
-0.025199622 -0.09383467 0.03875402 0.014662949 -0.059231896 0.07248587 0.024563594 0.0280238
-0.03729206 -0.0036565827 0.03980273 -0.08431283 -0.13272578 0.080515355 -0.012635262 -0.016479788
-0.0528049 0.0051580863 0.077410154 0.08746677 0.030181091 -0.055640284 0.0531819 -0.0754586
0.030830214 -0.032384627 -0.03141492 0.07881966 -0.089021996 -0.077726394 0.0893182 -0.029032934
0.0778391 -0.03823401 -0.05991659 -0.032776624 0.004325334 -0.0042239088 0.054260354 0.022422655
-0.008461718 -0.08754316 0.06735918 -0.048602052 0.040464822 -0.024944538 -0.0149787115 0.05695539
-0.0043926938 0.009720326 0.008645105 0.058147546 -0.09866174 -0.09355089 0.033708803 0.05527169
0.07017544 -0.047880396 0.042934712 0.051104955 0.03737008 -0.12469855 -0.0058260895 -0.016090209
-0.016352477 0.07920378 -0.054297294 0.067965366 0.04262672 0.03039874 0.067931555 -0.079350494
-0.0071454174 -0.059599455 0.016431553 0.07553406 0.02704216 0.024122506 -0.061905224 0.025525399
-0.08146858 -0.069777414 -0.08573447 0.03200559 -0.0756672 -0.031090224 0.060388517 0.07268655
0.070601486 0.0002853418 0.11680629 -0.100096144 -0.05826501 0.059369214 -0.069820225 0.06325061
0.083711095 -0.061133675 0.0073310663 -0.06169316 0.0055094548 -0.02733674 0.036490843 0.048138637
0.03392865 -0.011891828 0.035151463 0.022406973 0.07632159 -0.084863484 -0.07285157 0.079426035
0.006782036 -0.017373916 0.06421747 -0.08806165 -0.036782242 -0.009838743 -0.025977716 0.00021798663
-0.02168452 -0.0038634448 0.07918429 0.05095831 -0.058239065 0.018264858 0.0018489728 0.057630423
0.021992307 -0.041289076 0.007640507 0.045719333 0.009421704 0.07265947 0.061862007 -0.013704781
0.055505566 0.025629142 0.014966651 -0.007995241 -0.052115683 0.021904698 0.010499738 0.07019566
0.040622156 -0.013798292 -0.05437623 0.08676357 0.05789797 -0.022030463 0.06448646 0.07389448
-0.00067112205 -0.008178006 -0.08246123 -0.04597714 -0.0028003384 0.071362466 0.014990545 -0.027587846
0.041342393 0.01594582 -0.077534005 0.023948422 -0.0072582406 0.07827111 0.023953024 0.0071617295
-0.016975632 -0.07530419 0.05886795 -0.04914366 0.02772371 0.06749214 0.019472897 0.060955215
0.057341777 -0.0037992331 0.06835383 -0.09006006 0.043376844 0.041455533 -0.06796339 -0.018072402
-0.07661562 -0.05243124 -0.0725459 0.06775094 0.0126627255 -0.066497676 0.07873021 0.0006948463
-0.03994178 -0.034472715 0.028286098 0.055532604 0.0030785985 -0.010997268 0.02595838 -0.036420744
-0.06461389 -0.004733976 -0.07273274 0.061976235 -0.0037717964 0.01275632 -0.015702328 -0.001934923
0.037458785 -0.055265013 -0.06277183 -0.04235989 0.06763786 -0.02247962 0.04872413 -0.01524412
-0.03787377 0.0009951903 -0.07407502 -0.06212892 -0.036024213 0.010738997 -0.011895736 -0.07752194
-0.012165191 0.014605139 0.0051388307 0.036192413 0.08534553 -0.07764496 -0.088964954 -0.0065910835
-0.04893499 -0.018925065 -0.035555054 -0.0031632474 -0.03477586 -0.0041218963 -0.018214159 -0.07627121
-0.006680027 0.076885454 -0.0463709 -0.032112636 0.0056328736 -0.036600944 -0.014677012 0.07796419
-0.065014005 -0.035902295 0.078270614 -0.05816986 0.05317981 9.471515e-05 -0.035806075 -0.006304442

model.4.bias f4 [128]
00000000: 5168 a23d aada 9dbd 8567 8fbc ea4c bbbd
00000010: 8410 cebd a38d 3d3d 75b3 b13d 756a ed3d
00000020: e424 543d 220e 0a3e c319 313d 37f1 983d
00000030: cdeb 9cbc 3c0e a83d f17a 7c3d 1e84 9fbd
00000040: c8a5 933b 61bf 82bd 4d2f 89bd faf4 da3d
00000050: 4465 c53c acb5 8e3d 64fb 22bd b429 78bd
00000060: 9885 233a d839 55bd 896c f9bc 3d93 ea3c
00000070: 1c22 d03b 6d4a f1bc 8a0a b5bd 11d5 2ebd
00000080: 3a0c d8bd 039a ca3d 2e0f c3bd 8a6a 9ebc
00000090: 4c63 7bbd c798 d9bd 42c9 b7bc fe6c 2abd
000000a0: 2008 863d fa81 f43c b572 8e3b e452 66bd
000000b0: 54a1 c83c a8d8 363d 1240 42bd fe68 8a3d
000000c0: ab66 8abd a110 f2bd 3be4 7e3d 2d93 023e
000000d0: 2a03 e73c 175c 933d 4390 a1bd 60a7 983c
000000e0: 5217 62bd 1168 023e 0120 19bd 5620 9d3c
000000f0: d052 a2bc 87e7 693c 9b87 b4bd 9753 793b
00000100: 2fcb 82bd 6e5a 5c3a eddd 663c 0dc6 ab3d
00000110: 5fb9 153d 586c 8abd 333a 723c 934f 7e3c
00000120: 6e40 423d e280 ea3b 793d 86bd 1ded 33bd
00000130: 76b9 32bd cde4 4bbd bed5 d7bc 8c3f 0cbd
00000140: c761 69bd d905 e33c f127 ce3d e6e5 8f3d
00000150: 0df8 bdbc 3131 a83d 7939 493d 1b35 933d
00000160: 4641 8e3c 1e0a cbbc 084c 9a3d 4eb7 a73d
00000170: 63a4 7c3d 01e3 0f3a 5065 94bd 6e9c 3fbc
00000180: dbdb 19bd dc83 143d 77f2 ad3d cba9 c0bc
00000190: 0559 e0ba 5677 3cbd a205 9cbd dc9e cb3c
000001a0: 654f 833d 8970 26bd 4119 cf3c b022 423c
000001b0: e40d 983d 0c73 a23d 23c4 ba3d 437f 093d
000001c0: 8e5d 58bd 9b07 84bd d9c7 8dbc 10e2 b8bc
000001d0: 233c 51bd a634 9dbc e6c6 3c3d e973 373d
000001e0: ce8e 87bc 3c72 f9bc bdb6 653d 4cc8 003d
000001f0: f916 da3d 28c8 9abd 4b8e 133d 3360 3c3d
0.07930053 -0.077077225 -0.017505417 -0.091455296 -0.10061744 0.046277653 0.08676807 0.11592571
0.051792994 0.13481954 0.04323746 0.07467883 -0.019155407 0.0820584 0.061640684 -0.07788871
0.0045058466 -0.06384159 -0.06698475 0.10691257 0.024096139 0.06968245 -0.039790526 -0.060586646
0.00062378636 -0.052057117 -0.030447261 0.028634662 0.0063517224 -0.029454434 -0.08839901 -0.042683665
-0.10549207 0.09892657 -0.0952438 -0.019337911 -0.061373994 -0.10624843 -0.022434834 -0.04160785
0.065445185 0.029847134 0.0043471702 -0.056231394 0.02449099 0.044640213 -0.047424383 0.06758307
-0.067578636 -0.11819578 0.062229376 0.12751456 0.02819975 0.07195299 -0.07888844 0.018634498
-0.05519802 0.1273501 -0.037384037 0.019180458 -0.019814879 0.014276392 -0.08814927 0.0038044208
-0.063864104 0.0008405809 0.014090997 0.083873846 0.036553737 -0.06758946 0.014784384 0.015521902
0.047424726 0.0071564773 -0.06554694 -0.0439273 -0.0436339 -0.04977875 -0.026347037 -0.03424029
-0.056978013 0.02771275 0.10066212 0.070262715 -0.023189569 0.082125075 0.049127076 0.071878634
0.01736511 -0.024785098 0.07534033 0.081892595 0.06168021 0.00054888433 -0.07245886 -0.011695011
-0.037563186 0.036258563 0.08493512 -0.023518464 -0.0017116374 -0.046012245 -0.07618262 0.024856023
0.06411628 -0.040634666 0.025280597 0.01184909 0.074245244 0.079321 0.09119441 0.03356863
-0.052823596 -0.06446763 -0.017307209 -0.022568733 -0.05108274 -0.019190144 0.04608812 0.044788275
-0.016547587 -0.030449979 0.056082476 0.031441018 0.10648913 -0.07557708 0.036024373 0.04599018

model.6.weight f4 [128, 128]
00000000: 479c 593b 5836 42bc e2ee 593d 0f77 94bd
00000010: 4f1e 3fbd 928c 8a3c c357 29bd 9df6 083b
00000020: fc92 353d 37d8 833d 3da1 c6bb a6ff 123d
00000030: 1201 7abc 6a53 e33d 21d3 ab3b 3a89 03bc
00000040: 3d99 613d bf04 68bd 551a 8d3c d9b4 cfbc
00000050: c149 203d a906 3a3d 40d9 943d 62bf debc
00000060: 9a75 9cbd cd86 833c 6763 4cbd b8f0 4d3a
00000070: 3d3a 243d c6c0 ca3a 6dc7 503d f762 813c
00000080: a3d0 103d a97b feba 93f1 31bc dd02 183d
00000090: de24 61bd a501 04bd ce78 80bc 4ae3 ffbc
000000a0: 7090 ed3d e6a7 703d 9cca 89bc c12d a8bd
000000b0: 15a7 81bc 8081 8b3d e0cf 1dbd 9cf9 25bd
000000c0: 9f46 63bb 9807 813d 73c4 843d dd42 993d
000000d0: 4214 1e3d 77ca 813c 4e5e ccbc c4c2 22bc
000000e0: 272e 3e3d 9131 983c 82eb d13d d0cc eabc
000000f0: 65a6 e63c 01c9 a33d 81b5 253d a5a3 af3d
00000100: fc8b 813c 7b22 903d 6bbe 83bd 9d1c 6bbd
00000110: 12bf efbc 7737 b23d e201 dabc f31b 5e3d
00000120: a83f 4cbd 7902 f9bb c441 543d 5802 15bd
00000130: a14a 58bd 7c19 803d b26b 873c 3a93 a23d
00000140: 10b9 8d3d 94ce af3c 7c6a 9c3d d3be 68bd
00000150: b266 10bc e954 d43d 3aee a73c a2fd 4dbc
00000160: 42c0 42bd 9c7b 28bd e2d8 efbc 8ba8 4a3d
00000170: 1196 79bd cec4 d8bd 574d aa3d 4ccb aa3d
00000180: e043 a0bd 71d9 9d3d 1630 493d 0c4a df3c
00000190: e6a3 43bd b1a3 423b 1ff7 abbc 6191 a7bd
000001a0: cba8 0ebd 49ec a23d fde1 9c3b 730e 7bbd
000001b0: 57dc 23bd 7e64 9f3d 4754 c43d 0b22 d63d
000001c0: 7871 80ba 8180 683d fdfa 1ebd 5db3 9abc
000001d0: 0c81 fd3c 7517 743c 464c 3d3d c584 29bc
000001e0: 05d2 4fbc c7f3 27bd 11f4 9a3c 47f1 76bd
000001f0: feaf 66bd cec0 93bd a8ce 813d 1060 e13b
00000200: 1bb1 3a3c 54e9 8ebc 7bb4 953c 7187 9aba
00000210: a8c1 7bbd de7a 2ebd b627 a83d 1306 bc3c
00000220: 16f5 e93b bba8 94bc 7195 6c3d 06a7 413d
00000230: 3230 e23b 3fe3 b43d 5c9b 19bd ea65 d9bc
00000240: 2f79 6e3d a71a 7dbd b8e4 10bd 2f53 b1bd
00000250: 5304 3a3d f060 90bc 758f 5f3d c0e9 983d
00000260: 5034 fa3c e574 94bd 209a 72bc 71fa 5bbd
00000270: 3c17 b2bd d5b2 8bbd f578 84bd 18e3 303d
00000280: 9624 b0bd d946 1fbd 860a 653d 70e3 a9ba
00000290: 6c02 063d 580d 853d cdd8 7cbd b996 8e3d
000002a0: 1570 9bbd 6332 e7bc 13ee 08bd c4cd aabd
000002b0: 1cce dc3c 1d82 b33d 6168 203d f9cf 273b
000002c0: 8f87 d7bc 4af2 92bb fe2b b5bd e3cf 6ebd
000002d0: 46bc b5bc a213 f6bc 4bdf 893c 3546 9cbc
000002e0: 8363 0d3d 5afc 2f3d 862f 9a3d 30a3 393d
000002f0: 3b4c b53c e7c8 d4bc af3f d8bc 615e 8e3d
00000300: ca69 42bd 4835 a73b 27d2 44bd a70d 91bd
00000310: 25d9 6a3d 6bd2 f73c 9731 b3bd dc46 d3bb
00000320: 44c9 5d3d 5a2c 943d 8046 c03c ea57 37bd
00000330: 9e6b afbd b10b aa3d 1c7e 2b3d e663 8d3c
00000340: f683 9b3d f29d 903d ffb0 643b aef7 eabc
00000350: db8c b2bd aa12 81bd 9fed 983d 6668 4d3c
00000360: 0e8c de3c 69eb 643d dfe0 a2bd 278c 99bd
00000370: 1a36 8dbd 15b5 8b3c 8a0e 0bbd 82c4 7f3d
00000380: 9259 30ba fb0f 6f3d 5398 27bd 3225 36bd
00000390: 3950 ea3c a90e ba3c 392e 55bd 1a40 0a3b
000003a0: e1c5 f8bc acb2 a43d d2e5 36bd 7096 303b
000003b0: 0865 44bc 9d94 1ebd 2bf2 c9bc 8efa 943b
000003c0: 0239 3fbd aec1 a63d b99d 9bbd ce4c 93bd
000003d0: 2907 61bd 6620 08b9 f283 8f3d 9451 dcbb
000003e0: 7b17 273d 5603 ebbc 8475 e03c 5b51 d23c
000003f0: 6f1e 81bd 417d 85bd d402 89bd 61ea 84bd
0.003320472 -0.011853777 0.053206332 -0.07249271 -0.046659764 0.016912732 -0.04134346 0.0020898946
0.04432963 0.06437724 -0.0060617016 0.035888337 -0.015259044 0.11099894 0.0052436744 -0.008028323
0.05507778 -0.05664515 0.01722447 -0.02535479 0.039132837 0.045416508 0.07268 -0.027190868
-0.07639618 0.016055489 -0.049899485 0.0007855999 0.040094603 0.0015468828 0.050971437 0.01579426
0.03535522 -0.0019415516 -0.010860818 0.037112106 -0.0549668 -0.03222813 -0.015682604 -0.03123631
0.11599815 0.05875387 -0.016820244 -0.08211852 -0.015826741 0.068118095 -0.038528323 -0.04052125
-0.0034679545 0.063002765 0.06482782 0.07483456 0.038593538 0.015843613 -0.024947312 -0.009934131
0.046430733 0.018578323 0.10249998 -0.028662115 0.028155515 0.07997323 0.0404563 0.085761346
0.01581382 0.07037827 -0.06432804 -0.057400335 -0.029265914 0.08701985 -0.026612226 0.054225873
-0.049865395 -0.0075991717 0.05182053 -0.03637919 -0.052805547 0.06254861 0.016530845 0.079382375
0.069200635 0.021460809 0.07637498 -0.05682261 -0.008813547 0.10367758 0.020499337 -0.012572678
-0.047546633 -0.041133508 -0.029278222 0.04947714 -0.06093413 -0.105844125 0.08315533 0.08339557
-0.07825446 0.07707489 0.049118124 0.027256988 -0.047763728 0.0029699618 -0.02099186 -0.08182026
-0.034828942 0.07955224 0.004787682 -0.061293077 -0.040005054 0.07782839 0.09586387 0.10455712
-0.0009799441 0.056763176 -0.03881358 -0.018884355 0.030945323 0.014898171 0.04621532 -0.010346596
-0.01268435 -0.04100397 0.018915208 -0.060288694 -0.056320183 -0.07214509 0.06338245 0.0068779066
0.011394764 -0.017445244 0.018274536 -0.0011789632 -0.061463982 -0.042597644 0.08210699 0.022952115
0.007139812 -0.018146863 0.057759706 0.047278427 0.006902718 0.08832406 -0.037501678 -0.026537854
0.05822104 -0.061792996 -0.035374373 -0.08658444 0.04541428 -0.017624348 0.05458017 0.07466459
0.030542523 -0.07248858 -0.014807254 -0.053705636 -0.08695838 -0.06821219 -0.06468383 0.043185323
-0.08600728 -0.038885925 0.05591824 -0.0012961458 0.032717153 0.06496686 -0.061730195 0.06962342
-0.07589737 -0.028222268 -0.03343017 -0.08340028 0.02695375 0.087650515 0.039162043 0.002560614
-0.026309757 -0.0044844495 -0.088462815 -0.058303725 -0.022184502 -0.030038659 0.016830107 -0.019076446
0.03451873 0.04296527 0.075285956 0.045321643 0.022131076 -0.025974704 -0.026397554 0.06951595
-0.04746417 0.005102787 -0.04805198 -0.07082682 0.05733599 0.030251702 -0.08749693 -0.006447656
0.05414702 0.07235022 0.023471117 -0.044761576 -0.08565448 0.08303011 0.041868314 0.01725955
0.07593529 0.07061376 0.0034895537 -0.028682556 -0.08718272 -0.06302388 0.074671976 0.012537098
0.027166393 0.055888567 -0.07953047 -0.07497435 -0.06895085 0.01705412 -0.033949412 0.062443264
-0.0006727214 0.05836485 -0.040916752 -0.044469066 0.028602706 0.022712069 -0.052046034 0.0021095336
-0.030367794 0.080418915 -0.044652767 0.0026945136 -0.011986978 -0.038715947 -0.024651607 0.00454647
-0.046685226 0.0814241 -0.075984426 -0.07192384 -0.05493847 -0.0001298204 0.070075884 -0.006723592
0.040793877 -0.028688114 0.027399786 0.025673559 -0.06304633 -0.06518031 -0.066899925 -0.06490017

model.6.bias f4 [128]
00000000: 7592 7a3d 092a 183c fa85 a9bd 3edf 0fbd
00000010: 0008 1b3c 4f6d 813d c5aa 1b3c 2ce8 dc3d
00000020: a1d5 a8bd 442c 1fbd 2b03 023d b393 d23c
00000030: 1b74 35bd 907b 4dbd 6721 f3bc ca59 93bc
00000040: d386 cdbc b031 513d f3a6 79bd 2fdd 15bc
00000050: e4b1 98bd 3ec8 043e 3f16 5ebd f366 be3d
00000060: d294 79bc d439 2e3d 9228 843d 6046 29bd
00000070: 4490 9f3a ae9a 623c 9b90 ec3d 3a1e a8bc
00000080: a244 a53d 74b5 793d 4b14 453c a6a0 063d
00000090: 66e8 08bd 0993 733c dab2 0bbc 4590 61bd
000000a0: 1e30 a23c f30c d03d 127f 81bd 45b0 2f3d
000000b0: 5cee 37bb abaf b0bd 4502 933b 896e 1c3d
000000c0: 55eb 753d 6464 de3c 4b80 acbc a104 b63d
000000d0: d47c e7bc 208b be3d 418e 9ebd 53ff 3f3a
000000e0: e962 ad3d cd75 073e 68c2 c9bc e177 813c
000000f0: ff21 adbd d825 f5bc c8bc 92bd faee 823c
00000100: 40cc 35bd 9d52 913c b0ee 453d 9556 e03b
00000110: 0275 73bc 19d2 d5bc d5af 4a3d 972d 10bc
00000120: 6886 1abd de66 18bb 8fd0 e3bc 2fbd 83bd
00000130: df58 333d 6c06 273c f312 aa3c e3c9 923d
00000140: 60cb 803d 7de5 bd3d 695c 94bd 3222 043e
00000150: 0987 9dbc eb9b 66bd 4fe4 743d f25d 5b3d
00000160: ee67 273d 19d8 5cbc 14ad ec3c c21c 143d
00000170: dcd8 94bb 5e68 aa3d ccd7 81bd de0a 523d
00000180: b804 a03c e260 513d 3bed 0d3d a249 883d
00000190: 1e8f dd3b 4cc7 8d3d a427 013d 8753 7dbd
000001a0: b691 abbd c3c3 9dbd 49b8 eb3c b37d dbbc
000001b0: 5d8a 953d 943d 22bd 6176 9ebd e960 533d
000001c0: c1c8 57b8 2a40 b1bd 4042 6fbd 55c9 c53d
000001d0: 36b1 3fbd 25c8 693c a9cb dcbc aad3 b43d
000001e0: 511c d4bc 4c28 ca3c cf1d 7a3d adb9 b8bd
000001f0: 7dc8 40bd 2176 a83d 503e 973d d7af 813d
0.06117483 0.009287366 -0.08277507 -0.03512501 0.009462357 0.06319677 0.009501164 0.10786471
-0.082438715 -0.038860574 0.031741302 0.025705194 -0.04430018 -0.050166667 -0.029679013 -0.01798715
-0.025088703 0.051072776 -0.06095023 -0.009146973 -0.07455805 0.12967011 -0.054220434 0.0929698
-0.015233235 0.042535618 0.06453051 -0.04132688 0.0012173732 0.013830824 0.11551019 -0.020522226
0.08069731 0.060964063 0.012028764 0.03286805 -0.033424757 0.014866599 -0.008526528 -0.055069227
0.019798335 0.1015872 -0.06323065 0.042892713 -0.0028065657 -0.08627256 0.0044863545 0.038191352
0.060038883 0.02714748 -0.021057269 0.08887602 -0.028257765 0.0930388 -0.077419765 0.0007324118
0.08466131 0.13228531 -0.024628833 0.015804233 -0.0845375 -0.029925272 -0.071649134 0.015983094
-0.04438424 0.017739588 0.048323333 0.006846259 -0.01485944 -0.026101159 0.049484093 -0.008799932
-0.037725836 -0.0023254673 -0.02780941 -0.06432568 0.043785926 0.010194402 0.020760989 0.07167413
0.06288791 0.09272287 -0.07244188 0.1290367 -0.019229429 -0.05630104 0.059788045 0.05355639
0.0408706 -0.013479256 0.028891124 0.036160238 -0.004542453 0.08320688 -0.06339988 0.051279895
0.0195335 0.051117785 0.03465007 0.06654669 0.0067614457 0.069227785 0.031531945 -0.061847236
-0.083774015 -0.07703354 0.028774397 -0.026793336 0.07301781 -0.039609507 -0.07737423 0.051606093
-5.144696e-05 -0.086548164 -0.05841279 0.09657542 -0.04679986 0.01426891 -0.026952581 0.08829434
-0.025892409 0.024677418 0.061063584 -0.0901979 -0.0470662 0.08225656 0.07384932 0.06332367

model.8.weight f4 [3, 128]
00000000: 8019 2fbd 1bde 983d 493e a53d 7078 e1bb
00000010: 523a f63d 925a c8bd 3a8f 013e f1d4 8abc
00000020: acd5 84bd e7a6 593d 8095 05be 5d80 e2bd
00000030: f113 0e3e d273 2a3b b0e3 ce3b bbfd aebc
00000040: 3316 17be 14e8 903d 495c 6b3c ec7c 9b3d
00000050: e2ed 953d e83d d83c 0d67 4abd e199 6dbd
00000060: 5758 5a3d 53f2 88bd da70 bc3c d373 e53d
00000070: 2e1e 563d eb62 063d 6f0e f13d 28ba 6f3d
00000080: b0b9 493d 675a 5a3d 5249 333d f1ba c4bd
00000090: 54cf 263d 1387 6fbd bb4e db3c bb5e a03d
000000a0: c7b4 173c fcbf 8ebd 275e f63c b815 c8bd
000000b0: f0dd 25bd 4e3c a9bd c620 413c 5abb cbbd
000000c0: a947 c8bd 7460 d83d 803d 993d 9c63 92bd
000000d0: dd41 f5bd b531 fd3d e64a ef3d 74bf f1bd
000000e0: 134f 9fbd e86f 163d d7a9 023e a9d3 013e
000000f0: 3929 933d b783 183c c937 b0bc 95e0 073e
00000100: 22aa 253c 094e 21bd 4096 073e 1c96 cdbb
00000110: 6668 86bd 746a 0cbe c7b3 89bd 79e5 9abc
00000120: e4a0 a83d c5b4 feba b271 c6bc 3986 363c
00000130: f9e6 c8bd d8c8 4dbb 27d4 2abd 2faa 91bd
00000140: a2f8 c4bd 533a 80bc 428e afbd bb43 b73c
00000150: 4bbb c03d d82d 31bd a30a 733d 1478 65bd
00000160: 3892 d23c 82ea 01bd eb47 7a3d cd8f 0dbe
00000170: 015a c4bd e73f cd3d d873 62bd 9b10 f9ba
00000180: e246 d2bc fd0c 21bd 7835 04be 7321 2ebd
00000190: 1969 473d 82ac 02be 76e6 c4bd 0d7b d63c
000001a0: 95f3 84bd 5f14 bc3b a48a 903d 940c 63bb
000001b0: 3aa5 c43d 59e4 d2bd f433 343d 4504 023d
000001c0: c3ec e3bd f34d 87bd 9449 703d e9c3 123e
000001d0: 3d5c 45bc 7572 e1bd 093d d73d 3866 793d
000001e0: e5f5 e3bd e07e a93d bb78 ac3d 3f68 243d
000001f0: 897f a43d 09f0 7abd 796f c33d 5911 3f3d
00000200: 5cd5 af3c dbcd 54bd a083 aabd 4d1c 61bd
00000210: 38fb bebd e75f b13d bd81 a03d ad4a d7bc
00000220: 9a47 103d a289 e83c a151 073d 0bbf 6dbd
00000230: ad50 573d 6ff6 18bc ca3b 76bc faf0 d1bd
00000240: 633e 2dbc 4401 a53d 994a 20bc 3336 93bd
00000250: c6e9 fcbc 1bc1 5cbd 8dfd a9bd f780 39bc
00000260: cac0 86bd 9749 883d a1bf afbb 94a9 b93d
00000270: 180d 053e 4d1f 40bc d905 b0bd 5588 d3bd
00000280: 468f d8bd 74ff 04bd 7d0c d4bb 9bd7 b83d
00000290: f19d e93c 5c89 3d3b 01d9 d1bc 37e8 95bd
000002a0: 5e9f 2e3d cc7f 473d 0bf4 96bd 0b89 953d
000002b0: f225 16bd d696 033c 546a a63c 152f b73d
000002c0: 5461 62bd 3ff2 613d 19b1 c1bd d052 073c
000002d0: 6d0e 993c 0ef7 09bc 2504 8b3d d0e7 b3bd
000002e0: a022 053d af49 da3c a1d4 ebbd ad92 65bc
000002f0: c16d bdbc 041e 48bd 9e0a 33bb 86d3 38bd
00000300: 97ea ee3b 977b 263d 97ca 2abd e4ae af3d
00000310: 3c8f 8bbd d549 babc c835 febd 8ca7 e53b
00000320: b756 a13d 1935 b3bd 3bcb 12bd 67a6 c33d
00000330: e03f 613d 76bb 413d bfb9 e33d db0d ddbd
00000340: 7b66 63bd 5bd6 26bd 13d5 9ebd cc30 943c
00000350: 3cf4 01be 301e a3bc bcc5 18bd 06b8 133d
00000360: aaf7 3c3d 65be 48bd f6ea f83d 9198 2c3d
00000370: 35b0 1f3d db14 96bb 023e 083d eb42 5f3c
00000380: fde2 9dbc 5036 dbbd e018 f73c 5e48 37bd
00000390: 00f0 583d f22c ca3d 4ba7 d5bd e3a2 27bd
000003a0: 5f2e 403d e30f 07bd 81ad 813d 9e1b a03c
000003b0: cf39 8b3d 38fd 8a3d f80d 0abd 06f4 803d
000003c0: 4656 9f3d a308 943d b852 763d 27d3 29bd
000003d0: 6872 033d 65c7 29bc 07cd 21bd d5d4 c3bc
000003e0: 7b04 023e c026 40bd 8b2d aabd 957d d7bc
000003f0: 9c51 8b3d 5d9c e43d 19d0 d1bc 281b cbbd
-0.042748928 0.07464238 0.080685206 -0.0068808123 0.120228425 -0.097829 0.12652293 -0.016947242
-0.06486067 0.053137686 -0.13045311 -0.110596396 0.13874795 0.0026008976 0.0063137636 -0.021361222
-0.14754562 0.070755154 0.014365264 0.07592186 0.07320763 0.026396707 -0.049414683 -0.05800808
0.053306904 -0.06686845 0.02300303 0.11203732 0.052274875 0.03280918 0.11770331 0.05852714
0.04924935 0.05330887 0.043771096 -0.09605969 0.040725067 -0.058478426 0.02677094 0.078305684
0.009259409 -0.06970212 0.030074192 -0.097697675 -0.04049486 -0.08263455 0.011787599 -0.09947844
-0.09779293 0.10565272 0.07482433 -0.07147905 -0.11975453 0.123629965 0.116842076 -0.11804095
-0.07778754 0.036727816 0.12760101 0.12678398 0.07185597 0.009308747 -0.021510975 0.13269265
0.010111364 -0.03938106 0.1324091 -0.006273998 -0.06562881 -0.13712484 -0.06723743 -0.01890825
0.082338125 -0.0019432536 -0.024224136 0.0111404 -0.098096795 -0.003140023 -0.04170623 -0.07112538
-0.096177354 -0.015652811 -0.085720554 0.022371164 0.09410723 -0.04325661 0.059336316 -0.05602272
0.025704488 -0.031717785 0.061103743 -0.13824387 -0.095874794 0.10021954 -0.05528626 -0.0019002141
-0.025668565 -0.039319027 -0.12911022 -0.04251237 0.048684213 -0.12761119 -0.096142694 0.026181722
-0.06491772 0.005739733 0.070576936 -0.0034644948 0.09601827 -0.1029746 0.04399486 0.031742353
-0.11129143 -0.066066645 0.05866392 0.14332546 -0.012045917 -0.11008159 0.105096884 0.0608885
-0.11130885 0.082761526 0.08421465 0.04013848 0.08032138 -0.06126407 0.09542746 0.046647403
0.021464042 -0.05195413 -0.08325887 -0.05495863 -0.0932526 0.0866087 0.078372456 -0.026280725
0.035224535 0.028385941 0.03303683 -0.05804352 0.052567173 -0.009336098 -0.015028903 -0.10251041
-0.010573956 0.08056882 -0.0097834105 -0.07188072 -0.03087319 -0.053895097 -0.08300314 -0.0113222515
-0.0657974 0.06654661 -0.00536342 0.090655476 0.12993276 -0.011726213 -0.08594865 -0.10328738
-0.10574202 -0.03247018 -0.0064712153 0.090254985 0.028517695 0.0028920984 -0.02561617 -0.07319682
0.042632453 0.04870586 -0.07370766 0.073015295 -0.03665728 0.008031568 0.020314373 0.08944527
-0.0552686 0.055162665 -0.09457607 0.00825949 0.018683637 -0.008420719 0.067879 -0.08784449
0.032503724 0.026646463 -0.11515165 -0.014012021 -0.023123624 -0.04885675 -0.002731956 -0.0451236
0.007291149 0.04064521 -0.04169711 0.085782796 -0.06814429 -0.022740284 -0.12412602 0.0070084985
0.07877868 -0.08750362 -0.035838347 0.09553223 0.054992557 0.047297917 0.11119413 -0.10793658
-0.055517655 -0.04073177 -0.077554844 0.018089674 -0.12690824 -0.019911855 -0.03729795 0.03606417
0.04613463 -0.0490097 0.1215419 0.042137686 0.038986403 -0.004580123 0.03326226 0.013626794
-0.019273276 -0.10703719 0.030163229 -0.04474675 0.052963257 0.09871854 -0.10432299 -0.040926825
0.046919223 -0.032974135 0.06331921 0.019544419 0.067981355 0.06786579 -0.033704728 0.06296544
0.07780127 0.0722821 0.06013748 -0.041461136 0.03209153 -0.010362481 -0.03950217 -0.023905197
0.12697022 -0.046911955 -0.08309468 -0.026305 0.06802675 0.111626364 -0.025611924 -0.09917289

model.8.bias f4 [3]
00000000: 35d9 8ebc da55 203d e5f8 0cbc
-0.017437557 0.039144374 -0.008604263
