exported_models/neural_networks/raw_mlp/trained_models/model_epoch_20_batch_64_lr_001_vs_30_hl_128_128_128/mlp_dynamics.pth (torch, 140435 bytes, 8 tensors)

model.0.weight f4 [128, 5]
0.03054368 0.058440764 0.007810785 0.1219846 -0.149536 0.030206881 0.0028939182 -0.1160959
-0.052585274 -0.07678097 0.010752449 -0.005407369 0.028632434 0.021407172 0.00035210053 0.18974577
-0.35750824 0.16071609 0.0046912213 -0.0059848437 0.02978438 -0.015072384 -0.094646275 -0.014499878
0.018981457 0.019634884 0.04738367 -0.009192287 0.0065723998 0.017362626 0.0046937373 0.00261885
-0.004395341 -0.009395236 0.0032354337 0.0374148 0.060136177 -0.012150587 -0.032434948 -0.012224188
0.11552685 -0.039773587 -0.13512644 0.006500832 0.018233132 -0.12240828 0.06548875 -0.43179342
-0.020941341 -0.009658659 0.007897118 0.01214748 -0.006638572 -0.006443228 -0.0008544477 -0.02229957
0.001598799 -0.040163 -0.07929188 0.18371081 -0.0069166175 -0.008341732 0.08323426 0.07584592
0.016965196 0.010407551 -0.017720278 0.011976775 0.0054809786 0.0046468056 0.021773467 0.0058508
-0.02005609 -0.01182376 -0.08377942 -0.0032862858 -0.028995007 0.006275363 0.011438628 -0.0014823545
0.003470492 -0.00025499772 -0.00014536107 -0.0022561373 0.0031950097 -0.05214147 0.009480298 -0.0020653028
0.012193312 -0.010831184 0.023792874 0.011536361 0.108529784 -0.014194142 0.0032226848 -0.030855477
-0.035902806 0.023992758 -0.10695205 -0.10758132 0.34779376 -0.50953984 0.38153866 0.0055363593
-0.017457498 0.018204618 -0.028934835 0.13043049 -0.030634377 -0.030487945 -0.0094415555 -0.0049286513
0.50669384 0.0012713027 0.114036605 0.025503557 0.073547564 0.0022284198 -0.017901639 0.018924009
-0.2263823 0.12588307 0.56889695 -0.08258572 -0.108264096 -0.36186883 0.11127307 0.51179886
0.09618562 0.11907656 0.020547574 -0.06082139 0.024521654 -0.0060387026 0.028562373 0.04378303
-0.07939796 -0.0009221227 -0.0063899443 -0.11420232 -0.033717446 -0.02885499 0.0015560602 -0.017403739
-0.054154087 0.049311385 -0.012002246 0.13494049 0.0063574407 -0.058167238 0.00044569466 0.057821516
-0.0020155667 -0.004086193 -0.013979922 -0.13109277 -0.0834018 0.461426 -0.018356217 0.011818413
0.007485756 -0.007112962 0.015580935 0.003443624 -0.007855869 -0.008952769 -0.03621436 0.01901598
0.00020593691 0.0007739608 -0.02336486 -0.02797516 0.0026730134 -0.0011315258 -0.00055814453 0.056415826
-0.07839768 0.035651147 0.011182484 -0.018918611 0.2622575 0.16757728 0.71281403 0.010385795
0.0078586135 -0.0802497 0.17779043 -0.25146854 0.0048128576 -0.0069821645 -0.2914355 -0.5201024
0.1232623 -0.0072159604 0.0039202883 0.003040701 -0.0024927873 -0.00022053698 -0.009860337 0.015701294
0.042283587 -0.029470142 0.050098617 0.010439301 -0.004379925 -0.004265583 -0.0058721327 -0.008847329
-0.01878484 -0.01235365 0.47094485 -0.032890283 -0.42326257 -0.012463649 0.042291548 0.008136516
0.015751917 -0.014446271 0.0016334298 0.00997909 0.14645934 0.0020287584 -0.14050111 -0.03165903
-0.042452294 0.16474101 0.3002453 -0.0578041 -0.014460236 0.01669925 0.22173336 -0.17093217
0.82179785 -0.020962775 0.012006449 0.055514004 0.04296293 -0.0381361 -0.010525853 0.015633926
0.040177695 0.026000569 -0.050475147 -0.019701866 0.016098171 0.0057220454 0.024030099 -0.0075127864
0.02554164 0.015214512 -0.32999665 0.4865916 -0.3635049 -0.0057994034 0.014890229 -0.013252525
00000000: bd36 fa3c 955f 6f3d 9df1 ff3b 10d3 f93d
00000010: f71f 19be 6c74 f73c e4a7 3d3b b0c3 edbd
00000020: a863 57bd 573f 9dbd 0a2b 303c 4d30 b1bb
00000030: 918e ea3c 185e af3c 229a b839 b74c 423e
00000040: 520b b7be c292 243e d1b8 993b 821c c4bb
00000050: 5ffe f33c 29f2 76bc e8d5 c1bd e590 6dbc
00000060: 007f 9b3c 56d9 a03c 6115 423d 3f9b 16bc
00000070: 495d d73b 113c 8e3c eccd 993b 03a1 2b3b
00000080: cb06 90bb 7aee 19bc 9209 543b 4340 193d
00000090: 5a51 763d 4113 47bc 82da 04bd f647 48bc
000000a0: 5799 ec3d a1e9 22bd 965e 0abe ee04 d53b
000000b0: a65d 953c 31b1 fabd f71e 863d 0714 ddbe
000000c0: 2d8d abbc 5a3f 1ebc ea62 013c 3906 473c
000000d0: 6188 d9bb b721 d3bb 04fd 5fba 96ad b6bc
000000e0: cb8e d13a f581 24bd c863 a2bd b01e 3c3e
000000f0: cba4 e2bb c3ab 08bc b976 aa3d 1b55 9b3d
00000100: 98fa 8a3c 6f84 2a3c 1e2a 91bc 3c3a 443c
00000110: c899 b33b 3b44 983b 455e b23c 11b8 bf3b
00000120: ab4c a4bc 72b8 41bc 8b94 abbd ba5e 57bb
00000130: f086 edbc 8fa1 cd3b 1569 3b3c 904b c2ba
00000140: 3271 633b 37b1 85b9 116c 18b9 b4db 13bb
00000150: 5e63 513b 4b92 55bd 4053 1b3c 085a 07bb
00000160: 75c6 473c 4775 31bc 46e9 c23c 0103 3d3c
00000170: dd44 de3d 8c8e 68bc ae33 533b a0c4 fcbc
00000180: d20e 13bd 768c c43c ad09 dbbd 9853 dcbd
00000190: 0612 b23e 3471 02bf 0959 c33e 596a b53b
000001a0: 0703 8fbc da21 953c bf08 edbc 928f 053e
000001b0: f2f4 fabc dbc1 f9bc c1b0 1abc 8680 a1bb
000001c0: b0b6 013f d7a1 a63a 068c e93d d6ec d03c
000001d0: 1ba0 963d ae0a 123b 75a6 92bc 8606 9b3c
000001e0: c3d0 67be 7ee7 003e 3ba3 113f b422 a9bd
000001f0: 91b9 ddbd df46 b9be 23e3 e33d 4005 033f
00000200: f7fc c43d 69de f33d 6353 a83c da1f 79bd
00000210: a3e1 c83c 4fe0 c5bb a3fb e93c d655 333d
00000220: 669b a2bd 9bba 71ba bd62 d1bb e8e2 e9bd
00000230: 4e1b 0abd 4d61 ecbc b7f4 cb3a 4992 8ebc
00000240: add0 5dbd bcfa 493d 12a5 44bc d72d 0a3e
00000250: 1452 d03b c540 6ebd 20ac e939 41d6 6c3d
00000260: 9917 04bb 79e5 85bb 0b0c 65bc 2f3d 06be
00000270: 90ce aabd 0740 ec3e c75f 96bc 04a2 413c
00000280: 134b f53b da13 e9bb 2e47 7f3c 6cae 613b
00000290: e7b5 00bc a3ae 12bc 8255 14bd 67c7 9b3c
000002a0: c5f0 5739 a1e3 4a3a aa67 bfbc 2a2c e5bc
000002b0: b92d 2f3b b54f 94ba 7250 12ba 4814 673d
000002c0: f68e a0bd f006 123d bd36 373c 34fb 9abc
000002d0: 9d46 863e 6199 2b3e fb7a 363f 2e29 2a3c
000002e0: 6ac1 003c f459 a4bd b20e 363e 7cc0 80be
000002f0: 2db5 9d3b a4ca e4bb 0937 95be 6e25 05bf
00000300: f270 fc3d dd73 ecbb c375 803b 7f46 473b
00000310: 085e 23bb f23f 67b9 408d 21bc 00a0 803c
00000320: 8e31 2d3d 5e6b f1bc 3534 4d3d 9a09 2b3c
00000330: 7985 8fbb 4ec6 8bbb 056b c0bb 63f4 10bc
00000340: aae2 99bc f766 4abc af1f f13e f6b7 06bd
00000350: dfb5 d8be 5534 4cbc e739 2d3d 064f 053c
00000360: 2a0a 813c 0db0 6cbc cf18 d63a 567f 233c
00000370: 70f9 153e ebf4 043b 86df 0fbe e6ac 01bd
00000380: 75e2 2dbd deb1 283e c1b9 993e fec3 6cbd
00000390: a0ea 6cbc decc 883c 120e 633e d808 2fbe
000003a0: 5861 523f 20ba abbc b2b6 443c a762 633d
000003b0: e6f9 2f3d 9934 1cbd a174 2cbc b812 803c
000003c0: 5e91 243d 25ff d43c 07bf 4ebd cf65 a1bc
000003d0: 50e0 833c ff7f bb3b c5da c43c d22d f6bb
000003e0: b43c d13c 4a46 793c 52f5 a8be 8922 f93e
000003f0: 501d babe ec08 bebb 26f6 733c 1e21 59bc

model.0.bias f4 [128]
-0.64843684 -0.5035872 -0.124219686 0.08397563 -0.36648992 -0.2320939 -0.03957096 -0.29980236
-0.6417327 -0.16570298 -0.061056037 -0.5929403 -0.4047143 -0.09417018 -0.4411462 -0.123336166
-0.018539393 -0.233352 -0.3559674 -0.54966795 -0.1875422 -0.50702554 -1.3587712 -0.31549025
-0.022803737 0.15892176 -0.30295444 -0.52629876 -0.31544995 -0.5410975 -0.24587591 -0.11340184
-0.07386444 -0.17235954 -0.14704922 -0.53685516 0.101928525 -0.114150174 -0.08728603 -0.049163394
-0.261729 -0.16576342 -0.110081 -0.099194996 -0.77540046 -0.0046532517 -0.34086412 -0.2782463
-0.2824323 -0.14581308 0.17728202 -0.15032454 -0.37409967 0.29390827 -0.17564349 -0.75440234
0.26564232 -0.2812124 -0.0805449 -0.13597323 -0.21348393 -0.21823987 -0.33256176 -0.19468185
-0.22750112 0.10640181 -0.6994984 -0.16002099 -0.16427167 -0.20668483 -0.13578196 -0.020587167
0.15854727 -0.090089776 -0.21737121 -0.27431187 -0.10070586 -0.4082056 -0.50869936 -0.21086255
-0.66976935 -0.22721298 0.11897115 -0.46171606 -0.2208459 -0.28480434 -0.2508148 -0.3175248
-0.028281748 -0.14902043 -0.27254832 -0.28914213 -0.34043247 -0.095867366 -0.40608642 -0.6406326
-0.50517774 -0.19121125 -0.35821837 0.020032419 -0.05671175 -0.48922777 0.0039390437 -0.021238748
-0.44062328 -1.3719889 -0.29426798 -0.25027594 -0.111710705 -0.06684176 -0.22337346 -0.36804903
-0.13078807 0.08947145 0.23599806 -0.018620774 -0.15683629 0.1048267 -0.4040013 -0.025961282
-0.14250872 -0.11206791 0.12684414 -0.27855477 -0.12222507 -0.15691744 0.102392256 -0.43696603
00000000: f5ff 25bf 17eb 00bf e466 febd 6afb ab3d
00000010: 91a4 bbbe 06aa 6dbe 2915 22bd b27f 99be
00000020: 9848 24bf 0bae 29be e515 7abd efca 17bf
00000030: b636 cfbe 4cdc c0bd eadd e1be ac97 fcbd
00000040: eddf 97bc d4f3 6ebe 5c41 b6be 0ab7 0cbf
00000050: 100b 40be 6dcc 01bf 37ec adbf f087 a1be
00000060: e7ce babc 63bc 223e d81c 9bbe 84bb 06bf
00000070: a882 a1be 5e85 0abf e5c6 7bbe 393f e8bd
00000080: 3d46 97bd 057f 30be 1294 16be 576f 09bf
00000090: e7bf d03d 91c7 e9bd 05c3 b2bd 8e5f 49bd
000000a0: 5801 86be e3bd 29be 2672 e1bd bf26 cbbd
000000b0: a580 46bf 4e7a 98bb be85 aebe 4d76 8ebe
000000c0: f79a 90be 0650 15be 6b89 353e adee 19be
000000d0: fe89 bfbe 257b 963e e3db 33be 8320 41bf
000000e0: 4502 883e 12fb 8fbe b9f4 a4bd 913c 0bbe
000000f0: 889b 5abe 467a 5fbe 8945 aabe ae5a 47be
00000100: 0ef6 68be 31e9 d93d 5412 33bf 8bdc 23be
00000110: d536 28be 30a5 53be 6d0a 0bbe 6ba6 a8bc
00000120: 375a 223e fd80 b8bd 8f96 5ebe 9b72 8cbe
00000130: e03e cebd 5300 d1be 1f3a 02bf 5aec 57be
00000140: 0176 2bbf 85aa 68be 25a7 f33d 0c66 ecbe
00000150: 6d25 62be e0d1 91be cc6a 80be 9c92 a2be
00000160: 20af e7bc d098 18be 748b 8bbe 700a 94be
00000170: 2a4d aebe 1c56 c4bd 8fea cfbe 8000 24bf
00000180: 5453 01bf e2cc 43be 6668 b7be 071b a43c
00000190: 944a 68bd 107c fabe 1813 813b e2fc adbc
000001a0: 6099 e1be 559d afbf 4baa 96be 2b24 80be
000001b0: 95c8 e4bd 55e4 88bd 03bc 64be ec70 bcbe
000001c0: 4fed 05be cf3c b73d 7aa9 713e 988a 98bc
000001d0: b199 20be 62af d63d 42d9 cebe c1ac d4bc
000001e0: ceed 11be dc83 e5bd 6ee3 013e bb9e 8ebe
000001f0: 2351 fabd f7ae 20be 08b3 d13d 03ba dfbe

model.2.weight f4 [128, 128]
0.056079034 0.049947232 0.024817811 -0.042995576 -0.100087404 -0.00710032 -0.0149440775 -0.119865626
0.07406739 -0.027989022 -0.04158141 0.058497395 -0.08994186 0.060536064 -0.052764673 -0.027201172
-0.005980971 -0.040720567 0.02853984 0.047262035 -0.034606155 -0.008906313 -0.059966393 -0.027746625
-0.13861477 -0.03761292 0.043133836 -0.053443573 -0.049002685 0.053373773 0.0009567672 0.049602967
-0.032697506 0.022751478 -0.09458427 -0.075672 -0.062468354 -0.029592259 -0.027107874 -0.069921345
-0.062196303 -0.057998694 -0.035400953 -0.07142408 -0.0567688 0.0169038 0.051580247 0.116110474
-0.06256685 -0.036503863 -0.0015159786 -0.06371409 -0.08738783 -0.031004334 0.033128086 0.048878957
-0.107777886 0.06014405 -0.060410462 0.04341473 -0.081046954 -0.10290342 -0.021445226 0.056629077
-0.10294317 -0.055490546 0.01014283 0.017865386 0.054796044 -0.08507255 0.04500456 0.006601706
-0.059630957 -0.14860448 -0.06735585 -0.026284175 -0.053427566 -0.018540723 -0.057517692 -0.034653958
-0.038216103 -0.04487778 -0.004657373 -0.048553124 -0.08518579 6.841368e-05 -0.01233532 -0.107051626
-0.10737769 -0.07579847 0.024358584 -0.018081417 -0.04758799 -0.13373454 -0.1024217 -0.03663576
-0.049841188 0.033585794 0.026389726 0.049150165 -0.083535746 0.057060678 -0.07489413 -0.04148243
-0.066664286 -0.01764513 0.048993908 0.017488766 0.0054078526 -0.07896083 0.014282402 -0.06679685
0.05896051 0.065085 0.07686551 -0.043695617 0.056866717 -0.06180036 -0.09031293 0.04099192
-0.0077652046 -0.00617524 -0.044423465 -0.06772457 -0.07500291 -0.0052218284 0.0040682307 -0.05567737
-0.016620545 0.09221008 0.068258144 -0.13030447 0.028560469 0.08886995 -0.06477075 0.03727388
0.05521774 0.30172345 -0.11659141 0.10786782 -0.08141379 0.07806393 0.0035494368 0.066679314
-0.007824776 0.019979388 0.08232528 0.14164013 -0.30744827 0.082484975 -4.694596 -0.018886099
-0.02310079 -0.0832234 -0.013734863 0.11394611 0.2003191 0.1348877 -0.0048524975 0.08065286
0.07801485 0.0738247 0.037669852 -0.0016606105 -0.2709181 0.14017464 -0.17605199 0.016263103
0.08750642 0.0075683002 0.033027045 0.056734778 0.06594339 -0.048227556 -0.2555431 0.010234299
0.07542605 0.021216102 0.25750437 0.19687738 -0.12954205 0.41087136 0.013408789 -0.14753476
0.05162597 0.1558674 -0.0055233142 0.15292527 0.08366963 -0.0516793 -0.07983119 0.038870584
-0.14596558 0.24184278 0.11886341 -0.005892455 0.051071927 0.06809883 -0.07046874 -0.019665299
0.036215097 0.17285101 -0.07776494 0.04154672 0.025003992 -0.02468305 0.07895065 0.050448425
0.20001094 0.030527001 0.007925949 0.03574037 0.0063908002 0.14964528 -0.23914692 0.035795696
0.4597321 0.22181289 -0.3659802 0.111645654 -0.052964788 -0.33165798 0.013851538 0.05439148
0.2331908 0.10612114 -0.054779418 0.16882502 0.011226952 -0.069229655 0.0017570562 0.10742671
0.09854633 -2.1139493 -0.11723007 0.16550222 0.09230918 -0.15987654 0.022694098 0.06669382
-0.057081174 -0.029625235 0.12635185 0.009405473 0.061020248 -0.025174133 -0.09300076 0.02597862
0.009192441 0.5029285 0.40115985 -0.09469028 0.07347593 0.024086066 -0.100505725 -0.032119416
00000000: 21b3 653d 7895 4c3d b94e cb3c 211c 30bd
00000010: a0fa ccbd cda9 e8bb 01d8 74bc 1c7c f5bd
00000020: a5b0 973d 3c49 e5bc 4551 2abd f79a 6f3d
00000030: 7033 b8bd aaf4 773d c51f 58bd fed4 debc
00000040: 05fc c3bb 9cca 26bd 62cc e93c d695 413d
00000050: 2fbf 0dbd c9eb 11bc 529f 75bd e44c e3bc
00000060: 08f1 0dbe 0110 1abd 1bad 303d a6e7 5abd
00000070: 0ab7 48bd 759e 5a3d 8fcf 7a3a 7b2c 4b3d
00000080: d2ed 05bd 4f61 ba3c 66b5 c1bd ecf9 9abd
00000090: d1de 7fbd 776b f2bc 5511 debc ec32 8fbd
000000a0: 8dc1 7ebd 0a90 6dbd 9700 11bd ca46 92bd
000000b0: 6786 68bd d779 8a3c cf45 533d 54cb ed3d
000000c0: 0c23 80bd 1385 15bd cdb3 c6ba 887c 82bd
000000d0: 64f8 b2bd cdfc fdbc 51b1 073d 4d35 483d
000000e0: a7ba dcbd 9b59 763d f670 77bd a5d3 313d
000000f0: f2fb a5bd 07bf d2bd e6ad afbc e4f3 673d
00000100: ded3 d2bd 0e4a 63bd 1d2e 263c 6e5a 923c
00000110: d171 603d 843a aebd b456 383d 2053 d83b
00000120: 973f 74bd c62b 18be ddf1 89bd e951 d7bc
00000130: ddd6 5abd b7e2 97bc ac97 6bbd 4ff1 0dbd
00000140: 7d88 1cbd c3d1 37bd e09c 98bb a4df 46bd
00000150: e375 aebd 5179 8f38 151a 4abc e23d dbbd
00000160: d6e8 dbbd 3a3c 9bbd a78b c73c 7b1f 94bc
00000170: a0eb 42bd b5f1 08be 78c2 d1bd 610f 16bd
00000180: 4626 4cbd 4291 093d 442f d83c af51 493d
00000190: ca14 abbd 75b8 693d 1862 99bd 7be9 29bd
000001a0: 4987 88bd 858c 90bc d6ad 483d 9a44 8f3c
000001b0: 5b34 b13b 37b6 a1bd bc00 6a3c c9cc 88bd
000001c0: 9380 713d 494b 853d aa6b 9d3d 2dfa 32bd
000001d0: 13ed 683d 6022 7dbd fcf5 b8bd 25e7 273d
000001e0: 4273 febb ab59 cabb 61f5 35bd 2eb3 8abd
000001f0: 209b 99bd df1b abbb cb4e 853b f40d 64bd
00000200: cf27 88bc a3d8 bc3d edca 8b3d 896e 05be
00000210: a5f7 e93c 7301 b63d 87a6 84bd 7fac 183d
00000220: ff2b 623d 7f7b 9a3e 7ac7 eebd cee9 dc3d
00000230: 46bc a6bd fbdf 9f3d ab9d 683b 2a8f 883d
00000240: 7d33 00bc d0ab a33c 289a a83d 1c0a 113e
00000250: dc69 9dbe e2ed a83d 213a 96c0 05b7 9abc
00000260: de3d bdbc 0871 aabd 3108 61bc 945c e93d
00000270: 7320 4d3e 0020 0a3e b301 9fbb 542d a53d
00000280: 40c6 9f3d 6831 973d b44b 1a3d d8a8 d9ba
00000290: c7b5 8abe f189 0f3e f946 34be 333a 853c
000002a0: 9136 b33d 81ff f73b 5e47 073d ba62 683d
000002b0: 540d 873d 428a 45bd 8cd6 82be c3ad 273c
000002c0: f978 9a3d 64cd ad3c 9dd7 833e 399a 493e
000002d0: aca6 04be bb5d d23e 8ab0 5b3c 5a13 17be
000002e0: c175 533d b49b 1f3e ebfc b4bb 7198 1c3e
000002f0: fc5a ab3d acad 53bd 897e a3bd c336 1f3d
00000300: 0078 15be a2a5 773e a96e f33d 7f15 c1bb
00000310: cc30 513d 6677 8b3d ea51 90bd 1f19 a1bc
00000320: 4856 143d dbff 303e 3a43 9fbd e52c 2a3d
00000330: 2cd5 cc3c 1c34 cabc e1b0 a13d 02a3 4e3d
00000340: abcf 4c3e c313 fa3c d7db 013c 7f64 123d
00000350: eb69 d13b 9d3c 193e eee2 74be 829e 123d
00000360: 0162 eb3e eb22 633e c261 bbbe 7aa6 e43d
00000370: 9bf1 58bd 13cf a9be 90f1 623c 9ac9 5e3d
00000380: 92c9 6e3e 0a56 d93d 6260 60bd 77e0 2c3e
00000390: 40f1 373c 47c8 8dbd 064d e63a 8902 dc3d
000003a0: a9d2 c93d f24a 07c0 5216 f0bd 6a79 293e
000003b0: 980c bd3d adb6 23be f9e8 b93c c596 883d
000003c0: f3cd 69bd 9fb0 f2bc 6162 013e 6a19 1a3c
000003d0: 5ef0 793d fc39 cebc 2f77 bebd 1dd1 d43c
000003e0: e49b 163c ecbf 003f d364 cd3e faec c1bd
000003f0: 8c7a 963d 2450 c53c f2d5 cdbd a68f 03bd

model.2.bias f4 [128]
-0.04510191 0.077504866 -0.05768591 -0.096485175 -0.20109765 0.017191257 -0.063575365 0.10093905
-0.2584751 -0.09663028 -0.041071247 -0.08889134 -0.115216784 -0.07459085 0.021551145 -0.11292636
-0.14676864 -0.059413753 -0.07081361 -0.058075912 -0.13391343 0.017829513 -0.29091194 -0.14016367
-0.032955345 -0.04781721 -0.0026342906 -0.027045496 -0.06609764 -0.04501861 -0.036356207 -0.16834612
-0.10990253 -0.045534287 -0.09886894 -0.0036931527 -0.07917523 -0.13893123 -0.11502975 -0.055958997
-0.086511016 -0.015166815 0.0059656464 0.0035114645 -0.059227437 -0.058664545 -0.026389906 -0.035180144
0.0014072908 -0.051551227 -0.19569787 -0.15880479 -0.067768715 -0.0045118136 -0.06507035 -0.07563414
-0.13799463 -0.07782409 -0.163131 -0.014504087 -0.21899918 0.004682014 -0.026181811 -0.11386067
-0.13676459 -0.054512322 -0.094785415 -0.084792785 -0.15425621 -0.1288281 -0.15297629 -0.10121204
-0.103284486 -0.013837113 0.01336276 0.02034283 -0.15424979 0.0897469 -0.0473131 0.024235664
-0.026184158 -0.29895645 -0.06822614 -0.019618021 -0.1410335 -0.16947581 -0.15336911 -0.14810362
-0.21196201 -0.045142367 -0.1222737 -0.23166439 0.10529083 -0.020613395 -0.09763067 -0.023803493
-0.06491254 -0.013453418 0.0625139 -0.17837973 -0.056195453 -0.23129593 -0.10370599 -0.1195676
-0.1482613 -0.08134548 -0.06467512 -0.06973764 -0.1745519 -0.14015503 -0.20723698 -0.18018864
-0.118710876 -0.07698286 0.028639914 -0.055196393 -0.13291603 -0.123337656 -0.04627302 -0.13128085
-0.18773948 -0.011371285 -0.26696998 -0.051236782 0.08001765 -0.1362298 -0.011925077 -0.111392975
00000000: c8bc 38bd dfba 9e3d 1048 6cbd 059a c5bd
00000010: 8bec 4dbe aed4 8c3c cd33 82bd 22b9 ce3d
00000020: d956 84be 19e6 c5bd 533a 28bd aa0c b6bd
00000030: c7f6 ebbd 16c3 98bd 078c b03c ef45 e7bd
00000040: 854a 16be d65b 73bd ba06 91bd 02e1 6dbd
00000050: 9a20 09be 330f 923c 69f2 94be 1187 0fbe
00000060: 2ffc 06bd fbdb 43bd 10a4 2cbb 848e ddbc
00000070: 335e 87bd 6f65 38bd 3fea 14bd ed62 2cbe
00000080: 9414 e1bd 2982 3abd cc7b cabd d208 72bb
00000090: 9f26 a2bd fd43 0ebe b894 ebbd 4335 65bd
000000a0: b02c b1bd 3c7e 78bc 787b c33b 9920 663b
000000b0: 7898 72bd 3c4a 70bd a52f d8bc 0e19 10bd
000000c0: d874 b83a 6127 53bd 0665 48be b99d 22be
000000d0: 53ca 8abd d6d7 93bb 9b43 85bd 12e6 9abd
000000e0: 774e 0dbe 3d62 9fbd d00b 27be 8da2 6dbc
000000f0: 5241 60be 956b 993b 3d7b d6bc c82f e9bd
00000100: 040c 0cbe 5048 5fbd db1e c2bd d7a7 adbd
00000110: 57f5 1dbe 83eb 03be d1a5 1cbe 4248 cfbd
00000120: d186 d3bd 0fb5 62bc 7aef 5a3c 02a6 a63c
00000130: a8f3 1dbe 39cd b73d 62cb 41bd df89 c63c
00000140: 2980 d6bc d210 99be 26ba 8bbd f9b5 a0bc
00000150: 166b 10be 118b 2dbe cb0c 1dbe 7aa8 17be
00000160: 920c 59be 34e7 38bd a26a fabd 6e39 6dbe
00000170: b8a2 d73d 6cdd a8bc 97f2 c7bd 8bff c2bc
00000180: def0 84bd ba6b 5cbc 4a07 803d 2da9 36be
00000190: 342d 66bd d7d8 6cbe ce63 d4bd dcdf f4bd
000001a0: cfd1 17be 7698 a6bd 6474 84bd 9cd2 8ebd
000001b0: bcbd 32be cd84 0fbe ee35 54be 5f83 38be
000001c0: b01e f3bd 31a9 9dbd 419e ea3c 9d15 62bd
000001d0: 241b 08be 7498 fcbd c788 3dbd 7d6e 06be
000001e0: c73e 40be a04e 3abc 4ab0 88be a9dd 51bd
000001f0: 4be0 a33d d37f 0bbe 6661 43bc 0022 e4bd

model.4.weight f4 [128, 128]
-0.059242703 -0.17771064 0.004409853 -0.030986492 0.019340668 0.06623916 0.091904335 -0.06295332
0.033733547 0.008229871 0.033736713 0.017416285 -0.08808085 -0.051942308 0.02427851 -0.09745481
0.015892334 -0.042041417 -0.022243813 0.0041369637 0.022144452 -0.030286068 0.081290714 0.037138678
-0.060344815 -0.020803701 0.014660111 0.058594923 -0.011801296 -0.04419135 -0.075500876 -0.1028916
0.024764895 -0.13823296 0.07993119 0.018878026 -0.002027444 -0.031696767 0.09709062 -0.060505133
-0.008548412 0.015585208 0.017270505 0.037448112 -0.034268722 -0.034098692 0.039251294 0.08785919
0.05904084 0.025422918 -0.013406564 0.055986244 0.021879205 0.0056589036 -0.103678726 0.02747485
0.0073719644 -0.062964104 -0.020825846 -0.054790128 -0.05444832 -0.0013778845 0.01222909 0.007007589
0.08035543 0.08091254 0.07486856 -0.046017684 -0.043399032 0.051334526 -0.03852468 -0.096019305
0.063512236 0.03343159 0.0026997132 -0.033931393 -0.016592246 0.020443415 0.023695892 0.027903968
-0.04057716 -0.043243572 0.04318469 -0.0701955 -0.04566318 0.058110148 0.0014954552 -0.04041036
-0.056441575 -0.091841795 -0.05934232 -0.039074164 0.05730754 -0.0540536 0.061519302 -0.008195425
-0.013269985 0.025187362 -0.090815336 -0.06351491 -0.0032889051 0.06266824 0.06671055 0.008143365
-0.116324484 -0.00854762 0.032176483 -0.13716568 0.059332874 0.011851549 -0.030717162 -0.074988544
-0.07342709 0.09230656 -0.03429907 -0.083078034 -0.058391437 0.11450126 -0.05641111 -0.08377102
-0.051766075 0.052741904 -0.076159574 -0.021611888 -0.1694027 0.04839799 -0.032081995 0.052982185
-0.030522361 -0.049505565 -0.00061819644 -0.07206969 0.0036443165 0.089594744 0.03316253 0.031097783
0.039082393 0.021429734 0.022397922 -0.0019655272 -0.03646998 -0.10917584 0.05149518 -0.0064467946
-0.0903565 0.0568074 -0.037799545 -0.09979031 0.1193821 -0.019482624 0.06583998 0.2646092
0.06378846 -0.0203391 -0.006626437 -0.030033464 -0.051044896 -0.07026023 -0.001037734 -0.006993077
0.0741927 -0.06263373 0.010870395 0.04770906 0.056535024 -0.052613687 -0.04756588 0.039054498
-0.06566391 0.06174325 -0.029891914 -0.009718328 -0.020637998 -0.059410796 0.026533874 -0.08067127
0.018965071 0.049682245 -0.11656933 0.058527626 -0.05289237 -0.0767593 0.031732555 0.01838714
0.02078415 -0.03357351 -0.020517921 -0.06491757 -0.08276961 0.02510439 0.10205914 0.053178802
0.03919521 0.049608056 -0.028308967 -0.061581753 -0.03157084 -0.06617785 0.050084725 -0.03986069
-0.058695327 -0.009744163 -0.0941484 0.06313407 -0.018144205 -0.02671678 -0.08063233 0.0049632713
-0.04608442 -0.07144722 0.0121451365 -0.07968323 0.01063513 -0.016335763 -0.03387916 -0.014087133
0.010140832 -0.1446779 0.007140694 -0.04928327 -0.032824878 -0.055559155 -0.00025836055 0.05514016
-0.025980178 -0.044961605 -0.02751079 -0.1161524 0.06592706 0.01801649 -0.029386006 -0.025823722
0.08316138 0.076565996 0.002750284 -0.011533252 0.08173163 0.008565651 0.06942116 0.15272279
-0.0036482252 0.053220324 -0.09813011 0.071845636 0.055202294 0.059085455 -0.040867213 -0.14712521
0.08537843 -0.012618104 -0.082974575 -0.07112146 0.015665814 0.08522438 -0.06858061 0.019414388
00000000: 7aa8 72bd c7f9 35be 8780 903b 62d7 fdbc
00000010: 5270 9e3c 66a8 873d 5738 bc3d aced 80bd
00000020: 302c 0a3d 95d6 063c 822f 0a3d 99ac 8e3c
00000030: bc63 b4bd 75c1 54bd bae3 c63c 6396 c7bd
00000040: a430 823c 9f33 2cbd a838 b6bc 5e8f 873b
00000050: 4868 b53c 7d1a f8bc bf7b a63d ba1e 183d
00000060: 202c 77bd 866c aabc f630 703c 3b01 703d
00000070: 395a 41bc fd01 35bd 34a0 9abd d5b8 d2bd
00000080: c0df ca3c f18c 0dbe f7b2 a33d 17a6 9a3c
00000090: dede 04bb 78d4 01bd 72d7 c63d 3bd4 77bd
000000a0: a30e 0cbc 1a59 7f3c e07a 8d3c 3163 193d
000000b0: 5c5d 0cbd 12ab 0bbd f7c5 203d 85ef b33d
000000c0: cfd4 713d b943 d03c 34a7 5bbc d551 653d
000000d0: 053c b33c 536e b93b 8355 d4bd f012 e13c
000000e0: 8590 f13b 53f3 80bd f79a aabc 9d6b 60bd
000000f0: 3405 5fbd 229a b4ba 855c 483c eb9f e53b
00000100: 6391 a43d 79b5 a53d b054 993d 0a7d 3cbd
00000110: 2fc3 31bd 2744 523d 0ecc 1dbd c5a5 c4bd
00000120: b412 823d 90ef 083d aced 303b a5fb 0abd
00000130: 76ec 87bc f378 a73c e31d c23c dd96 e43c
00000140: 3c34 26bd 2c20 31bd 6ee2 303d a9c2 8fbd
00000150: 5109 3bbd e804 6e3d 2603 c43a 5585 25bd
00000160: 482f 67bd 8d17 bcbd ef10 73bd 3b0c 20bd
00000170: 50bb 6a3d 4f67 5dbd aafb 7b3d 1b46 06bc
00000180: 5a6a 59bc ba55 ce3c 64fd b9bd 1b14 82bd
00000190: ac8a 57bb 3558 803d 8a9f 883d c06b 053c
000001a0: 883b eebd 510b 0cbc 7dcb 033d 2975 0cbe
000001b0: 0707 733d 002d 423c 8fa2 fbbc 9893 99bd
000001c0: f160 96bd 390b bd3d 2e7d 0cbd d124 aabd
000001d0: dc2b 6fbd a37f ea3d 560f 67bd 2490 abbd
000001e0: aa08 54bd e507 583d 8df9 9bbd 6a0b b1bc
000001f0: e777 2dbe f93c 463d 6968 03bd d903 593d
00000200: 080a fabc 59c6 4abd 760e 22ba 4699 93bd
00000210: 7cd5 6e3b 737d b73d 6fd5 073d c7c0 fe3c
00000220: dc14 203d 698d af3c d97b b73c 13d0 00bb
00000230: 8c61 15bd 9597 dfbd 9cec 523d a23f d3bb
00000240: d40c b9bd e0ae 683d b2d3 1abd dd5e ccbd
00000250: 9a7e f43d 069a 9fbc 1dd7 863d db7a 873e
00000260: 86a3 823d 2f9e a6bc 9522 d9bb bd08 f6bc
00000270: 7414 51bd 98e4 8fbd 9304 88ba 2f26 e5bb
00000280: 58f2 973d 1d46 80bd be19 323c 936a 433d
00000290: 4591 673d 7381 57bd 71d4 42bd 9cf7 1f3d
000002a0: cd7a 86bd 7de6 7c3d e3df f4bc 9f39 1fbc
000002b0: 0511 a9bc bc58 73bd 915d d93c fb36 a5bd
000002c0: a35c 9b3c 9c7f 4b3d e7bb eebd aaba 6f3d
000002d0: aba5 58bd fb33 9dbd fff9 013d a1a0 963c
000002e0: 8643 aa3c 6084 09bd 3315 a8bc 81f3 84bd
000002f0: 1d83 a9bd b9a7 cd3c 6204 d13d 04d2 593d
00000300: 288b 203d d131 4b3d 35e8 e7bc 263d 7cbd
00000310: 6d50 01bd 4188 87bd a425 4d3d f644 23bd
00000320: 836a 70bd fba5 1fbc e0d0 c0bd 6f4c 813d
00000330: 28a3 94bc 26dd dabc 9022 a5bd f0a2 a23b
00000340: 04c3 3cbd ec52 92bd 65fc 463c f630 a3bd
00000350: f83e 2e3c 94d2 85bc e0c4 0abd b8cd 66bc
00000360: bb25 263c 7226 14be 7cfc e93b 41dd 49bd
00000370: 6173 06bd ff91 63bd 9174 87b9 a6da 613d
00000380: 62d4 d4bc a929 38bd 4f5e e1bc 4fe1 edbd
00000390: c404 873d 5197 933c ecba f0bc 458c d3bc
000003a0: 8350 aa3d a2ce 9c3d 1c3e 343b f7f5 3cbc
000003b0: ea62 a73d f256 0c3c ae2c 8e3d 5d63 1c3e
000003c0: 1017 6fbb 8efd 593d 70f8 c8bd ce23 933d
000003d0: cd1b 623d 9703 723d 6164 27bd fea7 16be
000003e0: e3da ae3d 2abc 4ebc 93ee a9bd 21a8 91bd
000003f0: 9855 803c 1f8a ae3d fe73 8cbd ec0a 9f3c

model.4.bias f4 [128]
-0.08319477 -0.0476011 -0.11722002 0.039110493 -0.10097678 -0.1544353 -0.100712866 -0.074374795
-0.11277486 -0.23452431 -0.07635271 -0.04646879 -0.08348014 0.0084822625 -0.06872718 0.024080671
-0.098986976 -0.13923599 -0.11734705 -0.014728058 -0.022563472 -0.17100699 -0.10511137 -0.029567877
-0.13383672 0.0045842663 -0.00012249034 -0.101992704 -0.114563935 -0.05608595 -0.06331203 -0.024257934
-0.10501675 -0.07748784 -0.12785365 -0.1024691 0.025160553 -0.001262086 -0.038330805 -0.0023898613
-0.029420719 -0.0729686 -0.05647242 -0.008445021 -0.064295985 -0.086769 -0.12507877 0.22214614
-0.09913731 -0.09144052 -0.24835391 0.19983752 -0.01985058 -0.0853027 -0.12764843 -0.06581417
-0.17397295 0.01812999 -0.16510037 -0.040615622 -0.14106637 0.030792288 -0.108207434 -0.09686659
-0.075920805 -0.05679904 -0.072417885 0.24678141 -0.058360714 -0.10556005 -0.023024 -0.044141192
0.0060697095 0.06598053 0.06850456 -0.20246279 -0.1850497 -0.09602267 -0.042020224 -0.19233268
0.0048959837 -0.2220591 -0.09867228 0.0025274286 -0.1281728 -0.08270937 -0.12612754 -0.063986674
-0.063043796 0.0047191093 -0.09827146 -0.113063306 -0.024397437 -0.004044502 -0.047298256 0.020605514
-0.08719812 -0.05778496 -0.033726487 -0.15054199 -0.13450667 -0.020249184 -0.074211545 -0.13042502
-0.13981482 -0.13326153 -0.100047484 -0.13579421 -0.1010624 -0.16121596 0.015386381 0.008722846
-0.11357546 0.0067855897 0.0017495089 -0.061705116 -0.09445678 0.010707863 -0.025575282 -0.03922156
-0.0035047408 0.010384021 -0.09738329 -0.044319235 -0.05214941 -0.15762836 -0.02525587 -0.1475321
00000000: 0562 aabd 5ff9 42bd 0d11 f0bd 5332 203d
00000010: eacc cebd 4a24 1ebe 8c42 cebd d051 98bd
00000020: 81f6 e6bd 2427 70be cf5e 9cbd 0f56 3ebd
00000030: a3f7 aabd 30f9 0a3c d6c0 8cbd d444 c53c
00000040: afb9 cabd e193 0ebe a653 f0bd f44d 71bc
00000050: 08d7 b8bc 751c 2fbe a144 d7bd 5538 f2bc
00000060: 7e0c 09be 9d37 963b c070 00b9 8de1 d0bd
00000070: 7fa0 eabd 62ba 65bd bda9 81bd 93b8 c6bc
00000080: 0613 d7bd f2b1 9ebd 11ec 02be 52db d1bd
00000090: 811d ce3c 946c a5ba c300 1dbd 389f 1cbb
000000a0: b803 f1bc 9070 95bd a04f 67bd fc5c 0abc
000000b0: 9dad 83bd f2b3 b1bd a614 00be 477a 633e
000000c0: 8108 cbbd 2b45 bbbd 7d50 7ebe 35a2 4c3e
000000d0: af9d a2bc 2fb3 aebd 45b6 02be 94c9 86bd
000000e0: f725 32be 5885 943c 1210 29be 915c 26bd
000000f0: b473 10be 1c40 fc3c dc9b ddbd fe61 c6bd
00000100: 5e7c 9bbd 1ca6 68bd d44f 94bd 44b4 7c3e
00000110: a50b 6fbd de2f d8bd d49c bcbc 65cd 34bd
00000120: 6ae4 c63b cd20 873d 1e4c 8c3d 6852 4fbe
00000130: ab7d 3dbe 89a7 c4bd 661d 2cbd dcf2 44be
00000140: 7d6e a03b 7663 63be b114 cabd 37a3 253b
00000150: bb3f 03be 8863 a9bd 9427 01be 720b 83bd
00000160: 1b1d 81bd c2a2 9a3b 8c42 c9bd bc8d e7bd
00000170: 22dd c7bc be87 84bb d1bb 41bd e5cc a83c
00000180: ee94 b2bd ecaf 6cbd c924 0abd ae27 1abe
00000190: 1ebc 09be 9ee1 a5bc 39fc 97bd 238e 05be
000001a0: 9e2b 0fbe b675 08be b2e5 ccbd a30d 0bbe
000001b0: cef9 cebd cc15 25be 2917 7c3c 45ea 0e3c
000001c0: 409a e8bd a759 de3b c74f e53a 81be 7cbd
000001d0: 8e72 c1bd 0870 2f3c 4183 d1bc c9a6 20bd
000001e0: cbaf 65bb be21 2a3c e470 c7bd 1688 35bd
000001f0: 9f9a 55bd 5469 21be 66e5 cebc a812 17be

model.6.weight f4 [3, 128]
-0.056187518 0.028068798 -0.037625346 0.45366627 -0.05473801 0.0051384456 0.054731645 -0.048521522
-0.004065297 0.0034774274 -0.057885963 0.06350394 -0.03911979 -0.019305158 -0.026926992 0.017185831
0.03986493 0.003275439 -0.024725934 -0.034306955 0.18013665 -0.011989475 -0.02120538 0.014184711
0.02299599 -0.2619224 0.00038476384 -0.0066714454 0.00446729 0.033612162 -0.012583599 -0.053980242
-0.0085522765 0.036539387 -0.017661272 0.025254281 -0.6303206 0.0059182653 0.00971472 -0.12407008
-0.0037858863 0.024285963 -0.025054073 0.0016879847 0.019537877 -0.031230228 -0.03083437 -0.18737867
-0.020375 -0.059724 -0.03939054 0.03938343 -0.0012649151 -0.01705192 -0.002973116 0.0055110133
-0.007186248 -0.0053488524 -0.0047864486 0.001644632 -0.04118364 0.01777607 -0.027488323 -0.028623754
-0.009634138 0.010099071 0.007798873 -0.10197822 -0.0070035905 -0.019378588 -0.006397463 0.026099734
0.3202768 0.67058265 0.0145947635 -0.04757958 -0.019960742 0.0004569571 -0.0042083715 -0.007094333
0.025975458 0.0041840924 -0.0034721284 0.021016484 -0.0343356 0.021447757 0.02011819 -0.03135297
0.017615533 -0.015852079 -0.023098264 -0.060165424 0.023688503 -0.0068865693 0.06231849 -0.022383558
-0.021523422 0.01334972 -0.4716666 -0.0657034 0.0020516813 0.06595863 -0.05813191 -0.06759942
0.0074730176 0.01896723 -0.0061547165 0.057267815 -0.035561174 0.02931548 0.038495865 0.07969413
0.013517476 -0.086202525 0.0772035 0.0051614563 0.010835821 -0.057217907 -0.014811487 0.026210567
-0.37032786 0.025209324 -0.05189342 0.04822086 -0.02774462 -0.012299658 -0.042584397 -0.019676417
-0.031621415 0.007360353 0.014003688 0.5065215 -0.062258676 0.0070316563 0.047863506 -0.033692062
-0.012408485 0.00434274 -0.048239086 -0.017784227 -0.01582225 -0.03457799 -0.0070879417 0.026187591
0.024412885 -0.019158894 -0.002738366 -0.022139067 0.14534345 -0.016349629 -0.0012462201 -0.008312443
-0.0018578279 0.10159496 0.031412415 -0.0146705685 0.00038441844 0.01537757 -0.01969303 -0.04452817
0.0051672407 0.031541236 0.029499406 0.016514484 0.38927177 -0.0075373384 0.03529227 0.36532968
0.008128094 0.023265744 0.025246887 0.0061114654 -0.014996145 0.029162934 -0.031327758 0.043437947
0.020550355 0.018907908 0.025654785 -0.066566005 -0.013860192 -0.036695305 0.037587248 -0.060042698
0.014399842 0.031901732 -0.016934833 -0.041163895 -0.02388527 0.004237084 -0.007756566 -0.018019395
-0.02969043 0.022709139 -0.060515594 -0.03068485 0.0028263575 0.0024519402 0.06913057 -0.023195287
-0.5396498 0.12636073 0.02597808 -0.04061648 -0.008223877 0.018359335 0.032781683 0.012522286
-0.0025371755 -0.008589361 0.012124421 -0.012699281 -0.037361026 -0.007309507 0.07611709 0.009074163
-0.008745834 -0.012477331 0.082746744 0.10245949 -0.009665056 0.009080138 0.025406886 -0.06317519
-0.042734243 0.028367478 -0.30690175 -0.039059147 -0.029457394 0.0016950369 0.030310133 0.020137474
-0.051189415 -0.047253944 0.022822132 0.045825385 -0.01305568 -0.020989127 0.013633799 -0.085092805
0.014125045 -0.0009094409 -0.0034189841 -0.0040968196 -0.0005305466 -0.0076785805 -0.053613976 0.030635258
-0.29989535 0.0077196737 0.057397358 0.04065999 -0.041486837 0.031623196 -0.031705055 -0.08768761
00000000: e224 66bd 89f0 e53c 091d 1abd f246 e83e
00000010: f734 60bd 6860 a83b 4a2e 603d 81be 46bd
00000020: 2f36 85bb 8de5 633b d519 6dbd 5b0e 823d
00000030: 133c 20bd da25 9ebc ff95 dcbc 4dc9 8c3c
00000040: 6949 233d bfa8 563b 0b8e cabc 7385 0cbd
00000050: be75 383e 816f 44bc e8b6 adbc fd66 683c
00000060: 1662 bc3c b11a 86be 21ba c939 249c dabb
00000070: 5862 923b e8ac 093d 712b 4ebc 631a 5dbd
00000080: d91e 0cbc 53aa 153d 5fae 90bc 11e2 ce3c
00000090: b15c 21bf 02ee c13b 7d2a 1f3c 7418 febd
000000a0: a21c 78bb 5bf3 c63c 333e cdbc 5e3f dd3a
000000b0: e60d a03c 89d6 ffbc 5c98 fcbc 32e0 3fbe
000000c0: 79e9 a6bc 27a1 74bd fa57 21bd 8550 213d
000000d0: 82cb a5ba 78b0 8bbc 9cd8 42bb bb95 b43b
000000e0: 9e7a ebbb 6d45 afbb a4d7 9cbb b190 d73a
000000f0: 2db0 28bd 1f9f 913c 312f e1bc 5d7c eabc
00000100: 81d8 1dbc 9376 253c b08d ff3b f5d9 d0bd
00000110: 607e e5bb d8bf 9ebc cfa1 d1bb 1ccf d53c
00000120: 52fb a33e 4eab 2b3f e01e 6f3c cee2 42bd
00000130: b684 a3bc be93 ef39 61e6 89bb 9477 e8bb
00000140: 7cca d43c b61a 893b a68c 63bb c32a ac3c
00000150: 7ca3 0cbd 35b3 af3c e7ce a43c f96b 00bd
00000160: 734e 903c 38dc 81bc 9238 bdbc 0570 76bd
00000170: 640e c23c bba8 e1bb ac41 7f3d b95d b7bc
00000180: e351 b0bc c9b8 5a3c 497e f1be 818f 86bd
00000190: 8075 063b 5115 873d ba1b 6ebd 9171 8abd
000001a0: 37e0 f43b 2a61 9b3c 81ad c9bb a891 6a3d
000001b0: 98a8 11bd 0427 f03c d7ad 1d3d ad36 a33d
000001c0: 6778 5d3c f38a b0bd de1c 9e3d 6f21 a93b
000001d0: ba88 313c 535d 6abd e1ab 72bc 8bb7 d63c
000001e0: 9d9b bdbe c983 ce3c 328e 54bd 3d83 453d
000001f0: af48 e3bc 8184 49bc fa6c 2ebd 7030 a1bc
00000200: 7585 01bd 1e2f f13b b96f 653c 65ab 013f
00000210: f402 7fbd cf69 e63b 860c 443d b000 0abd
00000220: f54c 4bbc 8b4d 8e3b 5996 45bd 3ab0 91bc
00000230: aa9d 81bc a7a1 0dbd f741 e8bb 5c87 d63c
00000240: 88fd c73c 1df3 9cbc 2876 33bb fd5c b5bc
00000250: ead4 143e a8ef 85bc 3558 a3ba ea30 08bc
00000260: 5c82 f3ba 0511 d03d 4eaa 003d d35c 70bc
00000270: c58b c939 34f2 7b3c 4753 a1bc 2c63 36bd
00000280: f551 a93b 6231 013d bda8 f13c 6249 873c
00000290: a14e c73e c7fb f6bb a18e 103d 7e0c bb3e
000002a0: b22b 053c cd97 be3c 8fd2 ce3c b042 c83b
000002b0: 64b2 75bc 1be7 ee3c 8951 00bd fdeb 313d
000002c0: 3859 a83c c2e4 9a3c fc29 d23c c253 88bd
000002d0: dc15 63bc d14d 16bd 16f5 193d 55ef 75bd
000002e0: 51ed 6b3c 64ab 023d ebba 8abc 799b 28bd
000002f0: 0bab c3bc 3dd7 8a3b cb2a febb 699d 93bc
00000300: 5839 f3bc 8408 ba3c 33df 77bd cb5e fbbc
00000310: 693a 393b bbb0 203b 5494 8d3d 0b04 bebc
00000320: 7d26 0abf b564 013e fccf d43c 775d 26bd
00000330: 71bd 06bc 5166 963c 1646 063d 462a 4d3c
00000340: be46 26bb 64ba 0cbc 82a5 463c a510 50bc
00000350: e007 19bd 9784 efbb 47e3 9b3d ccab 143c
00000360: b04a 0fbc b86d 4cbc 2077 a93d 48d6 d13d
00000370: 2f5a 1ebc dcc4 143c 1a22 d03c fe61 81bd
00000380: 1a0a 2fbd ea62 e83c 3a22 9dbe 7cfc 1fbd
00000390: a250 f1bc 002c de3a f54c f83c 58f7 a43c
000003a0: feab 51bd 5a8d 41bd 7bf5 ba3c 66b3 3b3d
000003b0: 7ee7 55bc 64f1 abbc 4c60 5f3c 2345 aebd
000003c0: bc6c 673c 8c67 6eba 0911 60bb 9d3e 86bb
000003d0: 6114 0bba 9a9c fbbb 549a 5bbd cbf6 fa3c
000003e0: e28b 99be 51f5 fc3b 7e19 6b3d 178b 263d
000003f0: 1aee 29bd 5387 013d 29dd 01bd 9095 b3bd

model.6.bias f4 [3]
-0.051052015 -0.1768852 0.017592898
00000000: eb1b 51bd 6521 35be fb1e 903c
