exported_models/neural_networks/history_mlp/trained_models/model_hist_5_epoch_200_batch_64_lr_1e-05_vs_30_hl_256_256_256_256/mlp_dynamics.pth (torch, 823637 bytes, 10 tensors)

model.0.weight f4 [256, 25]
0	0xbdd1b511	-0.10239614
1	0xbdaa1e42	-0.083065525
2	0xbe4da8cf	-0.20083927
3	0x3deab47c	0.11460206
4	0xbc106147	-0.008812255
5	0xbe3df7e5	-0.18551596
6	0xbc464472	-0.01210128
7	0xbdbe19de	-0.092822775
8	0xbdb0a47e	-0.086251244
9	0xbd5b30ad	-0.053513218
10	0xbdab3192	-0.08359064
11	0x3e019514	0.12654525
12	0x3d4295aa	0.047506012
13	0xb8e76acf	-0.00011034833
14	0xbdc3225e	-0.095280394
15	0x3e31b58e	0.17354414
16	0xbe38d799	-0.18050994
17	0x3e317089	0.17328085
18	0xbd8e10ad	-0.069367744
19	0x3df450a5	0.11929444
20	0x3c29850f	0.010346665
21	0xbd7aa8bf	-0.061196085
22	0x3e04c597	0.12966
23	0xbe1b422d	-0.15161963
24	0x3dc53df8	0.0963096
25	0x3d59ddf4	0.053190187
26	0xbd89e492	-0.067330495
27	0xbddec08c	-0.10876569
28	0xbdfb2726	-0.12263326
29	0xbe4e0fc0	-0.20123196
30	0x3d374882	0.044746883
31	0xbd9f241f	-0.077705614
32	0x3c7d22d1	0.015450195
33	0xbde33c81	-0.110955246
34	0x3cd44a87	0.025914444
35	0xbd946c63	-0.072472356
36	0xbe01b2b9	-0.12665834
37	0x3df5cef4	0.12002364
38	0xbd791599	-0.060811613
39	0x3d423647	0.047415044
40	0xbe103994	-0.14084464
41	0x3e33f379	0.17573346
42	0xbe299a4f	-0.1656277
43	0x3e1bbffe	0.15209958
44	0x3deb9857	0.11503666
45	0x3bf7f09b	0.007566524
46	0xbd5d10ea	-0.05397121
47	0x3d5a50bc	0.05329965
48	0xbd2a92d1	-0.04164392
49	0x3da83545	0.08213285
50	0x3e31dd55	0.17369588
51	0xbe1cc616	-0.15309939
52	0x3e4b1a6c	0.19834298
53	0x3d83e3aa	0.06439908
54	0xbd6938a7	-0.056938794
55	0x3c40fa26	0.01177839
56	0x3dff3d30	0.124628425
57	0x3e1fc806	0.15603647
58	0xbd91b33f	-0.071142666
59	0x3b998113	0.0046845763
60	0x3dcb75d4	0.09934583
61	0xbdecb5c6	-0.11558108
62	0x3d80ea21	0.062946565
63	0x3cef0730	0.029178232
64	0x3e30ac84	0.1725331
65	0xbd957858	-0.072983444
66	0xbd9eb3b1	-0.07749117
67	0x3dcc6f5c	0.099821776
68	0xbdb57915	-0.08860985
69	0xbdd3f123	-0.103487276
70	0x3c185887	0.00929845
71	0xbd6ca5ce	-0.05777531
72	0x3e52e250	0.20594144
73	0xbcf35ef3	-0.029708361
74	0xbd5c6622	-0.05380834
75	0xbddfff00	-0.10937309
76	0xbe1ba50a	-0.15199676
77	0x3e2bff35	0.16796573
78	0xbdcfcbe6	-0.101463124
79	0x3b85bbf5	0.004081244
80	0xbdbef4d6	-0.093240425
81	0x3bd17cbe	0.0063930443
82	0xbbc9cc01	-0.0061583524
83	0xbd5cf875	-0.053947885
84	0xbe163f89	-0.14672674
85	0xbc499df5	-0.012305726
86	0x3e2de986	0.16983613
87	0x3d9331aa	0.07187207
88	0xbdb7effa	-0.08981319
89	0x3ddfff80	0.10937405
90	0x3bbe0dee	0.0058000004
91	0xbe14c61c	-0.14528698
92	0xbc6965c0	-0.0142454505
93	0x3e20f2c6	0.1571761
94	0xbd11964d	-0.03554373
95	0x3e2d3354	0.16914111
96	0xbe02fc88	-0.12791646
97	0x3de66875	0.11250392
98	0x3ddda7e8	0.10823041
99	0x3dbb935f	0.09158968
100	0xbe5327d3	-0.2062066
101	0xbc7f0db5	-0.015567233
102	0xbd2fa6d3	-0.042883705
103	0xbe2c9ee0	-0.16857481
104	0x3e2b6a16	0.16739687
105	0x3dec5e32	0.11541404
106	0x3e319889	0.17343344
107	0xbe627533	-0.2211502
108	0xbd91d655	-0.07120959
109	0x3da64539	0.08118672
110	0xbde9e534	-0.1142067
111	0x3da4981a	0.080368236
112	0xbe233492	-0.15938023
113	0x3e67ef8b	0.22649972
114	0xbd657125	-0.056016106
115	0x3da35bd7	0.079765014
116	0xbd1a9a66	-0.037744902
117	0x3d9e38db	0.07725688
118	0xbe218e9b	-0.15777056
119	0x3e2be6bd	0.16787238
120	0x3d0b050f	0.03394037
121	0xbe1967c4	-0.1498099
122	0x3db9e02a	0.09075959
123	0x3e36b357	0.1784185
124	0xbca4eaec	-0.02013155
125	0x3e0b53eb	0.13606231
126	0xbc3b6de9	-0.011439779
127	0x3e3ba14c	0.18323249
128	0x3e3642b6	0.17798886
129	0xbdff9706	-0.12479977
130	0x3d49d04d	0.049270917
131	0xbe24245d	-0.16029496
132	0x3dc6ab9d	0.097007014
133	0xbd8ffc2c	-0.0703052
134	0x3dd7d197	0.10538023
135	0xbdf5ac0c	-0.11995706
136	0xbc503a1e	-0.012709169
137	0x3c28dfb1	0.010307238
138	0x3d229801	0.039695743
139	0x3d887783	0.0666342
140	0xbd585c6e	-0.052822523
141	0xbe3e8a4f	-0.18607448
142	0x3dab521f	0.08365273
143	0x3d7342a6	0.059389733
144	0xbe1a41ff	-0.15064238
145	0x3d73317b	0.05937336
146	0x3e0d2570	0.13783813
147	0xbd30693c	-0.04306911
148	0xbdc36a76	-0.0954179
149	0x3d8e390f	0.06944477
150	0x3d624b72	0.05524773
151	0x3e3ec80b	0.18630998
152	0xbe47e41d	-0.19520612
153	0xbdc5dc90	-0.096612096
154	0x3c9e5dd2	0.019331846
155	0x3cf8daad	0.03037771
156	0x3df27c0c	0.11840066
157	0xbd437142	-0.047715433
158	0x3e0471d0	0.12934041
159	0xbda97aab	-0.0827535
160	0x3db5f65e	0.088848814
161	0xbdc30a1b	-0.09523412
162	0xbdcf9ea7	-0.101376824
163	0xbe669392	-0.22517231
164	0x3df8835c	0.1213443
165	0x3e07afd8	0.13250673
166	0xbe002749	-0.12514986
167	0x3e47b780	0.19503593
168	0xbd8adf58	-0.06780881
169	0xbdf57dfc	-0.1198692
170	0x3d9fa28b	0.077946745
171	0x3cf016be	0.02930772
172	0x3e4940e6	0.19653663
173	0xbc8eff4b	-0.017455718
174	0x3d20a71d	0.03922187
175	0x3dd41e96	0.10357396
176	0xbaee3fc5	-0.0018176964
177	0x3de87f6d	0.113524295
178	0xbc17e637	-0.009271196
179	0xbe0abc3b	-0.13548367
180	0x3e1a4974	0.15067083
181	0x3c365728	0.011129178
182	0xbe35e9ad	-0.17764921
183	0x3e059f27	0.13048993
184	0x3d6f3965	0.058404345
185	0xbdb90735	-0.09034578
186	0xbe262271	-0.16224076
187	0x3e1ca978	0.15299022
188	0xbe1a8a6e	-0.15091869
189	0x3d8f6825	0.07002286
190	0xbe28d3e8	-0.16487086
191	0xbdab172e	-0.083540305
192	0xbd802132	-0.062563315
193	0xbe294c3d	-0.16532989
194	0x3e2f63b5	0.17127879
195	0x3d1a197a	0.037621953
196	0x3e548b42	0.20756248
197	0x3d2f813c	0.042847857
198	0xbe0edf14	-0.13952285
199	0x3d35fff4	0.04443355
200	0xbb64476a	-0.0034832605
201	0x3db4804f	0.088135354
202	0xbccbc9b3	-0.024876451
203	0x3c617bdf	0.013762443
204	0x3d8d3a9c	0.068959445
205	0x3d1cb216	0.038255773
206	0xbe126bd6	-0.14298949
207	0xbd320d80	-0.043469906
208	0xbbe3112f	-0.0069295387
209	0xbe048a12	-0.12943295
210	0xbdc36a0d	-0.09541712
211	0xbe0a8ab4	-0.13529474
212	0xbdde199d	-0.10844729
213	0xbdaa0689	-0.08302028
214	0xbdaea945	-0.08528379
215	0xbe4547e1	-0.19265701
216	0x3d277706	0.040884994
217	0xbd6a1715	-0.05715092
218	0x3d5501ef	0.052003797
219	0xbdeebb55	-0.116568245
220	0x3e23c245	0.15992077
221	0x3e15ad5b	0.14616911
222	0x3db4b6ea	0.088239506
223	0xbcb565c4	-0.022143252
224	0x3e4c0b27	0.1992613
225	0x3ccd28d8	0.02504389
226	0xbdca15a9	-0.098674126
227	0x3da151df	0.07876944
228	0xbd4c2894	-0.049843386
229	0xbdb06a61	-0.0861404
230	0xbe490e07	-0.19634257
231	0xbda9ffc9	-0.0830074
232	0xbdec3f20	-0.11535478
233	0xbe08b42a	-0.13349977
234	0xbd0e853e	-0.03479504
235	0x3d8067c9	0.062697954
236	0x3d9eeeb9	0.077603765
237	0x3cc70940	0.024296403
238	0xbd3efeb9	-0.04662964
239	0xbd65a784	-0.05606796
240	0x3de5a796	0.11213605
241	0x3d9e827c	0.07739732
242	0xbd24b944	-0.040215746
243	0xbc372a72	-0.011179553
244	0x3d930948	0.07179505
245	0x3db8ba34	0.090198904
246	0x3d7397bc	0.059470877
247	0xbe48a65f	-0.19594716
248	0xbd681fdc	-0.05667101
249	0x3df40707	0.11915403
250	0x3e2b7537	0.16743933
251	0xbdfe667a	-0.124218896
252	0xbd9bdf49	-0.07610948
253	0xbcc7aaea	-0.02437349
254	0x3e2292de	0.15876338
255	0xbdb0218d	-0.08600149

model.0.bias f4 [256]
0	0x3e5ed285	0.21759994
1	0xbe1a0163	-0.15039591
2	0xbdb5378d	-0.08848486
3	0xbd4d4f7b	-0.050124627
4	0x3cd5f1ff	0.02611637
5	0xbd48a989	-0.048989806
6	0x3c873ad2	0.01650754
7	0x3e6a5a37	0.22885977
8	0x3c6b9152	0.014377909
9	0xbdb9cf3f	-0.09072732
10	0x3e520528	0.2050978
11	0x3d97d56a	0.074137524
12	0xbe13f7b6	-0.14449963
13	0x3dc4269e	0.09577678
14	0x3da16dfd	0.07882307
15	0x3e3c2f86	0.18377504
16	0x3dcbd401	0.09952546
17	0x3e4b9c7c	0.19883913
18	0x3e6444b7	0.22291838
19	0xbe2159e4	-0.15756947
20	0x3dd4d96b	0.10393032
21	0xbde0daba	-0.10979219
22	0x3c316bb6	0.010828903
23	0xbd11d892	-0.03560693
24	0x3dfbdbc6	0.12297778
25	0xbd7568d6	-0.059914432
26	0xbcc46456	-0.023973625
27	0xbc760476	-0.015015712
28	0x3aedda5e	0.0018146744
29	0x3e8e3d2e	0.2778105
30	0x3e5771fb	0.21039574
31	0x3d87744f	0.06613981
32	0xbe3f1c70	-0.18663192
33	0x3c592ddc	0.013255563
34	0xbdd8e060	-0.10589671
35	0x3e779aec	0.24180192
36	0xbe303a68	-0.1720978
37	0x3da9273c	0.082594365
38	0x3e812269	0.25221565
39	0x3e70a050	0.23498654
40	0x3ccda736	0.025104146
41	0xbcd32b70	-0.025777549
42	0x3da1c218	0.078983486
43	0x3ebd06a7	0.36919138
44	0x3e321de0	0.17394209
45	0xbd58ddd3	-0.052945923
46	0xbde44e8f	-0.11147796
47	0xbd028cc3	-0.031872522
48	0x3de5a359	0.11212797
49	0xbda908c1	-0.08253623
50	0x3d987460	0.07444072
51	0xbdbc5199	-0.09195251
52	0xbd803084	-0.062592536
53	0x3e013285	0.12616928
54	0xbe4a6c56	-0.1976789
55	0x3d994ad0	0.074849725
56	0xbe07d2c4	-0.13263994
57	0x3dab038f	0.08350288
58	0x3e44a20d	0.19202442
59	0xbdab63d2	-0.083686486
60	0x3e0e1b90	0.13877702
61	0xbe34bf53	-0.1765111
62	0xbe03b7ac	-0.12863034
63	0x3e393f72	0.18090609
64	0x3dbc482e	0.09193455
65	0xbe840ad4	-0.2578951
66	0x3e36d8f5	0.178562
67	0x3e609de7	0.21935235
68	0x3e2ff370	0.17182708
69	0x3e26efb4	0.16302377
70	0x3d2e6de0	0.042585254
71	0xbdfa0c9b	-0.122094356
72	0x3d27a121	0.04092515
73	0xbcd6906d	-0.026191914
74	0xbd34f236	-0.044176303
75	0xbdf8c8fb	-0.12147709
76	0xbdd3f277	-0.10348981
77	0x3dd2170a	0.102583006
78	0xbe0ae96f	-0.1356561
79	0xbcfce8cf	-0.03087273
80	0xbd41a3f6	-0.047275506
81	0x3e876754	0.2644602
82	0x3dca9ab0	0.098927855
83	0x3a527f0e	0.0008029797
84	0x3d22acf4	0.039715722
85	0x3e9481a8	0.2900517
86	0x3daed709	0.085371085
87	0x3e4ec62d	0.20192786
88	0x3e3e3818	0.18576086
89	0x3ca28333	0.019837951
90	0xbe4cbae7	-0.19993173
91	0xbe9ea593	-0.30985698
92	0x3d0f014a	0.03491334
93	0x3ea4b615	0.32170168
94	0xbb3a8012	-0.0028457684
95	0xbd205f6a	-0.039153494
96	0xbdd4ca59	-0.10390157
97	0x3de2b404	0.110694915
98	0x3e376134	0.17908174
99	0xbe52fa28	-0.2060324
100	0xbd55cb90	-0.052196085
101	0x3cc20f0b	0.023688814
102	0x3e73104d	0.23736687
103	0x3c461a0f	0.012091174
104	0x3e316fee	0.17327854
105	0x3daa7984	0.083239585
106	0x3e0d8948	0.138219
107	0xbe6d166b	-0.23153083
108	0x3c9c42c5	0.019074807
109	0xbd5601dd	-0.05224787
110	0x3dabf9f4	0.08397284
111	0x3e47482b	0.19461124
112	0xbd967b64	-0.07347754
113	0xbdc1af8f	-0.09457313
114	0xbe6850a4	-0.22687012
115	0xbdd6e413	-0.104927205
116	0x3d4c8787	0.049933936
117	0xbe0f149b	-0.13972704
118	0xbdbf2629	-0.0933345
119	0x3e2fdf7b	0.17175095
120	0x3ea5d78e	0.32391018
121	0x3d0b8603	0.03406335
122	0xbd5c7c6d	-0.0538296
123	0x3e52e1ab	0.20593898
124	0x3db83e6c	0.08996281
125	0x3e354d6b	0.17705314
126	0xbe35ea43	-0.17765145
127	0xbd580438	-0.0527384
128	0x3e06139b	0.13093416
129	0x3d871f6e	0.065977916
130	0xbde05926	-0.10954504
131	0x3df1ffe8	0.11816388
132	0x3dd4a405	0.10382847
133	0x3e239b02	0.159771
134	0xbe4fd1cc	-0.20294875
135	0xbe49e4a4	-0.19716126
136	0xbc49f914	-0.012327451
137	0x3e2f7340	0.17133808
138	0xbe0220ab	-0.12707774
139	0xbe4da212	-0.20081356
140	0xbe6cc4f2	-0.23122004
141	0xbd3ee998	-0.04660949
142	0x3d8969c2	0.06709625
143	0xbe575c79	-0.2103137
144	0xbd85af45	-0.06527571
145	0xbe0eda22	-0.13950399
146	0x3e1e083f	0.15432833
147	0xbe70f001	-0.23529054
148	0x3e9fc952	0.31208283
149	0xbd414d4a	-0.04719285
150	0x3d8d9ad1	0.069142945
151	0x3d211b22	0.039332516
152	0xbd26e1c1	-0.04074264
153	0x3cce5495	0.025186816
154	0x3e0dcdd3	0.13848047
155	0xbdf599ce	-0.119922265
156	0xbdffb19d	-0.12485049
157	0xbe6f7aa8	-0.23386633
158	0x3e10cfa6	0.14141712
159	0xbe1e603e	-0.15466401
160	0x3dd388df	0.103288405
161	0x3c8cdd00	0.017195225
162	0xbda79ddf	-0.081844084
163	0xbd23f6bb	-0.040030222
164	0x3c9114d3	0.017710125
165	0xbe8d1ff4	-0.2756344
166	0x3deedba9	0.116629906
167	0xbdbc89cf	-0.092059724
168	0xbda473a5	-0.0802987
169	0xbdece432	-0.11566962
170	0x3dc3956f	0.095499866
171	0x3d870de8	0.06594449
172	0x3d8df79e	0.06931995
173	0x3e655c0c	0.22398394
174	0x3df1981f	0.11796593
175	0x3dedd0fc	0.11612126
176	0x3b5ba331	0.0033514018
177	0x3de71628	0.11283523
178	0xbe4a5530	-0.19759059
179	0xbeac437b	-0.33645234
180	0xbdd5957f	-0.10428905
181	0x3e36908f	0.17828582
182	0x3def36fa	0.11680408
183	0xbde088cc	-0.10963592
184	0x3dd15a63	0.10222318
185	0xbd5dc65f	-0.05414426
186	0x3e526a67	0.20548402
187	0x3e09b4d5	0.13447888
188	0xbe0dc63f	-0.13845156
189	0x3e3ea6ee	0.18618366
190	0x3d84dda8	0.0648759
191	0x3e368680	0.17824745
192	0xbd8a4384	-0.06751159
193	0xbdde6246	-0.10858588
194	0x3e54c52a	0.20778337
195	0xbcb6790a	-0.022274513
196	0x3e5c7571	0.21529175
197	0xbdbfb1fa	-0.09360118
198	0x3e0dbf55	0.13842519
199	0xbe58131b	-0.21101038
200	0xbe2d4c4e	-0.16923639
201	0xbddf2896	-0.10896413
202	0x3da5339a	0.08066483
203	0x3e0f8a76	0.14017662
204	0xbe5b52ca	-0.214183
205	0x3dae4344	0.08508924
206	0x3e5b774b	0.21432225
207	0x3e47e37a	0.19520369
208	0x3dc12509	0.09430892
209	0xbda64cdb	-0.08120128
210	0xbe7b0266	-0.24512634
211	0xbe08b71f	-0.13351105
212	0x3e0cabc9	0.13737406
213	0xbd809244	-0.06277898
214	0xbd7cbb84	-0.061702266
215	0xbe04494c	-0.12918586
216	0xbca88618	-0.020571753
217	0x3e39cb99	0.18144073
218	0xbe578c49	-0.21049608
219	0x3e55cd0e	0.20879003
220	0x3e4ea984	0.20181853
221	0xbe6ed8c8	-0.23324883
222	0xbbd5f187	-0.0065290364
223	0xbde41736	-0.1113724
224	0x3e74bc98	0.23900068
225	0xbddb60b1	-0.10711802
226	0xbe12f624	-0.14351708
227	0x3e630f2e	0.2217376
228	0xbe264a5b	-0.16239302
229	0xbe74509c	-0.23858875
230	0x3da3f72c	0.08006129
231	0x3db1cb57	0.08681362
232	0x3dee7d47	0.116449885
233	0x3e475fcf	0.19470142
234	0xbe41e6e4	-0.18935734
235	0x3e0cd1e5	0.13751943
236	0xbc19a696	-0.009378096
237	0xbd4be7b9	-0.049781535
238	0xbce03f11	-0.027373822
239	0xbd9848d3	-0.07435765
240	0x3e19e337	0.15028082
241	0xbe6b4fa2	-0.22979596
242	0x3e0f618d	0.14002056
243	0x3e68bfe6	0.22729453
244	0xbd975bb4	-0.07390538
245	0xbda62fc1	-0.08114577
246	0x3ddc00af	0.10742318
247	0xbd9d256d	-0.07673154
248	0xbd9c95e9	-0.076457806
249	0x3df01d6c	0.11724362
250	0xbe60a884	-0.21939284
251	0xbe55d132	-0.20880583
252	0xbcb86390	-0.022508413
253	0xbe134964	-0.14383465
254	0x3dcdb008	0.10043341
255	0xbdc15d96	-0.09441678

model.2.weight f4 [256, 256]
0	0x3ced49a6	0.028965782
1	0xbc167343	-0.009182754
2	0xbd223647	-0.039602544
3	0x3ace8774	0.0015756921
4	0x3d619b19	0.055079553
5	0x3d834c96	0.06411092
6	0x3cfd1d9b	0.030897906
7	0x3d9197f6	0.071090624
8	0x3d1bf4b6	0.03807517
9	0xbc8daa77	-0.017293198
10	0x3b62388d	0.003451857
11	0xbd6816f4	-0.056662515
12	0xbc488cfd	-0.0122406455
13	0x3bf7d93c	0.007563738
14	0x3d60d046	0.054886125
15	0x3d3dcc73	0.046337556
16	0x3b8cc3b3	0.00429579
17	0x3b495fae	0.0030727196
18	0x3d4d720a	0.050157584
19	0x3d04b442	0.03239847
20	0x3c3965cb	0.011315773
21	0xbd8829f3	-0.06648626
22	0x3d6469d4	0.055764988
23	0xbc999963	-0.018749898
24	0xbd23160f	-0.03981596
25	0x3cd05e3a	0.025435556
26	0x3d598413	0.05310447
27	0xbd161ee2	-0.036650546
28	0x3cd13134	0.025536157
29	0xbcc07a4e	-0.02349582
30	0xbc649186	-0.013950711
31	0x3d5ee92d	0.054421593
32	0x3b29ffe9	0.0025939888
33	0x3d8956b7	0.06705993
34	0xbd861321	-0.06546617
35	0xbcc3b705	-0.023890981
36	0xbd33cd46	-0.043896936
37	0xbcfc145e	-0.03077143
38	0x3d620f00	0.055190086
39	0x3c825ac0	0.015912414
40	0x3b228f90	0.0024804808
41	0xbc01deab	-0.007926623
42	0x3d021dcb	0.031766694
43	0xbb3ef5d4	-0.0029138224
44	0xbb097365	-0.0020973322
45	0x39ba44e9	0.00035528027
46	0x3d3b81f6	0.045778237
47	0xbc0958ee	-0.008383019
48	0x3ca30577	0.019900067
49	0xbc8ef8ee	-0.017452683
50	0x3d64053b	0.05566905
51	0x3ca02339	0.019548045
52	0xbc89ccdd	-0.01682132
53	0x3d25aa69	0.04044572
54	0x3c828969	0.015934663
55	0xbd1ad282	-0.037798412
56	0xbc98fdc9	-0.018675702
57	0x3c2c53b5	0.010518004
58	0xbcfd7821	-0.030941071
59	0xbc87b072	-0.016563628
60	0x3d4d3cb4	0.05010672
61	0x3c828446	0.015932214
62	0x3dbff763	0.09373357
63	0x3d26f774	0.040763333
64	0xbcb00926	-0.021488737
65	0x3cec47b3	0.028842783
66	0x3d17b0bd	0.037033785
67	0x3c8e946f	0.017404763
68	0x3cb08122	0.02154595
69	0x3d04787e	0.032341473
70	0xbd2ff934	-0.042962268
71	0x3c8d4d4b	0.01724877
72	0xbbb52bc1	-0.0055288975
73	0x3bb4f69b	0.0055225617
74	0xbce1b35a	-0.027551342
75	0xbcdf1e03	-0.02723599
76	0xbd87d62c	-0.06632647
77	0xbd58a90c	-0.05289559
78	0xbcb080a4	-0.021545716
79	0xba605d2a	-0.00085588044
80	0xbd5f5176	-0.054521047
81	0x3b818744	0.0039528925
82	0x3c8cb203	0.017174726
83	0xbcb35b51	-0.021894129
84	0x3cfa884a	0.030582566
85	0xbc16dbe8	-0.009207703
86	0x3caf25f2	0.021380398
87	0xbd43b8e6	-0.047783755
88	0x3d727367	0.059192088
89	0x3d4ef6b9	0.05052826
90	0x3d284965	0.04108562
91	0x3a395218	0.0007069423
92	0xbcd2e54f	-0.025744108
93	0xbcf89739	-0.030345546
94	0x3b7fcf53	0.0039033487
95	0xbd60f4ec	-0.054921076
96	0xbd78e75e	-0.060767524
97	0xbd3ed306	-0.046587966
98	0x3a92da2a	0.0011203934
99	0xbd5e9262	-0.05433882
100	0xbc9917f1	-0.018688174
101	0xbd5bc9bd	-0.05365919
102	0xbc893532	-0.016748998
103	0xbd1ece38	-0.038770884
104	0x3d5022bd	0.05081438
105	0x3b276fea	0.0025548884
106	0x3c85181c	0.016246848
107	0xbd5394c0	-0.05165553
108	0x3cf15ed2	0.02946416
109	0xbc113499	-0.008862638
110	0x3d322cb5	0.043499667
111	0xbc9b22d5	-0.018937508
112	0xba9128d2	-0.0011074787
113	0x3ad3c32e	0.001615619
114	0xbc9840d3	-0.018585598
115	0xbd581648	-0.052755624
116	0xbc8299f8	-0.015942559
117	0x3c2acc5a	0.010424698
118	0x3c73ed9b	0.0148881925
119	0x3d007597	0.031362142
120	0x3c1e0643	0.009645048
121	0x3c5b4db4	0.013385225
122	0xbd180b22	-0.037119992
123	0x3b737514	0.0037148641
124	0xbc8abcf6	-0.016935807
125	0xbd2e09ff	-0.04249
126	0x3d8c1b17	0.068411045
127	0x3c88c591	0.01669577
128	0x3c971ef4	0.018447377
129	0x3ceb61b4	0.028733112
130	0x3c2e56b4	0.010640789
131	0xbd741dd3	-0.059598755
132	0x3c4bf05c	0.012447443
133	0x3d1c5192	0.03816373
134	0xbc45f111	-0.0120814005
135	0x3d431754	0.04762967
136	0x3c6de95b	0.014520968
137	0x3ca08686	0.019595396
138	0xbc797a96	-0.015226981
139	0x3ac6d6c4	0.0015170206
140	0xbcffa3bd	-0.031206006
141	0xbd19f51e	-0.037587278
142	0xbcef9ede	-0.029250558
143	0xbd879b94	-0.06621471
144	0xbd36c52a	-0.044621624
145	0xbd168445	-0.036747236
146	0x3ca4e325	0.020127842
147	0x3cb3f90a	0.021969337
148	0xbd21d4f2	-0.03950972
149	0xbc194e48	-0.009357043
150	0xbc1a2cc1	-0.009410084
151	0xbd4cbb76	-0.049983464
152	0xbd3cd645	-0.04610278
153	0x3c89a9b0	0.016804546
154	0x3cf503f2	0.029909108
155	0x3ce212f4	0.027596928
156	0x3cbf9133	0.023384666
157	0xbd9136f5	-0.0709056
158	0xbc9b3850	-0.01894775
159	0x3cca8257	0.024720354
160	0x3caee5d7	0.02134983
161	0x3c4a4da1	0.01234761
162	0xbce66ac2	-0.028127078
163	0x3ccc428e	0.02493408
164	0x3d74a336	0.059725963
165	0x3cd723b7	0.026262147
166	0xbc6840af	-0.014175578
167	0x3bb49839	0.0055113104
168	0xbbbe31ca	-0.005804275
169	0xbaa131e0	-0.0012298189
170	0x3cc2f947	0.023800505
171	0xbd0919f6	-0.033472024
172	0xbd98d2b9	-0.07462067
173	0x3d935812	0.071945325
174	0xbcc01c86	-0.023451101
175	0xbd409025	-0.047012467
176	0xbd875ee5	-0.066098966
177	0x3ccd6717	0.025073571
178	0x3d0c9819	0.03432474
179	0xbd8b0075	-0.067871965
180	0x3d4edef5	0.050505597
181	0x3d541c40	0.051784754
182	0xbd2cb216	-0.042162023
183	0xbd26258d	-0.040563155
184	0x3d0c449b	0.034245115
185	0xbd317390	-0.0433231
186	0xbd199c34	-0.037502483
187	0xbd8f2ea8	-0.06991321
188	0xbd39ae25	-0.045332093
189	0x3cac01c2	0.020996932
190	0xbcb64143	-0.022247916
191	0x3d4ff233	0.05076809
192	0xbcdab744	-0.026698716
193	0x3cd03c12	0.025419269
194	0x3cd6a3e4	0.026201196
195	0xbd5da921	-0.054116372
196	0x3d08d496	0.033405863
197	0xbd28a5be	-0.04117369
198	0x3de2eac1	0.11079932
199	0x3cf9e8f3	0.030506587
200	0xbce91008	-0.028450027
201	0xbd75e38e	-0.060031466
202	0x3c7757b1	0.015096591
203	0x3d49f66a	0.049307264
204	0x3c343241	0.01099831
205	0x3c9acecf	0.018897442
206	0x3caa0caf	0.020758001
207	0xbd052a7f	-0.03251123
208	0xbce58d0c	-0.028021358
209	0x3d2b4018	0.04180917
210	0xbcf7b473	-0.030237412
211	0x3b9bdf24	0.004756825
212	0x3c16f24e	0.009213043
213	0x3d51655c	0.051122054
214	0xbac746ed	-0.0015203633
215	0x3c0d2c65	0.0086165415
216	0xbad1838e	-0.0015984641
217	0x3ce18d70	0.027533263
218	0x3cbd2a1c	0.023091368
219	0x3d1a2c63	0.037639987
220	0x3c324cf1	0.010882602
221	0x3d20fd90	0.039304316
222	0x3c0bbbcf	0.008528664
223	0xbd22e444	-0.039768472
224	0x3c4f9498	0.012669705
225	0x3bfb90d0	0.007677175
226	0xbd22dbca	-0.03976039
227	0x3ac7f1b7	0.0015254532
228	0x3c9bb948	0.019009247
229	0x3d563873	0.052299928
230	0x3c52c86c	0.012865167
231	0x3bd0db28	0.0063737817
232	0x3c8857a6	0.016643357
233	0x3d8fe303	0.07025721
234	0xbc9362e3	-0.017991489
235	0xbc5db6bf	-0.01353234
236	0xbb657b79	-0.0035016222
237	0x3cdcba83	0.026944404
238	0x3bdfa2e8	0.00682484
239	0x3ad9c89b	0.0016615571
240	0xbc4ad5b3	-0.012380051
241	0xbd191c17	-0.037380304
242	0xbdb64217	-0.088993244
243	0xbd11b70e	-0.035574965
244	0x3cf59331	0.029977413
245	0x3d358756	0.04431852
246	0xbd30c860	-0.043159842
247	0x3b48964b	0.003060716
248	0xbc679ded	-0.0141367735
249	0x3d0f0940	0.03492093
250	0x3ce95b2c	0.028485857
251	0xbc11287a	-0.008859748
252	0xbd079208	-0.03309825
253	0x3ced18be	0.028942462
254	0x3da9e5a3	0.08295753
255	0x3c915344	0.0177399

model.2.bias f4 [256]
0	0x3d8a16f6	0.06742661
1	0xbd714a16	-0.058908544
2	0x3dae437e	0.08508967
3	0xbd18fe61	-0.03735197
4	0x3c691a3f	0.014227449
5	0xbd8a49d4	-0.06752363
6	0xbae105e2	-0.0017167891
7	0x3c94553c	0.01810705
8	0xbcb7650d	-0.022387052
9	0x3da5fda6	0.0810502
10	0x3d2b6000	0.0418396
11	0xbd99b5d0	-0.07505381
12	0x3c14aa7f	0.009073853
13	0xbd00cd97	-0.031446066
14	0x3e0200bf	0.12695597
15	0xbc07ddf2	-0.008292662
16	0xbc054e0e	-0.0081362855
17	0x3ddbe037	0.10736125
18	0x3dabf5b1	0.08396471
19	0xbd3d7504	-0.046254173
20	0x3c8943a2	0.016755883
21	0x3d2c3fdf	0.0420531
22	0x3d091184	0.03346397
23	0xbd8d6ec8	-0.069058955
24	0x3cb5f27a	0.022210348
25	0xbc989f60	-0.018630683
26	0x3dc25ec9	0.09490735
27	0x3d4f7c20	0.050655484
28	0xbd9b2ace	-0.07576524
29	0x3dd16855	0.10224978
30	0x3daa0ee1	0.08303619
31	0x3d0d2b0e	0.03446489
32	0xbcdc6a6b	-0.026906213
33	0x3dbed5ad	0.09318099
34	0x3d394872	0.045235105
35	0x3d803645	0.06260351
36	0x3df1b6a4	0.11802414
37	0x3c41567c	0.011800405
38	0xbc094a0e	-0.008379472
39	0x39c9026c	0.00038339512
40	0xbdce26a6	-0.10065965
41	0x3d1be554	0.0380605
42	0x3da13ff6	0.07873528
43	0x3d8d9cad	0.06914649
44	0xbd07e84a	-0.033180512
45	0x3d86bb0f	0.06578647
46	0xbd3c12e6	-0.04591646
47	0x3d65ea68	0.05613175
48	0x3dcf5641	0.101238735
49	0x3ba8600b	0.0051384023
50	0x3d1424cb	0.0361679
51	0x3d99531b	0.07486554
52	0xbd418fe0	-0.04725635
53	0xbd4ad794	-0.049521998
54	0xbd631169	-0.055436525
55	0xbbf4806f	-0.0074615995
56	0xbb0d207f	-0.0021534262
57	0xbc16c460	-0.009202093
58	0xbd2fca3b	-0.04291747
59	0x3c837cc3	0.016050702
60	0xbe2b77ed	-0.16744967
61	0x3dd16363	0.10224035
62	0x3dc2405d	0.094849326
63	0x3df70405	0.120613135
64	0xbd02e4d3	-0.031956505
65	0x3dc8f96d	0.09813199
66	0x3c8cd32b	0.017190536
67	0x3db04baf	0.086081855
68	0x3cda2ae0	0.026631773
69	0x3daab0ed	0.08334527
70	0x3d4f39bc	0.05059217
71	0x3c8d39ef	0.017239539
72	0xbd9fcdd8	-0.078029335
73	0x3c756a7c	0.014979001
74	0xbdaab4c3	-0.08335259
75	0x3d015ae1	0.03158081
76	0x3d1228c0	0.035683393
77	0xbc4e7953	-0.012602168
78	0x3d10769b	0.03526936
79	0x3c6b0ec0	0.014346778
80	0x3cf8f208	0.030388847
81	0x3d14800f	0.03625494
82	0x3d7c27f3	0.061561536
83	0x3d6d5eed	0.057951856
84	0x3db0f6e1	0.086408384
85	0x3dd6b3c9	0.1048351
86	0xbcd9343c	-0.026514165
87	0x3dbbc06c	0.09167561
88	0xbd59c55f	-0.053166743
89	0xbd589647	-0.05287769
90	0x3d65d2e6	0.05610933
91	0x3da93c15	0.08263413
92	0x3dd97863	0.10618665
93	0xbd578070	-0.052612722
94	0x3d4645af	0.0484063
95	0xbd830c76	-0.06398861
96	0xbe0137ee	-0.12618992
97	0x3d59eb49	0.0532029
98	0x3dc10f92	0.09426798
99	0x3db93ab1	0.090443976
100	0x3d5bb573	0.05363984
101	0xbd93723c	-0.07199523
102	0xbdb35375	-0.087561525
103	0x3dcc2f90	0.09970009
104	0x3da6c2f6	0.081426546
105	0x3c33a1dc	0.010963883
106	0x3c2e3427	0.010632551
107	0x3d815d48	0.0631662
108	0x3c6927c2	0.01423067
109	0xbd6480ff	-0.055787083
110	0xbd3e078a	-0.04639391
111	0x3d8b176c	0.06791577
112	0x3de6f680	0.11277485
113	0xbd616cea	-0.05503551
114	0xbc064e24	-0.008197341
115	0xbcd38a2c	-0.025822721
116	0x3caee560	0.021349609
117	0xbd646460	-0.055759788
118	0x3de8e37d	0.11371515
119	0xbd6b23ae	-0.057407074
120	0xbc3d9615	-0.011571427
121	0xbd32a301	-0.043612484
122	0xbc827b73	-0.015928006
123	0x3de01644	0.10941747
124	0xbbb9ec26	-0.005673903
125	0xbd208bd8	-0.039195865
126	0x3de19458	0.110146224
127	0x3d03aa71	0.032144967
128	0xbd901b5d	-0.07036469
129	0xbd9b0b7c	-0.0757055
130	0x3ab4b10e	0.0013785677
131	0x3dc67c3e	0.09691666
132	0xbdc1cce5	-0.09462909
133	0x3d22c967	0.039742853
134	0x3c4acb11	0.012377516
135	0xbd8b7bf4	-0.068107516
136	0x3db4bf1f	0.08825516
137	0xbd0d2799	-0.03446159
138	0x3e07a90f	0.13248084
139	0xbcbce5ed	-0.023058856
140	0x3bbe9125	0.0058156424
141	0x3d4cbb15	0.049983103
142	0x3cf3a833	0.02974329
143	0x3d9c66ce	0.07636796
144	0x3d284782	0.04108382
145	0xbc3515f3	-0.011052596
146	0x3d7d435b	0.061831813
147	0x3d2cdfe7	0.042205717
148	0x3d31806f	0.043335374
149	0xbd2fdad2	-0.042933293
150	0xbc094089	-0.008377203
151	0x3d464dad	0.04841392
152	0x3d660261	0.056154612
153	0x3dd6b72b	0.10484155
154	0x3d9018c1	0.070359714
155	0x3ce1d791	0.02756861
156	0xbd1ca368	-0.038241774
157	0xbd6ae6a2	-0.057348855
158	0x3d84c5e4	0.06483057
159	0x3b2528b4	0.0025201263
160	0x3d9edbcd	0.077567674
161	0xbb9cf27c	-0.0047896486
162	0x3cd0a397	0.02546863
163	0xbcacde21	-0.021102013
164	0xbd49a7f2	-0.04923243
165	0xbce3b1be	-0.027794715
166	0x3b60b265	0.003428602
167	0x3cdec338	0.027192697
168	0xbd136a9a	-0.035990335
169	0xbd6fd71c	-0.058554754
170	0x3ce0d5a7	0.027445627
171	0xb9e23a55	-0.0004314954
172	0x3e09d027	0.1345831
173	0xbcce62ac	-0.025193535
174	0x3d26e7aa	0.040748276
175	0x3d694ccb	0.056958
176	0xbb3d3f19	-0.002887672
177	0x3db41a9c	0.08794138
178	0xbd0f2af7	-0.034953084
179	0x3d4518d2	0.048119374
180	0x3dce8389	0.10083682
181	0x3e02cb38	0.12772834
182	0x3e1711ca	0.1475288
183	0x3d85d9f1	0.0653571
184	0x3de9ca2b	0.114155136
185	0xbb81c751	-0.003960528
186	0xbcf46fe2	-0.029838506
187	0xbd433d3c	-0.04766582
188	0x3df8f469	0.121559925
189	0xbc91fa82	-0.017819647
190	0x3d93bf42	0.07214214
191	0xbc86e932	-0.016468618
192	0xbd902d39	-0.070398755
193	0x3db246c1	0.087049015
194	0x3d4b4c24	0.04963316
195	0xbd2a3800	-0.041557312
196	0x3cbcc6f4	0.023044087
197	0x3d7e2640	0.062048197
198	0xbdda5bc3	-0.106620334
199	0xbc70ced1	-0.014697746
200	0x3d4e3ac8	0.050349027
201	0x3ce03528	0.027369097
202	0x3d27cd35	0.040967185
203	0xbdbe0c07	-0.09279638
204	0x3d86d40a	0.06583412
205	0xbc728591	-0.0148023525
206	0x3da5da71	0.08098305
207	0x3da640b2	0.081178084
208	0xbda5c12a	-0.08093484
209	0x3d404ac5	0.046946306
210	0xbdb1e5c9	-0.08686406
211	0x3da32427	0.0796588
212	0x3c574057	0.013137898
213	0x3a4ef106	0.00078941917
214	0xbd1ba2b1	-0.03799695
215	0xbceb81fc	-0.028748505
216	0xbc5ac6ad	-0.013353032
217	0xbbc83247	-0.006109509
218	0x3ce0f627	0.027461125
219	0x3de48d3c	0.11159751
220	0xbb2d6061	-0.0026455151
221	0xbcd27866	-0.025692176
222	0xbd25d30e	-0.04048448
223	0x3c925222	0.01786143
224	0x3daa28b5	0.083085455
225	0xbd11ba6d	-0.03557818
226	0x3c2d0ef0	0.010562643
227	0x3d8b86ab	0.06812795
228	0x3d9eebde	0.07759832
229	0xbd8f8257	-0.07007282
230	0x3b6d5093	0.0036211356
231	0x3bcfbb90	0.006339498
232	0x3dab14c5	0.08353571
233	0x3dd3110e	0.10305987
234	0xbc15e6e7	-0.00914929
235	0xbd8853ba	-0.066565946
236	0x3d39709e	0.045273416
237	0xbab92f6f	-0.0014128516
238	0x3d75008d	0.05981498
239	0x3d9c0c0b	0.076194845
240	0x3d15ede8	0.03660384
241	0xbd776852	-0.060402222
242	0xbd32b5fd	-0.04363059
243	0xbcec6929	-0.028858738
244	0x3c74ce47	0.0149417585
245	0x3d3719e8	0.04470244
246	0x3a2dccc6	0.000662994
247	0xbe1b24ea	-0.151508
248	0xbd60de07	-0.05489924
249	0x3bcb2ef7	0.006200667
250	0xbd049bf1	-0.03237528
251	0xbd9cd309	-0.07657439
252	0x3ceacd91	0.028662475
253	0x3d945ecb	0.07244643
254	0x3dc50e57	0.09621876
255	0x3dde2064	0.10846022

model.4.weight f4 [256, 256]
0	0x3d71699c	0.058938608
1	0xbc822644	-0.015887387
2	0xbd1e1cbc	-0.038601622
3	0x3c1fe815	0.0097599225
4	0xbd2d7f60	-0.042357802
5	0xbd37fd4e	-0.044919305
6	0xbc3e28ae	-0.0116063785
7	0xbbf386f5	-0.0074318596
8	0x3d2acabd	0.041697253
9	0xbce6c0bf	-0.02816808
10	0xbd815e2b	-0.06316789
11	0xbbaa83f4	-0.0052037183
12	0xbd0cc4df	-0.03436744
13	0x3b909489	0.004412238
14	0xbbb3c6f5	-0.005486364
15	0x3d530ea0	0.05152762
16	0xbd2fc681	-0.042913917
17	0x3d5ca08e	0.053864054
18	0x3c823893	0.015896117
19	0xbd15cd50	-0.036572754
20	0x3d65cf57	0.056105938
21	0xbcad9e11	-0.021193536
22	0x3d15d639	0.03658125
23	0x3c1b4c94	0.009478707
24	0xbcbd8c82	-0.023138288
25	0x3ca41e3d	0.02003395
26	0xbca2cdd1	-0.019873532
27	0x3caf3adc	0.021390371
28	0xbd07c958	-0.033151
29	0xbd0dbb15	-0.034602243
30	0xbc47d2ae	-0.012196226
31	0xbb6905ef	-0.0035556515
32	0xbcbe9c2b	-0.023267826
33	0xbd113970	-0.035455167
34	0x3c041e19	0.008063816
35	0x3d0e8279	0.034792397
36	0x3c776dff	0.015101909
37	0x3cc03a4d	0.0234653
38	0x3d890c6c	0.066918224
39	0x3d8daabc	0.069173306
40	0xbc6b4a83	-0.014361027
41	0xbcd7633d	-0.026292438
42	0xbd885a13	-0.06657805
43	0xbd4fe00f	-0.05075079
44	0xbc1042d5	-0.0088049965
45	0x3c7f57d9	0.015584909
46	0xbd1849d2	-0.037179776
47	0xbc11df03	-0.008903268
48	0x3cfd79bf	0.030941842
49	0x3d180168	0.037110716
50	0x3d486888	0.048927814
51	0x3c941a26	0.018078875
52	0x3d1c15b5	0.03810664
53	0x3c9a9bef	0.018873183
54	0xbca5d689	-0.0202439
55	0xbc6d43f6	-0.014481535
56	0x3c8d825f	0.01727408
57	0x3c82df91	0.015975745
58	0xbcb9cedb	-0.022681644
59	0xbd8c7ad7	-0.06859367
60	0xbdd522cb	-0.10407027
61	0xbc46ecfb	-0.0121414615
62	0x3d48b709	0.04900268
63	0xbd358be4	-0.044322863
64	0x3c0f1a5e	0.008734314
65	0xbc787f2c	-0.015167039
66	0xbc11badd	-0.008894649
67	0x3c6374c2	0.013882818
68	0x3cbee92c	0.023304544
69	0xbccce6fb	-0.025012484
70	0x3d49b092	0.049240656
71	0x3cfc4e7a	0.03079914
72	0xbcb560ca	-0.02214088
73	0xbd2c7355	-0.042102177
74	0xbd61c5aa	-0.055120148
75	0x3d8ed81a	0.06974812
76	0xbd4958f2	-0.04915709
77	0x3d1573ec	0.036487505
78	0xbc3299a7	-0.010900891
79	0xbc6db252	-0.014507847
80	0xbd49fe68	-0.049314886
81	0x3d84e9df	0.0648992
82	0x3d269f83	0.040679466
83	0x3c9684d4	0.018373884
84	0xbc4be1af	-0.012443944
85	0xbccfde93	-0.025374686
86	0x3d422ca9	0.047405872
87	0xbc542b87	-0.012949831
88	0xbd2f9914	-0.042870596
89	0x3c44dfc0	0.012016237
90	0xbc1d5336	-0.009602359
91	0x3c9d0858	0.019169018
92	0xbbe8a92a	-0.007100244
93	0x3ca1a616	0.019732516
94	0xbd1e6da8	-0.038678795
95	0xbc0b2d83	-0.008494738
96	0x3ceb75cf	0.028742699
97	0x3d4382c6	0.047732137
98	0xbdaa4e77	-0.08315747
99	0xbd2050af	-0.039139446
100	0x3d637c69	0.05553857
101	0xbc523f3a	-0.012832457
102	0x3d05d938	0.03267786
103	0x3c85aec5	0.016318688
104	0x3d04d9ea	0.03243438
105	0x3d776eaf	0.06040829
106	0xbcd8ec73	-0.026479935
107	0xbd27776f	-0.040885385
108	0x3cedb418	0.02901654
109	0x3b16ce9a	0.0023011328
110	0xb93b73b9	-0.0001787682
111	0xbc932785	-0.01796318
112	0xbd202566	-0.039098166
113	0x3d5cddab	0.053922337
114	0xbd1ff9e2	-0.039056666
115	0xbca4b504	-0.020105846
116	0x3d05067d	0.03247689
117	0x3d8676c2	0.0656562
118	0xbca8f228	-0.020623282
119	0x3c7587a6	0.014985954
120	0xb8e9febd	-0.000111577545
121	0x3d7afeeb	0.061278265
122	0xbd2c98cb	-0.042137902
123	0x3ccc4adc	0.02493804
124	0x3d5d8edf	0.05409133
125	0x3d07bdad	0.033139873
126	0xbd43fa9c	-0.04784642
127	0xbcef38a1	-0.029201807
128	0x3d82b714	0.06382576
129	0xbd49572c	-0.0491554
130	0x3c80f0bc	0.015739791
131	0x3d92ec54	0.07173982
132	0x3ce89f53	0.028396284
133	0xbae063d9	-0.0017119601
134	0xbc660caa	-0.014041105
135	0x3d0c602f	0.034271415
136	0x3ba999a9	0.0051757884
137	0xbcd030f0	-0.02541396
138	0x3d86d76d	0.06584058
139	0x3d0b8e0c	0.034071013
140	0x3ce9a10b	0.028519174
141	0x3cff11ba	0.031136382
142	0x3d650a6e	0.05591815
143	0xbd56248a	-0.05228094
144	0xbbae8054	-0.0053253565
145	0xbd34a41f	-0.04410183
146	0x3d114828	0.035469204
147	0xbd1fe2e0	-0.039034724
148	0x3c383152	0.011242228
149	0x3d4faa10	0.050699294
150	0x3d7fd0ad	0.062454868
151	0xbd1b7523	-0.037953507
152	0x3c85939e	0.01630574
153	0x3cad7597	0.021174235
154	0x3d68e08b	0.056854766
155	0x3c4d6cc2	0.012538137
156	0xbd1ab03a	-0.03776572
157	0xbcb6da33	-0.022320842
158	0xbbe2f99e	-0.0069267293
159	0x3d6c9b60	0.057765365
160	0x3ca0e55f	0.019640623
161	0x3d3d72a6	0.046251915
162	0x3c1b9cb0	0.009497806
163	0xbc150b58	-0.009096943
164	0xbd137c15	-0.036007006
165	0xbc397728	-0.011319913
166	0x3b9aff8e	0.0047301715
167	0x3d45385e	0.04814946
168	0x3cfbf76f	0.030757634
169	0xbd26166f	-0.040548738
170	0xbd07165b	-0.032980304
171	0xbca18510	-0.01971677
172	0xbd7f6a5a	-0.062357284
173	0xbc235b26	-0.009970462
174	0xbd2a93ae	-0.041644745
175	0x3c1c56fb	0.009542222
176	0x3d13d03a	0.036087252
177	0xbc6ddf85	-0.014518623
178	0xbcc257bf	-0.023723481
179	0x3b8f8ba1	0.0043806587
180	0xbc9db441	-0.01925099
181	0x3b65c4f4	0.003506002
182	0xbca27b9e	-0.019834336
183	0x3c60cb12	0.013720291
184	0xbcd07e90	-0.025450975
185	0x3ca715c3	0.020396119
186	0x3c7d0a6a	0.015444377
187	0xbc916acf	-0.017751126
188	0x3cc175bf	0.023615716
189	0xbb453e31	-0.0030096883
190	0x3d9aaeaa	0.07552846
191	0x3d12a598	0.035802454
192	0x3d318e18	0.0433484
193	0xbb01c14f	-0.0019799059
194	0xbc612d75	-0.013743748
195	0x3d21b740	0.0394814
196	0xbd422597	-0.04739913
197	0xbc411b11	-0.011786238
198	0x3ce20e7a	0.027594794
199	0x3d86e109	0.06585891
200	0x3cafa139	0.021439182
201	0x3a02cc08	0.00049895095
202	0x3a57bbba	0.00082295726
203	0x3cc23560	0.023707092
204	0xba84b130	-0.0010123607
205	0xbc2f42ee	-0.01069711
206	0x3d2e7f21	0.04260171
207	0xbd6f008c	-0.05835013
208	0xbd1d9869	-0.038475428
209	0x3d41bab2	0.047297187
210	0xbbb4f164	-0.00552194
211	0x3d6df56e	0.058095388
212	0x3d1aedb0	0.037824333
213	0x3d1b119f	0.0378586
214	0xbc89c55d	-0.016817743
215	0x3d3e0b35	0.046397407
216	0x3d1ebad3	0.03875239
217	0xba1b9ddf	-0.00059363054
218	0x3bd616c1	0.006533474
219	0xbd5bea5f	-0.05369031
220	0xbd48afc6	-0.048995756
221	0x3ccddffd	0.02513122
222	0xbcd89501	-0.026438238
223	0xbd05c18f	-0.032655295
224	0x3c7a5ca5	0.015280877
225	0xbd3e1cbf	-0.046414133
226	0x3d590f8f	0.052993353
227	0xbd5e24d8	-0.054234356
228	0x3d3cf525	0.046132226
229	0xbda04315	-0.07825295
230	0x3cc11543	0.023569709
231	0x3d5355f6	0.05159565
232	0xbd605d92	-0.054776736
233	0xbd9024d7	-0.07038277
234	0xbd6202eb	-0.055178564
235	0x3d5ea7ba	0.054359175
236	0xbd7b862e	-0.06140726
237	0x3ba2303d	0.004949598
238	0xbd26cdd9	-0.040723655
239	0x3d864b5d	0.06557343
240	0xbd023d4d	-0.031796742
241	0xbca7fcc7	-0.020506276
242	0x3d5335ad	0.05156486
243	0xbc99c82a	-0.018772203
244	0x3d3a4d2c	0.045483753
245	0xbdb6f8b9	-0.08934159
246	0xbd36b48c	-0.044605777
247	0xbd0f44a4	-0.03497757
248	0x3c241803	0.01001549
249	0x3d3d3874	0.046196416
250	0x3d6478c4	0.055779234
251	0x3d3388ef	0.043831762
252	0xbd1f1828	-0.038841397
253	0xbd364aba	-0.04450486
254	0x3d0136d9	0.031546447
255	0x3d41f948	0.047356874

model.4.bias f4 [256]
0	0x3d5e3132	0.054246135
1	0x3da922b1	0.0825857
2	0x3c2d6d8b	0.010585199
3	0x3d49ce73	0.04926915
4	0xb97602e2	-0.00023461462
5	0xbda4e8c1	-0.08052207
6	0x3d72bd68	0.059262663
7	0x3d67a8f0	0.056557596
8	0x3d7dd7cf	0.06197339
9	0xbca3fb01	-0.020017149
10	0x3d7fcb93	0.062450003
11	0x3c16feb5	0.009216
12	0xbcbec55f	-0.023287473
13	0x3cc7a176	0.024368983
14	0x3d476b2b	0.048686188
15	0xbc794a17	-0.015215418
16	0xbcefb8b7	-0.029262884
17	0xbd077a68	-0.03307572
18	0x3a863c46	0.0010241352
19	0x3db50850	0.08839476
20	0xbc1615a5	-0.009160434
21	0x3d433189	0.047654662
22	0xbcfff1cb	-0.031243226
23	0x3d979af5	0.074026026
24	0x3dc40603	0.09571459
25	0xbd5b2ffd	-0.053512562
26	0xbd0f9009	-0.035049472
27	0xbc0d8025	-0.008636509
28	0xbd2c2960	-0.042031646
29	0xbd2aed80	-0.041730404
30	0xbc34220c	-0.0109944455
31	0x3d22e65e	0.039770477
32	0xbc83494f	-0.016026167
33	0x3c906ee5	0.017631004
34	0xbd5b230b	-0.053500216
35	0x3d9ae505	0.07563213
36	0x3c0841d4	0.008316476
37	0xbd5c572a	-0.053794064
38	0x3c1b15b6	0.0094656255
39	0x3cd1aaf6	0.025594216
40	0xbd69e097	-0.05709895
41	0xbd270b16	-0.040782057
42	0x3dc6f6aa	0.09715016
43	0x3d06519c	0.032792673
44	0x3d1abf92	0.037780352
45	0xbd131c24	-0.03591551
46	0x3c887548	0.016657487
47	0x3d9f168c	0.07767972
48	0x3d64e327	0.05588069
49	0x3d42e37e	0.047580235
50	0xbd7521d8	-0.05984673
51	0xbc8a0469	-0.016847806
52	0xbd722d5f	-0.0591253
53	0xbc663302	-0.014050247
54	0x3e078375	0.1323374
55	0xbd04b4c1	-0.032398943
56	0xbca72ab5	-0.020406106
57	0xbca768ab	-0.020435652
58	0xbcaf4205	-0.021393785
59	0x3d32082f	0.043464836
60	0x3d77d60d	0.06050687
61	0x3d3c461c	0.0459653
62	0x3d8315de	0.06400655
63	0x3cb61797	0.022228045
64	0x3d7dc1cd	0.0619524
65	0xbcb948d2	-0.022617731
66	0x3d4e03d3	0.050296616
67	0xbdc1dae3	-0.094655775
68	0x3d2f35cc	0.042775914
69	0x3d9ce2c4	0.076604396
70	0xbc123b79	-0.008925312
71	0x3d831159	0.06399793
72	0x3d64551b	0.055745225
73	0xbd1037d7	-0.035209503
74	0xbbfbf593	-0.007689187
75	0x3d8c9319	0.06863994
76	0x3b8e48c5	0.004342171
77	0x3d8e9765	0.0696247
78	0x3cbc5edc	0.022994451
79	0xbd06d2a5	-0.03291573
80	0x3c9dbc06	0.019254696
81	0x3d23af49	0.039962087
82	0xbb58370b	-0.0032991793
83	0x3bd525e0	0.006504759
84	0x3cea2713	0.028583085
85	0x3d632589	0.05545572
86	0x3d93c2bd	0.07214878
87	0xbbe7eb02	-0.0070775757
88	0x3c77c7f4	0.015123356
89	0xbcc4798a	-0.023983736
90	0x3c212910	0.00983645
91	0xbd30d1b7	-0.04316875
92	0x3dcdcf39	0.1004929
93	0xbdbb2d09	-0.09139449
94	0x3d315cad	0.043301273
95	0x3c642c4a	0.013926575
96	0x3c3e611e	0.011619834
97	0x3da2f090	0.0795604
98	0x3dbcab30	0.09212339
99	0xbce11f38	-0.027480707
100	0xbd4e0974	-0.050301984
101	0x3cb3f381	0.021966698
102	0x3d3812af	0.044939693
103	0x3d22ff89	0.03979448
104	0x3d59c100	0.053162575
105	0x3dc350d7	0.09536903
106	0xbcc458d9	-0.023968147
107	0xbd8a6a4f	-0.06758558
108	0x3d81a307	0.06329923
109	0x3d3319f1	0.04372591
110	0x3ca58908	0.020206943
111	0x3d2e3bd0	0.04253751
112	0xbb1fba23	-0.002437242
113	0xbd6cc164	-0.05780162
114	0xbd98879b	-0.0744774
115	0x3c688b62	0.014193388
116	0xbcba6954	-0.022755302
117	0x3d5821a5	0.05276646
118	0x3cc117c3	0.0235709
119	0x3ca31e21	0.019911828
120	0xbd293924	-0.04131426
121	0xbd0edf9b	-0.034881216
122	0x3d0678d0	0.03283006
123	0xba692aa0	-0.0008894596
124	0x3d5b6b89	0.05356935
125	0x3cfa6194	0.030564107
126	0x3c4e798d	0.012602222
127	0x3d748a0b	0.05970196
128	0xbc969324	-0.018380709
129	0xbd937ada	-0.072011665
130	0xbd7a1ec4	-0.061064497
131	0x3d3efd4e	0.04662829
132	0xbd11d8e9	-0.035607252
133	0xbdbb4849	-0.09144647
134	0xbd083691	-0.033255164
135	0xbcf49245	-0.029854903
136	0xbd373182	-0.04472495
137	0xbd73a204	-0.059480682
138	0xbc1b798b	-0.009489427
139	0xbc09cf44	-0.008411232
140	0x3d086f0b	0.033309024
141	0xbd92670e	-0.07148562
142	0xbcbe24ec	-0.023210965
143	0xbd881e4e	-0.06646405
144	0xbd84a197	-0.06476133
145	0x3db2a4f8	0.087228715
146	0xbd51fbaf	-0.051265415
147	0xbd40c258	-0.04706034
148	0xbce4a861	-0.02791232
149	0x3da23a8a	0.07921322
150	0x3d112249	0.035433087
151	0x3da33ae8	0.0797022
152	0x3d493f12	0.049132414
153	0x3ca3eceb	0.020010432
154	0xbe04754a	-0.12935367
155	0xbcdcfac9	-0.026975052
156	0xbcaa3fa8	-0.020782307
157	0x3d82d93f	0.06389093
158	0x3d330315	0.04370411
159	0x3d259b2d	0.04043119
160	0xb9429319	-0.0001855608
161	0xbce9b805	-0.02853013
162	0x3d11c705	0.03559019
163	0x3ce89d75	0.028395394
164	0xbb192a50	-0.0023371167
165	0x3d875b0d	0.066091634
166	0x3d03a9b9	0.032144282
167	0x3cf7cd79	0.030249344
168	0x3cdf07c0	0.027225375
169	0xbd9cde3f	-0.076595776
170	0xbd825a21	-0.06364847
171	0xbd01897a	-0.03162525
172	0x3d40e8dc	0.047097072
173	0x3d90b750	0.07066214
174	0xbc33b15a	-0.010967577
175	0x3d360aac	0.04444377
176	0xbd142e91	-0.03617722
177	0xbd2fc07e	-0.042908184
178	0xbce11f72	-0.027480815
179	0x3c836080	0.016037226
180	0x3d19989b	0.03749905
181	0x3c9c2457	0.019060297
182	0xbcc6d357	-0.024270697
183	0x3c569650	0.013097361
184	0xbd66186f	-0.056175645
185	0xbc957731	-0.018245311
186	0x3d9ad451	0.075600274
187	0x3d809244	0.06277898
188	0xbd7c1b1c	-0.06154929
189	0xba9e0957	-0.0012057227
190	0x3af58a81	0.0018733294
191	0xbd0a7474	-0.033802465
192	0x3d9483b4	0.07251683
193	0xbd5609c7	-0.05225542
194	0xbd2b18c7	-0.041771676
195	0x3c9c4af3	0.019078707
196	0x3c465e1e	0.0121074
197	0x3ceb4393	0.028718745
198	0x3c4e5284	0.012592915
199	0x3d09beca	0.033629216
200	0x3d010146	0.031495355
201	0x3d9dbf9f	0.077025644
202	0x3cb4cb43	0.022069579
203	0xbd940159	-0.072268195
204	0xbd78d652	-0.060751267
205	0x3d346861	0.044044856
206	0x3cef0b0e	0.029180076
207	0xbd8d7b27	-0.06908255
208	0xbcad7348	-0.021173134
209	0x3dc87670	0.09788215
210	0x3cf79fc3	0.030227548
211	0x3d222d5d	0.039594043
212	0x3dd7f090	0.105439305
213	0x3d69e32c	0.057101414
214	0x3d4329d0	0.047647297
215	0xbc344327	-0.0110023385
216	0xbd7d14c9	-0.0617874
217	0xbb4d3afd	-0.0031315677
218	0xbbf86f11	-0.0075815995
219	0xbd89582d	-0.06706271
220	0xbadfbfaa	-0.001707067
221	0xbd1892d1	-0.03724939
222	0x3cfb9c92	0.030714307
223	0xbd49938a	-0.04921297
224	0xbd506f4d	-0.050887395
225	0x3ccf36ec	0.025294743
226	0x3d819500	0.063272476
227	0x3d62c7f6	0.05536648
228	0x3ddc4a73	0.107563876
229	0x3d70142d	0.05861299
230	0x3c7693c1	0.015049876
231	0xbb11a705	-0.0022224796
232	0x3b3eb162	0.0029097428
233	0xbcad6add	-0.02116912
234	0xbc7723e0	-0.015084237
235	0xbcb7d62a	-0.022440989
236	0x3d9a732b	0.07541498
237	0xbce8e70c	-0.028430484
238	0x3b183eed	0.0023230866
239	0xbd62226d	-0.055208612
240	0xbd603c92	-0.054745264
241	0xbd33a4af	-0.043858226
242	0x3c99e324	0.018785067
243	0xbd223f6c	-0.039611265
244	0xbc28bcdc	-0.010298934
245	0xba806544	-0.0009795805
246	0x3ddecada	0.108785346
247	0x3d75f35b	0.060046535
248	0x3d8b195a	0.06791945
249	0x3d05f240	0.03270173
250	0xbcd09b19	-0.025464581
251	0xbd4ae381	-0.04953337
252	0x3c22d8ff	0.009939431
253	0x3d10de6c	0.035368368
254	0x3cd2ae2f	0.025717823
255	0xbc991a98	-0.018689439

model.6.weight f4 [256, 256]
0	0x3d2ae1fa	0.041719414
1	0x3b26db50	0.002546031
2	0xbcb8d409	-0.022562044
3	0xbd53587c	-0.051598057
4	0x3ce4ed21	0.027945103
5	0xbd1a7193	-0.03770597
6	0x3d553c9b	0.05205975
7	0xbd09b975	-0.03362413
8	0x3c9cbeef	0.019134013
9	0x3afd2bce	0.0019315423
10	0x3cb00dca	0.02149095
11	0xbbffb141	-0.0078031127
12	0xbc751d25	-0.014960562
13	0x3b1a4081	0.0023536982
14	0x3d38dc58	0.04513201
15	0x3d19c9d6	0.037546
16	0x3d06d392	0.032916613
17	0x3b1bbb09	0.0023762605
18	0xbcb160e2	-0.021652643
19	0x3d06d9c1	0.03292251
20	0x3d82bf54	0.06384149
21	0x3d097aa7	0.033564236
22	0xbcbb5912	-0.02286962
23	0xbd5e147d	-0.054218758
24	0x3b80d759	0.0039319214
25	0xbd22e769	-0.03977147
26	0xbd464e6b	-0.04841463
27	0x3cb54fb1	0.022132726
28	0x3c3f83c8	0.011689134
29	0x3d59dcbc	0.053189024
30	0x3cff3551	0.031153353
31	0x3c1e7c75	0.009673228
32	0x3c70e996	0.014704129
33	0x3d8c0edb	0.06838771
34	0x3bd7ce48	0.00658587
35	0xbd6789ba	-0.05652783
36	0xbc8f5f55	-0.017501513
37	0x3c8a268c	0.016864084
38	0x3d2621bf	0.040559527
39	0xbb7a2eb3	-0.0038174808
40	0x3b5373e6	0.0032265126
41	0xbd7effec	-0.062255785
42	0xbceb08a0	-0.028690636
43	0xbd45cd46	-0.048291467
44	0x3d0cea76	0.034403287
45	0x3d3ff5d1	0.04686529
46	0xbcbfc4f1	-0.023409339
47	0xbc219ec2	-0.009864511
48	0x3bcd2639	0.00626066
49	0x3d58f37c	0.05296658
50	0xbaa723a6	-0.0012751713
51	0x3ccffb85	0.025388489
52	0xbd3f60b6	-0.04672309
53	0xbc5b1823	-0.013372454
54	0x3c9758a2	0.01847488
55	0x3c389e48	0.011268206
56	0x3cd9bbc2	0.026578788
57	0x3d3d03e2	0.04614628
58	0xbd120ffe	-0.035659783
59	0xbd222c74	-0.039593175
60	0x3d0f85a4	0.03503956
61	0xbd1f910c	-0.038956687
62	0xbc3931dc	-0.011303391
63	0x3c5401fa	0.012939924
64	0x3d4e247d	0.050327767
65	0x3d0f6658	0.035009712
66	0x3c38f45c	0.011288729
67	0xbca856d9	-0.020549225
68	0x3d4ad9ba	0.049524046
69	0x3be5278d	0.00699324
70	0xbcf4b95b	-0.02987354
71	0x3d63b716	0.055594526
72	0x3d39c5ca	0.045354642
73	0x3d7c1bd7	0.061549988
74	0x3d076fa3	0.03306545
75	0xbcc6bef6	-0.02426098
76	0x3aedd3ea	0.001814482
77	0x3d303c97	0.043026533
78	0x3bb97952	0.0056602145
79	0xbd1d1c05	-0.0383568
80	0x3dc12731	0.09431303
81	0x3d5c6dae	0.053815536
82	0xbbb2c070	-0.0054550692
83	0xbd3f4e79	-0.046705697
84	0x3d5b0b62	0.053477652
85	0xbd93c026	-0.07214384
86	0x3cc83792	0.02444056
87	0x3d4796d8	0.04872784
88	0x3ca1440e	0.019685771
89	0xbb54aa77	-0.0032450238
90	0x3ce42d0a	0.027853508
91	0xbc8cb14d	-0.017174387
92	0xbd84d718	-0.064863384
93	0xbd2fb72e	-0.042899303
94	0xbc9926c4	-0.018695243
95	0x3c44daef	0.012015088
96	0xbc46465c	-0.012101736
97	0x39dc6436	0.00042036333
98	0xbbd94371	-0.006630354
99	0x3ca51290	0.020150453
100	0xbc6001a3	-0.013672265
101	0x3d84fa1f	0.06493019
102	0xbc8ddfc4	-0.017318614
103	0xbd894dc4	-0.06704286
104	0xbcddf164	-0.027092643
105	0x3cb9eb63	0.022695249
106	0x3c267531	0.010159777
107	0x3d74ec5c	0.059795722
108	0x3d993e90	0.07482636
109	0xbb5dd118	-0.0033846553
110	0x3d1baaec	0.0380048
111	0xbb977b8e	-0.004622883
112	0x3d428c9c	0.047497377
113	0x3b4e6786	0.003149481
114	0xbcabfc52	-0.02099434
115	0xbd14b8d0	-0.036309063
116	0x3bf6adc3	0.007528038
117	0x3d1ecbc0	0.03876853
118	0xbd17500f	-0.036941584
119	0xbd485a13	-0.048914026
120	0x3d1eda0e	0.038782172
121	0x3c737793	0.014860052
122	0x3b4c277a	0.003115146
123	0xbd84e7b0	-0.064895034
124	0x3d5318ec	0.05153744
125	0x3c31f9be	0.010862766
126	0x3cf3df62	0.029769603
127	0x3d2dd6e9	0.042441282
128	0x3d31192d	0.0432369
129	0xbc8ccd9d	-0.017187888
130	0xbcca4aed	-0.02469393
131	0x3cdd26f3	0.026996111
132	0xbd04e9fa	-0.0324497
133	0x3cbf1e84	0.02332998
134	0xbcac2d9a	-0.021017838
135	0x3cf90594	0.030398168
136	0x3c8f3776	0.0174825
137	0xbcfce383	-0.030870205
138	0xbae889c0	-0.0017741248
139	0x3aa6a489	0.001271383
140	0x3cb75edb	0.022384098
141	0xbd3f8add	-0.04676329
142	0x3c3febca	0.011713931
143	0xbda34abc	-0.07973239
144	0x3d225830	0.039634883
145	0xbcc4c23c	-0.0240184
146	0x3d49d4c2	0.049275167
147	0xbc994e45	-0.01871408
148	0x3d2cc3ef	0.042179044
149	0xbcf30809	-0.029666917
150	0x3cf9ff6b	0.0305173
151	0x3d068a96	0.03284701
152	0xbd600a0c	-0.05469708
153	0xbd9f500c	-0.077789396
154	0x3e1be6d8	0.15224779
155	0x3cba6c3c	0.022756688
156	0x3c3b2a1a	0.011423612
157	0xbd02e3bd	-0.03195547
158	0x3bf21453	0.0073876767
159	0x3d61cd49	0.055127416
160	0x3d6b06be	0.057379477
161	0xbca7dc69	-0.020490842
162	0x3cf2e99f	0.029652415
163	0xbcc66ab1	-0.024220796
164	0x3d8ac741	0.06776286
165	0x3bf363ce	0.007427669
166	0x3d585e82	0.052824505
167	0x3ca8e0ac	0.020614944
168	0x3d5cd9a2	0.05391849
169	0x3ca2c949	0.01987137
170	0xbd46e98a	-0.048562564
171	0xbd16aac2	-0.03678394
172	0xbb94c395	-0.0045399168
173	0xbd03e9ed	-0.03220551
174	0x3caf44bb	0.021395078
175	0xbc581bd8	-0.013190232
176	0xb980317d	-0.00024450934
177	0xbd5eedd1	-0.05442602
178	0xbcbf0140	-0.023316026
179	0x3cf7f8b0	0.03026995
180	0x3d0fb58e	0.035085253
181	0xbc8c4d5a	-0.017126728
182	0xbd122185	-0.035676498
183	0x3bd97237	0.00663593
184	0xbcda763c	-0.026667707
185	0x3d7891d4	0.060685948
186	0xbd0c64e9	-0.034275923
187	0xbc87a6ad	-0.01655897
188	0x3c895c04	0.01676751
189	0x3d93fd53	0.07226052
190	0x3b16cdf6	0.0023010946
191	0xbd5f3b47	-0.05449989
192	0x3b98b2fe	0.0046600094
193	0x3d1e665d	0.03867184
194	0x3bdee911	0.006802686
195	0xbce489e0	-0.027897775
196	0xbba2379b	-0.0049504763
197	0x3d4b8ebc	0.04969667
198	0xbc5b3c22	-0.013381036
199	0x3d81aa78	0.063313425
200	0xbc7793c7	-0.015110916
201	0xbba82e92	-0.0051325047
202	0xbbd70aad	-0.006562552
203	0x3aee7a96	0.0018194492
204	0xbb3937d9	-0.0028262048
205	0x3ce51ea4	0.027968712
206	0x3cb7803c	0.022400014
207	0xbd42f94a	-0.04760102
208	0x3caa7a37	0.02081023
209	0x3d2ccf2f	0.042189773
210	0x3c8b6106	0.017014038
211	0x3d2fc2e9	0.04291049
212	0xbca666a5	-0.020312617
213	0xbc780c8c	-0.01513971
214	0x3ca7d44b	0.020486971
215	0xbd19b822	-0.03752912
216	0x3b1d27cc	0.002398002
217	0x3d3bef3e	0.045882456
218	0x3d3a56bf	0.045492884
219	0x3d0ee17c	0.034883007
220	0x3aa51294	0.0012594038
221	0x3ca42b17	0.020040078
222	0x3b4e5c87	0.0031488256
223	0x3d868a9a	0.06569405
224	0xbd62f521	-0.055409554
225	0xbc1cc66d	-0.009568793
226	0x3b326335	0.0027219777
227	0x3d9feccd	0.07808838
228	0x3d2cea50	0.042215645
229	0xbc53dec9	-0.012931534
230	0x3d02b1b5	0.031907756
231	0xbc9decae	-0.019277897
232	0xbc215560	-0.009847015
233	0xbd15b640	-0.03655076
234	0x3d0b06b4	0.03394194
235	0xbcb49037	-0.022041423
236	0xbc811937	-0.015759094
237	0x3d2e3d71	0.042539064
238	0xbd077b50	-0.033076584
239	0xbc8e91c8	-0.017403498
240	0x3c38a7bd	0.011270461
241	0x3c4ac056	0.012374958
242	0x3d7f4bc3	0.06232811
243	0x3d8fb819	0.07017536
244	0xbce78d2f	-0.028265564
245	0xbcf14c28	-0.02945526
246	0xb97b9537	-0.00023992812
247	0x3d0dcc97	0.03461894
248	0x3d00923c	0.03138946
249	0xbd5a04d6	-0.05322727
250	0x3ce0e657	0.027453585
251	0xbca26ce7	-0.01982732
252	0xbcdbd924	-0.02683694
253	0xbcbcbfbf	-0.02304065
254	0x3d1d6eb1	0.03843564
255	0x3d3ed14a	0.046586312
