exported_models/neural_networks/history_mlp/trained_models/model_hist_3_epoch_500_batch_64_lr_1e-05_vs_30_hl_256_256_256_256/mlp_dynamics.pth (torch, 813269 bytes, 10 tensors)

model.0.weight f4 [256, 15]
000000 65 a7 91 3d 9c ef 86 bc d2 ed 0a 3e 35 b5 29 3e
       0.07112006 -0.016471677 0.13567284 0.16573031
000010 8f 4c 4e 3e 35 ba 82 bc 33 8b bc bc d2 7b 77 3e
       0.20146392 -0.015957931 -0.023015594 0.24168327
000020 09 fc 23 3e e1 dd 86 3c 47 97 88 be 75 1c 28 be
       0.16014113 0.016463222 -0.26677915 -0.16417105
000030 4b e5 0e be 72 a5 84 3e 9a 5c a6 bc 0c 96 16 3e
       -0.13954656 0.25907475 -0.020307828 0.14705676
000040 13 16 6e 3e 50 27 4c be 70 c2 6a bd 8d 26 1d 3e
       0.23250608 -0.19936872 -0.057314336 0.15346737
000050 34 6d 6a 3e 27 04 23 be 08 95 69 be 83 a8 2e 3d
       0.2289322 -0.15919553 -0.22810757 0.042641174
000060 85 98 90 3d 7f f5 c5 bd 16 89 0f be 14 ff 43 be
       0.07060341 -0.09665965 -0.14017138 -0.19140273
000070 bf da 37 bd 65 72 19 bd 77 d5 7a bd 20 2a 9d 3d
       -0.044886347 -0.03746261 -0.061238732 0.0767405
000080 94 4b 4d be 1c 50 7e 3b 33 e2 42 3e a0 e8 25 3e
       -0.20048362 0.0038805073 0.190316 0.1620202
000090 9b 82 12 bd f8 54 94 bd 81 44 91 3d 6f bf 22 3e
       -0.035769086 -0.07242769 0.07093144 0.15893339
0000a0 36 0b 36 3e 11 8d fe bd 41 25 13 be a5 f8 03 be
       0.17777714 -0.1242925 -0.1436968 -0.12887819
0000b0 37 fd 2d be 34 72 76 bd af 38 53 3e be e8 ff 3d
       -0.16991125 -0.060167506 0.20627092 0.12495564
0000c0 8b 34 53 3e 5b 18 e2 bd 7d 2c f9 3d 3a 3c 27 bd
       0.20625512 -0.11039802 0.121666886 -0.04082892
0000d0 20 05 91 be 14 ac 60 3e 0f 8b c6 3d 55 07 e0 bd
       -0.28324223 0.21940643 0.09694492 -0.109388985
0000e0 ff 01 25 be 51 d0 4a be 20 85 bd 3a 48 51 06 3e
       -0.16114043 -0.19806029 0.001445923 0.13116944
0000f0 68 67 16 bd 42 75 a2 3d 48 ef 27 be f4 ad cb bd
       -0.03671971 0.079325214 -0.16399872 -0.09945288
000100 cf 8f 8b be 09 a8 6d 3e bd 20 2f be 41 6a d1 3d
       -0.27258155 0.23208632 -0.17102332 0.102253444
000110 3d f2 bb bd 13 f1 59 3d 24 ef 3b 3e 68 51 aa bd
       -0.09177063 0.053208422 0.18352944 -0.08316308
000120 0a 4a 67 be 56 b0 bd 3d f0 32 e3 3d a1 e5 e2 bd
       -0.22586837 0.09262149 0.110937 -0.110789545
000130 54 97 4f 3e 8c 06 17 3e e7 ca ed 3d a4 ba 21 3e
       0.20272571 0.14748591 0.11610966 0.15793854
000140 18 0f 57 be 84 38 b0 3d 93 b6 43 be 7f aa 16 bd
       -0.21001852 0.086045295 -0.19112615 -0.03678369
000150 02 62 f6 bd 6f 22 83 3e 7f 35 73 be ff 63 07 3d
       -0.12030412 0.25612208 -0.23750876 0.033054348
000160 4c 8c ab bd 21 bd 03 3d fb 74 6e 3d 93 4a 01 3d
       -0.08376369 0.03216279 0.05821703 0.03156526
000170 ff eb b5 3c 96 42 94 bd fd 8f 2e 3e be 74 0c be
       0.022207258 -0.07239263 0.17047115 -0.13716409
000180 2b 70 08 3e a7 34 0c be 17 bb 0a 3e fe 78 4f be
       0.13324039 -0.1369196 0.13547932 -0.20260999
000190 50 36 f3 3d 3f 30 06 3e 0b d1 4c 3e 39 4b 33 bd
       0.11875594 0.13104342 0.20001619 -0.04377291
0001a0 05 37 2a 3d 9a 8f 30 bd 7d f5 1c 3e 3f 06 54 be
       0.041556377 -0.0431057 0.15328021 -0.20705508
0001b0 0e 61 11 be 44 e8 bc bd a9 7b 16 be 0b aa 39 bd
       -0.1419718 -0.09223989 -0.1469561 -0.04532818
0001c0 fe cc e3 3d 0c 0e e2 bd 5c a4 2b 3e f8 23 1e 3e
       0.111230835 -0.110378355 0.16761917 0.15443408
0001d0 b5 77 be 3d ec d2 05 be 01 e4 9c bc 85 87 83 be
       0.09300176 -0.13068742 -0.01915169 -0.2568933
0001e0 a2 fc 00 be 6e 40 d1 3d 97 a6 17 be 90 57 d2 3d
       -0.12596372 0.10217367 -0.14809643 0.102706075
0001f0 1a 77 27 3e 52 af f2 bd e1 95 48 be b8 cf bd 3d
       0.16354027 -0.11849846 -0.19588424 0.09268135
000200 89 7c 84 be df 83 5a bd fe 7e a7 3d 55 f7 09 3e
       -0.25876263 -0.05334842 0.08178519 0.13473256
000210 f0 02 38 3b 50 5d b5 3d 5f 9f 8f 3d 4d 3f 2d be
       0.0028077923 0.088556886 0.070128195 -0.16918679
000220 d9 e9 85 be 1d 47 b6 3b a1 56 36 be d8 20 f0 3b
       -0.26154974 0.0055626766 -0.17806484 0.007328134
000230 ec de c9 3d 1d eb c8 bd 06 9e 22 3e 3a 7c 39 be
       0.09856972 -0.09810469 0.15880594 -0.18113795
000240 5e c0 4e 3e ee 0c 7a bc 4b 7a ad bd 8a e4 8a be
       0.2019057 -0.015261872 -0.08470591 -0.27127486
000250 df 13 f4 bd 0f 76 5f 3e 81 a2 8a bd de ee 7f be
       -0.119178526 0.2182238 -0.067692764 -0.24993464
000260 d1 16 04 3e 37 cd 3e 3e 0e 47 57 3e 11 85 84 be
       0.12899329 0.18632971 0.21023199 -0.25882772
000270 03 19 6a 3e c2 54 8b 3e f0 67 7e 3e ad 80 a8 bd
       0.22861104 0.27213103 0.24844337 -0.08227668
000280 2f 5c 42 3d 3b aa 50 be a3 e8 4a be f0 89 09 bd
       0.047451194 -0.20377438 -0.19815306 -0.033578813
000290 60 88 22 bc 21 76 0b be a8 8f 82 3b 90 f7 67 be
       -0.00992021 -0.13619281 0.0039844103 -0.22653031
0002a0 3c 36 6d bd d1 43 63 bd 27 22 22 3e 34 88 ba bd
       -0.05791305 -0.055484597 0.1583334 -0.0910801
0002b0 ca b9 15 be 22 f0 f0 bd b5 17 a6 3c bc 80 56 3e
       -0.14621654 -0.11764552 0.020274976 0.20947546
0002c0 5f 7a fb 3c 7c f0 8a be e2 94 1f 3c 38 af 5c bd
       0.030698 -0.271366 0.009740086 -0.05387804
0002d0 fb ce f9 bd c9 83 03 be 1d 9b 5b bd 59 2a 15 be
       -0.121976815 -0.12843241 -0.053614724 -0.14566936
0002e0 46 70 ef 3d 17 b2 40 3e 2a fc c8 3d 8b 09 04 3e
       0.11691336 0.18817936 0.098137215 0.12894265
0002f0 17 b2 4d 3e e1 48 55 3e 95 c2 84 bd 32 ff 03 3d
       0.20087467 0.20828582 -0.06482426 0.032225795
000300 94 ab 7d be 7d 3d 9c bd 2e 97 f3 bd b0 8e ca 3b
       -0.24772483 -0.076289155 -0.118940696 0.0061815605
000310 1d fd 44 be 5d c2 97 bd 42 63 37 be c5 ab 44 be
       -0.1923718 -0.07410119 -0.17908958 -0.1920615
000320 e9 30 4e 3e 6f 87 70 bd 7a 57 2c 3e ee e6 3e 3e
       0.20135845 -0.05872291 0.16830245 0.1864278
000330 3b 6f 79 3e 7a 52 0a be 91 80 1f be 1d 6e 3a 3e
       0.24358837 -0.13508025 -0.15576388 0.18206067
000340 83 98 88 bd 2e 0d 3f 3a 81 f0 ca bd 12 b8 95 bd
       -0.06669714 0.00072880357 -0.09909154 -0.07310499
000350 a2 8e 16 3e e9 d9 a9 bd ea 90 48 3b 45 8e a1 3d
       0.14702848 -0.08293516 0.0030603954 0.07888464
000360 55 4a a6 3c de 64 1b bd 3b db 8b bb 38 f3 61 be
       0.020299116 -0.03793799 -0.0042680777 -0.22065437
000370 fd e2 6a 3d b1 44 58 bb c4 42 fe 3d d0 ef 11 3c
       0.05734538 -0.0032999928 0.12415078 0.008907273
000380 cf 41 62 be 95 f7 c1 bc 65 bc fa bd 1a 5b d3 bb
       -0.22095416 -0.023677627 -0.12242965 -0.006450069
000390 41 f6 9e bd d1 ff 71 3e d4 4f 4b be 3a 39 98 3c
       -0.07761813 0.23632742 -0.19854671 0.018581975
0003a0 02 b5 92 bc 82 bb ff 3c 4b 4d 24 bd e1 63 74 be
       -0.017908577 0.03121734 -0.040112775 -0.23866226
0003b0 b6 0e 0a 3e 5f ab ff 3d 57 77 96 3e 1b 63 ce bd
       0.13482174 0.12483858 0.29387924 -0.100774966
0003c0 74 85 cf bd 2e e7 43 bd 9d 20 f7 bd 50 75 f8 3c
       -0.10132876 -0.047827892 -0.12066767 0.030329376
0003d0 0f 1c 5f 3e b9 2e 6c bd dc 18 27 3d b2 4b 35 be
       0.21788047 -0.057661746 0.040795192 -0.17704657
0003e0 ba 68 23 be 74 69 c7 bd c6 68 c3 3d bc 7b f8 bd
       -0.15957919 -0.097369105 0.09541468 -0.121329755
0003f0 48 8d 76 3e f0 36 3f be 3d 63 57 be 1c d3 f7 3d
       0.24077332 -0.186733 -0.2103395 0.12100813

model.0.bias f4 [256]
000000 81 fa d3 3e b0 41 02 ba b2 92 68 3e fc 7b ab bd
       0.41402057 -0.00049688946 0.2271221 -0.083732575
000010 ff c2 d8 3d e3 26 5f be 16 ff d1 bc d0 fd 75 3e
       0.105840676 -0.21792178 -0.02563433 0.24022603
000020 ed 30 89 be 95 5e 8e 3e c6 99 47 3e 61 3f 9d be
       -0.2679514 0.27806535 0.19492254 -0.30712417
000030 c7 6d 2e bd 40 ca 05 3e b6 5b b3 3d f3 a7 52 3e
       -0.04258516 0.13065434 0.08757727 0.2057188
000040 a0 d5 00 3e cb 91 8b 3e f2 43 7a bd 5d 38 e8 bc
       0.12581491 0.2725967 -0.061099954 -0.028347189
000050 32 84 2d be fa 4a 2f bd 11 0a 37 be 3b d9 ab 3d
       -0.1694496 -0.042796113 -0.17874934 0.08391043
000060 86 ce 8b 3e c2 d0 4d 3e fe b5 d3 bd a0 88 1d be
       0.27306002 0.20099166 -0.10337447 -0.1538415
000070 17 c2 82 be 64 64 be 3d 49 c6 06 3e 46 6f 02 bd
       -0.25538704 0.09296492 0.13161577 -0.0318444
000080 99 2d fc bd 54 5e 76 3c 88 5f 8c be b8 53 7e be
       -0.123133846 0.015037138 -0.27416635 -0.24836624
000090 83 4a d0 3a 8e 63 80 3e 0c 3b b5 3d a4 76 3f 3d
       0.0015891347 0.25075954 0.08849153 0.046744004
0000a0 db 25 1d be c4 29 66 be 49 87 7f 3e fa 88 44 be
       -0.15346472 -0.2247687 0.24953951 -0.19192877
0000b0 f2 e7 88 3c 98 a0 ee bd e2 54 53 3b f3 f8 23 bd
       0.016712163 -0.116517246 0.003224664 -0.04003234
0000c0 f1 a1 36 3e 03 0c 29 bc e5 85 28 3d 6e b1 5b be
       0.17835213 -0.010317805 0.041143317 -0.21454403
0000d0 35 98 29 be 03 e9 bd bd 24 ac d3 3d fb 93 14 3e
       -0.16561969 -0.09272959 0.103355676 0.14509575
0000e0 7d d1 68 bc da c7 79 3c 12 57 ae be 0d 8b 17 3e
       -0.014210102 0.015245402 -0.34050804 0.14799137
0000f0 97 8f 8b 3e c5 3c 79 be 57 01 c7 bd f8 a7 79 3e
       0.27257988 -0.24339588 -0.097170524 0.24380481
000100 16 96 5c be 31 30 2c be 9d 70 85 bd d2 e0 10 be
       -0.21541628 -0.16815259 -0.0651562 -0.14148262
000110 ce 54 67 be 47 ad 5d 3d 52 a3 bb be 4a a6 89 3e
       -0.22590944 0.05412033 -0.3664804 0.2688468
000120 73 b4 93 3e e5 4e 99 3e 95 f9 ec bb 37 61 a2 be
       0.2884861 0.29943004 -0.007231901 -0.31714794
000130 13 d8 b0 3e ee 82 a5 3d 60 57 06 be 78 ff 2c 3e
       0.34539852 0.080816135 -0.13119268 0.16894329
000140 74 88 ba 3d 08 8c 8d 3e 0f fe 42 3e 93 a3 7f 3d
       0.091080576 0.27645898 0.19042228 0.062411856
000150 dd f3 36 3e 8d c4 2b 3e 30 91 af 3d e6 2e 14 bc
       0.17866464 0.16774197 0.08572614 -0.009044385
000160 d6 e2 0b be a2 4a 29 be 5f 8f af 3d 20 c0 63 bc
       -0.1366075 -0.16532376 0.08572268 -0.013900787
000170 37 3e 4d be 2e 20 73 be 5a 2c c7 bd c8 ec 2c 3e
       -0.20043264 -0.23742744 -0.09725256 0.168872
000180 c8 69 88 3c 45 87 73 be 34 b6 ee 3d 7d 72 16 3e
       0.016652003 -0.2378207 0.11655846 0.14692111
000190 0c 34 df 3d 40 05 92 bd c3 2b 6b 3e b5 3c 6c 3e
       0.10898599 -0.071299076 0.22965913 0.23070033
0001a0 c2 40 bb 3d 59 07 66 be 3a d4 ce bd 75 ba 89 3e
       0.09143211 -0.2246374 -0.10099073 0.26900068
0001b0 16 11 9f be 33 78 b4 be 2d d9 42 3d b8 c7 8c be
       -0.31067723 -0.35247955 0.047570396 -0.27496123
0001c0 30 83 73 be 57 79 e3 bc 5f 03 9b be 70 05 4e 3e
       -0.23780513 -0.02776782 -0.3027601 0.20119262
0001d0 f1 23 b2 be 60 cc 9f bd 47 7b 2a be 66 7e a2 bd
       -0.34793046 -0.07802653 -0.16648589 -0.07934265
0001e0 11 dc 42 3e 20 76 16 3e bb 81 f7 bd 68 59 55 be
       0.19029261 0.14693499 -0.12085291 -0.20834887
0001f0 1e 74 0e 3d e7 ed 74 3d 08 79 6d bd 38 6f 73 3d
       0.034778707 0.059797194 -0.057976753 0.05943224
000200 1f 7d 41 3e d5 f0 f3 bd 41 a5 92 3e 8f a3 33 3e
       0.18895386 -0.119111694 0.28641704 0.17542861
000210 7b 5d 81 3e 4e 03 f9 3d fa e7 c6 3e 78 bb dd 3d
       0.25266632 0.121588334 0.3884886 0.108267725
000220 8d 3a 1a 3e f4 5d b5 3c 56 9c 7e 3e 9d e4 04 be
       0.15061398 0.022139527 0.24864325 -0.12977834
000230 3b 88 9b be 8d 9a 88 be 2d 59 83 3e 99 86 68 bd
       -0.30377373 -0.26680413 0.25653973 -0.056768987
000240 9e 98 88 3e 91 3b 50 be 67 36 83 3e a5 d0 ba 3e
       0.26678938 -0.20335223 0.25627443 0.36487308
000250 f5 37 81 3e f6 37 36 3e 6e 40 8e bd 36 de 9f bd
       0.25238004 0.17794785 -0.06945883 -0.07806055
000260 56 e7 1f 3e 4f e3 c5 3d 83 33 08 be e9 9b 08 be
       0.15615591 0.09662496 -0.133009 -0.13340725
000270 a3 d8 93 be 1f 1c 75 3e f3 36 61 be 96 16 59 3e
       -0.28876218 0.23936509 -0.21993618 0.21200022
000280 70 00 39 3e 99 c8 90 3e 9e f2 de 3d 5c ec 9b 3e
       0.18066573 0.28278044 0.10886119 0.30453765
000290 bc c6 17 3e a8 ff 2a 3e 28 4c 01 be 90 35 09 3e
       0.14821905 0.16699088 -0.12626708 0.13399339
0002a0 93 84 ad bc 6f 02 2a be 8f 55 8a bd d1 ac 0e be
       -0.02118138 -0.16602491 -0.067546 -0.13933112
0002b0 3e 84 5a 3e 7f eb 51 be 7f 9e fe 3d 78 7f 18 3e
       0.21339509 -0.20499991 0.124325745 0.14892375
0002c0 6c 11 47 3e d1 28 62 bd 3b 88 75 bd a1 55 46 be
       0.1944024 -0.055214707 -0.059944373 -0.19368602
0002d0 ea 87 2d be a1 28 4b be 44 94 b4 3d de f0 94 bd
       -0.16946378 -0.19839717 0.08817342 -0.07272504
0002e0 dd 6f 17 be 64 35 63 be d8 d5 8d bc 7f ad ec bd
       -0.14788766 -0.22188336 -0.017313883 -0.11556529
0002f0 d0 02 79 3e fe 64 01 3c 70 41 71 be 4a 23 20 3e
       0.24317479 0.007897614 -0.23560119 0.15638462
000300 23 92 8e be 08 06 95 3e 6d 65 6a be d5 ca 41 3e
       -0.27845868 0.29106164 -0.22890253 0.1892503
000310 dd d6 3d bd 02 fe 09 bd 12 f9 a3 3d 8d df f0 bd
       -0.046347488 -0.033689506 0.08006491 -0.11761389
000320 7f 1d 42 3e c4 ff 2c 3d 84 d3 a7 3d 76 c0 34 3e
       0.18956564 0.042236105 0.0819464 0.17651543
000330 30 e6 71 be 42 21 0d 3b 4f c1 1e 3c 1f 36 ab 3e
       -0.23622966 0.0021534716 0.009689643 0.3343973
000340 f8 f0 31 3e 75 be 4b 3e 7f 67 90 3d b3 aa 77 3e
       0.17377079 0.19896872 0.0705099 0.2418621
000350 59 3f ac 3e e1 a9 b4 be 2a 39 30 3e d1 58 53 be
       0.3364208 -0.35285857 0.17209306 -0.2063935
000360 bb f5 ec 3d 74 76 9e be 58 09 fb 3d be 71 0e 3e
       0.11570307 -0.30949748 0.122576416 0.13910577
000370 63 c4 47 be 15 d9 08 be 2a fc 20 3e c0 4b 72 be
       -0.1950851 -0.1336406 0.15721193 -0.23661709
000380 98 f6 7f bd e2 df 4b bd be b5 52 3d f9 bc 08 bd
       -0.06249103 -0.04977406 0.051442854 -0.033383343
000390 b8 f8 25 3e 76 a2 98 bd 46 9e 38 3e 11 a1 be bb
       0.1620816 -0.07452862 0.18029127 -0.0058175405
0003a0 d6 ee c0 3d 73 4c 0a 3e bf 87 04 be 03 a9 b3 3d
       0.09420554 0.13505726 -0.12942408 0.08772471
0003b0 5e 9f e4 3d 6b fa a8 3e c5 54 05 3d 49 84 e0 bd
       0.111632094 0.33003554 0.032551546 -0.109627314
0003c0 c5 93 2b 3e 99 52 27 bd da 57 22 3d 42 3a 39 be
       0.16755588 -0.040850256 0.039634563 -0.1808863
0003d0 5a 4c 3f 3c 9b 03 83 3c f5 97 40 be 0a c4 1f be
       0.0116759185 0.01599293 -0.18807967 -0.15602127
0003e0 99 00 69 be f7 a7 c5 3d 5c 7b 86 3e e1 8e 2e 3d
       -0.22754134 0.096511774 0.2626599 0.04261673
0003f0 25 60 63 be cb 96 66 3d 66 45 8f be 37 e5 38 be
       -0.22204645 0.05629615 -0.27982634 -0.18056189

model.2.weight f4 [256, 256]
000000 eb ff b9 bb c6 f7 3e 3d 70 99 ad ba cc 7a 10 bd
       -0.0056762598 0.046623014 -0.001324458 -0.03527336
000010 56 72 ae 3b a2 a7 a6 3d fe d4 a1 3d 3d b8 28 bd
       0.0053236885 0.08137442 0.07901953 -0.04119133
000020 b7 f0 ab 3c c0 7a 65 3c db 29 85 3d ca c6 f1 bc
       0.020988805 0.014006317 0.06502124 -0.029513735
000030 67 9f 20 bd a8 a2 c8 bc ca ff 8f 3d fa f8 54 3d
       -0.039214518 -0.024491623 0.0703121 0.051995255
000040 98 5b 6c bd 3d 71 76 3d 64 a8 5a bd ce 3a 6a 3d
       -0.057704538 0.060166586 -0.053383246 0.057184987
000050 21 d4 21 bd e4 8e d3 bc e6 97 f5 3b a1 44 53 bc
       -0.039508943 -0.025824971 0.0074949143 -0.01289478
000060 fb 16 37 bd a4 41 f0 3c b0 22 d0 bc 87 57 7d bc
       -0.04469965 0.029328175 -0.025407165 -0.015462763
000070 95 5c 2d 3d f4 32 4d bc 74 e5 ba bb 1b e1 ed 3c
       0.04232462 -0.012524355 -0.0057036225 0.029038003
000080 93 de 7e 3b 0a 71 23 3c f2 f0 f5 3c 43 f9 c0 3b
       0.0038889989 0.009975681 0.030022118 0.0058890893
000090 64 b6 02 bd 34 95 2b 3d e9 ce 08 3c a2 c9 59 3d
       -0.031912223 0.041890338 0.0083501125 0.053170808
0000a0 da 88 b6 3d 9f 20 ed bb 08 32 57 bc d7 ca cd 3a
       0.08912821 -0.0072365548 -0.013134487 0.001570071
0000b0 0a b9 28 bd 72 cb b5 3c 6a 81 5b bd 51 fa cd 3d
       -0.041192092 0.022191737 -0.053590216 0.1005751
0000c0 e0 64 5f bd bb f5 5e 3d c7 27 30 3c 0f cd f0 bc
       -0.05453956 0.054433566 0.010751671 -0.029394655
0000d0 25 d5 ea bc 89 f4 a6 3c 7b f9 57 3d 80 ee 0b bd
       -0.028666088 0.020380275 0.052728157 -0.034163
0000e0 82 d6 81 3b 80 a4 8b 3d 7f 66 ae 3d 1b 17 75 3d
       0.003962339 0.06818485 0.08515643 0.05983649
0000f0 93 8d ab 3d 7f c4 5b bb d4 e5 a5 3c 83 97 8c 3d
       0.083766125 -0.003353387 0.020251192 0.06864836
000100 f5 d7 7f 3d 02 d5 26 3d d6 ef 1c 3d b0 31 0d 3c
       0.062461812 0.040730484 0.038314663 0.008617803
000110 d6 2d 5c 3c 51 c0 03 b7 f4 3c 89 3d 77 6d b8 3c
       0.0134386625 -7.852986e-06 0.06701079 0.022513134
000120 1b bd 33 bd 77 75 6b bd d1 91 9d bb 46 34 78 bd
       -0.043881517 -0.05748507 -0.0048086424 -0.060596727
000130 e0 cb 01 3d 85 e0 2b bd 74 28 c3 bc 5f fc d8 bb
       0.03168857 -0.041962165 -0.023823 -0.006621882
000140 2b c0 9c 3c c0 aa 30 bd aa 27 04 bd 4f f8 1b 3d
       0.019134602 -0.04313159 -0.03226439 0.038078602
000150 c2 a9 fc bc bb 40 04 3d ce 3c f5 bc ba 9a d0 bc
       -0.030842666 0.032288294 -0.02993622 -0.025464404
000160 a5 bb 03 3b 71 51 1d bc 0e fb 48 3d e0 fa 12 bb
       0.0020100859 -0.009601937 0.04906755 -0.0022427365
000170 56 e9 aa 3d 4c 8f 20 3d bb e6 2c 3d 77 59 96 3c
       0.083452865 0.03919916 0.04221223 0.018353207
000180 60 fa 12 3d 38 53 a6 3d 0f 7c d0 bb b4 39 41 3d
       0.035883307 0.081213415 -0.006362445 0.04717417
000190 83 89 98 3c 7d e8 f8 3c 58 c6 3e 3d c4 d9 5f bc
       0.018620258 0.030384297 0.046575874 -0.013662759
0001a0 44 0d 29 3d 7c 7e d1 bd 91 68 0b 3d db c5 4a 3c
       0.041272417 -0.10229203 0.03403527 0.012376274
0001b0 fe d6 cf bc 80 5c 81 3c b3 90 71 3d 69 35 03 bd
       -0.025371071 0.015791178 0.058975887 -0.032033358
0001c0 ec 43 53 3d 65 38 3d 3d 29 df ad bc 53 8f 3e bd
       0.051578447 0.04619636 -0.021224575 -0.046523403
0001d0 4d 31 ab 3c ee 67 c9 3c b6 7a 9c bc af 9c 1f 3d
       0.020897532 0.02458569 -0.019101482 0.038967784
0001e0 8c 68 33 bd 9e c4 36 3d 18 48 ea bb 4b 84 29 3c
       -0.043800876 0.044621103 -0.0071497075 0.0103464825
0001f0 25 91 10 bd 94 94 9c 3c 1f 45 36 bc a1 c2 54 bc
       -0.03529467 0.019113816 -0.011124878 -0.012985856
000200 a0 2b d5 bc 65 b8 5e bd d1 1a 71 bc 5d 51 05 bd
       -0.026021779 -0.05437507 -0.014715866 -0.032548297
000210 3f df 3f 3d ca b2 df 3c ea 5a 42 bd 2a 75 26 3d
       0.046843763 0.027306933 -0.047449984 0.04063908
000220 46 3a 24 3d 65 4c 2a 3d 16 08 04 bd 1c 22 41 bb
       0.040094636 0.04157676 -0.032234274 -0.0029469794
000230 84 d8 ab 3c db d7 3f 3d 53 62 c0 3c 35 f3 68 3b
       0.020977266 0.046836715 0.023484385 0.0035545353
000240 95 ed ef 3c 49 77 86 ba 7c 15 00 3d aa 4d 80 bb
       0.029288093 -0.0010258938 0.03127049 -0.0039155083
000250 e6 02 6b bd 6f c7 2f 3d 4e e7 7e 3d 29 28 01 3d
       -0.05737581 0.042914804 0.062232308 0.03153244
000260 71 97 e7 bc 9b 78 25 bd bc 9e 73 bc 6e 33 3e bc
       -0.028270455 -0.04039822 -0.014869388 -0.0116089415
000270 33 38 a3 ba ac 46 71 bd 07 99 b7 3a 45 ed 43 3d
       -0.0012452662 -0.05890529 0.0014007398 0.0478337
000280 5f bd ae 3d 87 37 0d 3d 31 66 1d 3d 33 bb 72 bd
       0.085322134 0.034476783 0.038427535 -0.05926056
000290 c4 e1 0b 3d eb 13 5f bd 10 6b cf 3d 34 45 9a bc
       0.034150854 -0.054462355 0.101278424 -0.018831827
0002a0 93 b6 77 3d f7 0d 04 3d 4a 7f c1 3c ab c7 dd bc
       0.06047685 0.03223988 0.023620266 -0.027072748
0002b0 cc 64 04 3d c3 7c 53 bd 96 af 78 bc eb a7 8d 3d
       0.03232269 -0.051632654 -0.015178582 0.069167934
0002c0 f3 6b 45 bd d3 fd c2 3c b4 85 64 bd c2 38 6d 3d
       -0.04819865 0.023802673 -0.05579157 0.057915457
0002d0 6d cb ae 3c d9 39 f6 bb 9a c6 5a 3d d5 6a 0e 3d
       0.021337235 -0.00751422 0.053412057 0.03476985
0002e0 62 e4 cf bc af a1 4f 3c d2 83 52 3d 16 89 65 bd
       -0.025377456 0.012672826 0.051395245 -0.05603894
0002f0 e1 86 b2 3b f4 cd 86 3d 12 85 b5 3c 62 28 0a 3c
       0.0054482077 0.06582251 0.02215818 0.00843248
000300 41 80 85 bd d9 47 d7 3c f6 a0 5a bc 61 42 6d 3d
       -0.06518603 0.026279377 -0.01334404 0.057924632
000310 0b 48 8a 3b fe 0f 0b 3c 07 a9 8c bc 61 fa b3 3c
       0.004220014 0.0084877 -0.017170442 0.021969976
000320 b7 2c e8 bb 8d 4c 63 bd c3 02 46 3d c0 c4 d2 bc
       -0.0070854085 -0.055492926 0.048342478 -0.025728583
000330 7b 46 5f bc 08 25 48 3d 87 e6 39 3d 85 8e 3a bd
       -0.013627644 0.04886344 0.045385864 -0.045546073
000340 72 15 b1 3c 30 bc 35 3b 82 f2 28 bc f0 f1 9f bb
       0.021616671 0.0027730577 -0.010311725 -0.004881136
000350 d1 b4 88 bb b5 33 0f bd a9 ad 4e 3c 4c aa b0 bd
       -0.0041719456 -0.03496142 0.012614646 -0.086262316
000360 ed d4 d3 3b 44 3f f7 bc d2 95 70 bd de 9d da bb
       0.0064645917 -0.030181535 -0.05873663 -0.0066716513
000370 e8 44 a3 3b 7f b6 ca 3c 98 be 16 3c ba 0c 8b 3c
       0.0049825795 0.024745224 0.0092007145 0.016973842
000380 3f e4 32 bd c6 ed 6d 3b 92 d5 44 3d 51 c9 58 bd
       -0.043674704 0.0036305054 0.04805524 -0.052926365
000390 94 16 b7 bb 79 3a 84 3d ac e2 cd bc 75 15 24 bd
       -0.0055874083 0.06456465 -0.0251325 -0.040059526
0003a0 3b 3c 88 3c 72 5c d9 3c 80 f5 e1 3d 2a 2f c4 bc
       0.016630283 0.02653334 0.110331535 -0.02394827
0003b0 f0 53 c1 3d d2 ec 1a 3d d7 db 05 bc 0e 47 57 3d
       0.09439838 0.037823506 -0.00817009 0.052557997
0003c0 43 35 23 bd c8 62 bf 3d b5 5f 68 bd 0b c8 52 bc
       -0.039845716 0.09345013 -0.0567319 -0.012865077
0003d0 a2 b9 33 bd ea 81 93 3a 07 dc dd 3c 25 71 04 39
       -0.043878205 0.0011253927 0.027082456 0.0001263065
0003e0 03 7f 39 3d 00 e6 5f bd 31 30 e6 bc 7d 72 35 3d
       0.045287143 -0.054662704 -0.028099151 0.044298638
0003f0 7f b1 ab 3b 68 92 64 3d dd 78 81 3d eb 23 21 3c
       0.005239665 0.055803686 0.06321881 0.009835224

model.2.bias f4 [256]
000000 6e f3 44 3d 0b bb 3d 3b 08 7f 10 3d 5f b9 90 ba
       0.048083715 0.0028950598 0.035277396 -0.0011041573
000010 b6 9b 02 bd c8 96 a9 bb 0b 14 6d bd 3e fa 99 bd
       -0.03188678 -0.005175445 -0.057880443 -0.07518433
000020 e0 82 49 bc 43 9b fe bb b5 6e 33 3c 2f 1d 71 3d
       -0.012299269 -0.0077699735 0.010951688 0.058865722
000030 fe 87 1a 3d 5f 85 09 3c d1 83 38 3d 12 98 7e bd
       0.03772735 0.008393615 0.045047585 -0.062156744
000040 4f 90 4a bd 4b ef 71 3d f0 1c aa 3c e4 af c9 bc
       -0.04945403 0.0590661 0.020765752 -0.024620004
000050 3e f9 a8 bd a3 71 62 bc 77 bf 7f bc 1c 9a 00 3c
       -0.08250664 -0.013821038 -0.015609614 0.007849243
000060 6f 2f de bc 4b f9 0b bd 8f 2b 4d 3d e3 04 1c 3d
       -0.027122227 -0.03417329 0.05009037 0.038090598
000070 68 20 b3 bc c2 79 64 bc d8 43 76 3d 53 ca d8 3d
       -0.021866038 -0.013945045 0.060123295 0.10585465
000080 ab 35 8c 3d 88 56 81 3d c0 2e 14 3c cf 11 2a 3d
       0.06846174 0.06315333 0.009044349 0.04152089
000090 5c e2 14 3d 7d 7d df 3b 64 38 fb 3c fc 8c 51 3d
       0.036348686 0.0068203793 0.030666538 0.051159844
0000a0 88 66 1f be 63 cc bd 3b 8e 55 09 3d ad 41 6a 3c
       -0.15566456 0.005792187 0.033528857 0.014297885
0000b0 24 30 23 bd 43 d7 a9 bc 9d f3 75 3d a1 1d ce 3c
       -0.039840832 -0.020732528 0.06004678 0.025160613
0000c0 97 2a 2b 3d 2e 2c 26 bd 9e c2 38 bd f7 1c 1a bd
       0.041788664 -0.040569477 -0.045107476 -0.03762528
0000d0 13 e5 c2 3c f9 d1 a8 3d 28 f8 9f bc 9b cb 3a 3c
       0.023790872 0.08243174 -0.01952751 0.011401082
0000e0 cd 4f 7d bc 92 97 ae 3c 95 27 83 3d 5a 5f 6a 3c
       -0.0154609205 0.021312509 0.06404034 0.01430496
0000f0 3d 56 c1 3c b7 01 24 3c 25 ea 0a 3d 32 69 03 3d
       0.023600692 0.0100101745 0.033914704 0.032082744
000100 04 cb c1 3c 12 76 9a bc 9a 6f 88 bc cb 24 86 bd
       0.023656376 -0.018855128 -0.016654778 -0.065499865
000110 6a 19 75 3d 89 0c 6a 3d 7e 4d 55 3b 22 a0 87 3c
       0.05983869 0.05714086 0.003254741 0.01655585
000120 c0 4e 99 3d 4e 92 c7 3c 15 13 f6 3c 0d da db bc
       0.074857235 0.024361756 0.030038396 -0.026837373
000130 c2 b5 a4 3d 47 3a 2b 3c ed 1a 55 3c 67 ae d6 3d
       0.0804248 0.010450906 0.013006908 0.10482483
000140 bd 49 8b 3d 19 33 06 bc f3 f8 22 bd 3c f7 b1 3c
       0.06801174 -0.008190894 -0.039788198 0.021724336
000150 b1 8d f1 bb cd 61 17 bc 95 65 0d 3d 2a 6b 91 bd
       -0.0073716273 -0.009239626 0.034520704 -0.07100518
000160 4a fd 90 bd 1e 46 0d bd a9 39 91 3a 43 e6 88 3c
       -0.07079561 -0.034490697 0.0011079806 0.01671136
000170 5d c9 b5 bd 09 b1 d7 3c 11 b9 ef bd b5 80 f2 bc
       -0.088762976 0.026329534 -0.117052205 -0.029602388
000180 ac 8c 13 bd 80 5b 10 3d 83 54 a0 bd 84 27 ab 3b
       -0.036022827 0.03524351 -0.07828619 0.0052232165
000190 89 34 eb bc 67 ae 9b 3d 7d fd 69 bd c5 d3 c3 bc
       -0.028711574 0.07601624 -0.05712651 -0.02390469
0001a0 ca 6c 10 bc 6a 5a 5f 3d d2 e7 97 bc 16 86 36 bb
       -0.008815 0.054529585 -0.018543158 -0.0027850918
0001b0 60 d9 dd 3c 12 69 f0 bc 6f 6c 69 3b b6 75 98 3c
       0.027081192 -0.029346976 0.003561761 0.018610816
0001c0 4d 66 da bc b9 66 77 bc e5 09 be 3d 5f 04 b5 3c
       -0.026660109 -0.015100175 0.09279231 0.02209681
0001d0 0a a7 b4 bd 37 e6 36 3c 29 6d 80 bd 90 7b 90 3d
       -0.08820923 0.011163286 -0.06270821 0.07054818
0001e0 e2 76 de 3c d8 39 16 bd 48 7e e8 3d a8 85 6f bd
       0.027156297 -0.036676258 0.11352211 -0.058477074
0001f0 bb 0b 1d bd d8 6f a5 3c 63 37 7a 3c a9 8b e4 bc
       -0.038341265 0.020194933 0.015271994 -0.027898626
000200 ce f3 99 3d 8c 96 18 3d f7 8d 82 bd ac ac 8a 3d
       0.07517205 0.037252948 -0.06374734 0.06771216
000210 7d f0 34 bd 10 ee 94 3c 3d 4e dc bc 40 23 c1 bd
       -0.04417466 0.018179923 -0.026892776 -0.094305515
000220 b3 c1 85 3d 78 8c 13 3c 07 ad 58 bd df ab 17 3a
       0.06531086 0.009005658 -0.052899387 0.00057858037
000230 41 a5 21 bd 02 4b f3 bc 7a 75 db bd 9c e9 ca 3c
       -0.03946424 -0.029698852 -0.10715766 0.024769597
000240 76 7f 56 bd 13 a0 0a 3d fc a2 22 bd 5a 50 81 3c
       -0.05236765 0.033844065 -0.039706215 0.015785385
000250 c2 76 70 3a 5d da 8a bd 32 03 d6 3c 83 03 91 3d
       0.000917297 -0.06779931 0.02612457 0.07080748
000260 c0 be ce 3c ca b1 c8 3d e0 4f 02 be b9 f5 85 bd
       0.025237441 0.097995356 -0.12725782 -0.065410085
000270 4c 7e 07 3b 13 4d b8 3d c5 a5 db 3c 99 64 f9 bc
       0.0020674644 0.08999076 0.026812444 -0.030443477
000280 20 ba b9 bd 68 da 01 3e 35 de 9b 3d 78 f9 c6 bc
       -0.09068704 0.12680972 0.07610742 -0.024288878
000290 29 0f 8a 3c 8b 4a c4 3c 6c e1 c5 3c 0e 26 13 3d
       0.016852932 0.023961326 0.024155341 0.035924964
0002a0 68 64 65 3d 79 65 78 3d 84 d6 aa 3c 6d 19 4a 3b
       0.056003958 0.060643647 0.020854242 0.003083791
0002b0 da 12 83 3a 80 bc 0a 3c bb 42 32 bc 7b 30 53 bd
       0.0010000125 0.008467793 -0.010880168 -0.051559906
0002c0 83 75 3c bd 53 f3 1d bd a6 5c 8a bd 5c 4b 8b 3c
       -0.046010505 -0.03856213 -0.067559525 0.017003708
0002d0 d1 97 68 3c 39 75 02 3c 52 5d 58 bd 2c 2f 69 3d
       0.014196352 0.007962518 -0.052823372 0.056929752
0002e0 05 ae 49 3d 2c 22 5b bd c0 67 a3 bb ea 73 0a 3d
       0.049238224 -0.053499386 -0.004986733 0.03380195
0002f0 8d 2f e6 bc e7 fc 81 3d f4 12 37 bd 9a 9b a2 3d
       -0.028098846 0.063470654 -0.04469581 0.07939835
000300 40 c7 b5 bc 9a 0e e2 bd d0 94 30 3d c0 ad 21 3d
       -0.022189736 -0.11037941 0.04311067 0.03947234
000310 5b bf 97 3c b7 d2 d2 bc 28 51 e0 bc 4d 72 3a 3d
       0.018523863 -0.025735242 -0.027382448 0.045519162
000320 fe 1f e6 bc 76 d5 e8 3c 75 4d a5 bc 87 14 5f 3c
       -0.028091427 0.028422099 -0.020178536 0.013615734
000330 be b1 33 3d 8b ee 5f 3d 33 8b 17 bd 10 bc ea bc
       0.04387068 0.05467085 -0.036997985 -0.028654128
000340 12 47 25 3d 12 54 3f bd f6 2c fa bc 6f 5a 48 bd
       0.04035098 -0.046711035 -0.030539017 -0.04891437
000350 f5 7a bb bc 90 e9 3d bd 19 ad 68 bc 95 3b 56 bd
       -0.022885779 -0.04636532 -0.014201426 -0.052302916
000360 ca 73 86 3c 3b c3 43 bd b5 3c ce 3c fa 23 f6 ba
       0.016412634 -0.04779361 0.025175432 -0.0018779032
000370 15 31 b6 bd 68 e1 17 bd 9d 50 1c bc 81 16 76 3c
       -0.088960804 -0.0370802 -0.009540704 0.015020014
000380 99 bd d8 3c 02 b4 d7 3c 04 b6 46 3d 20 26 17 3c
       0.026457595 0.026330952 0.048513427 0.009225398
000390 dc ac 6d 3d 63 c0 01 3e 55 4e a5 3d 6d 10 9f 3d
       0.05802618 0.12671046 0.08071581 0.07766805
0003a0 45 01 f1 3d 2e d0 78 3b 6c d5 83 3c db de cb 3c
       0.1176782 0.0037965882 0.016092978 0.02488654
0003b0 e3 09 3d be a0 28 8c bd d2 22 e9 bb 92 4d 95 bd
       -0.18460803 -0.06843686 -0.0071147466 -0.07290186
0003c0 c2 1e e1 3d c9 e4 79 3d 79 44 ec 3c d6 80 8b 3d
       0.10992195 0.061009202 0.028841244 0.06811683
0003d0 37 d5 f3 3d 32 c3 09 3c 80 f3 6b bd 3e d7 0c bd
       0.11905902 0.008408355 -0.057605267 -0.03438496
0003e0 07 32 0c 3d fc ba f4 bc ce 25 26 3d ad 7f 9e bd
       0.034227397 -0.029874317 0.040563397 -0.07739196
0003f0 21 a3 e0 3b e6 25 86 bd 45 f0 9e 3d 59 a4 5e bd
       0.006855384 -0.06550197 0.077606715 -0.054355953

model.4.weight f4 [256, 256]
000000 41 00 4c 3d 11 a9 7c 3d 2a 01 e2 3c da 5f 94 3d
       0.04980493 0.06168467 0.027588446 0.07244845
000010 89 84 85 bc ab 5c e0 3c 14 b5 30 3d 56 9b 84 3d
       -0.01629855 0.027387938 0.04314144 0.064749405
000020 04 84 95 bc 2b 08 b5 3c 60 be 4a bd 38 39 0d 3d
       -0.018251427 0.022098621 -0.049497962 0.034478396
000030 9b 31 81 bd c7 71 d0 3a 9c 8a 26 3c ee 34 d2 3b
       -0.063082896 0.0015903049 0.010164883 0.006415001
000040 49 0a aa ba 84 37 94 3d b5 ce 46 3c a9 4a 22 bd
       -0.0012973036 0.07237151 0.012134244 -0.039621983
000050 80 84 01 3d e7 b6 01 3d e6 96 82 bc c4 fd 96 3d
       0.031620502 0.03166857 -0.015941095 0.07372621
000060 6c f1 39 3d db 27 4c bd 4f dd 6e 3d 51 fd b1 bb
       0.045396253 -0.049842697 0.058316525 -0.005431809
000070 09 7f fb 3c 25 c4 4b bd d4 b5 a4 bc 52 0b d4 bc
       0.030700224 -0.049747605 -0.020106234 -0.025884304
000080 89 4c e6 bc 2b 2a 20 3d e1 e2 08 3d 0e eb 9a bc
       -0.028112667 0.039102715 0.033419494 -0.018910911
000090 1d c2 c8 bc 33 26 42 bd a0 4a 26 bc c0 77 cf b9
       -0.024506623 -0.04739971 -0.010149628 -0.00039571337
0000a0 c2 77 28 bd ed 5e b5 39 48 5c 19 bd ef f6 02 bc
       -0.041129835 0.00034593735 -0.037441522 -0.007993444
0000b0 65 4e 82 bd 5a 83 55 3b 06 76 7c 3d 1d 7e 94 3c
       -0.06362609 0.0032579512 0.061635993 0.018126542
0000c0 b5 ab 45 3d 73 75 5d 3c 41 8d 29 bd 23 b7 a5 3b
       0.048259456 0.013516772 -0.041394476 0.005057232
0000d0 49 02 2f 3d 35 81 34 3d b9 94 0d bd ab c6 db 3c
       0.04272679 0.044068534 -0.03456566 0.02682813
0000e0 54 f2 27 bd 37 ed 0c bd 31 d2 0d bd da 95 06 bc
       -0.041002586 -0.034405913 -0.034624282 -0.008214438
0000f0 d3 8d 62 3d 60 06 61 3d 16 0e b2 3c 55 fc 6e 3d
       0.055311035 0.05493772 0.021735232 0.05834611
000100 6c 28 89 3d 33 2a 25 3d c0 7c 3b bd 46 aa 25 3d
       0.06697163 0.040323447 -0.045773268 0.04044559
000110 8c 92 6c bd 9a 16 48 bd 59 dd 1e 3d 32 3d c4 3b
       -0.057756945 -0.04884968 0.038785312 0.0059887404
000120 cd c4 11 3d dd 99 4e 3d 30 7c 81 3c 81 20 3b bd
       0.035588074 0.050439704 0.015806288 -0.045685295
000130 1c da 47 3b e2 76 6a bd 0e f6 c9 3b b5 aa 22 bc
       0.0030494994 -0.05724228 0.006163365 -0.009928395
000140 6a 49 89 3d 8e 7d d3 3c fc 6f 49 3d 01 b6 3c 3d
       0.06703456 0.025816705 0.049179062 0.04607201
000150 53 30 24 bd e9 bf 55 bd fd e8 d8 3c 2f 93 89 3d
       -0.040085148 -0.052184973 0.026478285 0.06717526
000160 4c a0 db bc c8 28 f6 3c e2 98 c0 bb db 5a 44 bb
       -0.026809834 0.030048743 -0.0058776 -0.002996138
000170 da 7f 6f bb 6e 23 3a bc 8e 83 9f bc 3d 34 c7 bc
       -0.0036544711 -0.011360986 -0.01947191 -0.024316901
000180 48 bd 85 3c e8 aa 38 3b bc 68 97 3c c9 fc 1a bd
       0.016325608 0.002817804 0.018482558 -0.03783873
000190 df 3f 52 3c a3 ca 56 bd 41 b9 61 bc d5 a3 83 3d
       0.012832611 -0.052439343 -0.013777078 0.06427733
0001a0 59 13 c1 3a 1e 1c d5 bc 93 4a 02 bd de 05 89 3d
       0.0014730497 -0.026014384 -0.0318094 0.06690572
0001b0 e1 9d 76 3b 41 5d 1a bd 7d 37 bf 3b 44 03 38 bd
       0.0037630724 -0.03768659 0.005835472 -0.04492499
0001c0 13 0c a0 3d 46 b1 3c bd 86 65 09 3d b8 ef 3e bd
       0.07814803 -0.0460675 0.033544086 -0.046615332
0001d0 27 2e 44 3d bf ba c7 bb 21 94 87 3d f8 aa 8d bc
       0.047895577 -0.00609526 0.0662005 -0.017293438
0001e0 0b 9b 0a 3d de 58 45 3d 89 cf 2a 3d 7a 3e 0b bd
       0.033839267 0.048180453 0.041701827 -0.03399513
0001f0 47 65 c1 bc 17 59 ad 3d 3b 15 81 3d 3e 63 38 bd
       -0.023607863 0.08464258 0.063028775 -0.04501652
000200 79 75 4f 3c 3e 06 1c bd 6c 5f 81 3d 83 89 df bc
       0.012662285 -0.03809189 0.063170284 -0.02728725
000210 88 e0 85 3d a2 8a 82 bc a8 1e c5 3b 8c e3 30 3d
       0.065369666 -0.015935246 0.0060156174 0.043185756
000220 33 f4 3c 3d 16 88 ef 3c 5d b1 b7 bb 02 ae 90 3d
       0.046131324 0.029239696 -0.00560586 0.07064439
000230 cd a0 96 36 89 cb 2e bd 5d 32 17 bd b0 46 e1 bc
       4.489068e-06 -0.042674575 -0.036913265 -0.027499527
000240 9f db b9 3c 27 a6 b6 3c 0d 7a a3 3c 15 bf 6f 3d
       0.022687731 0.022296024 0.01995566 0.05853184
000250 d3 e9 30 3b df f0 1b bd 0a a9 3b bd d2 eb bd 3c
       0.002699484 -0.03807151 -0.045815505 0.023183737
000260 49 46 ac 3c ff b2 98 3d 6c 28 cd bd 63 c7 53 bd
       0.021029608 0.07456016 -0.100174755 -0.051703822
000270 dc 93 06 bc fb 3b d5 bc e7 b5 ad 3c 85 c0 a8 3b
       -0.008213963 -0.026029577 0.021204902 0.0051499032
000280 c5 ec 0d bd d0 d2 5b 3c 27 14 74 3d d5 d5 f6 38
       -0.03464963 0.013416961 0.05958953 0.000117700234
000290 b8 84 22 3d 8d 95 e3 3c d2 9d 12 bc 67 55 b3 3c
       0.03967735 0.027781272 -0.00894876 0.021891309
0002a0 a6 c3 50 3b fb a5 a8 bc 49 ae 0b 3d 02 ed 46 bd
       0.0031854897 -0.020586958 0.03410176 -0.048565872
0002b0 2d b5 a7 3d 1e f2 a6 bc 4e a9 e8 bc e3 6c d6 3c
       0.081888534 -0.020379122 -0.028401043 0.026174968
0002c0 05 ae fe bc e5 2d 53 bc 61 58 84 bc bb dc 33 bd
       -0.031088838 -0.01288936 -0.016155424 -0.043911677
0002d0 b7 42 83 3d 53 c2 c7 3c 65 05 d8 bc 7b c2 0d 3d
       0.06409209 0.024384653 -0.02636976 0.0346093
0002e0 b2 45 50 bd 7a 0a 92 3d 1a eb 65 bd c4 6e 47 bb
       -0.050847717 0.071309045 -0.056132413 -0.0030431012
0002f0 2c 7c aa 3d f2 f9 02 3d 70 1e 99 3d 84 c1 4c bc
       0.08324465 0.031976648 0.074765086 -0.01249731
000300 51 7b c2 3c 3d 17 f3 bd 28 26 07 3d 19 80 2c bd
       0.023740442 -0.11869667 0.032995373 -0.04211435
000310 81 de cb bb d8 87 d5 bc 57 f4 bf bc 61 ba 25 bd
       -0.006221593 -0.026065752 -0.02343194 -0.040460948
000320 e0 8d a4 3c c5 04 54 3c 5a e3 a6 3d b8 73 33 bd
       0.020087183 0.01294059 0.081488326 -0.04381153
000330 9e 4c 70 3d f1 ec 53 bd c9 5e d3 3c 5b 5a 90 bd
       0.058666818 -0.051739637 0.025802033 -0.07048484
000340 b7 1a e7 bc b8 d8 1f bd f0 a9 32 3d 50 13 9b bc
       -0.02821098 -0.03902504 0.043619096 -0.018930107
000350 22 72 e9 bc a8 0e e6 3c 4a c7 84 bc a2 af 12 3d
       -0.028496806 0.02808316 -0.01620831 0.035812028
000360 b6 6f 23 3d 3a 05 13 bd 7b 37 29 3c 71 83 42 3b
       0.039901458 -0.035893656 0.010328169 0.0029680396
000370 b0 55 35 3d 51 ee 9a 3d 2b 95 8d 3d 88 46 ee 3b
       0.04427117 0.075649865 0.06913217 0.0072715916
000380 17 4e 35 3d 12 88 00 bd fb 11 16 3d 07 04 00 3c
       0.044263925 -0.031379767 0.03663824 0.00781346
000390 b9 19 02 bc c3 36 b7 3c a0 22 1e 3d 04 2e 28 bd
       -0.007940703 0.02236498 0.03860724 -0.04105951
0003a0 89 40 78 3c 80 0f 87 3d ec 5e 20 3c c6 31 15 bd
       0.015152105 0.06594753 0.009788256 -0.03642442
0003b0 1d a2 61 bd 09 06 59 3d b3 7d 25 bc 77 4e 1e 3d
       -0.055086244 0.05298427 -0.01010077 0.03864905
0003c0 e9 b9 1a 3d a3 d5 ae 3c 8a 12 1b bc 33 12 7a 3d
       0.037774954 0.021342104 -0.009464869 0.061052512
0003d0 83 16 e6 bc 06 70 e3 bc 3b 8d 82 bc 12 1b 0d bd
       -0.028086906 -0.027763378 -0.015936485 -0.034449644
0003e0 00 b4 8d 3d 6d e7 81 bd 2a fa 07 3a bd 03 a1 3c
       0.06919098 -0.06342969 0.00051871187 0.019655103
0003f0 49 9e 05 bd 16 b0 2f 3d 57 7f bc bc 77 a1 64 bd
       -0.032621656 0.042892538 -0.02300994 -0.055818047

model.4.bias f4 [256]
000000 54 5a fe bc b7 0c c3 3d 83 24 30 3c f7 c9 a0 3c
       -0.031048931 0.095239095 0.010750893 0.019627554
000010 c1 cf 36 3d 7f 86 71 bc 52 57 20 bd bd 3b 23 3d
       0.044631723 -0.014741539 -0.039145775 0.039851893
000020 7c b1 8e 3d 78 45 41 3c 5e c3 a6 3d 3e 58 06 3e
       0.06967446 0.011796348 0.08142732 0.13119599
000030 f8 7a 2d bb ed 66 6b 3d 09 cc 04 bd 91 4f 53 3d
       -0.0026471 0.057471205 -0.032421146 0.051589552
000040 46 15 fb bc 6f a3 52 3d 61 57 1b bc 98 29 8e 3c
       -0.030649792 0.051425394 -0.009481282 0.017353818
000050 bb fb 3e 3d 6f b2 3a 3c e6 58 bd 3c 12 71 92 bc
       0.046626788 0.011395081 0.02311368 -0.017876182
000060 5e fe 94 3d 81 ba 27 bc 2d bb 84 bc 17 0e 8f bd
       0.07275079 -0.010237337 -0.016202534 -0.06985109
000070 e7 fd 82 bd ec 66 81 3d 1a 86 bd 3d 82 50 b2 3d
       -0.06396084 0.06318459 0.092540935 0.08706762
000080 91 db b0 3c f3 e2 b4 b8 38 ca dc 3c 0d 0d 2d bd
       0.021589072 -8.6253414e-05 0.026951894 -0.042248774
000090 03 c2 2a b9 79 4d cf 3d 31 fd 64 bd b1 8b 66 bc
       -0.00016284738 0.101221986 -0.055905525 -0.014071391
0000a0 44 c1 4c 3d e1 dd 89 3d c7 e1 cc bc 5f 8a 18 bc
       0.049989 0.06731773 -0.025010003 -0.009310334
0000b0 15 a6 95 ba ba b2 5b bc 12 65 a3 bd 87 99 ee 3c
       -0.0011417294 -0.013409311 -0.07978262 0.029125942
0000c0 86 0f e9 bc c4 c7 42 bd e6 49 a2 3c d4 bf c8 bc
       -0.028449785 -0.047553793 0.019810628 -0.024505533
0000d0 74 df 40 3d 0f be 68 bc 6a 91 7e 3d 9e de 59 bc
       0.0470881 -0.01420547 0.062150396 -0.013297705
0000e0 bc 74 33 3c 5a bf d4 3d 8c b9 86 bd 54 8a 48 bc
       0.010953125 0.1038806 -0.06578359 -0.012240011
0000f0 ec d6 64 3d d5 b8 9b 3d 35 4c 64 3c a6 19 1a bd
       0.055869028 0.07603613 0.013934185 -0.037622117
000100 d8 b0 cf 3b 35 46 8e bd 62 9f 09 3c 39 c2 ad bc
       0.00633822 -0.06946985 0.008399816 -0.021210777
000110 8e ab 06 bd 48 63 40 3d a4 6e 38 3d 3e 67 a0 bd
       -0.03287845 0.046969682 0.04502739 -0.07832192
000120 e4 ba a5 bc a2 79 6e 3d 4d 07 a8 bc e2 43 f6 3c
       -0.020230718 0.058221467 -0.020511294 0.030061666
000130 91 db a8 3c e5 34 76 3d 70 a5 bd bc 1c 58 2e ba
       0.02061251 0.060109038 -0.023150176 -0.00066507026
000140 4c 06 3b 3d 52 64 3d bc 3c 16 e1 3c 99 7b fd bc
       0.045660302 -0.011559563 0.027476422 -0.030942725
000150 81 b6 6e bb bb f5 35 3d fc 5d 57 bc 9a 18 77 3d
       -0.0036424699 0.0444238 -0.013144966 0.060326196
000160 eb 88 b6 3c 9a a1 3f bd c7 84 3f 3d 72 e9 68 3d
       0.022282084 -0.046784975 0.046757486 0.056863256
000170 fa 80 15 bd 6e c2 08 bd 2c a9 83 3d 89 71 f0 bc
       -0.036499955 -0.033388548 0.06428751 -0.029351013
000180 b9 68 b4 bd 72 a6 bd 3d d1 86 8f 3c ce 4f a5 bd
       -0.08809037 0.092602625 0.01752034 -0.08071862
000190 d0 f2 94 3c 6d d0 1c 3d 23 db 3f 3d 5e a4 cf 3d
       0.018182188 0.038284708 0.046839844 0.101387724
0001a0 95 4f 06 bd af 7b 1c bd 28 78 44 3c 5f 38 08 3c
       -0.03279074 -0.03820389 0.011991538 0.008314221
0001b0 79 3d b6 bc b2 82 97 bc ce 47 53 3b fa 1d 96 3c
       -0.02224611 -0.018494938 0.0032238844 0.01832484
0001c0 d3 8a 3f 3d a4 d5 90 bd 1d 94 04 bd bd e0 95 bd
       0.046763252 -0.07071999 -0.032367814 -0.07318256
0001d0 92 76 7f bc 8f 91 27 3d fd 21 04 3d 14 3f e3 ba
       -0.015592234 0.0409103 0.032258976 -0.0017337524
0001e0 3c 7a 75 3d 62 54 ca bd e4 78 d5 3d 44 08 49 3c
       0.059931025 -0.09879376 0.10423449 0.012270037
0001f0 aa 4a 0a bd 0b c2 91 3c 31 68 af bc e1 b7 95 3d
       -0.03376261 0.017792722 -0.021411987 0.07310463
000200 51 fe ff bc e9 c5 9c 3d b5 12 57 bd 88 b1 bb bc
       -0.031249197 0.07654936 -0.052508075 -0.022911802
000210 9e b8 4c bd 73 88 ad 3d 60 df 14 3d 1f 8a 42 3d
       -0.049980752 0.08473291 0.03634584 0.047495004
000220 57 a4 6e 3c ee 74 82 3c 3e 51 b8 3d e2 c4 82 bc
       0.014565549 0.015924897 0.08999871 -0.015963022
000230 5d 3c 16 bd 8c 79 3d bd a9 65 c8 3b 47 90 95 bc
       -0.03667866 -0.046258494 0.0061156345 -0.018257273
000240 4a b3 5b 3d f2 7e 96 3c af 97 f4 3b ea db b3 3c
       0.05363778 0.01837108 0.007464371 0.02195545
000250 ec a9 43 3d 07 b7 48 3d d0 1c 4d bd e2 78 d9 3c
       0.047769472 0.049002673 -0.050076306 0.0265469
000260 bf 25 ad 3d bc 73 43 3c 8b 5b b6 3c 9b f4 ad bc
       0.08454465 0.011929449 0.022260448 -0.021234801
000270 09 24 cf bc 50 e9 08 bd bf b6 83 3d ea 67 d3 3b
       -0.025285738 -0.03342563 0.064313404 0.0064515965
000280 6f 78 9e 3c fb cf 9a bd f9 32 4c 3d f2 be 18 3d
       0.019344537 -0.075592004 0.0498533 0.037291475
000290 0d df f8 3c 11 c6 16 3d a1 bc 1c bc 99 b8 36 3d
       0.030379796 0.036809985 -0.009566457 0.04460964
0002a0 bb d0 2e 3a 38 aa 1e bd 1a 32 2d 3c d8 11 5c 3d
       0.00066686765 -0.038736552 0.010571027 0.053727955
0002b0 63 0c 6a 3d 58 25 65 3c 78 a6 4d bd 93 f1 d4 3c
       0.05714072 0.013985954 -0.050207585 0.025994098
0002c0 87 89 86 3c 8c ef 23 bc 0b 0b 83 bd e3 2f 8b bd
       0.016423 -0.010005843 -0.06398591 -0.06796243
0002d0 1d aa 74 3c a4 a3 78 ba 76 ce 1c 3d 16 b7 19 3d
       0.014933136 -0.00094848336 0.038282834 0.03752812
0002e0 4a 63 07 bd 8e 00 71 bc d7 84 0f bd 97 ad 49 3d
       -0.033053674 -0.014709605 -0.035038795 0.049237814
0002f0 1d 9b 97 3d 3a 38 ab 3d d7 03 37 3c fe ae bc 3d
       0.074026324 0.08360334 0.011170349 0.092130646
000300 0e 57 84 3d 7b a8 72 bc 85 c2 22 3d 6e cc b4 bc
       0.06461917 -0.014810677 0.03973629 -0.022070136
000310 2a 81 f2 bc 99 43 f1 bb f4 4f b7 3d 55 a9 83 bd
       -0.029602606 -0.0073627946 0.08950797 -0.06428782
000320 41 da a1 bc 8d da 80 bc 89 44 c6 bc 96 50 75 bd
       -0.019757392 -0.015729213 -0.024202602 -0.059891306
000330 8a 47 19 3d c1 10 ef bc 28 46 82 3d 1c 52 b2 3d
       0.03742174 -0.029182794 0.063610375 0.08707067
000340 b0 74 5d 3d 13 29 44 3d 3b f1 5e bc a8 4d 89 3d
       0.05406636 0.047890734 -0.0136073185 0.06704265
000350 eb 9e 31 bd 42 ab 0f 3c 5c 0c 5d 3d f1 82 e0 3b
       -0.043364447 0.008768858 0.053966865 0.006851547
000360 d8 c2 e6 bc 69 47 95 3d ae fb a5 3c 8e 0b 1c bd
       -0.02816908 0.07289011 0.020261612 -0.038096957
000370 b9 7c 07 bd 6a 1b 2c bc 73 02 10 3d 2b dd 60 3b
       -0.03307793 -0.010504583 0.035158586 0.0034311514
000380 ea 9d 73 3d 4b 44 8f bd 29 bb 9a bc aa 79 83 bb
       0.05947677 -0.06995448 -0.018888073 -0.004012306
000390 d9 cb 4e 3d b3 79 85 bc ce ba 82 3d 53 b1 fa 3c
       0.050487373 -0.016293382 0.063832864 0.030602133
0003a0 90 f0 d2 3c 78 b6 cb bc 37 ed 49 3d 72 af a1 bd
       0.025749475 -0.024867281 0.04929849 -0.07894792
0003b0 7f 0c 00 bd a8 1f 4b bd 65 c6 44 bd 14 12 df 3c
       -0.031261917 -0.049590737 -0.048040766 0.0272303
0003c0 32 bc 29 bd b0 52 8d bc 25 30 bf 3b f8 45 29 bc
       -0.041439243 -0.017251343 0.0058345967 -0.010331623
0003d0 91 23 0e bd 0d d6 4c 3c 0f 50 96 3d 88 8a 36 3b
       -0.034701888 0.012502206 0.07339489 0.0027853567
0003e0 1f 26 07 3d eb b3 d8 3c 08 ca d8 bc 0c 9f 04 bd
       0.03299534 0.02645298 -0.026463524 -0.03237824
0003f0 43 1e 53 bd 8a ef 13 3d 8b 05 11 3d c1 19 95 3d
       -0.05154253 0.036117114 0.035405677 0.07280303

model.6.weight f4 [256, 256]
000000 10 88 83 3d 79 a9 68 3d a0 6d ae 3d 2e 3f 96 3d
       0.06422436 0.056802247 0.08517003 0.07336269
000010 3f c7 c9 bc 5a f1 0f bd af 09 74 3c 4e 1f 71 3c
       -0.02463114 -0.03514228 0.014894887 0.014716936
000020 f6 58 da 3c 7b 4a 9c 3c 22 5d 83 3c 75 97 49 3d
       0.026653748 0.019078484 0.01603562 0.049216706
000030 72 d2 6e bd 27 fd 83 3d ed 15 81 bc af f2 45 3d
       -0.058306165 0.06444769 -0.015757525 0.048327144
000040 54 fc 63 3d ef da 14 3d 7b 7d 69 bd 62 56 69 3d
       0.05566056 0.036341604 -0.057004433 0.056967147
000050 61 cb 45 bd ef 2a 8f 3d 6f 71 8e bd 31 32 11 bd
       -0.04828966 0.06990611 -0.069552295 -0.035448257
000060 2b 93 7b bd 0d f7 eb bc a6 b1 12 3c c6 ae 5e 3c
       -0.061419647 -0.028804326 0.0089534875 0.013591474
000070 45 69 10 3d 2e fe 32 3d c2 4f d9 3c 5d 1a 2b 3d
       0.035256643 0.043699436 0.02652729 0.04177319
000080 d6 81 b2 3c af d4 89 bd f5 ae 40 3d 42 d1 fa bb
       0.021790426 -0.06730019 0.047041852 -0.00765434
000090 b2 2c a3 3c 47 be e6 3c 64 c6 64 bd 7d 88 ee 3c
       0.019918773 0.028166903 -0.055853263 0.029117817
0000a0 5e 9f 1f 3d c7 38 04 3d a1 89 5b bd e5 19 31 bc
       0.038970344 0.03228071 -0.05359805 -0.010809396
0000b0 64 3a de ba 0e ba f6 bb 7a 7a 7c 3d fa 41 69 3c
       -0.0016954658 -0.0075295037 0.06164024 0.014236921
0000c0 1d 35 25 3d 54 bc 28 3d 32 9e 4c 3d 27 cc 56 bd
       0.040333856 0.04119523 0.049955554 -0.05244079
0000d0 a0 d3 b1 3c f5 5c 62 bb 68 6d 66 bd c1 3f eb bc
       0.021707356 -0.003454027 -0.05625668 -0.028716924
0000e0 48 cd 2d bc ff 39 a7 bc 8d 2b c7 bc 86 d7 95 3d
       -0.010608025 -0.020413397 -0.024312759 0.073164985
0000f0 df f5 16 bc e3 42 7c 3c 54 2d ab 3d fa 7c 73 bc
       -0.009213894 0.015396806 0.08358255 -0.01486134
000100 ff a0 37 3d 6e d8 69 3c 21 46 03 bd be 4f 05 bd
       0.044831272 0.014272792 -0.032049302 -0.03254675
000110 77 b9 2a bc 99 91 f2 3b e9 5e 1d bc 14 3f 0c bd
       -0.010420195 0.0074026105 -0.009605148 -0.034239843
000120 e3 3e f4 bc b5 cf e3 bb 84 ae bb 3b 9b d1 0d 3d
       -0.029815143 -0.006952251 0.005727591 0.034623723
000130 14 da b5 bc b2 b9 5d 3b 24 a7 51 3d f4 43 0a 3d
       -0.022198714 0.0033832607 0.05118479 0.03375621
000140 64 24 c0 bc d2 a6 59 bd b4 d0 de bb 40 95 7b 3d
       -0.023454852 -0.053137608 -0.0067997817 0.061421633
000150 f5 e8 5b bb 03 1a 03 bd 59 88 78 bd 06 a5 0f 3d
       -0.0033555601 -0.03200723 -0.060676906 0.035069488
000160 0a c2 38 3c 62 6c 50 bd ba 35 1d 3d e6 66 b4 3c
       0.011276731 -0.050884612 0.038381316 0.022021722
000170 0d 8b 53 bd 06 51 4f 3c 37 9a 41 3d 98 4c 7b 3d
       -0.05164628 0.012653595 0.04726621 0.061352342
000180 a1 be 63 bd af b8 1d be 7c e4 e3 3c c1 d9 93 3b
       -0.05560172 -0.15402482 0.02781891 0.0045120423
000190 3e 02 49 bd 61 e3 ce 3c 61 cb 7d bd 11 e3 0e 3d
       -0.049074404 0.025254907 -0.061961535 0.034884516
0001a0 2a 16 82 bc 10 75 dc bb 4a 1e 27 3d 82 15 2e bd
       -0.01587971 -0.006727822 0.04080037 -0.04250098
0001b0 59 58 b2 bc e1 65 83 38 fd e6 7f 3d 9c a0 59 3d
       -0.021770643 6.265543e-05 0.062476147 0.053131685
0001c0 30 99 4e bd 38 e3 26 3c a1 4a 94 3c 8f dd 8e 3d
       -0.05043906 0.010186009 0.018101992 0.06975853
0001d0 88 e3 72 3d ac eb e3 bc d1 17 ad bc 16 88 49 3d
       0.059299022 -0.027822338 -0.02112952 0.049202047
0001e0 4f bf 47 3d 85 79 22 bd 11 21 fe bc 38 c1 9b 3d
       0.04876643 -0.03966667 -0.031021627 0.07605213
0001f0 e0 03 2a ba 5f 0e 59 3c 5f 95 3e bd c6 ae e3 bc
       -0.0006485563 0.013248055 -0.04652917 -0.0277933
000200 33 fa 2a 3c 60 fe 23 bc 06 74 e5 bc c2 82 22 bd
       0.010435629 -0.010009378 -0.028009426 -0.03967548
000210 de 6e 06 bd 56 01 6d bd cb 3a 8c 3d 02 96 5c bd
       -0.032820575 -0.057862602 0.06847151 -0.053853996
000220 74 2b 22 3c c2 4d 03 bd 60 ec 27 3c 9b 50 1d bd
       0.009898055 -0.032056578 0.010249227 -0.03840695
000230 78 ee 73 bd 7d 4d 04 3d 74 3a cc 3c a5 f4 35 bd
       -0.059553593 0.03230046 0.024930216 -0.044422764
000240 6f a3 65 3d 53 70 d9 3c 8e 3a 47 3c ec e1 e6 3a
       0.056064066 0.026542818 0.012159957 0.0017614937
000250 ba ae ae bc a4 89 08 bd 24 64 9a 3d 82 dd ba bc
       -0.02132355 -0.03333439 0.075386316 -0.022810701
000260 d1 33 08 3d 01 0d 96 3d aa b9 91 bc 63 b6 79 3d
       0.03325254 0.07326699 -0.017788727 0.060964953
000270 e3 19 97 3c 8c 54 ad bb 26 16 3c bd cb 8c 72 3d
       0.018444961 -0.00528962 -0.04591956 0.059216302
000280 26 7e 7b bc e2 c3 9d bc 0b 89 87 3d b1 10 3e 3c
       -0.0153499 -0.019258443 0.06617936 0.011600659
000290 1a 83 1c bb 79 79 46 3d c5 b1 1a 3d 9d dc fd bc
       -0.0023881854 0.04845569 0.03776719 -0.030988986
0002a0 f1 74 0d 3d 72 90 b7 3a 77 e8 d8 3b e3 45 6b 3d
       0.034535352 0.001400484 0.006619509 0.057439696
0002b0 eb a0 d4 3c 91 2f e2 bc 4f c8 17 3c cb 5f 58 3d
       0.025955638 -0.027610572 0.009264066 0.05282573
0002c0 96 2b 37 3d 49 c4 79 3b 5e f1 25 bd 14 22 ff 3c
       0.0447193 0.003811138 -0.04051339 0.03114418
0002d0 77 67 07 3d cc bf 3b 3d a7 12 a1 3c 62 86 bf 3a
       0.033057656 0.04583721 0.019662214 0.0014612193
0002e0 78 e3 a2 3b 7e 9f 6b bd a0 61 ee 3b 15 17 68 3c
       0.004970964 -0.05752515 0.0072748214 0.014165659
0002f0 fa 84 8a 3c a1 07 c3 bc b7 9e 86 3d 74 d5 76 3b
       0.016909111 -0.023807349 0.06573241 0.003766385
000300 89 2b 9c bc d7 62 91 3c 53 d0 66 bc 49 58 ab bc
       -0.019063728 0.017747326 -0.014087754 -0.020916121
000310 fe cf fa bc c1 0e 86 3d ce e5 36 bd fb 3f 8c 3d
       -0.030616757 0.06545783 -0.044652753 0.06848141
000320 e1 24 a7 3c e6 ad 71 3d be c4 ac 3d c2 e9 75 3b
       0.020403327 0.059003733 0.08435963 0.0037523364
000330 b5 f4 1a bd 05 da a5 bc b2 85 bf 3c 8a cb a8 3c
       -0.037831027 -0.020245561 0.02337918 0.020604867
000340 05 a0 71 bd 3a 30 38 3d ff 8c e6 bb 02 3a 40 3d
       -0.058990497 0.044967867 -0.007035851 0.04693032
000350 9d 84 0d 3d b3 5b 22 bd 5b 2f b1 3c b2 94 46 bd
       0.034550298 -0.039638232 0.021629026 -0.04848165
000360 24 9a 36 bd fe 41 2e 3d d2 65 f9 3c 1d 50 71 bc
       -0.044580594 0.042543404 0.03044406 -0.014728573
000370 1a 50 2e bd 86 23 9e 3c 66 0b 11 3d 65 79 55 3c
       -0.04255686 0.019304048 0.03541126 0.013029431
000380 98 27 c4 3c 51 21 e9 bc 42 53 59 bd ac ba e0 bc
       0.023944661 -0.02845827 -0.053057916 -0.027432762
000390 3b 8d b2 bc ed 32 09 3c c1 ce 87 3c 45 2a d1 bb
       -0.02179586 0.008373958 0.01657808 -0.0063832127
0003a0 bf c2 55 3c d7 d6 a4 bc 7e b4 85 3c f7 a5 4c 3d
       0.013046919 -0.020121975 0.016321417 0.049962964
0003b0 e5 55 15 bd fe 19 43 bd 94 14 11 3d 7f 12 f0 3c
       -0.03645887 -0.04763221 0.035420015 0.029305695
0003c0 6a 17 a6 bc 2f 35 a0 3a d0 04 ff bc 67 5f 20 bd
       -0.020274837 0.0012222881 -0.031130224 -0.039153483
0003d0 7d da c2 3c f5 c6 e6 3a e1 1a e7 3c 21 df 30 bd
       0.023785824 0.0017606901 0.028211059 -0.043181542
0003e0 a2 dc 3b 3d ef 3d 54 bb bf 74 58 bd cb 4f 3c bd
       0.04586471 -0.0032385548 -0.052845713 -0.045974534
0003f0 0d 2a 79 bd 90 ed 13 bd ce 38 42 3d 16 bd 16 3d
       -0.06083112 -0.03611523 0.047417454 0.03680142
