exported_models/neural_networks/raw_mlp/trained_models/model_epoch_100_batch_64_lr_1e-05_vs_30_hl_128_128_128_128_drop_3/mlp_dynamics.pth (torch, 207125 bytes, 10 tensors)

model.0.weight f4 [128, 5]
00000000: 451c c0be abc3 babd 3b69 a23d 5b5e fa3b
00000010: 7e84 0f3c 1c7a 983e 9798 993e b706 a7be
00000020: 8673 8a3b e845 c439 b41f cfbd 14fa 713c
00000030: f2a7 a13e be5d dab8 a205 e8bb 0389 e6be
00000040: 6ca0 373e 56c3 cb3e de21 86bc 4f12 0ebc
00000050: 9d9f 603e 258d b4be 073b 0fbd 59d3 43bb
00000060: 3cb5 96bb 6223 0abf 4b0d bdbd 7626 f03c
00000070: 0e73 043c 8d18 41bb 13e0 9b3e c84d 953e
00000080: 7866 413e a405 ef3b 89a2 7c3b a511 a3be
00000090: 7d4d 81be 73f7 afbe 027f 3cbb 5dd8 a2bc
000000a0: 914d 84be 9ca1 dabe 4284 9dbe 0580 2f3c
000000b0: 9bbe 9abb 9d2f f2be 0487 933e 2f8c 03bf
000000c0: 39c2 b8bc e184 4d3c 0c88 ba3e dbd9 6ebe
000000d0: f8a8 2f3d d8c6 91bb 35bb f2bb 7814 f5be
000000e0: c8c4 5a3e 04be 903c 3dfd 313d a4f2 ecbc
000000f0: 4312 7cbe 5774 fc3e 985f ad3d 7d34 f2bb
00000100: 824e 66ba 13a1 c53e c507 843e b76b ccbe
00000110: eab7 bf3a 7984 6cb9 5a55 923b c30c aa3d
00000120: c490 5b3e 7220 93bb 491c a1bb cd2f e2bd
00000130: 7e87 cebe 93b3 023f bca2 e239 6e15 9e3b
00000140: 4a63 67be fe56 833d feb1 d2be 9eb3 583b
00000150: 0c55 33bb d2f4 39be 514e db3e 8531 5cbd
00000160: 2d0c cdba 687f 513b 7912 bdbe d3bd 653d
00000170: 179a 73bd 9559 4b3c 6b96 903b e057 ebbe
00000180: 29c6 863c 9453 84be 47bf 85bb da61 2ebc
00000190: 9a7e 6b3e 1d90 753e 3930 a03e 1d9b d2b9
000001a0: 7685 ce36 d5ad e13d a272 5e3d 0246 b53e
000001b0: 3518 463a 064f 733b 76dd b13e e665 3d3e
000001c0: 1310 42be f753 a1ba 073a 3cbb 4430 f43d
000001d0: e30e 053f 2a38 f1be 572a 03bb 0e85 f93a
000001e0: 33dd c03e 7c1f 393e af71 bd3d e592 7d3a
000001f0: ebd6 963b 149e b83d 6ef1 d2be 7ae7 e93d
00000200: fe64 733b d63b 66bc fa16 bc3e 88dc b63d
00000210: 6eee b9be 258e 0b3c b027 8abb a66c 743e
00000220: 1056 87bb 3465 cdbe 3a32 b63b fd87 053a
00000230: c9ea e53e 7345 02be e83e 1bbe 6d3d 3839
00000240: 60a1 4ebb bdc3 5abe 7fd9 4e3e a2d6 58be
00000250: 2fad 1f3a b7c3 243b 0148 ffbe e5b4 c6be
00000260: ac36 94be bbfd 05bd 0aaa d4bc 0a41 853e
00000270: 95e7 be3e 5d7d f5be 4336 c8bb 77fe 8fbb
00000280: 2eed f0be 2fa4 563e dcde 963d 9460 12bb
00000290: f7a3 533c 668a ac3e 3e54 eabe 953e c13e
000002a0: 4fff 6f3a 6a36 e5bb b21d a4be 70c0 d0bd
000002b0: f38a 043f 889a 12bc 0e4f cf3b 8867 59bc
000002c0: 9963 973e 1e96 ce3e da00 a4bb ab93 a7bc
000002d0: ec3f 5dbe 364c b53e d7b5 7dbe 311b 813b
000002e0: 3c38 c33b 1202 03be fc97 fdbe e78a d93e
000002f0: d85d 523b d403 45bb d3e8 ccbe 28a9 b53e
00000300: 6455 a8bd d53f 703b fc8e 933c 7708 88be
00000310: 34c6 f73e 1d06 fabd 6352 2fbc 3d62 263b
00000320: b568 dfbe 021a a5be b160 afbc 4a91 d4bc
00000330: 36d3 99bc ac02 853e 6c54 05bf b486 f63d
00000340: d673 41bb ffc1 6abc cfcf f13e 607f 62be
00000350: 6023 3fbe 5df4 e5bb 53b8 4239 d401 3f3e
00000360: 6a02 8fbd c0ea 8bbe ac7f a3b8 5c1d 2d3b
00000370: 84c0 0ebd 1aaa adbe c054 e33e 4fd6 27bc
00000380: a688 f1b9 245f e8be b0a2 babe e4f9 983d
00000390: 6d5f 793a 0e18 e539 64a8 cd3e 1a04 c63e
000003a0: d6ac 9fbe 1455 8abb 5685 023c e09b 163e
000003b0: b399 abbe 7cc7 0dbe d679 3d3b 351b 0c39
000003c0: fa96 d83c 8a3c 37be 8919 63be 2628 3a3a
000003d0: f87b ac3b 71c8 96bd 9045 063d f417 c33e
000003e0: dc3b 363b a936 d33c 042a 01bf e33b 933d
000003f0: d70f e3bd a2b2 edb9 a9bd a3bb 77ba 20be
-0.37521568 -0.09119352 0.07930227 0.0076406426 0.008759616 0.29780662 0.2999923 -0.3262231
0.0042251972 0.00037436117 -0.10113469 0.014769096 0.31573445 -0.00010412511 -0.0070807496 -0.45026407
0.1793229 0.39797467 -0.016373571 -0.008671357 0.21935888 -0.35263935 -0.034968402 -0.0029880612
-0.0045992415 -0.5396024 -0.09231051 0.029315215 0.008084072 -0.0029464096 0.30444393 0.29160905
0.18886745 0.0072943736 0.0038549027 -0.318494 -0.2525443 -0.34368476 -0.0028762226 -0.01987856
-0.25840428 -0.42701423 -0.30764967 0.010711675 -0.004722429 -0.4730195 0.28813946 -0.5138578
-0.02255355 0.012543888 0.3643192 -0.23325293 0.04288575 -0.004448753 -0.0074075707 -0.4786718
0.21364129 0.017668732 0.043454397 -0.028924294 -0.24616341 0.4930751 0.08465499 -0.007391511
-0.0008785502 0.38599452 0.25787178 -0.3992593 0.0014626954 -0.00022556064 0.004465741 0.08303215
0.21441942 -0.0044899518 -0.004916702 -0.110442735 -0.40337747 0.5105526 0.00043227326 0.004824332
-0.2259647 0.06413077 -0.41151422 0.0033066045 -0.0027363924 -0.18159798 0.42833188 -0.053758163
-0.0015643887 0.003196681 -0.36928156 0.056089234 -0.059473123 0.012411495 0.0044124625 -0.4596548
0.016451912 -0.25845015 -0.00408164 -0.010643447 0.22997513 0.23980756 0.3128679 -0.0004016989
6.1548153e-06 0.11019484 0.05430854 0.35404974 0.0007556708 0.003712596 0.34739274 0.18495902
-0.18951444 -0.0012308349 -0.002872111 0.119232684 0.5197584 -0.47113162 -0.002001425 0.0019036846
0.37668762 0.18078417 0.09250199 0.0009673073 0.004603257 0.09014526 -0.4119982 0.11421104
0.0037139053 -0.014052352 0.3673628 0.08928782 -0.3631472 0.008517777 -0.004216157 0.23869571
-0.0041301325 -0.40116274 0.0055601867 0.0005093811 0.4490569 -0.12721805 -0.15160716 0.0001757049
-0.0031529292 -0.2136373 0.20200156 -0.21175626 0.0006091175 0.002514107 -0.49859622 -0.38809887
-0.2894796 -0.03271268 -0.025959987 0.26026183 0.37286058 -0.47947207 -0.006109984 -0.0043943482
-0.47055954 0.20961069 0.07366726 -0.0022335397 0.01291751 0.3369934 -0.45767397 0.3774306
0.00091551704 -0.006995012 -0.32053906 -0.101929545 0.5177452 -0.008947976 0.0063265627 -0.013269313
0.29568174 0.40348905 -0.0050049843 -0.020456156 -0.21606416 0.35409707 -0.24776398 0.003940009
0.0059576314 -0.12793759 -0.49530017 0.42488787 0.0032099392 -0.0030062096 -0.4002138 0.35480618
-0.08219412 0.003665914 0.018012516 -0.26568958 0.48393404 -0.12208197 -0.010700795 0.0025388144
-0.43634573 -0.32246405 -0.02140841 -0.025948185 -0.018777471 0.259786 -0.5208194 0.12037411
-0.0029518506 -0.014328479 0.47228858 -0.22118902 -0.18665838 -0.0070176558 0.00018569948 0.18653041
-0.06982882 -0.27327538 -7.7962264e-05 0.0026415205 -0.034851566 -0.3391884 0.44400597 -0.010243966
-0.00046068913 -0.45385087 -0.36452246 0.07469538 0.0009512816 0.00043696206 0.40167534 0.38675004
-0.3118655 -0.004221568 0.00796636 0.14707899 -0.335157 -0.13845628 0.0028911731 0.00013361576
0.026439179 -0.17894188 -0.2217771 0.00071013195 0.0052638017 -0.0736245 0.032781184 0.38104212
0.0027806675 0.0257829 -0.50454736 0.07189157 -0.110870056 -0.00045337254 -0.0049969745 -0.1569613

model.0.bias f4 [128]
00000000: 35ab 7ebd a25e 15bc f0e6 a63d 3401 15bf
00000010: 9897 83be e98a 95be f800 8d3d 1695 21bf
00000020: 01c5 373d 5e7e debe 82e5 ce3d 2591 b7be
00000030: d030 f23d e0f5 80bd 6d2a a8be 727b e3bc
00000040: 0a31 c2be c1e3 e33d 55b6 a9be e03a d8be
00000050: 864b 50be d82f 9b3c 677f e3be a704 a5bd
00000060: 67b8 0cbf 5e8a d5be 0232 8d3c a6d2 7ebe
00000070: 7ed5 07bf cfc8 a8bc a278 0bbf 4a95 a7be
00000080: 0f89 fabe 9b2f dfbe 5db8 91be f5b1 0cbf
00000090: c4d1 debd 074c d23c d3ab c5be 75a7 fabd
000000a0: 5fcd e5be 01cd 16bf 80db ffbd 18d7 93be
000000b0: 71c2 2ebe e329 dd3d 1630 c6be bf84 0ebf
000000c0: 7052 f2be b12b d4be ccc2 cbbd 079f a9be
000000d0: f601 22bf 7e8e 783d 88da a4bc e557 febe
000000e0: ac27 ebbe ee22 cabd 2a52 a0be 65b3 e3bc
000000f0: ceb5 0dbd 1562 6abe 4c43 d83d 357c c0bd
00000100: ecff 07bf dcb4 7ebe c7a2 313d a0ca fc3c
00000110: e082 70be d776 29be bc0a a7be 3a22 a1be
00000120: 1405 0b3e 55a2 0bbd 9f6f c4bd 7901 7f3d
00000130: 1ec6 dfbe 98a2 013c f21f 1cbe efb8 10be
00000140: 00ba 00bf 8300 98be eefb 26bf 746a c8be
00000150: 6148 82be cfd2 c93c ee6f c1bd cf36 04bf
00000160: c170 79be a7ec 4b3d 48fc f53d 39ef 07be
00000170: 648d 74be d848 293d 4edb 413d 1549 0abd
00000180: 5497 48be 39ae 0bbd e5b5 123d aeff 9ebe
00000190: 8eee 36be e3de edbd 1fae 97be f750 29bf
000001a0: f6d3 c43d 0dfc 5bbe 3316 2bbf eec6 63bc
000001b0: b670 05bf 7301 edbe 1843 aebe 06ac 12bf
000001c0: f3c6 b1bd ff1b b1bd 6e41 bfbe c59b e8be
000001d0: c4ca cdbe e1d5 873d a0dd babe 3dda e7be
000001e0: 5b63 c7be 0931 56bd f2b9 983d 96a2 d0be
000001f0: 4150 3dbd c210 18bf e5ab 913d 26bb cfbe
-0.062174994 -0.0091168005 0.081495166 -0.5820496 -0.25701594 -0.29207543 0.068849504 -0.6311811
0.044865612 -0.43455786 0.10102369 -0.35852924 0.118257165 -0.06296897 -0.32844868 -0.027768824
-0.3792804 0.11127425 -0.3314692 -0.42232418 -0.2034131 0.018943712 -0.44433138 -0.08057528
-0.54968876 -0.41707128 0.01723576 -0.24885044 -0.5306014 -0.020603565 -0.54480946 -0.32731086
-0.48932692 -0.43591008 -0.2846097 -0.5495904 -0.10879853 0.025671018 -0.38607654 -0.12238971
-0.44883248 -0.5890656 -0.12493038 -0.2887504 -0.17066361 0.10799005 -0.38708562 -0.55671304
-0.4732852 -0.41439584 -0.09949264 -0.3312914 -0.6328424 0.060682766 -0.020123735 -0.49676433
-0.45928705 -0.098699436 -0.31312686 -0.027795503 -0.03459721 -0.22888978 0.10559711 -0.093986906
-0.5312488 -0.2487368 0.043368127 0.030858338 -0.23487425 -0.1654924 -0.32625377 -0.31471425
0.13576156 -0.03409036 -0.095916025 0.062257264 -0.4370584 0.0079123005 -0.15246561 -0.14133047
-0.50283813 -0.2968789 -0.65228164 -0.39143717 -0.25445846 0.024636654 -0.09445177 -0.5164613
-0.24359418 0.049786236 0.120110095 -0.1327485 -0.23882061 0.041329235 0.047328286 -0.033761103
-0.19588977 -0.0341017 0.035818 -0.31054443 -0.17864439 -0.11614778 -0.2962503 -0.6613917
0.09610741 -0.21482868 -0.6683075 -0.013902409 -0.5212511 -0.46290168 -0.34035563 -0.57293737
-0.08680525 -0.08647918 -0.37354606 -0.45431343 -0.4019376 0.06632591 -0.3649721 -0.4528369
-0.3894299 -0.052292857 0.07457341 -0.40749043 -0.046219114 -0.5940057 0.071128644 -0.4057247

model.3.weight f4 [128, 128]
00000000: a80b 853c 066d 4a3c 8a8c e43c 0f93 1dbd
00000010: 80e8 e0bd 14ce 5d3d 03e4 05bc 853c 8d3d
00000020: b098 fb3b d46e 64bc 7dc3 a4bd 1c5d 4e3d
00000030: 493c b53c 6313 143c 30b5 913d c163 efbb
00000040: 0701 04bc bc68 fa3c 3330 083d cc21 003d
00000050: c4eb 803b 38a9 f43c 9bc0 9eba 8e29 b83c
00000060: 620a fcb9 c975 fe3c 698f 47bd fa67 3cbe
00000070: 0298 94be 5bb5 a53d 1945 233d df09 4d3c
00000080: 4224 353e 367f edbc 8ce0 d93c 44a8 5a3c
00000090: 7e40 a7ba 299e ce3c cd00 e53d fa6a e43c
000000a0: c294 a53c 1d0a 01bd be95 82be aceb babe
000000b0: 76a3 913b bc11 153b b36d 5d3d df97 1ebe
000000c0: 3803 693c 1875 1a3e 4995 fd3c c31a 353e
000000d0: 7ed9 ea3c 2c2a 373c 1864 973c e411 a63b
000000e0: b24a 3b3c 632d 903c c986 81bd 3be0 15be
000000f0: 8919 923c 7798 5abb 1302 553d 4504 bb3b
00000100: 3261 193e 706d 723d 199d 1b3c a0ac 583d
00000110: e53e bf3b 947c a03c 1646 3a3d 3d7f a93c
00000120: 3144 fc3c f597 5e3d 8328 87bc b3bc d23c
00000130: 4309 1fbd da1d d33c 784f cfbd e577 fa3c
00000140: d266 2d3d c9a4 cd3c 46a2 b6be 3bfe cd3c
00000150: 9fbd 883c b4e7 eabb f281 29bb c1d9 b0bc
00000160: 8293 283d b7ef 58ba d73a 2a3b edcb cbbb
00000170: 51e0 363d c0ed 9ebe be4c 013d a579 983c
00000180: 5992 1c3d 1b4a 383d 0e1d e4bb 2be2 a73c
00000190: 0825 993b ad5a 42bd 8061 1ebe 9de1 fdbc
000001a0: 62e8 a9bc 60b9 2fbc d959 b4be 9991 35bb
000001b0: 9ea6 143b 0cd7 db3c 7bc9 46bd 381f 673d
000001c0: 1239 f33b 97e3 04bc 4299 643d e568 153d
000001d0: f65d 973c 3a70 963b d51c f93c 9337 8d3a
000001e0: b230 05bc b2e0 8c3c a5fe ad3c 9ff0 443e
000001f0: 2e0b 79bc f115 85be 7fa3 a83c ff7e bebc
00000200: 777a dbbc fa14 09bc c769 953c 20dd 293c
00000210: ea85 70bc cc63 943c 81ba 79bc c58b 4b3d
00000220: 0066 11bd ac0a 623d 15c4 433c dc51 063d
00000230: d256 b83a 91d3 51bc 304f 183d e444 f0bc
00000240: ce8f 7f3d 6c41 223d c648 3c3c 78f1 c13c
00000250: 0095 02bd c9fd 9f3c be10 573d 9cb5 2d3d
00000260: 2b3c 063b 1201 c6be 5f52 eb3c c61d cb3c
00000270: 12a0 213d 1a39 ad3d 8dc8 f23c 0695 6fbc
00000280: 4d54 233d 078c d6bb 7cb6 603d 11f0 fcbb
00000290: 8f57 a83c 5e97 83be f1ee 543d a815 333d
000002a0: 73d3 9abd 6245 adbd 2e67 713c 6664 dc3c
000002b0: 1611 84bd b70b f1bd 2b1b fe3c 3058 bdbd
000002c0: 3a28 0bbd c483 c33d 8738 e6ba 043a 503d
000002d0: 5a88 9dbc 7e34 923c 5ba8 abbd 050d 57bb
000002e0: 5ad8 04be 21b3 a53c 6899 cabb 6f77 8d39
000002f0: 7345 2f3c a8d9 44bb 061e 893c 32ad 3e3d
00000300: f030 093d b7cf 1a3d ae01 613c d286 1e3d
00000310: 2a1d 153d b792 bcbd bbad 46bc 7610 9e3c
00000320: cbaa 5e3c 1cbe 64be 4eb5 9dbe 5b76 08bd
00000330: 1cf0 bbbb db94 633d 19e7 a53b f049 813b
00000340: 4134 963c 6998 34bd b454 d53c 9edf 3a3c
00000350: ce30 2ebe cce1 0bbb 03b4 11bd 229c f8bc
00000360: 5df3 f0be 43d5 23bc 8448 e2bb 62e4 bf3d
00000370: b8ce 6fbe aa3f 6fba d590 453c 2515 d93c
00000380: f1a9 ec3d 4b03 17bb ac93 fbbb 3cb7 62bc
00000390: 58d6 573d 9f30 063c eaa1 2fbc 0e4b 843d
000003a0: b233 8e3c de86 023d 43fe a03c bbfa 2138
000003b0: a58e d43d 518c 1d3e f2dc 81be 0f30 bc3d
000003c0: dd3a 89bb 51dc 74bd c2bd 5dbd 429d 18bd
000003d0: e55d 3d3c 61b1 54bd 7a37 c83d 2b41 9b3d
000003e0: 4bb5 83bd edef 2ebe 7350 fa3b a546 353d
000003f0: 79d6 27bd 9df1 9d3d 3f39 913c 8dd3 9ebc
0.01624091 0.012355095 0.027899045 -0.038470324 -0.10981846 0.05415161 -0.008172038 0.06896309
0.007678114 -0.013942439 -0.08045099 0.050381765 0.022123473 0.009037825 0.07114637 -0.0073055928
-0.008056886 0.03056752 0.03324909 0.03128223 0.0039343555 0.029865846 -0.0012111844 0.022480752
-0.0004807292 0.031062024 -0.04872075 -0.18399039 -0.29022223 0.080912314 0.03986082 0.0125145605
0.17689613 -0.028991323 0.02659633 0.013345782 -0.0012760309 0.025221901 0.11181793 0.027883042
0.020212535 -0.031503785 -0.2550487 -0.36507928 0.004444535 0.0022746166 0.054059695 -0.15487622
0.014221959 0.1508373 0.030954974 0.1768599 0.028668161 0.011179488 0.018480346 0.0050680507
0.011431383 0.017599767 -0.06324536 -0.14636318 0.017834442 -0.0033355036 0.05200393 0.005707296
0.14978483 0.0591864 0.009497904 0.052899003 0.005836355 0.019590653 0.045476995 0.020690555
0.030794235 0.054344136 -0.01649881 0.025724744 -0.038827192 0.02577107 -0.10122579 0.030574748
0.042334385 0.02510299 -0.3567068 0.02514564 0.01669198 -0.0071687344 -0.0025864807 -0.021588208
0.0411563 -0.00082754664 0.0025975013 -0.006219378 0.04464752 -0.31040764 0.031567328 0.018612692
0.038225506 0.044992547 -0.0069614714 0.020493587 0.004673604 -0.047449756 -0.15466881 -0.03099137
-0.020740692 -0.010725349 -0.35224798 -0.0027705191 0.002268232 0.02683594 -0.04853199 0.056426257
0.007422575 -0.008110902 0.05581022 0.03647699 0.018477421 0.004591015 0.030409256 0.0010774009
-0.008129286 0.017196987 0.021239588 0.19232415 -0.015200419 -0.25993302 0.020585774 -0.023253916
-0.026791794 -0.008366818 0.018238915 0.010367662 -0.014680365 0.018113993 -0.01524222 0.04969384
-0.035497665 0.05518596 0.011948605 0.03279291 0.001406396 -0.012806789 0.037184894 -0.029329725
0.062393002 0.039613172 0.01149196 0.023674712 -0.03188038 0.019530194 0.0525062 0.042409524
0.002048264 -0.38672692 0.028725801 0.02479447 0.039459296 0.08458157 0.029636646 -0.014622932
0.039875317 -0.0065474543 0.05486153 -0.007719048 0.020549564 -0.25701421 0.051985685 0.043721825
-0.07559862 -0.08460499 0.014734073 0.026903342 -0.064485714 -0.117698126 0.031018814 -0.09245336
-0.03397391 0.09546617 -0.0017564454 0.050836578 -0.019230057 0.017847296 -0.08381721 -0.0032814157
-0.12973157 0.020227017 -0.006182838 0.000269826 0.01069771 -0.003003696 0.01673795 0.04655189
0.033493936 0.03779575 0.013733311 0.038702793 0.036404766 -0.09207671 -0.0121263815 0.019294959
0.013590525 -0.22338146 -0.30802387 -0.033315998 -0.0057354104 0.05556188 0.0050629494 0.0039455816
0.018335463 -0.044090662 0.026041366 0.011405854 -0.17010805 -0.0021344302 -0.035572063 -0.030347887
-0.4706067 -0.009999576 -0.006905617 0.093697324 -0.234187 -0.0009126613 0.012058456 0.02649934
0.11555851 -0.0023042734 -0.007677516 -0.013837632 0.05269465 0.008190303 -0.010719756 0.06459628
0.017358635 0.0318669 0.019652491 3.8618902e-05 0.1037877 0.15385558 -0.2536388 0.09188854
-0.0041879253 -0.059780423 -0.054136045 -0.037259348 0.011558031 -0.051926974 0.09776206 0.07580789
-0.06431063 -0.17083712 0.007638985 0.044256825 -0.04097602 0.077121 0.017727492 -0.019387985

model.3.bias f4 [128]
00000000: 7837 07be 0d62 d1bc 4418 0dbc 123b 103d
00000010: e0d6 4abd 6854 a4bb efd1 92bd 7a31 5b3c
00000020: ce22 25bd 5d91 11bd ce38 8abc f8ab a73c
00000030: 59a0 eeba da6d 17be 85be 643c 5d01 403c
00000040: e48c a4bc 84bc bcba 3b29 6fbc 6c05 e13c
00000050: 7b91 973c 79ff 4f3d 08a1 d3bc 822e b9bd
00000060: 0dbe 293c 8af7 3ebd 228a 253c 3b8d 353c
00000070: 9f5f ca3c a04e 2abe 26b1 703c 0f37 273c
00000080: c5fc 17be c62a 83bd 5c12 78bd 3b9f a5bd
00000090: c494 cebc 7565 4cbe 996d 92bd 5c32 dc3b
000000a0: d4f6 1a3c 5550 7d3c 9c29 35ba 9db0 413b
000000b0: 3ba7 d2bc cda4 a1bd 146a 6f3c c90a 3dbe
000000c0: 4f6a 6a3c 48ae 943c 0306 8abd 60ef 523c
000000d0: 2aaa d63b 14c2 28be 1c2c 9e3b 1ba0 d23c
000000e0: 4f10 51bd 74e3 16bd 27f5 903c 6a1a 38be
000000f0: 5b15 bb3c b00d a13b 77e8 463c b90c 153c
00000100: fcc7 d43a 5f9f 0d3d 8ab4 033d 9378 2cbd
00000110: 25e4 a0bd 2c2c d33c 100a 9cbc 9a0f f4bc
00000120: f05d 503c 73bf 5abe a812 393c 017f 903b
00000130: c7fb 633c e35d b3bb 4d06 4fbe 3d25 ae3a
00000140: 8968 23bd 873a 413c 9c39 e2bd 7bf7 7bbd
00000150: 88a6 33ba e3bd 5e3b 9313 94bd 11c5 b43c
00000160: 06fd 2c3b af5f 3c3b e5a3 8739 9551 95bc
00000170: 6cb2 03be f36b 41be 7bc6 453c d28c 7dbd
00000180: 4e59 1a3c 61b4 13be bab1 243c f70b 06be
00000190: d899 7c3c 7d66 1abd 9128 a53c d4f1 d6ba
000001a0: 689d 41be 7629 25be 96e5 963b bf3e 023c
000001b0: 4343 963c d273 123c 6cb1 6d3c edab 063c
000001c0: d27a 9e3c 2352 aa3b a579 0f3d e419 bcbb
000001d0: 9255 5e3c b3b9 aaba a12c f4ba 86c6 b63b
000001e0: 4ad9 fcba b183 d7bd 5cd1 0dbb f590 063c
000001f0: 4f21 a03c 5a9e 443b cdfa 1bbc 9dc0 b4bd
-0.13204753 -0.02555945 -0.008611742 0.035212584 -0.049521327 -0.005014945 -0.07168948 0.013378495
-0.040316395 -0.03553902 -0.01687279 0.020467743 -0.0018205746 -0.14787999 0.013961439 0.011719075
-0.020086713 -0.0014399444 -0.014597232 0.027468406 0.018501988 0.050780747 -0.025833622 -0.09042074
0.010360253 -0.04662279 0.010103734 0.011081035 0.024703799 -0.16631556 0.014690673 0.010205998
-0.14842518 -0.06404643 -0.060564384 -0.080870114 -0.025217421 -0.19960578 -0.0714981 0.0067198705
0.0094582625 0.015461047 -0.00069108023 0.0029554733 -0.025714507 -0.078927614 0.014612693 -0.18461145
0.0143075725 0.01814951 -0.06739428 0.012874454 0.006551047 -0.16480285 0.0048270356 0.02571111
-0.051040944 -0.03683801 0.017695023 -0.17978826 0.022837332 0.0049149618 0.012140385 0.009097272
0.0016233916 0.034575816 0.032154597 -0.042107176 -0.07856015 0.025777899 -0.019047767 -0.029792596
0.012717709 -0.21362095 0.011295952 0.0044096713 0.013915009 -0.0054738387 -0.20217247 0.0013286244
-0.039894614 0.011793739 -0.11046144 -0.061515313 -0.0006853123 0.0033987693 -0.07230296 0.022066625
0.002639593 0.0028743555 0.00025871317 -0.018227378 -0.12861031 -0.18888836 0.012071247 -0.061901875
0.009420706 -0.14424278 0.010052139 -0.13090502 0.015417539 -0.037695397 0.020160945 -0.0016398975
-0.18907702 -0.16129097 0.0046050055 0.00794953 0.01834262 0.0089387465 0.014507633 0.008219701
0.019345675 0.0051977797 0.03502812 -0.005740391 0.013570206 -0.0013025313 -0.0018629023 0.005577865
-0.0019290831 -0.10523165 -0.002163968 0.008213271 0.019547133 0.0030001611 -0.009520245 -0.088258006

model.6.weight f4 [128, 128]
00000000: 4461 d4bc 68c5 b33c 5104 25be ab38 0abd
00000010: b3c5 013d 7df9 3a3d 1a19 a6bc f3d2 1f3c
00000020: 33b4 34bc ab21 a3ba 0216 b0bc 169c 573b
00000030: 51f9 de3b 0cf0 d0bd 5e94 f13b d9a5 84bd
00000040: 248e c93b 29cd 61bc 58e1 a23c b175 a6bd
00000050: fd44 e8bc 632c 523c 1c7d 293b 09ea c1b9
00000060: d899 0c3b 7de0 ea39 7d72 0dbe 1df3 e63c
00000070: ba7e 6d3b 8f19 1b3d d786 8fbc 5b4a 433d
00000080: 2eb3 5f3c 9e44 5fbb 1ce6 2e3d b23a c03c
00000090: cdab e2ba 2670 6f3d 597a 99bc bae2 b1bb
000000a0: 9815 5b3c 14ab 503d a619 c5bc 99c8 3ebd
000000b0: 5e17 99bd 4650 0fbe 584e 963c 2356 8ebd
000000c0: f6a7 cc3c 6b62 053d 9761 30bc 3ea7 e5bd
000000d0: 7209 503c 92eb 023e 7cdf 04bf b4ae 03bd
000000e0: ffcf a23b 127a 853c 2486 cf3c a5ff 8fbc
000000f0: 587c 9e3c c3f5 9dba f6fa 7f3d 1882 243c
00000100: 9501 643c 57d9 80bc d065 f53c 5fc1 5a3c
00000110: 566b 3c3d 578f 283d 3419 ef3b 4ebf c93c
00000120: 1ec2 833c 0e5e fd3c e6e9 1fbc 7d26 13bb
00000130: 0086 81bc 6872 433d 9513 10bc 0554 d9bb
00000140: b38f 5ebc 9e18 0bbf 4070 1cbd 744b 283c
00000150: 0ec4 033d 461c 9d3d 7e6e 1e3d 27ea 47bc
00000160: 961e fc3c fb47 b53c 7126 82bd 0825 c5be
00000170: 479a 333d d990 be3d 79ff 553d dd88 b8bd
00000180: 106a 0f3d 43f3 3f3d 33ab 2b3d 306b 4ebd
00000190: 3dae a43c 791f b43d d23d 2c3c 9e80 923b
000001a0: 6b4b 423d 70e6 163d 42a8 0d3c 6212 603b
000001b0: 4e3a 193d 8f33 263d e594 c1bd ec2a 713d
000001c0: 4d8c 79bd bd5d 613c e358 933c 9624 2d3a
000001d0: f557 d2bc 31b4 413b 620c 4abb 7b65 063d
000001e0: d1ae b5bc fe55 5a3d 5b3d 6c3c 023b 393c
000001f0: 5c25 b33c 6028 0dbd 4084 e1bd 1716 e63c
00000200: 0062 a33c faf5 da3c a11a 8cbc 0d93 a83b
00000210: 25aa d9be 3b5a 833c 6b1a c23c 8017 37bd
00000220: 845d 443d b611 d8bc 3575 b43d 7269 9f3a
00000230: a93c 7bbe 2e51 d1bc 3dd3 2c3b 78df 2dbd
00000240: 0905 f33c 1815 15bd 88c4 98bd 5a00 6ebc
00000250: 5fd5 ec3c 04e6 573d d023 abbc 2031 433d
00000260: 9f0f b23b 977d 18bb ef67 d43b e18f 7a3c
00000270: d544 46bc 22aa 183c ef06 54bc 3778 dbbc
00000280: a7fb 01bd e2a4 9cbe a17d 0b3b 0cbd c13c
00000290: 876b d53c b7ba 4d3d 4e21 ba3c 15a9 dabe
000002a0: 49b4 4b3d aca8 113c 0d46 9d3c bd0b 84bd
000002b0: a467 89bd 85bb a93c acaa 813c 17e6 86bd
000002c0: 62ed 86bb 0f87 ab3b e5fa e0bd 5457 2fbd
000002d0: 19fa eebe 9573 f83c c94e b73c a1e3 30bd
000002e0: 71ab 53be 792c e6bc 7353 c1bd 035f cfbb
000002f0: 1274 423d 393a a2bb 0e08 ee3b cd9e d93c
00000300: f64a 423d 0e70 2f3d 9a2e 4d3d 4044 21bc
00000310: 84f2 3f3c 2984 3e3d 133f 92bc 56df f13c
00000320: d8bf bb3b b8ad e33b fb58 38bc 0078 f0be
00000330: b3b2 a33a a374 f539 3950 0c3d ee3e a13c
00000340: 199a 1e3d 086e 6f3c 6567 943d 8e85 a0bc
00000350: 8249 353d 0eac 333d 8cac 403d db94 ed3d
00000360: 2d6f 893d 785f 4fbe 4e46 003c 2ae5 693c
00000370: ed2a 853c 1fa4 86bc a133 613d 6dc0 7ebd
00000380: 7548 f7bb 6b41 d43b 6fe7 3abd c014 5b3d
00000390: 3795 c0be 0a3c 373d 00c5 b23c e546 173c
000003a0: 9eb5 cbbc 3ed0 23bd 504d 733d 501b 2dbd
000003b0: c74e 12bb edac 2f3c ab97 5e3c 9ed5 283d
000003c0: 8d55 aa3c 5877 143c 4cc1 a63d e14c 1abc
000003d0: b586 ef3b 0ae0 56bc d841 4b3d 7bb9 4f3c
000003e0: 2018 1f3d a99e eebd 2933 913b f428 8b3b
000003f0: 1e94 5fbe bc2f 913c e220 c83c a4fb 2bbd
-0.025925286 0.021944717 -0.16114928 -0.03374545 0.03168268 0.045648087 -0.020275641 0.009754884
-0.011029291 -0.0012445947 -0.02149487 0.003289943 0.006804623 -0.10202035 0.007372423 -0.064769454
0.0061509777 -0.013781824 0.019882843 -0.081279166 -0.028353209 0.012827965 0.0025861925 -0.00036986198
0.0021454003 0.00044799215 -0.13813205 0.028192097 0.0036238865 0.03786617 -0.017520351 0.047678333
0.01365356 -0.0034067999 0.04269992 0.023465488 -0.0017293632 0.058456562 -0.018735098 -0.0054286392
0.013371848 0.050944403 -0.024060082 -0.046578024 -0.0747516 -0.13995466 0.018347904 -0.06950023
0.024982434 0.03256456 -0.010765455 -0.112135395 0.012697564 0.12785175 -0.5190351 -0.03214903
0.0049686427 0.01629356 0.025332518 -0.017577955 0.019346401 -0.0012051392 0.062495194 0.010040782
0.013916393 -0.015728636 0.029955775 0.013351767 0.0460008 0.041152325 0.0072967056 0.024627354
0.016083773 0.030928638 -0.009760356 -0.002245336 -0.015810966 0.04771653 -0.008793731 -0.0066323304
-0.013584065 -0.5433444 -0.038192987 0.010271896 0.032169394 0.07671408 0.038679592 -0.012201822
0.030776303 0.02212905 -0.06354988 -0.38504815 0.043848302 0.09304971 0.05224559 -0.090104796
0.03501326 0.04686285 0.041911315 -0.05039519 0.020102615 0.087950654 0.010512786 0.004470899
0.047435205 0.036840856 0.008646073 0.0034190645 0.03740912 0.040576514 -0.094522275 0.058878824
-0.060924817 0.013755259 0.01798672 0.0006604878 -0.025676707 0.0029556865 -0.0030830135 0.032811623
-0.022178086 0.053304665 0.014418925 0.011305572 0.0218684 -0.034462333 -0.11011553 0.028086705
0.019944191 0.026728619 -0.017102541 0.005144483 -0.42512622 0.016034236 0.023694238 -0.044700146
0.047940746 -0.026375633 0.08811418 0.0012162162 -0.24534859 -0.025551405 0.0026371025 -0.042449445
0.029665487 -0.03639707 -0.0745936 -0.014526451 0.028910337 0.052709594 -0.0208911 0.04765427
0.005433991 -0.0023268217 0.0064821164 0.0152930925 -0.012101372 0.009317907 -0.012941106 -0.026790721
-0.031734135 -0.30594546 0.0021284597 0.023649715 0.02605225 0.050226893 0.022720959 -0.42707124
0.04973248 0.008890312 0.019198442 -0.064475514 -0.06709221 0.0207193 0.015828453 -0.06586855
-0.0041176537 0.005234606 -0.10985354 -0.042807892 -0.46675184 0.030328551 0.022376435 -0.043185834
-0.20670868 -0.028097378 -0.09439745 -0.006328465 0.047473975 -0.0049507883 0.007264144 0.02656498
0.04743477 0.042831473 0.05009327 -0.009842932 0.011715535 0.046512756 -0.017852342 0.02952544
0.0057296567 0.006948199 -0.011251683 -0.46966553 0.001248917 0.00046816943 0.034256194 0.019683328
0.038721178 0.014613636 0.072462834 -0.019594934 0.044259556 0.043865256 0.047039554 0.116006576
0.06710658 -0.20251262 0.007829262 0.014275828 0.01625582 -0.01643568 0.054980878 -0.06219523
-0.0075464793 0.006477525 -0.04563087 0.053486586 -0.37613842 0.044734992 0.021822453 0.009233211
-0.024866875 -0.039993517 0.059399903 -0.042262375 -0.0022324787 0.010722381 0.013585965 0.041219346
0.020792747 0.009061657 0.08142337 -0.009417743 0.0073097595 -0.0131149385 0.04962334 0.012678499
0.038841367 -0.11651356 0.0044311476 0.0042468254 -0.21833846 0.017722957 0.024429742 -0.04198803

model.6.bias f4 [128]
00000000: a7c9 493d b450 a63d 2883 d73d ca13 353d
00000010: 2965 6a3e 8c9c 113d d1b4 453d 048f 293e
00000020: 5a9e f53c 3077 233d b402 273d e8d8 d93c
00000030: 4629 1b3d cca7 b03d 187e 103e 567e 813d
00000040: 3fff 4e3d 2202 8d3d 6d3b b53d 448f 603d
00000050: 1208 2b3d e491 883d 92f1 173d d2cc a43d
00000060: 4df9 4b3d fb04 883d b06d 163d 3094 a73d
00000070: 2308 2a3d 19fe 313d 2259 1f3d 0347 f63d
00000080: c73d 9f3d 6849 343d b4e0 6b3d 8d84 c43d
00000090: 8cb7 043d 5b72 163c a7c8 ae3d 1ab4 fb3d
000000a0: f37c aa3d 102a e23c c15a 0f3d c56a 393d
000000b0: 73f4 aa3d 0b5a c33d 04e8 623d 67c3 283d
000000c0: 105c 503d b0a8 e53d 78f9 693d 580a 453d
000000d0: a0fc d43c 04a6 673d 96ee be3d 30db 123e
000000e0: 5216 513d ee4b bf3d 2427 aa3d 60fb 653d
000000f0: 1ede 283e 1e85 103d df64 8f3d ab09 4a3d
00000100: b7a3 0f3e e537 ef3c 05fa cc3d 6456 fd3c
00000110: 1efe 533d 5c6a 87bc cebf f33c db6f 893d
00000120: 9553 8f3d faea a13d 26d7 af3d 3ce0 4b3d
00000130: d3cb 943d a4c9 013d 3576 453d c63d 8e3d
00000140: ebe1 893d ee8b 203d fb2f f23c e702 a43d
00000150: 4079 05bd 5d52 763d 72be c03d e474 7d3d
00000160: 40dd c13d 4eff 973d 93ee 6f3d c42b 253d
00000170: f2c6 a43b 94a2 3d3d 9f08 283d 8f7c 0d3d
00000180: 459f 813d 5c62 893d d8fd 733d 2c8f 9a3d
00000190: 9eb6 013d a189 3f3d e649 393d f20e 173d
000001a0: 5eda ae3d bee5 4a3d 2073 383d 5409 8c3d
000001b0: 47e7 f03c c9cc 363d 7815 563d 6bae c83d
000001c0: 1f01 5e3e 5a8d 493d 3dca bd3d 5ce7 053e
000001d0: 6992 9f3d f4d7 d33c 7551 543d 66fe 7a3b
000001e0: e1b8 613b 41aa d33d 6aed 193d 6b28 9e3d
000001f0: 06c1 8a3d 36cc 213d ec62 fe3d 2c73 2c3d
0.049264576 0.08120862 0.10523063 0.044208325 0.22890152 0.035549685 0.048268143 0.16558462
0.029982734 0.039908588 0.040774062 0.026592687 0.03788116 0.08625755 0.14110601 0.06322925
0.05053639 0.068851724 0.08849225 0.05482413 0.041755743 0.066684514 0.037095614 0.08046879
0.0497983 0.06641575 0.0367257 0.081825614 0.041511666 0.043455217 0.038903363 0.12025263
0.07775455 0.04401532 0.05758734 0.095955946 0.032401606 0.009182538 0.08534365 0.12290211
0.083246134 0.027607948 0.03499866 0.04526784 0.08347406 0.09538659 0.05539705 0.041201975
0.050869048 0.11213815 0.057122678 0.048105568 0.025999367 0.05655481 0.093228504 0.14341426
0.051046677 0.09340654 0.08308247 0.056147933 0.16490981 0.0352832 0.070016615 0.049325626
0.14027296 0.029201457 0.10008625 0.030924983 0.051756017 -0.016530208 0.029754546 0.06710788
0.06998364 0.07906146 0.08585958 0.049774393 0.07265439 0.03168644 0.048208434 0.06945376
0.067325436 0.039195947 0.029563894 0.08008366 -0.032586336 0.06013714 0.094113246 0.061879054
0.09466028 0.074217424 0.05857713 0.04032494 0.005028599 0.046297625 0.041023847 0.034542616
0.063292064 0.06708214 0.059568256 0.07546839 0.031668298 0.046762113 0.04523649 0.036879487
0.08537744 0.049535505 0.045031667 0.06837717 0.029407157 0.044628892 0.052266568 0.097988926
0.21680115 0.04920707 0.092670895 0.13076538 0.077915974 0.02585981 0.051835496 0.0038298606
0.0034442472 0.10335208 0.03757993 0.07722553 0.067750975 0.03950139 0.124212116 0.042102024

model.9.weight f4 [128, 128]
00000000: 4c59 44bd 6959 c73c 884d 4a3a d802 103d
00000010: 4f31 72bd 9a57 983a 059d 133d b829 a6bd
00000020: f42a 0d3d 7c35 4abc b1f4 21bb 74ff 52bd
00000030: 3fd6 a53c 589b a1be 2da6 41bc 378e 96bd
00000040: 1a10 483a 4f89 dcbc 8eca 253c f370 8d3d
00000050: be32 cf3a 5f24 503c a01a 843b 813a 1fbe
00000060: 7d21 943c 0686 843c 7b24 9fbd ae8a 63bc
00000070: 7165 88bd 7980 5c3b 7583 ab3c 4fd4 7b3c
00000080: 71a8 88bc 85fc a93c 5a95 e63c dfb4 283c
00000090: 24f9 533d 1e64 1fbf 816f cb3c a466 ddbc
000000a0: 0a96 643c 4a68 6f3b b87a a5bd fc67 b8bd
000000b0: 616e f2bc 9088 28bd bb1b a0bb 1c28 753d
000000c0: a189 003d 04a8 85bb ae31 01be ae6d db3c
000000d0: 801e d33b d91e 9d3c c9de 933c 219c b03b
000000e0: 5f5e b63c 3478 dd3c 978b 05ba ba35 f7bb
000000f0: 5efe e03c ef6f 42be 1a64 2d3d 41cd 7c3c
00000100: 61b5 033c 9ade 0abd e3e6 62bd 4312 f6bb
00000110: b20b 293b 0ff4 6f3d ef1b 193c ae21 803c
00000120: cf28 803c 27a3 64bf 92df 733d 7948 a7bd
00000130: 2e91 e0bc 98c3 dfbc f86c a23c 80f5 7dbc
00000140: 8041 813c 3803 d03c 9eb7 2f3c 9ab7 19bf
00000150: 9233 803c 6afb 1b3d a6c5 043d a747 063d
00000160: 0c9c 373d f030 bcbd 1d5d 023d ff8b 213c
00000170: 433a f7bd 66d9 283b 505c 25be 048c f03b
00000180: c05e 663c cc8f 22bc ac22 59bc c463 4bbc
00000190: 60f0 f83c 2e03 8d3c fd6c ba3c 30d8 f33c
000001a0: 520b 6cbd df08 b3bb 4ed3 91bd de38 ab3c
000001b0: 91b5 cdbc 89bb 9dbc 25dc 633c 87b0 403d
000001c0: 51ff b2bd f60a 87bc 5f3e 0ebd 1cd2 b93c
000001d0: 1113 43bf a170 48be d0c5 533c 2a1a 0e3e
000001e0: eedc c9bc c5e0 47be 8633 ecbc 3c17 123b
000001f0: 10cc cb3c 36ed f6be 8700 08bd 9feb 1bbe
00000200: 3f65 203d 8b34 343b 58a0 94bd c32f b53c
00000210: 63dc 2dbc f063 16bc 4b42 ccbc 2f2f 68bd
00000220: 86a4 0f3b e61f 88bc 0cbc d23b 0bf4 4fbd
00000230: da36 c9bd fc7d 43bd f2bf a6bc 169e a53c
00000240: e1fa bebe ad51 283b fe0f 9b3c 8e54 21bc
00000250: 55e8 1a3d 163f b93c a710 a3bc e8ee 033b
00000260: 7293 03bd 9302 b0bd a6d5 da3c e24f 143c
00000270: 7c77 84bf fae7 3abd 480a 7d3c 86c4 ba3c
00000280: 4559 02bc 7ce8 a3bc cc2d 883b d715 9dbc
00000290: 8158 043d 5bfb 17bd 226d 103d cff7 dabc
000002a0: c293 d4bc 7964 37bd 1546 e4be cd07 893c
000002b0: ddca 12bd 731f 33bc b8fd 13bf f309 06bd
000002c0: 8083 003c 2523 54bb 0be4 6abe 661e adbe
000002d0: 65fc 4b3d 411f 8dbb 3992 6e3b 49ca 4bbb
000002e0: 71f6 383c d6ff cfbb 7014 1dbc bfd3 a6bd
000002f0: 40d0 723c 3b51 1d3d 2d42 143d d1de 703c
00000300: 50a3 24bd 063a a7be ce44 29bd bb21 cebc
00000310: 24d7 9bbc e420 4a3d 0c33 6abb da13 303c
00000320: 3257 fb3c f928 dfbd b70b 0c3d 8023 4cbc
00000330: 238d 11bc d17c 71bf 1947 ad3c e8f6 173d
00000340: 581c 463b f18f ddbe 7230 0cbd 5e46 51bd
00000350: ccb0 863d 1aa9 b03b bdaa b93a fe6e 053d
00000360: 220d 8d3c c92b 9bbe 25e9 363d df80 2f3c
00000370: 6d0f 3a3c 1ed0 e5bd 65ee c43c 797a 7abd
00000380: 54f7 093d 3744 533b bfdf f03c 5f52 96bc
00000390: 8a66 6fbc 008b 04bc 2ca7 a43c 2618 1e3d
000003a0: e47d bfbb f2c1 dd3b cc00 253c 0ede 3ebd
000003b0: 98ed 36ba eac7 ff3a c0ca a53c fc40 0cbd
000003c0: 94bc 8ebd ff12 313d 8b9d 363c 5ca0 b2b7
000003d0: 36bb c0be 97fd b0bc 4a5f 273c c2e9 2b3d
000003e0: 61d2 083d e2e5 01be 54d0 0fbc f3e0 c03c
000003f0: 40d1 c9bb 8bdd cabc 3dd9 aabd 469d 233d
-0.047936723 0.024334626 0.00077172415 0.035158962 -0.059129056 0.0011622787 0.036038417 -0.08113426
0.03446479 -0.012341853 -0.0024712498 -0.05151315 0.020243762 -0.3156383 -0.011819405 -0.07351344
0.0007631794 -0.026920943 0.010119094 0.06906309 0.0015807969 0.012703984 0.0040314943 -0.15549661
0.018082375 0.016177189 -0.0777063 -0.013888044 -0.066599734 0.0033645912 0.020936707 0.0153704425
-0.016681882 0.020750294 0.028147388 0.010297029 0.05175127 -0.6226214 0.024833443 -0.027026482
0.013951788 0.0036530667 -0.08080047 -0.090042084 -0.029593648 -0.04114586 -0.004886118 0.059852704
0.031381253 -0.004078867 -0.12616608 0.026785698 0.006442845 0.019179748 0.018050568 0.0053897058
0.022261797 0.027034856 -0.0005094348 -0.0075442465 0.027465042 -0.18988012 0.042331792 0.015429796
0.00803885 -0.033903696 -0.055395972 -0.007509501 0.0025794324 0.05858236 0.009345039 0.01564106
0.015644459 -0.8931145 0.059539385 -0.0816812 -0.027412977 -0.027314946 0.019827351 -0.015500426
0.015778303 0.02539216 0.01072493 -0.6004578 0.01564959 0.038081564 0.032415055 0.032783177
0.044826552 -0.091890216 0.03182708 0.009860038 -0.120716594 0.0025764345 -0.16148496 0.00734091
0.014060676 -0.009921979 -0.013252895 -0.012413923 0.030388057 0.01721343 0.022757048 0.029766172
-0.057627983 -0.005463704 -0.07120381 0.02090114 -0.025110992 -0.019254463 0.013907467 0.04704335
-0.08740104 -0.016484719 -0.03472745 0.022683196 -0.7620097 -0.19574215 0.01292558 0.13877168
-0.02464148 -0.19519337 -0.028833162 0.002229168 0.024877578 -0.48227853 -0.033203628 -0.15226601
0.039159056 0.0027497138 -0.07257146 0.022117501 -0.010611626 -0.0091791 -0.024933955 -0.056685623
0.0021918132 -0.016616773 0.0064311083 -0.050769847 -0.09824915 -0.04772757 -0.020355199 0.020216983
-0.3730078 0.0025683448 0.018928524 -0.00984682 0.037819225 0.02261309 -0.019905401 0.0020131413
-0.032123037 -0.08594241 0.026713204 0.009052249 -1.0348964 -0.045631386 0.015444346 0.022798788
-0.007955854 -0.020008318 0.00415585 -0.019175453 0.032310966 -0.037104946 0.035260327 -0.026729492
-0.025949363 -0.044773553 -0.44584718 0.016727353 -0.035837997 -0.010932791 -0.5780902 -0.032724332
0.007843852 -0.003236958 -0.22938554 -0.33812255 0.04980125 -0.0043067043 0.0036403073 -0.0031095913
0.011289225 -0.0063476367 -0.009587392 -0.08145856 0.0148201585 0.038407546 0.036195923 0.014701561
-0.04019481 -0.32661456 -0.041325383 -0.025162568 -0.019023485 0.049347773 -0.0035735993 0.0107469205
0.030681226 -0.10896487 0.03419086 -0.012459636 -0.008883747 -0.9433108 0.021152066 0.037100703
0.0030229297 -0.4327388 -0.03422589 -0.051092498 0.0657669 0.005391252 0.0014165264 0.032576554
0.017218176 -0.30306843 0.044655938 0.010711878 0.011356217 -0.11221336 0.024039457 -0.061151955
0.033683136 0.0032236704 0.029403565 -0.018349824 -0.01461185 -0.008089781 0.020099245 0.03859725
-0.0058438648 0.006767505 0.010070991 -0.046598487 -0.0006978153 0.0019514535 0.02023828 -0.03424166
-0.06969562 0.043231007 0.01114596 -2.1293927e-05 -0.3764283 -0.021605296 0.01021559 0.041970976
0.033403758 -0.1268535 -0.008777697 0.023544764 -0.0061589777 -0.024763843 -0.08342216 0.03994491

model.9.bias f4 [128]
00000000: a949 4b3e c494 853e 0b29 763e ce70 8d3e
00000010: ecbb a43e c93f 9a3e 611e 9b3e 619b 7c3e
00000020: 9997 ad3e df05 4e3e 9075 853e 7ac0 1f3e
00000030: 4adf 113e 693f 493e 7fd6 343e fbcf 753e
00000040: dd36 643e 46c0 8a3e 5629 8a3e ea5d 753e
00000050: 03bf 713e db85 973e 6328 313e af93 753e
00000060: 8926 763e 52a2 473e 01bd 5d3e c871 883e
00000070: 44ac 853e 531b 3d3e b5b3 653e 40e4 873e
00000080: 990d 2d3e 4f14 743e d478 8a3e 308a 693e
00000090: de8a 833e 0ec9 823e de4f 683e 6376 393e
000000a0: 576f 8c3e 2128 873e efe2 4c3e 7016 843e
000000b0: 9e1e 5a3e a161 7a3e 0d4b 8e3e 1463 233e
000000c0: 6b85 453e f72d 753e 91b8 773e 1a05 683e
000000d0: 545a 573e 9f67 803e 402b 883e 5cde 863e
000000e0: 92a2 853e e53d 593e a7d3 803e 57cf 763e
000000f0: 728e 5f3e d5c2 4c3e 2514 743e 0fdf 7d3e
00000100: 59d7 883e a5d3 783e 5aff 913e f785 263e
00000110: 8012 6f3e 9e49 7b3e 6dfe 4f3e 4a97 363e
00000120: c162 903e 81b6 7d3e 562f 6f3e eabe 6e3e
00000130: 92d8 7a3e 2513 663e 0ce6 893e c622 8f3e
00000140: 55b1 8a3e a157 873e 76de 5a3e 37d0 883e
00000150: 9776 553e 21a8 833e 6f80 8d3e 42b2 6e3e
00000160: 6b08 8d3e ee94 823e 0940 8c3e f507 713e
00000170: 3748 7b3e d344 373e 60e3 363e 2b3b 803e
00000180: a445 6a3e 66e6 813e 87a5 9b3e 9896 8f3e
00000190: 068b 5f3e e0f1 6e3e cd09 723e ca9b 423e
000001a0: 26e5 793e b298 5e3e 68d3 613e 52cf 5c3e
000001b0: e258 603e 27f2 843e d9d3 563e e48b 6a3e
000001c0: 9435 533e 86c7 263e 4890 753e ae42 6e3e
000001d0: 79e9 353e ad94 593e 00d7 813e e867 753e
000001e0: 3513 503e 4333 4f3e 3507 853e a148 8c3e
000001f0: 00ef a13e 4322 333e f156 833e cc8c 8e3e
0.19852318 0.26090062 0.24039094 0.27625126 0.32174623 0.3012679 0.30296615 0.24668647
0.33904722 0.20119427 0.26066256 0.15600768 0.14245334 0.19653095 0.17659949 0.2400512
0.22286554 0.27099818 0.26984662 0.23961607 0.23608021 0.2959431 0.17300563 0.23982118
0.24038137 0.19495514 0.2165413 0.26649308 0.2610799 0.18467455 0.22431834 0.26541328
0.16899718 0.23835872 0.2704531 0.2280662 0.25691885 0.25544018 0.22686717 0.18111567
0.27428696 0.26397803 0.20008443 0.25798368 0.21300742 0.24451305 0.27791634 0.15955764
0.19289176 0.23943315 0.241915 0.22658196 0.21030551 0.25079057 0.26595497 0.26341522
0.26100594 0.21215017 0.25161478 0.24102531 0.21831682 0.19996198 0.2383581 0.24792121
0.26726797 0.24299486 0.2851513 0.16262041 0.23346901 0.24539801 0.203119 0.1783115
0.28200343 0.24776651 0.23357901 0.23315015 0.24496678 0.2246824 0.26933324 0.27956218
0.2708842 0.26434043 0.21373925 0.26721355 0.2084602 0.2571421 0.2763705 0.23310187
0.27545485 0.2550425 0.27392605 0.23538192 0.24539267 0.17897348 0.17860174 0.25045142
0.22878128 0.25371093 0.30399725 0.2804458 0.21830377 0.23334455 0.23636551 0.19004741
0.2440382 0.21737936 0.22053301 0.21563461 0.21908906 0.25965998 0.20979251 0.22904927
0.20625907 0.1628705 0.2398082 0.23267624 0.17764844 0.21248122 0.25359344 0.23965418
0.20319827 0.20234399 0.2598206 0.2739916 0.31627655 0.17493539 0.2565227 0.27841794

model.12.weight f4 [3, 128]
00000000: 7467 cf3c 8a62 243e 11f1 69bd feb0 9e3d
00000010: 7285 d33c a64b 25bd aa27 4f3d b48f bf3d
00000020: 5a44 393c 3961 48bd 69fd e1bd e4e9 713c
00000030: 1807 07be 682d b1bd 630b 8bbd 2bc8 7fbd
00000040: af36 92bd 4847 0a3d 80df f03c 6adc ad3d
00000050: 5e04 643d 5608 aebc 7c94 06be f235 253e
00000060: be70 42bd e5e3 573c 741b 153e e36c 223e
00000070: 0885 3c3e 86cb ffbd a657 b43d ff2d 6c3d
00000080: 3387 dbbd 1410 033e 5076 fe3d b960 fd3d
00000090: c8c5 243d 6cfb ae3d 43b3 58bd 137e babd
000000a0: 4b80 233b 054a 0d3e 1b0a 833d 1dff afbd
000000b0: 2f22 b7bd 491f 1e3e 3596 50bd fd64 d1bd
000000c0: a002 c1bc 0b19 1c3e e9db 1dbd 4ea1 5bbd
000000d0: f020 6fbd a748 01be 7c22 423e bfc0 7abd
000000e0: 59f7 193e d934 bfbd cbff 3b3e 5e0d 2c3e
000000f0: 7275 3f3e e054 2f3d d2bd 1e3e 502a 90bc
00000100: e262 4abd 2ca7 a8bd 23b9 ae3d b4fa 27bc
00000110: aa9a 99bd 9d74 253e 0bb0 e8bd 3cc8 dfbd
00000120: b5df a3bd af8d 3d3e 6a98 aa3d 234c 65bd
00000130: a029 78bd 420d 683d be12 36bd 4150 e93c
00000140: f17a 853c 48d1 07bd 4689 d23d 5863 76bc
00000150: cd0b 423d 3f88 1f3e 19bf 0b3d afef 2e3e
00000160: ff06 71bd d152 f1bd c5c4 113d ce61 c5bd
00000170: 4a57 afbd b8a5 bdbd 7ba5 eebd f0f1 87bd
00000180: 27ab 1bbd 39e8 f43d 5cb4 39bb 0924 25bd
00000190: 7cef 87bd c5e9 9abd b606 d2bc 4ee3 a1bd
000001a0: aa56 92bd 7eb5 483e 8090 2d3d cf5c a4bd
000001b0: 25b0 a8bd eb68 3f3e c6a2 df3c ec71 283b
000001c0: 5cac eebd 9ab9 fabd ab37 aebd d45b 163e
000001d0: af37 a9bd fcad a6bc 63ae ab3d c007 1bbd
000001e0: f5c4 44bd 59e9 abbd 76a5 453d 7a83 853d
000001f0: da8c 533d 3767 bbbd 2ad7 193d f8c2 843d
00000200: fae6 f53d 5f2a b93d 91bd fbbc 7db5 1fbe
00000210: ca05 53be 0051 4bbe 9250 e63d b389 02be
00000220: a6a8 abbd bade 99bc 0a14 3cbd 1c86 fdbd
00000230: 78d2 ab3d 0213 8dbd c117 63bc a2ed c6bd
00000240: 0a39 a7bd c106 983d eafa 4bbc e2fc 053e
00000250: 1aff 37be bd35 33bd 7f88 2f3d d5ca f4bc
00000260: 819b 2c3d 7f4d 00be 4f58 b23d 4c54 86bd
00000270: dd67 343a 2716 a8bb 0ce7 2cbe 7169 3d3e
00000280: d17e 78bd 8739 d33d 0a28 c6bd c2e2 2ebe
00000290: 7273 f23d b165 a93d ebe6 393d 1be4 b93d
000002a0: d720 cebd 9617 983c df6a ccbd d41b 2d3d
000002b0: e975 95bd aa06 59bd 83f2 77bd 75ec 07bd
000002c0: b8f7 08be e571 383d 38e1 ea3d b613 293c
000002d0: a108 083e 8122 abbd 85d3 e33b 6189 723d
000002e0: 8e26 81bd 777d 3a3d 6948 273d 003f 833d
000002f0: 30b3 fa3c 2fbc aabd 35ce d8bd 2221 123d
00000300: 5832 0d3d eed6 e3bd 7989 a03d fed8 f9bd
00000310: b4d2 6f3d 80b6 2a3e 7160 bcbc d000 b23c
00000320: d2b2 2dbd cf6b 3c3c 0389 bb3d c83f 5fbd
00000330: c978 f9bc a47b 103e af65 95bd 067b 02be
00000340: ad07 253e 717b 4cbd 199b ecbd 4ae0 a43d
00000350: 8f58 2d3e f59b adbd 92d4 19be 6a3c a33d
00000360: 4b70 4cbd c4f2 813d 0324 733c d9e5 82bd
00000370: ff70 8a3d b1a3 c2bc 5f43 8abd f9dd 3a3d
00000380: 508a 6bbd 5b18 d43d 52f6 14be c7a0 753d
00000390: 29bf e9bc 86e7 ca3d 6d6e d63c 16f8 5bbd
000003a0: 5aaf 3e3d ad41 b33d 8a11 323e 0ff9 dfbd
000003b0: a5cb ca3d a616 143e 51ac 433e c323 ea3b
000003c0: d1f3 d53d 8b48 7f3c 9fc7 a83c 1772 09bd
000003d0: e0be cdbd a9ea e93d fcde 973d 49ea ea3d
000003e0: 8b9f f33d 0264 d83d 41f8 7c3e 8020 e53d
000003f0: 15eb debd 9c65 ab3d bf20 69bd d1e5 01be
0.025317885 0.16053215 -0.057114664 0.07748602 0.025820468 -0.040355347 0.050574936 0.09353581
0.0113078 -0.048920844 -0.11034662 0.0147652365 -0.131863 -0.08651239 -0.06789281 -0.062446754
-0.07139336 0.033759385 0.029403448 0.08489306 0.055668227 -0.02124421 -0.1314258 0.1613386
-0.0474708 0.013176893 0.14561254 0.1586185 0.18410122 -0.12489991 0.0880578 0.057661053
-0.107191466 0.12799102 0.1242491 0.12371964 0.04022768 0.08544049 -0.052905332 -0.09106078
0.0024948295 0.13797767 0.06398412 -0.08593581 -0.08942067 0.15441622 -0.0509245 -0.1022434
-0.023560822 0.15243928 -0.0385398 -0.05362063 -0.05838102 -0.12625371 0.18958467 -0.061218973
0.15035762 -0.09336252 0.18359296 0.16801974 0.18697146 0.042805552 0.15502098 -0.017598301
-0.04941071 -0.082350105 0.08531406 -0.010252643 -0.07500203 0.16157766 -0.113617025 -0.109268636
-0.08001653 0.18511079 0.08329852 -0.055980813 -0.06058657 0.05665327 -0.044451468 0.02848065
0.016293975 -0.03315857 0.10280089 -0.015038334 0.047374535 0.15579318 0.03411779 0.1708362
-0.058844563 -0.11783374 0.035588045 -0.096377954 -0.08561571 -0.09260124 -0.11652657 -0.06637943
-0.03800502 0.119583555 -0.0028336262 -0.04031757 -0.06637475 -0.07564119 -0.025637966 -0.07904683
-0.07145436 0.19600484 0.042374134 -0.08025514 -0.08236722 0.18692367 0.027299296 0.0025702668
-0.11653969 -0.12242432 -0.085067116 0.14683467 -0.08262574 -0.020346634 0.08382871 -0.037849188
-0.048039395 -0.08394117 0.0482535 0.06519218 0.051648 -0.09150546 0.037558712 0.064825
0.12006946 0.09041285 -0.03073004 -0.15596576 -0.20607677 -0.19855118 0.11245836 -0.1274784
-0.083817765 -0.018782962 -0.04591755 -0.12379095 0.08389753 -0.06888391 -0.013860644 -0.097132936
-0.08165176 0.07423163 -0.012449959 0.13084748 -0.17968407 -0.04375242 0.042854782 -0.029881874
0.042140488 -0.12529562 0.0870825 -0.06559047 0.0006881932 -0.005129594 -0.16885012 0.18497254
-0.060667817 0.10313707 -0.096756056 -0.17078689 0.11838426 0.08271349 0.045386236 0.09076711
-0.100648575 0.018565934 -0.099813215 0.042262867 -0.0729788 -0.05298487 -0.06053401 -0.033184487
-0.13375747 0.045030493 0.11468738 0.010319641 0.13284542 -0.083561905 0.0069527053 0.059213046
-0.06306182 0.04552981 0.04084054 0.06408501 0.030603021 -0.083366744 -0.10586206 0.03567613
0.03447184 -0.11124979 0.07838721 -0.12199591 0.05855055 0.1667118 -0.022995206 0.021728903
-0.042406864 0.011500313 0.09156992 -0.054504186 -0.030453103 0.14109665 -0.07294785 -0.12742242
0.1611621 -0.04992241 -0.1155302 0.08050592 0.16928314 -0.08477012 -0.15022495 0.079705074
-0.04991178 0.06345132 0.014840129 -0.06391496 0.067598335 -0.023759695 -0.06751131 0.045621846
-0.057504952 0.10356208 -0.14547089 0.059967782 -0.028533535 0.09907441 0.026175702 -0.05370339
0.046553947 0.08752761 0.17389503 -0.10936176 0.09902123 0.14461765 0.19108702 0.0071453764
0.10446895 0.01558126 0.020603 -0.03355607 -0.10046172 0.11421711 0.07415578 0.114704676
0.11895665 0.1056595 0.24704076 0.111878395 -0.10884682 0.0836899 -0.056915995 -0.12685324

model.12.bias f4 [3]
00000000: e481 323d a165 bfbc d7e3 5bbd
0.043580905 -0.02336389 -0.053684082
