exported_models/neural_networks/raw_mlp/trained_models/nmpc_model_epoch_100_batch_64_lr_1e-05_vs_30_hl_128_128_128/mlp_dynamics.pth (torch, 140435 bytes, 8 tensors)

model.0.weight f4 [128, 5]
-0.06606543 0.09102726 0.40122417 -0.33911258 0.16865537 -0.32884595 -0.3395624 -0.13590416
-0.072768904 -0.22651313 0.34373707 -0.31394798 0.27356872 -0.2448868 0.012438584 0.24093205
-0.00048317056 0.37748125 0.07880641 -0.12412892 0.19256608 0.13224506 -0.24745272 -0.061439592
-0.31613538 -0.17059505 0.22907734 0.24433991 -0.29426333 -0.40659338 -0.40421978 0.2255791
-0.22047588 -0.06766156 -0.353996 -0.39835003 0.2217624 -0.41408756 0.18139987 0.13584906
-0.09000882 -0.15782052 -0.24836913 -0.30123013 -0.01951196 0.28971374 0.2445344 0.11954621
0.25916806 -0.25229403 0.002546721 -0.33694443 -0.21101491 0.21746947 -0.21254298 0.008719969
-0.24543329 0.2364166 0.123236276 -0.124228776 -0.19166085 -0.10889541 -0.20365627 -0.23106755
-0.014525158 -0.057972077 -0.16803919 -0.43198556 -0.1945282 -0.24462314 0.44452003 0.27832133
-0.06698056 -0.0027866664 -0.28377566 -0.29988107 -0.12354953 0.42711216 -0.40117875 0.037169006
-0.25427234 0.21267754 0.32715404 0.20250133 -0.24466048 -0.05308672 -0.43631175 -0.12004227
0.1815725 -0.33248022 0.045881838 0.44696066 0.1020018 0.14354222 -0.20570965 0.31097952
-0.008953673 0.36059254 -0.280647 0.011665699 -0.10020323 -0.17967968 0.31336278 -0.20442249
0.061087184 -0.41428164 0.24880515 0.286191 0.0853038 -0.16463424 0.22772011 0.03967968
-0.21459138 0.24711291 0.18635187 0.23507775 0.19515827 -0.14646587 0.24732511 -0.33614963
0.20606445 0.1151792 -0.18000813 -0.18555194 0.30288276 -0.35207772 0.1520991 -0.15992926
0.029290646 0.3577601 -0.39461568 0.44102636 -0.40175167 -0.27654815 0.031392522 -0.18270528
-0.42414153 -0.447892 0.29534414 0.40806988 0.21425731 -0.04546552 -0.3101267 0.14386405
0.38579565 0.11918415 0.46470055 0.063422866 0.1211827 0.33707437 0.10416645 0.049517296
-0.306758 -0.39043108 -0.29301035 0.22648492 0.42560464 -0.08292967 -0.118040696 0.22308882
0.3845431 -0.04989952 -0.4031412 0.0039458186 0.14514582 -0.4406477 0.23802471 -0.39397106
-0.25122947 0.33157462 -0.036459513 0.4696112 0.1974851 -0.15232919 0.071236745 -0.3626856
0.11604868 0.4206436 -0.13873799 -0.35506073 -0.008846042 -0.29080704 -0.41468915 -0.06268974
-0.355226 -0.10393719 -0.24931951 -0.25765365 0.16339235 -0.016491937 0.22825934 -0.30269295
0.4212994 0.38417938 0.38760272 -0.16197515 -0.1550732 0.29487732 0.088070996 0.24606718
0.16570501 -0.26598492 -0.23191409 0.07132028 0.02731182 -0.21378148 -0.18954025 -0.31362516
-0.02477687 -0.38544583 -0.049253184 0.13422841 -0.27683812 0.0841353 -0.3811566 -0.008507005
0.036306452 -0.079524 0.05688858 0.2994569 0.28632474 -0.117336825 0.35802788 -0.06352627
-0.2700009 -0.34653342 -0.028640807 0.06313247 -0.118625075 -0.40022084 -0.14446032 -0.12242303
0.030124854 -0.09308436 0.2735882 0.025056709 0.31283867 0.27079266 -0.22162415 0.27034602
0.30706182 0.058006875 0.22699228 -0.29684317 0.108586796 -0.06057266 -0.19181357 0.3377837
-0.017020823 0.35555562 -0.39731428 0.25648156 0.3530764 0.32506764 -0.107480414 0.42789808
00000000: 504d 87bd 806c ba3d 416d cd3e 2aa0 adbe
00000010: feb3 2c3e 7f5e a8be 1fdb adbe 762a 0bbe
00000020: dd07 95bd 0ff3 67be 4efe af3e cabd a0be
00000030: 3311 8c3e 9bc3 7abe 34cb 4b3c e4b6 763e
00000040: 0e52 fdb9 3945 c13e 4165 a13d 4e37 febd
00000050: 0b30 453e 406b 073e 3f64 7dbe 15a8 7bbd
00000060: 7fdc a1be 78b0 2ebe 4093 6a3e 3e34 7a3e
00000070: afa9 96be 022d d0be e5f5 cebe 35fe 663e
00000080: 6ec4 61be 2592 8abd f73e b5be 89f4 cbbe
00000090: af15 633e 4903 d4be e3c0 393e 041c 0b3e
000000a0: 8b56 b8bd b49b 21be 7a54 7ebe d63a 9abe
000000b0: 8cd7 9fbc 5c55 943e 3a67 7a3e a5d4 f43d
000000c0: adb1 843e af2c 81be e3e6 263b fb83 acbe
000000d0: 4b14 58be 51b0 5e3e dea4 59be 33de 0e3c
000000e0: dd52 7bbe 3117 723e 4d63 fc3d a86b febd
000000f0: be42 44be 8f04 dfbd 458b 50be f99c 6cbe
00000100: eefa 6dbc 2174 6dbd 7712 2cbe 362d ddbe
00000110: 6732 47be 7d7e 7abe 2198 e33e 2280 8e3e
00000120: 1b2d 89bd 81a0 36bb 0b4b 91be 038a 99be
00000130: 8907 fdbd 72ae da3e 4d67 cdbe 873e 183d
00000140: fc2f 82be 24c8 593e bc80 a73e 825c 4f3e
00000150: 4788 7abe 7671 59bd 4164 dfbe b9d8 f5bd
00000160: 24ee 393e d93a aabe 98ee 3b3d 07d8 e43e
00000170: 52e6 d03d bbfc 123e 8da5 52be b538 9f3e
00000180: 6db2 12bc 969f b83e f7b0 8fbe 7d21 3f3c
00000190: 5a37 cdbd f3fd 37be 1671 a03e 2154 51be
000001a0: 8e36 7a3d b91c d4be c7c6 7e3e a087 923e
000001b0: c2b3 ae3d e195 28be 762f 693e 2987 223d
000001c0: d8bd 5bbe 2b0b 7d3e 06d3 3e3e 39b8 703e
000001d0: 92d7 473e 26fb 15be cb42 7d3e ce1b acbe
000001e0: 8f02 533e 13e3 eb3d 0d54 38be 5401 3ebe
000001f0: 7313 9b3e 8843 b4be debf 1b3e 7fc4 23be
00000200: f0f2 ef3c 552c b73e 110b cabe 35ce e13e
00000210: 65b2 cdbe b897 8dbe 7295 003d 1817 3bbe
00000220: 1429 d9be 1a52 e5be 5937 973e 89ee d03e
00000230: 4566 5b3e 0e3a 3abd edc8 9ebe 1951 133e
00000240: 0287 c53e d216 f43d 3bed ed3e d9e3 813d
00000250: a32e f83d 0395 ac3e 3855 d53d a6d2 4a3d
00000260: 620f 9dbe 95e6 c7be 7405 96be aaeb 673e
00000270: dae8 d93e 08d7 a9bd 52bf f1bd 6571 643e
00000280: d5e2 c43e 7063 4cbd 8668 cebe ed4b 813b
00000290: 1ba1 143e 939c e1be c0bc 733e 93b6 c9be
000002a0: 26a1 80be 26c4 a93e 9256 15bd e170 f03e
000002b0: 8939 4a3e 2ffc 1bbe 92e4 913d edb1 b9be
000002c0: eeaa ed3d 995e d73e 5511 0ebe 85ca b5be
000002d0: fdee 10bc a9e4 94be 2352 d4be 7a63 80bd
000002e0: 2fe0 b5be 05dd d4bd 9d4d 7fbe 2eeb 83be
000002f0: 5350 273e 191a 87bc d1bc 693e 92fa 9abe
00000300: 8eb4 d73e 29b3 c43e dd73 c63e d0dc 25be
00000310: 82cb 1ebe 29fa 963e 915e b43d 09f9 7b3e
00000320: 93ae 293e 2d2f 88be e37a 6dbe 5e10 923d
00000330: 0abd df3c 88e9 5abe d716 42be 7a93 a0be
00000340: ddf8 cabc 2859 c5be b5bd 49bd 2c73 093e
00000350: babd 8dbe 214f ac3d f526 c3be f760 0bbc
00000360: 13b6 143d 7bdd a2bd 0004 693d 6a52 993e
00000370: 2899 923e 4a4e f0bd 6e4f b73e 101a 82bd
00000380: 8f3d 8abe d46c b1be 20a0 eabc 994b 813d
00000390: b4f1 f2bd bfe9 ccbe 68ed 13be edb8 fabd
000003a0: 66c8 f63c 03a3 bebd c113 8c3e ba43 cd3c
000003b0: 642c a03e 56a5 8a3e 71f1 62be cb6a 8a3e
000003c0: 3537 9d3e 9e98 6d3d aa70 683e d4fb 97be
000003d0: c162 de3d 0a1b 78bd c76a 44be fcf1 ac3e
000003e0: 416f 8bbc 630b b63e c76c cbbe 8d51 833e
000003f0: 6ec6 b43e 446f a63e b11e dcbd 7515 db3e

model.0.bias f4 [128]
0.2454893 0.28198054 -0.34604275 0.07402822 -0.4792908 0.10109355 -0.24291581 0.15222332
-0.122370265 -0.017646011 0.2725881 0.5255839 -0.33969977 0.042082693 0.35240036 0.1605975
-0.028180992 -0.32754242 -0.2795436 -0.036996923 -0.4344391 0.4119547 -0.06617117 0.406282
0.07956322 -0.2929737 -0.21848497 -0.25923258 0.0019020569 0.08785975 0.19585946 0.4576404
-0.2966908 -0.33665952 -0.35391924 -0.05074653 -0.087292 -0.3398209 0.28666246 0.44968417
-0.16796036 -0.14589141 0.14313692 0.0036421774 0.27753758 0.073130615 0.36883616 -0.24008663
0.17598392 -0.007693299 -0.26699904 -0.38807115 -0.29926965 0.3688577 -0.09614808 -0.44984198
-0.18420339 -0.16424777 0.45832634 0.2368857 -0.4260907 -0.25632238 0.019867625 -0.18135616
0.045197427 0.27574068 0.0372169 -0.17334037 -0.4262625 0.32530713 0.1437693 -0.3711696
0.3270952 -0.116498135 0.25406638 0.1937814 -0.32704052 0.21647625 -0.43721288 0.008756424
-0.10067186 0.19581701 -0.111904085 0.15194727 0.16810727 -0.21980052 0.023366602 0.04864014
-0.042029254 0.46688294 0.12563442 0.40940133 -0.3332729 -0.19153827 0.30843788 0.1107657
0.017290642 0.4453173 -0.24723984 -0.2993224 0.34178978 -0.40969843 0.09267948 -0.007837725
0.40903792 0.331069 0.24103886 -0.103108145 -0.1466681 0.32506198 -0.09792703 0.3876154
0.25160885 -0.3092261 -0.0378664 -0.021579063 0.392223 0.018906824 0.047159754 -0.15067032
0.30661762 0.29865074 0.0951005 0.19401431 0.4536207 0.4620852 -0.08674115 0.28072947
00000000: 8c61 7b3e c15f 903e 842c b1be 1b9c 973d
00000010: 9b65 f5be 230a cf3d ecbe 78be 6ee0 1b3e
00000020: 439d fabd 5e8e 90bc ab90 8b3e ab8c 063f
00000030: 21ed adbe e75e 2c3d d26d b43e ac73 243e
00000040: d3db e6bc a4b3 a7be 5720 8fbe 168a 17bd
00000050: cd6e debe baeb d23e c084 87bd 3204 d03e
00000060: 0bf2 a23d a600 96be 86ba 5fbe 22ba 84be
00000070: 704e f93a d0ef b33d 628f 483e d84f ea3e
00000080: dbe7 97be a35e acbe e734 b5be 98db 4fbd
00000090: 26c6 b2bd 01fd adbe 6cc5 923e 013d e63e
000000a0: cdfd 2bbe 8f64 15be 7c92 123e 99b1 6e3b
000000b0: 6819 8e3e 81c5 953d 18d8 bc3e 45d9 75be
000000c0: 2135 343e 1218 fcbb 19b4 88be 43b1 c6be
000000d0: df39 99be ebda bc3e 49e9 c4bd b051 e6be
000000e0: d09f 3cbe 9130 28be c0a9 ea3e 2a92 723e
000000f0: 8f28 dabe b03c 83be 6ec1 a23c 6eb5 39be
00000100: f020 393d e22d 8d3e c070 183d 2380 31be
00000110: 143f dabe a88e a63e 4238 133e f109 bebe
00000120: 0679 a73e 9396 eebd fd14 823e a26e 463e
00000130: db71 a7be f3ab 5d3e 5eda dfbe 1b77 0f3c
00000140: 0c2d cebd 4184 483e f82d e5bd 1198 1b3e
00000150: 5024 2c3e 6313 61be 516b bf3c e23a 473d
00000160: de26 2cbd 480b ef3e 4fa6 003e 0d9d d13e
00000170: bfa2 aabe 9c22 44be 92eb 9d3e 21d9 e23d
00000180: 1ba5 8d3c a100 e43e 712c 7dbe c940 99be
00000190: 12ff ae3e fec3 d1be bdce bd3d cd69 00bc
000001a0: 6b6d d13e e081 a93e e4d2 763e 5d2a d3bd
000001b0: 2a30 16be 866e a63e f78d c8bd 8775 c63e
000001c0: e0d2 803e e252 9ebe cc19 1bbd 93c6 b0bc
000001d0: 74d1 c83e 7ce2 9a3c 962a 413d 5249 1abe
000001e0: fcfc 9c3e c0e8 983e 0dc4 c23d b0ab 463e
000001f0: f940 e83e 6e96 ec3e 58a5 b1bd c6bb 8f3e

model.2.weight f4 [128, 128]
0.05341401 0.07166432 0.05215027 0.08715938 0.025272781 0.04175968 0.019202836 0.09156175
0.08109134 -0.0055497116 0.01482552 -0.017689262 0.04642149 0.09771558 0.12642029 0.0037724415
-0.09298383 0.06552339 0.035029832 0.0964798 0.049115196 -0.06171202 0.07444795 0.0523516
0.120715626 -0.03792907 0.011262588 0.07131023 -0.041640162 0.022073546 -0.013812458 0.12176683
-0.0305028 -0.052871305 -0.013154083 0.009090902 -0.050672337 0.074420065 0.00079015765 0.0058208373
-0.014859279 -0.07342913 -0.06281848 -0.07035006 0.090348236 -0.049934894 0.07639975 0.09017658
-0.031573586 -0.0484603 -0.05950919 0.045255043 0.009655501 0.091167964 -0.054788653 0.012755493
0.0018003383 -0.024038473 0.086656466 0.07624576 0.008600338 0.025389936 0.06199346 0.011258471
0.042672224 0.015242025 0.0043980535 0.09740074 0.029109912 -0.052270252 -0.046967093 -0.004997232
0.023309527 -0.042608477 -0.055617224 -0.013966113 0.0016083055 0.07721258 0.044122133 0.038990565
-0.053182732 -0.021943988 0.020871818 -0.07208397 0.04893416 0.029580476 -0.004608229 0.0038920634
0.08677415 -0.051611006 0.034732293 0.021374304 0.056835823 0.03235941 0.0042908113 -0.015219139
-0.029097494 0.099729404 0.05231697 -0.037352987 0.048257075 0.0019611998 0.020826107 0.09040839
0.090437435 0.020466726 -0.006403019 -0.014812329 -0.001189763 -0.10076033 0.06207529 0.06488748
0.040833414 -0.054355532 -0.05205249 0.031302836 0.009501016 -0.019127965 0.03192207 -0.08894353
-0.010780932 -0.012627667 0.029458929 0.028761705 -0.06277653 0.08330398 0.05843249 -0.07481419
0.009053735 0.04030847 0.107751064 0.09341382 0.0881813 -0.047225635 -0.0049308953 -0.042767648
0.05321292 0.035487138 0.030716563 0.0021830588 0.10672726 -0.02656577 -0.051111396 0.103072286
0.010368682 0.0098125385 0.012276762 0.03132267 -0.049366727 0.04983289 0.0012000945 -0.037987158
-0.05954007 0.018679915 0.020668805 -0.0105571225 0.012381073 -0.03932367 -0.03540166 -0.056306995
-9.4829324e-05 0.009158745 0.032273374 -0.06884842 -0.0009035123 -0.0005736996 0.07835022 -0.037743617
-0.0051867412 -0.006624632 0.05324522 -0.01749848 0.078233704 -0.03494759 -0.036080815 -0.05355213
0.012966385 -0.006942237 -0.06376916 0.020598548 0.022782182 -0.016419668 -0.019040445 -0.0063212356
-0.05924827 0.002837392 0.042068567 0.09322738 0.05628819 0.013912705 0.0800171 -0.024314575
0.030175488 0.021484405 -0.02571395 -0.09424542 -0.07181978 -0.021864979 0.082186386 -0.0021196732
-0.0015086342 0.11340615 0.074294366 -0.07690118 0.07267917 0.03433676 0.06471911 0.07585602
0.027031131 -0.041240197 0.0057243 0.045259308 0.019630414 -0.005577872 0.026640242 -0.011689895
0.06546654 0.016060915 0.071146354 0.09003892 -0.009034964 0.0054185297 0.055942606 -0.02218213
0.06597496 -0.09700652 -0.07067426 -0.04319712 -0.016325817 -0.005129364 -0.022046434 -0.012260607
0.013572071 -0.02973614 0.11372948 0.07683 0.05479395 0.07666766 0.05910666 0.037124258
-0.048172556 -0.030095667 -0.00066008465 0.0032354975 0.12035282 0.0005408217 -0.037041217 0.0051185284
0.021711746 0.060880423 0.01325523 0.033188254 -0.031513046 0.009254928 -0.039020207 -0.01791573
00000000: a6c8 5a3d bec4 923d 869b 553d 9e80 b23d
00000010: dd08 cf3c 330c 2b3d 444f 9d3c ba84 bb3d
00000020: 3713 a63d 5bda b5bb bde6 723c 12e9 90bc
00000030: 7624 3e3d 1b1f c83d 5274 013e 113b 773b
00000040: 4e6e bebd 2131 863d 717b 0f3d 3497 c53d
00000050: 042d 493d bec5 7cbd 2b78 983d a26e 563d
00000060: c139 f73d 835b 1bbd b886 383c 190b 923d
00000070: e08e 2abd 95d3 b43c a64d 62bc e360 f93d
00000080: 02e1 f9bc 958f 58bd 3984 57bc 02f2 143c
00000090: cc8d 4fbd 8c69 983d 9522 4f3a b9bc be3b
000000a0: 5574 73bc 0362 96bd faa6 80bd b113 90bd
000000b0: 7f08 b93d 8888 4cbd 7977 9c3d 80ae b83d
000000c0: 4e53 01bd 4f7e 46bd e9bf 73bd 5a5d 393d
000000d0: 1b32 1e3c 45b6 ba3d 116a 60bd 6afc 503c
000000e0: 54f9 eb3a 55ec c4bc f278 b13d bd26 9c3d
000000f0: 6fe8 0c3c 8efe cf3c dbec 7d3d 7375 383c
00000100: 12c9 2e3d b0b9 793c 8c1d 903b 0a7a c73d
00000110: e977 ee3c 5519 56bd 9160 40bd d2bf a3bb
00000120: 9ff3 be3c 3a86 2ebd e3ce 63bd 20d2 64bc
00000130: c7cd d23a a121 9e3d 69b9 343d 92b4 1f3d
00000140: 23d6 59bd e1c3 b3bc 60fb aa3c c3a0 93bd
00000150: 306f 483d c152 f23c a000 97bb fd11 7f3b
00000160: a5b6 b13d 1066 53bd 7343 0e3d 2a19 af3c
00000170: aecc 683d 4d8b 043d ef99 8c3b b259 79bc
00000180: de5d eebc ee3e cc3d 524a 563d 72ff 18bd
00000190: 36a9 453d 7987 003b 839b aa3c 0928 b93d
000001a0: 4337 b93d d6a9 a73c 6bd0 d1bb 69af 72bc
000001b0: d2f1 9bba 6f5b cebd a942 7e3d bae3 843d
000001c0: f040 273d e8a3 5ebd fe34 55bd 6737 003d
000001d0: 26aa 1b3c 40b2 9cbc b7c0 023d 0728 b6bd
000001e0: 82a2 30bc 46e4 4ebc da53 f13c ab9d eb3c
000001f0: fb90 80bd 479b aa3d e856 6f3d 2f38 99bd
00000200: 1e56 143c 7f1a 253d 97ac dc3d bf4f bf3d
00000210: 6698 b43d ab6f 41bd 5993 a1bb 212d 2fbd
00000220: caf5 593d f65a 113d 4da1 fb3c a611 0f3b
00000230: d293 da3d 75a0 d9bc 2f5a 51bd 9017 d33d
00000240: 68e1 293c c5c4 203c 7924 493c 334c 003d
00000250: c434 4abd 931d 4c3d 7d4c 9d3a 6c98 1bbd
00000260: 4ae0 73bd 9f06 993c a051 a93c c8f7 2cbc
00000270: fcd9 4a3c db11 21bd 5501 11bd 2aa2 66bd
00000280: 1bdf c6b8 900e 163c 1631 043d 6700 8dbd
00000290: afd9 6cba 5464 16ba 1576 a03d 0d99 1abd
000002a0: 8af5 a9bb 7113 d9bb a917 5a3d f958 8fbc
000002b0: fe38 a03d 3425 0fbd 7ac9 13bd 7a59 5bbd
000002c0: f670 543c b47b e3bb 6899 82bd 49be a83c
000002d0: b3a1 ba3c 8a82 86bc b5fa 9bbc 5e22 cfbb
000002e0: 50ae 72bd 8af3 393b 1750 2c3d ffed be3d
000002f0: 728e 663d 1df2 633c 01e0 a33d 5c2f c7bc
00000300: 9632 f73c 1000 b03c 10a6 d2bc be03 c1bd
00000310: 4016 93bd 2f1e b3bc 5651 a83d 37ea 0abb
00000320: 5dbd c5ba 7c41 e83d a527 983d 5e7e 9dbd
00000330: d1d8 943d b4a4 0c3d 748b 843d 675a 9b3d
00000340: 6470 dd3c 7beb 28bd e992 bb3b d361 393d
00000350: f6cf a03c 95c6 b6bb a33c da3c f986 3fbc
00000360: 5213 863d 2e92 833c 2eb5 913d 5366 b83d
00000370: 6307 14bc ec8d b13b 1324 653d 4cb7 b5bc
00000380: e11d 873d 5bab c6bd abbd 90bd 77ef 30bd
00000390: b8bd 85bc 3914 a8bb b99a b4bc b7e0 48bc
000003a0: 645d 5e3c 3599 f3bc 00eb e83d 0c59 9d3d
000003b0: 9f6f 603d ef03 9d3d d319 723d 9b0f 183d
000003c0: 9650 45bd 308b f6bc 8809 2dba a40a 543b
000003d0: 8a7b f63d eec5 0d3a 88b8 17bd 54b9 a73b
000003e0: d5dc b13c c05d 793d 772c 593c 68f0 073d
000003f0: d313 01bd fba1 173c a7d3 1fbd 02c4 92bc

model.2.bias f4 [128]
0.0099199135 0.08227685 0.0516713 0.0044980873 0.001655479 0.08721975 0.07608405 -0.035230752
0.06531346 0.023250263 -0.07850835 -0.032661736 -0.09991269 0.057290625 0.008854006 -0.042623147
-0.13991404 -0.033152558 -0.09996745 -0.024984842 -0.024282219 -0.009872662 0.0641012 0.087210655
-0.038965337 0.045361977 0.08413643 0.06374898 0.08432615 0.0663589 0.09412673 -0.03199514
0.003969265 0.027015615 0.04015948 0.029574145 0.007083789 -0.06505217 0.107252516 0.03539988
-0.014800979 -0.05393594 -0.018897543 -0.030668402 0.010105676 0.021284213 0.03571676 -0.053098757
0.02713413 -0.10487142 -0.037877016 0.03395171 -0.037031066 -0.054855444 0.019623263 0.07682082
-0.019308243 0.03525141 -0.054644924 0.009230003 -0.00057218806 -0.1166851 -0.055851802 0.02530813
0.0006485744 -0.025934486 -0.0040609855 0.013029899 -0.038478676 -0.04719325 -0.063506946 0.017634004
-0.08437989 0.030488335 0.0736996 0.10627565 0.046336077 -0.0869388 0.030221432 -0.0039496846
0.006068033 -0.018105311 -0.012042662 -0.04059551 0.041860558 0.018603249 0.05993873 -0.02967138
0.09511654 0.0010062822 -0.05735892 -0.02087509 0.116550714 0.11225269 -0.056089196 0.06308279
0.07074848 0.067345716 -0.021517495 0.104601644 -0.08754145 0.055803094 0.06397334 0.066039465
0.066952355 0.06982224 -0.09890966 -0.05053571 -0.034727097 0.017239671 0.04609029 -0.06611714
0.09632188 0.022682877 0.08817289 0.07191762 0.017074838 0.07898666 -0.080780834 0.036889747
-0.03239901 0.10375806 0.07198884 0.09758468 0.03563307 -0.10771821 -0.05464467 0.07280863
00000000: 2287 223c c480 a83d 49a5 533d b164 933b
00000010: a8fc d83a 45a0 b23d f4d1 9b3d 1f4e 10bd
00000020: 10c3 853d 5677 be3c fcc8 a0bd 50c8 05bd
00000030: 069f ccbd 93a9 6a3d 6510 113c 9c95 2ebd
00000040: a045 0fbe faca 07bd bcbb ccbd 03ad ccbc
00000050: 81eb c6bc f2c0 21bc 7d47 833d 809b b23d
00000060: 1e9a 1fbd 7bcd 393d b84f ac3d d38e 823d
00000070: 30b3 ac3d 2de7 873d 84c5 c03d 560d 03bd
00000080: 9c10 823b da4f dd3c 447e 243d 7a45 f23c
00000090: 211f e83b 123a 85bd 35a7 db3d 77ff 103d
000000a0: ce7f 72bc efeb 5cbd 05cf 9abc 4d3c fbbc
000000b0: 4792 253c 3b5c ae3c bd4b 123d 157e 59bd
000000c0: 6548 de3c d4c6 d6bd ee24 1bbd f310 0b3d
000000d0: e3ad 17bd 1ab0 60bd f7c0 a03c 3c54 9d3d
000000e0: 522c 9ebc c863 103d 5bd3 5fbd 7039 173c
000000f0: e4fe 15ba 99f8 eebd dcc4 64bd ff52 cf3c
00000100: 1705 2a3a 8f74 d4bc 0412 85bb 5c7b 553c
00000110: d19b 1dbd b64d 41bd ee0f 82bd 3075 903c
00000120: 5dcf acbd acc2 f93c d1ef 963d 0ca7 d93d
00000130: e6ca 3d3d f80c b2bd f092 f73c 5b6c 81bb
00000140: 5ad6 c63b 9751 94bc 964e 45bc 7a47 26bd
00000150: fa75 2b3d d765 983c 5082 753d 6511 f3bc
00000160: 76cc c23d 3ae5 833a 30f1 6abd 3d02 abbc
00000170: 24b2 ee3d bde4 e53d c9bd 65bd 8d31 813d
00000180: 94e4 903d 8dec 893d 7545 b0bc 6339 d63d
00000190: ef48 b3bd c991 643d 7404 833d b33f 873d
000001a0: 511e 893d f6fe 8e3d 2691 cabd 88fe 4ebd
000001b0: 003e 0ebd 363a 8d3c 2cc9 3c3d 6c68 87bd
000001c0: 6844 c53d 71d1 b93c fd93 b43d 8c49 933d
000001d0: 88e0 8b3c c2c3 a13d 6c70 a5bd b419 173d
000001e0: d3b4 04bd 1b7f d43d e36e 933d 7ada c73d
000001f0: fbf3 113d 5d9b dcbd 17d3 5fbd b11c 953d

model.4.weight f4 [128, 128]
0.055017162 0.026634458 0.0057231523 0.030359969 -0.03272335 0.04747099 0.08809826 -0.0095530255
-0.015587409 -0.02944011 -0.04570366 -0.027525783 0.04658828 0.04859764 0.07124759 -0.0005102883
-0.1071022 -0.035630867 -0.027710903 -0.02767667 0.02222369 0.033632446 -0.079473116 0.049810965
-0.021665303 -0.043126293 0.03241454 0.0069139064 -0.010223369 0.023447385 0.035690896 0.023951825
-0.10059774 0.025406474 0.0008458579 0.0059413733 0.03407269 0.04515699 0.058009636 -0.001615218
-0.032771945 -0.06384648 0.0539714 0.09620835 0.0039513926 0.086046845 0.019851558 0.071376815
-0.06330909 -0.11628107 0.008596901 -0.058997255 0.05489666 0.08719811 -0.058146443 -0.035028152
0.06466998 0.016063271 0.011365721 -0.05375815 0.093558386 0.011422482 0.09184641 0.019433
-0.0022779633 0.03096934 0.055125803 0.013352082 0.026499746 0.047071084 0.09114529 -0.0025457237
-0.06633263 0.019426797 0.0692585 0.06938052 -0.09154461 -0.062948085 0.06795552 0.10176707
0.055956744 -0.08162707 0.018194117 -0.07705873 0.049417432 -0.023962265 -0.003897093 0.014560021
-0.0764733 -0.056936905 0.0044797864 -0.104879275 -0.10057958 -0.036773812 -0.0032284113 -0.04342018
0.02859659 0.01690233 0.09033356 0.056384586 0.060391963 0.06922064 0.071262166 -0.06981046
0.042631794 0.013812438 0.0017232153 -0.02789146 0.054367557 -0.04639128 0.11329821 0.050487712
-0.08161114 -0.0028149814 -0.09234203 0.050389674 -0.09808133 0.08192425 0.03969258 -0.04841124
0.015274559 0.04958856 0.090712845 0.0890529 -0.05093048 -0.08929331 -0.049067937 -0.04401576
-0.07139222 0.0039156885 -0.1044712 -0.056185596 0.08340821 -0.07770518 -0.0037630005 -0.058420613
0.018181512 -0.027202895 -0.002004789 -0.0054199626 0.06484462 -0.024021475 0.029543145 0.027292328
0.009415609 -0.03841618 0.06007024 -0.023205675 -0.037446927 -0.027048854 0.02970081 0.04040596
0.072108425 -0.008161902 0.078174025 0.03379768 -0.027714927 -0.0038604615 0.06909287 0.06059585
0.040213294 -0.02392299 -0.013211401 -0.06410634 0.09286917 -0.06666007 -0.0043723946 0.028594939
-0.037217595 0.01289945 -0.05550914 0.024559071 0.035865556 -0.025617927 0.07869781 -0.0407153
0.02856053 0.099973254 0.03659254 -0.015392263 -0.05729986 0.03344797 0.038562056 -0.02541216
0.059070915 -0.07498284 0.05504978 -0.042037636 0.05271042 -0.036239594 -0.007903648 0.040898483
-0.014404192 0.06482599 -0.08634719 0.026075138 -0.0014119822 0.010222883 -0.038633216 0.03710462
-0.00643972 -0.06057387 0.04679743 0.057415023 0.10156694 -0.05424909 0.11637383 -0.05105103
0.068029515 -0.03199098 0.056307588 -0.051432647 0.03652158 -0.039513282 -0.028258944 -0.09621749
-0.03394199 0.0346901 -0.008704159 0.040201098 0.071053915 0.059460517 -0.069115385 -0.07948036
0.05606279 0.04698204 0.011165675 0.03673963 -0.041877553 -0.09306462 0.015624624 -0.022949945
-0.024799315 0.057384085 0.07140248 0.04887603 0.045984715 0.041976932 -0.02961113 0.036807142
0.08151506 -0.08012726 0.028635316 -0.0014958025 0.055986423 0.071687184 0.010298346 0.056772206
0.062014308 0.017443383 0.027249536 -0.061018586 -0.028337846 0.09263878 0.020765262 0.07769476
00000000: ad59 613d 8230 da3c 4889 bb3b 78b5 f83c
00000010: eb08 06bd f170 423d dc6c b43d 4b84 1cbc
00000020: 5562 7fbc 632c f1bc c333 3bbd c07d e1bc
00000030: 5ad3 3e3d 520e 473d 42ea 913d dec4 05ba
00000040: 6658 dbbd acf1 11bd fa01 e3bc 2fba e2bc
00000050: 750e b63c 2dc2 093d cdc2 a2bd 9506 4c3d
00000060: 6f7b b1bc 32a5 30bd 1cc5 043d 0d8e e23b
00000070: eb7f 27bc bb14 c03c 9e30 123d 9e36 c43c
00000080: 3006 cebd 3d21 d03c 90bc 5d3a daaf c23b
00000090: ce8f 0b3d 89f6 383d 839b 6d3d b9b5 d3ba
000000a0: e03b 06bd f1c1 82bd 1d11 5d3d e208 c53d
000000b0: af7a 813b 5439 b03d bc9f a23c 022e 923d
000000c0: 32a8 81bd c524 eebd 04da 0c3c 1ba7 71bd
000000d0: 52db 603d ec94 b23d f72a 6ebd ae79 0fbd
000000e0: b271 843d 1f97 833c 4a37 3a3c 8231 5cbd
000000f0: 8a9b bf3d 5d25 3b3c f819 bc3d f431 9f3c
00000100: e249 15bb 6ab3 fd3c 98cb 613d b1c2 5a3c
00000110: ff15 d93c 9ccd 403d 62aa ba3d 28d6 26bb
00000120: 67d9 87bd f224 9f3c 67d7 8d3d 6017 8e3d
00000130: be7b bbbd edea 80bd 432c 8b3d 416b d03d
00000140: e632 653d 182c a7bd d40b 953c f8d0 9dbd
00000150: ef69 4a3d 834c c4bc 5f66 7fbb 288d 6e3c
00000160: 099e 9cbd ac36 69bd 2ccb 923b f2ca d6bd
00000170: abfc cdbd 23a0 16bd c193 53bb 5cd9 31bd
00000180: 6543 ea3c c176 8a3c cd00 b93d 86f3 663d
00000190: 905d 773d 8dc3 8d3d e6f1 913d c9f8 8ebd
000001a0: ad9e 2e3d 904d 623c 83dd e13a a27c e4bc
000001b0: 84b0 5e3d c804 3ebd e408 e83d 34cc 4e3d
000001c0: be23 a7bd 8d7b 38bb d11d bdbd 6765 4e3d
000001d0: ddde c8bd e7c7 a73d b094 223d dd4a 46bd
000001e0: 2542 7a3c 601d 4b3d a8c7 b93d 5e61 b63d
000001f0: 7b9c 50bd 69df b6bd 76fb 48bd df49 34bd
00000200: 1636 92bd 2d4f 803b fff4 d5bd de22 66bd
00000210: ecd1 aa3d e523 9fbd ac9c 76bb 744a 6fbd
00000220: 65f1 943c 9bd8 debc c762 03bb f199 b1bb
00000230: 42cd 843d afc8 c4bc 7704 f23c 2994 df3c
00000240: ed43 1a3c 495a 1dbd 360c 763d d419 bebc
00000250: f361 19bd 8f95 ddbc 1d4f f33c b880 253d
00000260: 95ad 933d 80b9 05bc b419 a03d 706f 0a3d
00000270: 6a0a e3bc ccff 7cbb 9080 8d3d 5b33 783d
00000280: b2b6 243d 25fa c3bc a274 58bc 2f4a 83bd
00000290: 3132 be3d 1385 88bd 4e46 8fbb ef3f ea3c
000002a0: 7a71 18bd 3758 533c 8d5d 63bd 1b30 c93c
000002b0: c3e7 123d b0dc d1bc 512c a13d 16c5 26bd
000002c0: c6f7 e93c c7be cc3d 0fe2 153d d52f 7cbc
000002d0: 42b3 6abd bd00 093d 3ff3 1d3d 2a2d d0bc
000002e0: 58f4 713d 9a90 99bd e17b 613d a82f 2cbd
000002f0: e2e6 573d f86f 14bd 4d7e 01bc 2b85 273d
00000300: 8fff 6bbc 7dc3 843d ccd6 b0bd 879b d53c
00000310: 4312 b9ba e17d 273c dd3d 1ebd 04fb 173d
00000320: 4904 d3bb 4e1c 78bd a9ae 3f3d 042c 6b3d
00000330: 5402 d03d 4b34 5ebd 6755 ee3d e31a 51bd
00000340: 0f53 8b3d f908 03bd c9a2 663d 0aab 52bd
00000350: a797 153d aed8 21bd 4d7f e7bc ad0d c5bd
00000360: c206 0bbd 3517 0e3d e49b 0ebc e8a9 243d
00000370: b784 913d df8c 733d 5e8c 8dbd 99c6 a2bd
00000380: 19a2 653d 3d70 403d 3cf0 363c 4b7c 163d
00000390: cc87 2bbd aa98 bebd 6cfe 7f3c 8601 bcbc
000003a0: ef27 cbbc 930b 6b3d 773b 923d 3b32 483d
000003b0: 785a 3c3d 01f0 2b3d 0a93 f2bc 16c3 163d
000003c0: 5ef1 a63d c319 a4bd 9c94 ea3c ce0e c4ba
000003d0: 0552 653d bbd0 923d 65ba 283c f989 683d
000003e0: b702 7e3d 6de5 8e3c 6b3a df3c a0ee 79bd
000003f0: c524 e8bc 67b9 bd3d e91b aa3c 6e1e 9f3d

model.4.bias f4 [128]
-0.00699772 0.093477964 0.031098219 -0.08748817 0.0005352563 0.060569894 0.057264637 -0.03447151
-0.04495755 -0.07142982 0.054069757 -0.08477793 0.021661501 -0.00977844 -0.015582536 0.09776324
-0.038068686 -0.055944838 0.019711712 -0.009843775 0.07242738 0.05348226 -0.07911369 -0.0022508318
0.014054285 -0.042077538 0.008070579 0.06756369 -0.062382214 -0.029582752 0.067222714 0.009469848
-0.051383365 -0.068975665 0.015140058 0.0137455305 -0.040185563 -0.038709454 -0.0076325885 -0.073153704
-0.021441912 -0.029023977 0.060441192 -0.05232691 0.025226755 -0.01892108 0.025237175 -0.029914232
-0.04627091 -0.04915769 -0.059467115 0.027744047 -0.061781157 0.027573084 0.067709416 0.056933723
0.014263234 -0.03481173 -0.06960034 0.048460554 -0.028060494 0.016693898 0.046740673 -0.068356454
-0.014151463 0.008389884 -0.008944218 0.059595935 0.0055235215 0.045586374 0.032649174 0.008389201
0.07470339 -0.034857616 0.06276716 -0.061558776 -0.068898596 0.057311587 -0.063692726 0.001254436
0.086040914 0.054180734 0.057771973 0.09616158 -0.028552126 -0.0070725526 0.01123184 0.066559695
0.07869996 0.08989352 0.07228021 -0.037533298 0.078763336 0.009236706 -0.064289 0.100575514
0.005586757 0.039377104 0.0003608204 -0.052738905 -0.022634901 0.052434415 0.06272614 -0.011907805
0.046501115 0.08115326 0.048835892 -0.007845133 -0.04985422 0.008940042 -0.053306516 -0.04684192
-0.018940087 -0.030121066 0.03342901 0.065029174 -0.0003338932 0.056473218 0.10085227 -0.011552806
0.06617376 -0.06339282 0.0007144442 -0.068332486 0.036591504 -0.013055782 0.067500494 0.060295474
00000000: 214d e5bb 6071 bf3d b1c1 fe3c ff2c b3bd
00000010: 7150 0c3a 2318 783d 538e 6a3d 0032 0dbd
00000020: 6825 38bd cc49 92bd 4078 5d3d 0da0 adbd
00000030: 7673 b13c c035 20bc e54d 7fbc 1838 c83d
00000040: e9ed 1bbd 6a26 65bd 757a a13c c947 21bc
00000050: ce54 943d 3710 5b3d 5c06 a2bd b182 13bb
00000060: f243 663c 7f59 2cbd 763a 043c d55e 8a3d
00000070: 7e84 7fbd 8757 f2bc 10ac 893d 6c27 1b3c
00000080: 5d77 52bd 1d43 8dbd 010e 783c ef34 613c
00000090: 9e99 24bd ce8d 1ebd cb1a fabb 9cd1 95bd
000000a0: f3a6 afbc b1c3 edbc 2f91 773d be54 56bd
000000b0: 57a8 ce3c 6100 9bbc 31be ce3c b10e f5bc
000000c0: 9186 3dbd 9359 49bd ca93 73bd 7c47 e33c
000000d0: 3d0e 7dbd f3e0 e13c 3cab 8a3d 5633 693d
000000e0: 57b0 693c bf96 0ebd a08a 8ebd 937e 463d
000000f0: 1fdf e5bc a4c1 883c 2673 3f3d 78fe 8bbd
00000100: 8adb 67bc b975 093c c58a 12bc de1a 743d
00000110: a8fe b43b c7b8 3a3d 24bb 053d dc72 093c
00000120: 17fe 983d dcc6 0ebd 128c 803d 0e25 7cbd
00000130: b51a 8dbd 8ebf 6a3d 5571 82bd e36b a43a
00000140: 3836 b03d 9eec 5d3d 4ea2 6c3d 5df0 c43d
00000150: 26e6 e9bc dfc0 e7bb c005 383c 7350 883d
00000160: 722d a13d 181a b83d a607 943d 84bc 19bd
00000170: ac4e a13d 8e55 173c f4a9 83bd 89fa cd3d
00000180: 1d11 b73b e349 213d 7f2c bd39 c004 58bd
00000190: d46c b9bc 78c5 563d 9076 803d f418 43bc
000001a0: f477 3e3d ae33 a63d 2508 483d df88 00bc
000001b0: f033 4cbd 4179 123c ef57 5abd 50dd 3fbd
000001c0: 3e28 9bbc 74c0 f6bc dcec 083d 042e 853d
000001d0: 630e afb9 7650 673d a38b ce3d fb47 3dbc
000001e0: 1c86 873d 18d4 81bd 8a49 3b3a e7f1 8bbd
000001f0: f9e0 153d ebe7 55bc b33d 8a3d 63f8 763d

model.6.weight f4 [3, 128]
-0.02933836 0.09857814 0.007111402 -0.035479616 -0.05895537 -0.09872237 -0.025350602 -0.07206974
-0.0046688225 0.0078241825 0.052685298 0.043395676 0.12301246 0.10032531 -0.08958701 0.010652112
-0.025709797 -0.035622526 -0.013523923 0.02203006 0.06931161 -0.083029814 0.0809805 0.102829486
0.04111243 0.047215827 -0.067727 -0.10343311 0.10889056 0.0228649 0.100143924 -0.09133685
-0.012994299 0.11399849 -0.027150448 -0.052351084 -0.11063776 0.074260145 0.01548911 -0.07204571
-0.09518094 0.052566934 0.07154923 0.053883225 -0.028880684 0.011762353 -0.09803708 -0.07507021
0.06021531 0.08327628 0.011087576 0.120201334 0.025938166 -0.05234631 0.04581074 0.010531396
-0.107180625 -0.090754315 -0.010779699 0.011412409 -0.07818818 -0.076208815 -0.14639679 -0.067115925
0.03745129 0.054181654 -0.04263846 0.09706759 0.04797386 -0.01376365 -0.06743841 0.043375496
-0.061152164 -0.09100137 0.040328242 0.06784551 0.07707449 -0.04557884 0.07968748 -0.01985801
0.050496187 0.00028971984 0.07740379 0.08928025 -0.025563711 0.09682697 -0.0066248965 -0.028081253
0.083887145 -0.07112589 0.08184789 -0.021385154 -0.05536689 0.048786186 -0.0061058453 0.031799477
0.09933814 0.1040319 0.050247595 -0.024774592 -0.025967738 -0.09878616 0.093986094 0.042238686
0.045937315 -0.07095215 -0.014212203 0.051870637 -0.051771775 -0.05248193 -0.0064670336 0.0665272
0.042847775 0.10926501 0.046922993 0.09120902 -0.105765186 -0.04492859 -0.036763124 -0.0903488
-0.058500543 0.08170279 -0.061734267 0.10434744 -0.0016541579 0.08578115 -0.075567365 -0.045748666
-0.014532928 -0.05560249 -0.051508795 -0.047216404 0.007083695 -0.026864924 0.032795575 0.000119339296
0.045370027 0.060117483 -0.109719284 -0.086396374 0.03313433 -0.055898413 -0.10318708 0.04307532
0.04344677 -0.06747756 0.09137495 0.06292043 0.10423713 -0.06579164 0.040021624 0.02315583
-0.07135491 -0.044936486 -0.00668125 0.09566065 0.037273385 0.0671831 -0.04197986 -0.02594098
-0.106966294 0.025227169 -0.0550077 -0.055490747 0.047394767 0.020102423 0.11317145 0.027100844
-0.06309754 -0.033767506 -0.011464169 -0.085118994 -0.013449215 -0.045131955 0.07908312 0.014809725
-0.0009839126 -0.08212738 -0.06483218 -0.00033204566 0.03198869 0.019657921 0.03159787 0.07521061
0.0960853 0.07378807 -0.016841985 0.09533265 0.038886137 -0.040992294 0.004398671 -0.09678439
-0.027409177 -0.033587195 -0.07960341 -0.071089365 -0.06691035 -0.063338086 -0.04442629 0.060886722
0.05748319 -0.005283497 0.07356034 -0.07090398 0.04356761 0.043147873 -0.064796284 0.113464
-0.07890101 0.064785674 0.09349351 0.033666454 0.02389128 0.07065783 0.10748547 -0.10585292
-0.028448874 0.00016806317 0.11288061 0.08486397 0.021203926 -0.02639941 -0.06747356 -0.022622876
0.028893523 0.12547497 -0.08030651 -0.08563644 -0.0065529235 0.04678087 0.10369061 -0.08976446
0.085539855 -0.10452917 -0.09152773 -0.104352444 -0.012345423 -0.07581979 -0.06422938 -0.044874903
0.08037902 0.040703334 0.07024993 0.011263222 -0.10856345 0.08521681 0.08511723 -0.01861017
0.07555063 0.08831378 0.008034029 -0.026710214 0.028895434 0.019633071 0.08120368 -0.025288645
00000000: 0057 f0bc 56e3 c93d c406 e93b 1353 11bd
00000010: 307b 71bd f42e cabd 11ac cfbc 4d99 93bd
00000020: ecfc 98bb 0031 003c 8acc 573d aabf 313d
00000030: f5ed fb3d 5b77 cd3d 6579 b7bd 3286 2e3c
00000040: 5a9d d2bc ede8 11bd 7293 5dbc 6278 b43c
00000050: 3ff3 8d3d 890b aabd 1bd9 a53d 4498 d23d
00000060: 8265 283d 6265 413d 74b4 8abd bdd4 d3bd
00000070: 0402 df3d 2c4f bb3c 4218 cd3d d00e bbbd
00000080: 0ae6 54bc 0a78 e93d 9e6a debc 176e 56bd
00000090: 0d96 e2bd b415 983d 09c6 7d3c b48c 93bd
000000a0: 3aee c2bd 6d50 573d 6788 923d a8b4 5c3d
000000b0: 2f97 ecbc e2b6 403c aac7 c8bd 69be 99bd
000000c0: 54a4 763d c18c aa3d aaa8 353c 1e2c f63d
000000d0: 477c d43c 1669 56bd 0ba4 3b3d e08b 2c3c
000000e0: 8481 dbbd 66dd b9bd 569d 30bc 1dfb 3a3c
000000f0: 2021 a0bd 5e13 9cbd 0ae9 15be 1374 89bd
00000100: 8666 193d 95ed 5d3d aaa5 2ebd 5fcb c63d
00000110: 3d80 443d ef80 61bc 261d 8abd 81aa 313d
00000120: b17a 7abd ed5e babd 3a2f 253d 96f2 8a3d
00000130: 3bd9 9d3d e1b0 3abd 3133 a33d 44ad a2bc
00000140: 17d5 4e3d 8ae5 9739 e185 9e3d 90d8 b63d
00000150: fd6a d1bc 384d c63d a915 d9bb a80a e6bc
00000160: 06cd ab3d 73aa 91bd de9f a73d eb2f afbc
00000170: 64c8 62bd 06d4 473d 8b13 c8bb 2b40 023d
00000180: cb71 cb3d ad0e d53d 6cd0 4d3d 16f4 cabc
00000190: 4bba d4bc 6650 cabd c87b c03d 7902 2d3d
000001a0: c428 3c3d 5c4f 91bd 4dda 68bc 4e76 543d
000001b0: a40e 54bd 4bf7 56bd 69e9 d3bb 6a3f 883d
000001c0: 2681 2f3d 55c6 df3d 5332 403d cbcb ba3d
000001d0: 6b9b d8bd 0b07 38bd ee94 16bd cb08 b9bd
000001e0: 449e 6fbd cb53 a73d 12dd 7cbd 1cb4 d53d
000001f0: 54d0 d8ba 07ae af3d 10c3 9abd f462 3bbd
00000200: 851b 6ebc 70bf 63bd e3fa 52bd fd65 41bd
00000210: 571e e83b d413 dcbc a754 063d cc45 fa38
00000220: ecd5 393d c03d 763d 81b4 e0bd 95f0 b0bd
00000230: ddb7 073d bcf5 64bd bf53 d3bd bf6f 303d
00000240: 3ef5 313d ad31 8abd ca22 bb3d 6ddc 803d
00000250: 477a d53d c4bd 86bd b7ed 233d 4cb1 bd3c
00000260: 8622 92bd 520f 38bd 63ee dabb bbe9 c33d
00000270: faab 183d 4b97 893d 13f3 2bbd 2e82 d4bc
00000280: 2511 dbbd 35a9 ce3c c14f 61bd 444a 63bd
00000290: 0421 423d d6ad a43c 6fc6 e73d 9702 de3c
000002a0: 4839 81bd cc4f 0abd 36d4 3bbc de52 aebd
000002b0: 195a 5cbc 49dc 38bd 55f6 a13d 7da4 723c
000002c0: a1f6 80ba 6632 a8bd bcc6 84bd 6a16 aeb9
000002d0: 9306 033d a609 a13c c56c 013d 0508 9a3d
000002e0: 5fc8 c43d 331e 973d 34f8 89bc c43d c33d
000002f0: 1247 1f3d 89e7 27bd ba22 903b e536 c6bd
00000300: 3689 e0bc ba92 09bd 1d07 a3bd 4d97 91bd
00000310: 4b08 89bd 66b7 81bd 57f8 35bd 5b64 793d
00000320: 7e73 6b3d 2f21 adbb cea6 963d 1b36 91bd
00000330: f373 323d d3bb 303d eab3 84bd d05f e83d
00000340: da96 a1bd 5aae 843d 8679 bf3d d6e5 093d
00000350: a5b7 c33c 0db5 903d 5821 dc3d 6ac9 d8bd
00000360: 9d0d e9bc 1d3a 3039 f32d e73d 29cd ad3d
00000370: dbb3 ad3c 9343 d8bc 942f 8abd 9c53 b9bc
00000380: 1cb2 ec3c 837c 003e bd77 a4bd 2862 afbd
00000390: e8b9 d6bb 4c9d 3f3d be5b d43d 6ed6 b7bd
000003a0: 852f af3d 6413 d6bd e472 bbbd bcb6 d5bd
000003b0: 7544 4abc 6847 9bbd b18a 83bd bfce 37bd
000003c0: c19d a43d 8ab8 263d 32df 8f3d 6189 383c
000003d0: 8456 debd 2786 ae3d f151 ae3d 5b74 98bc
000003e0: 4aba 9a3d dbdd b43d 29a1 033c 61cf dabc
000003f0: 1eb6 ec3c 89d5 a03c 1d4e a63d 222a cfbc

model.6.bias f4 [3]
-0.06658175 -0.016109146 0.006396798
00000000: 035c 88bd 54f7 83bc 3b9c d13b
