exported_models/neural_networks/history_mlp/trained_models/model_hist_3_epoch_100_batch_64_lr_1e-05_vs_30_hl_128_128_128/mlp_dynamics.pth (torch, 145555 bytes, 8 tensors)

model.0.weight f4 [128, 15]
0	0xbd7e633f	-0.062106367
1	0xbca0511e	-0.01956993
2	0x3e45fc92	0.19334629
3	0xbe3104ed	-0.17287035
4	0x3e30d460	0.17268515
5	0xbe79f178	-0.2440852
6	0xbc7ecead	-0.015552205
7	0xbd26930f	-0.04066759
8	0xbd4271a6	-0.047471665
9	0xbc210946	-0.009828871
10	0x3cc35b18	0.023847148
11	0xbdf4554a	-0.1193033
12	0xbe1dd432	-0.15412977
13	0x3d834383	0.06409361
14	0x3e3a19be	0.18173882
15	0xbe04374f	-0.12911724
16	0xbdab8762	-0.083754316
17	0xbade2b6e	-0.0016950199
18	0x3c613b56	0.013747057
19	0x3e5b4fd8	0.21417177
20	0xbdb0f42e	-0.086403236
21	0xbe3b8c79	-0.18315305
22	0xbe7cb251	-0.24677397
23	0x3e50a39b	0.2037491
24	0xbac27eb0	-0.0014838781
25	0x3dc7dded	0.09759126
26	0xbd160e06	-0.036634468
27	0xbe84ebc4	-0.25961125
28	0xbe55deeb	-0.20885818
29	0xbe2b6945	-0.16739376
30	0xbe5c6526	-0.2152296
31	0xbda563b5	-0.08075658
32	0x3e2669fc	0.16251367
33	0x3e0c575f	0.13705204
34	0xbde884be	-0.113534436
35	0x3e870008	0.2636721
36	0xbcaff10b	-0.021477243
37	0x3e20ee99	0.15716018
38	0x3e4a7e1d	0.19774671
39	0x3be18d59	0.006883305
40	0xbe0eafc9	-0.13934244
41	0x3d974068	0.073853314
42	0x3dd083d8	0.10181397
43	0xbddb8f93	-0.10720744
44	0x3e06d463	0.13166957
45	0xbd6abab1	-0.05730695
46	0xbd07755a	-0.0330709
47	0xbd0fa389	-0.03506807
48	0xbe85cfdc	-0.26135147
49	0x3d9b4481	0.075814255
50	0x3e20fd6f	0.15721677
51	0xbbaf6f77	-0.005353864
52	0xbd017758	-0.031607956
53	0x3e0a8837	0.13528524
54	0xbc97c2bb	-0.018525472
55	0xbde58b4f	-0.11208212
56	0xbe83454b	-0.25638804
57	0xbcfe97db	-0.03107827
58	0x3e6a0912	0.22855023
59	0xbd85f1f6	-0.06540291
60	0xbbba4aac	-0.005685171
61	0xbe83f6d1	-0.25774243
62	0xbba9d076	-0.005182321
63	0x3e97f34c	0.29677808
64	0xbd2e5b84	-0.042567745
65	0x3e387cf8	0.18016422
66	0x3e33f56d	0.17574091
67	0xbd2b2236	-0.041780673
68	0x3ea68f06	0.32530993
69	0xbe2047e3	-0.15652423
70	0x3d4eba6d	0.05047076
71	0x3df907d5	0.12159697
72	0xbe1b2071	-0.15149094
73	0xbe0e813d	-0.13916488
74	0xbcd1b01e	-0.025596675
75	0x3c7d81cf	0.015472843
76	0xbc8ad4c6	-0.016947161
77	0x3d56e005	0.052459735
78	0xbe2d8ecb	-0.16949002
79	0x3e2e07cb	0.1699516
80	0xbe7337f1	-0.23751809
81	0xbe4976b8	-0.19674194
82	0x3e55f80f	0.20895408
83	0xbe4c9178	-0.19977367
84	0x3d8856e4	0.06657198
85	0xbe950bb1	-0.29110482
86	0x3c1e1e5d	0.009650794
87	0x3e787100	0.24261856
88	0x3dd21841	0.10258532
89	0xbe056bd8	-0.1302942
90	0x3e7b6559	0.2455038
91	0x3d7d4b60	0.06183946
92	0x3d89e2e8	0.06732732
93	0x3df63ae9	0.12022955
94	0x3e178eda	0.14800587
95	0xbe7ec47c	-0.2487964
96	0x3d787cbc	0.06066583
97	0x3e86d4fa	0.26334363
98	0xbe1813f8	-0.14851367
99	0xbdee8004	-0.11645511
100	0xbd6b3301	-0.057421688
101	0x3e4fe0a2	0.20300534
102	0x3e480dba	0.19536486
103	0xbdad305d	-0.0845649
104	0x3deea1b8	0.11651939
105	0xbe7bb857	-0.24582039
106	0xbca029cd	-0.019551182
107	0xbd39d91d	-0.04537307
108	0xbd68991d	-0.056786645
109	0x3e6edd9f	0.23326729
110	0x3e4e455e	0.20143649
111	0x3e04f920	0.12985659
112	0xbd20a46c	-0.039219305
113	0x3c3dbc22	0.011580499
114	0xbe6712eb	-0.2256581
115	0xbd4ab7fa	-0.04949186
116	0x3e6691f4	0.22516614
117	0x3e940133	0.28907165
118	0xbe040664	-0.12893063
119	0x3cb9344e	0.022607949
120	0xbd0f279e	-0.03494989
121	0xbb7481c3	-0.003730879
122	0x3e135c04	0.1439057
123	0xbc1b9c8f	-0.009497776
124	0xbd5aab0c	-0.05338578
125	0xbd0d0556	-0.034428917
126	0xbd9ed35d	-0.07755158
127	0x3ca710a9	0.020393686
128	0xbc4695a9	-0.012120643
129	0xbe590fab	-0.21197383
130	0xbe39c275	-0.18140586
131	0xbe58a70e	-0.21157476
132	0x3d8e27da	0.06941195
133	0xbd3b8fcc	-0.045791432
134	0xbda89c20	-0.082329035
135	0x3e1ca422	0.15296987
136	0xbe05c6d0	-0.13064122
137	0xbc288b58	-0.010287128
138	0xbdb480eb	-0.08813652
139	0xbe74f25d	-0.23920579
140	0xbe1f9e59	-0.15587749
141	0xbe66057e	-0.22463033
142	0x3e2281ea	0.15869871
143	0x3dd5325b	0.10409995
144	0xbd2be0e8	-0.041962534
145	0xbe8768b3	-0.26447067
146	0xbdf00f3d	-0.117216565
147	0x3da6b6a9	0.081403084
148	0x3d21d10b	0.039506
149	0xbe461f60	-0.19347906
150	0xbd3e9c4a	-0.046535768
151	0x3e8a4f64	0.27013695
152	0x3db4e5a1	0.08832861
153	0x3e1074b4	0.14107019
154	0x3e4db059	0.20086803
155	0x3e7367b1	0.23770024
156	0x3e9dc2be	0.3081264
157	0xbd70604a	-0.05868558
158	0x3e26fb1f	0.16306733
159	0xbd7b33f4	-0.061328843
160	0xbcf7cab5	-0.030248025
161	0xbd23e262	-0.040010817
162	0xbd683b65	-0.056697268
163	0x3e3885e1	0.18019821
164	0x3e55af27	0.20867597
165	0x3e5f2331	0.21790768
166	0xbe187c6f	-0.14891218
167	0xbd3b2717	-0.045691576
168	0x3d2316e0	0.039816737
169	0x3d924450	0.07141936
170	0xbd7a98a2	-0.06118072
171	0xbc9e13f1	-0.019296618
172	0xbd8a665b	-0.06757804
173	0xbbe828b7	-0.0070849317
174	0xbd42771d	-0.047476877
175	0x3de97de3	0.11400964
176	0xbba148f8	-0.0049220286
177	0xbe72a0d7	-0.23694168
178	0xbd4c95e7	-0.049947646
179	0x3e13ac1a	0.1442112
180	0x3e10d89d	0.14145131
181	0xbe97333a	-0.2953127
182	0xbe005839	-0.12533654
183	0xbe31707c	-0.17328066
184	0xbdd9b29a	-0.10629769
185	0x3db3d420	0.08780694
186	0xbe3a8663	-0.18215327
187	0xbe004849	-0.12527575
188	0x3e35205f	0.1768813
189	0x3d844b56	0.06459682
190	0x3df8469c	0.12122843
191	0x3e03d519	0.12874259
192	0xbe24b618	-0.16085088
193	0x3e4224d5	0.18959363
194	0xbbd4205b	-0.0064735836
195	0xbe1f2da7	-0.15544759
196	0xbe5a9c7d	-0.21348758
197	0xbe206936	-0.15665135
198	0x3cfda920	0.030964434
199	0x3e2d5d6d	0.1693017
200	0xbdb2af6e	-0.08724867
201	0xbe7965cb	-0.24355237
202	0xbd864820	-0.065567255
203	0xbd56d473	-0.0524487
204	0xbd94ce0e	-0.07265864
205	0x3da5698d	0.08076773
206	0x3dbc2269	0.09186251
207	0x3e908e32	0.28233486
208	0x3dc8fa37	0.0981335
209	0xbdcef616	-0.10105531
210	0xbd90926c	-0.07059178
211	0x3e55dc3f	0.20884798
212	0xbe86a042	-0.26294142
213	0x3e35f160	0.17767859
214	0xbd944dd3	-0.07241406
215	0x3d554d6d	0.052075792
216	0xbe90788c	-0.2821697
217	0x3a241e4e	0.0006260619
218	0xbe89f4e4	-0.2694465
219	0xbe3f0416	-0.18653902
220	0x3e86fcac	0.26364648
221	0x3e5ce783	0.2157269
222	0xbe54eeed	-0.20794268
223	0xbe01c1fb	-0.12671654
224	0x3e58d69b	0.21175615
225	0x3e27e917	0.1639751
226	0xbd36ef9a	-0.044662096
227	0x3e132cb4	0.14372522
228	0x3e4db3eb	0.20088165
229	0xbe574266	-0.21021423
230	0x3e549416	0.20759615
231	0xbd32a25d	-0.043611873
232	0xbe76cbc3	-0.24101166
233	0x3bec098b	0.007203286
234	0x3e2778d9	0.16354693
235	0x3dcaa5ee	0.0989493
236	0xbdd3f544	-0.10349515
237	0xbaa6a3aa	-0.0012713571
238	0xbdb4281a	-0.08796711
239	0x3dc8b96d	0.09800992
240	0x3d331d08	0.04372886
241	0x3dba04ea	0.090829685
242	0x3e7fd088	0.24981892
243	0xbe4a39d1	-0.19748618
244	0x3bf243dc	0.0073933434
245	0x3e3ac63b	0.18239681
246	0x3d31fb8a	0.043452777
247	0x3e23d7ad	0.16000243
248	0xbe0c8fa0	-0.13726664
249	0xba816471	-0.0009871853
250	0x3d87e3a3	0.06635215
251	0xbe59525e	-0.21222827
252	0x3e82b88d	0.25531426
253	0x3e4a809b	0.19775622
254	0xbd142ac3	-0.036173593
255	0xbdfa1490	-0.12210953

model.0.bias f4 [128]
0	0x3ea3bbb8	0.31979156
1	0xbe5025b7	-0.20326887
2	0xbd3a6cb3	-0.04551382
3	0x3e63238f	0.22181533
4	0xbe010362	-0.12598947
5	0xbde9ed64	-0.11422232
6	0xbe751abe	-0.23935983
7	0x3e93ab48	0.28841615
8	0xbcbfa20e	-0.023392703
9	0x3d8ea4ae	0.06965004
10	0x3d13a1d1	0.036042992
11	0x3e4d127d	0.20026584
12	0xbe232cd7	-0.15935074
13	0xbe141b2d	-0.14463492
14	0xbdd098f7	-0.10185426
15	0x3e358fb1	0.17730595
16	0x3c4b6d44	0.012416188
17	0xbd08e71b	-0.033423524
18	0x3c28b637	0.01029735
19	0xbde0e3d7	-0.10980957
20	0x3d9c2b01	0.0762539
21	0x3958d3b2	0.00020678228
22	0xbb86215e	-0.004093333
23	0x395bd8cf	0.00020966235
24	0x3e4a842b	0.1977698
25	0xbe3158cd	-0.17319031
26	0x3c44d722	0.012014182
27	0x3c5026f1	0.012704597
28	0x3e3b3e9d	0.18285604
29	0x3e912dd5	0.2835528
30	0x3d03d27a	0.032183148
31	0x3e631fea	0.22180143
32	0xbd4e7dcf	-0.05041295
33	0xbd8e9cfc	-0.06963536
34	0xbe5b4a83	-0.21415143
35	0x3d483215	0.048875887
36	0x3ceff3d3	0.02929107
37	0xbe2fbfd2	-0.17163017
38	0x3de22749	0.11042649
39	0x3d068efe	0.03285121
40	0x3e4a3cec	0.19749802
41	0xbe09f1a5	-0.13471086
42	0x3df3fd7d	0.119135834
43	0x3dbc6b3b	0.0920014
44	0xbc1d01a7	-0.0095829135
45	0x3e4bab70	0.19889617
46	0xbdca6ee9	-0.09884436
47	0x3e0a70c7	0.13519584
48	0xbde955a8	-0.11393291
49	0xbe0a8c7c	-0.13530153
50	0x3ced56df	0.028972087
51	0x3da140d7	0.07873695
52	0x3e708c04	0.23490912
53	0xbde89ae4	-0.11357668
54	0xbe129db8	-0.14317977
55	0x3dab98a8	0.08378726
56	0xbcd17e31	-0.025572868
57	0xbc2e86e8	-0.010652281
58	0x3e15a71e	0.14614531
59	0x3e8a4079	0.27002314
60	0xbe69280d	-0.22769184
61	0xbcdfd4cb	-0.027323147
62	0x3da3cb91	0.079978116
63	0xbe09026b	-0.13379829
64	0xbb3ae03b	-0.0028515
65	0xbdf06091	-0.117371686
66	0x3e9dba55	0.30806223
67	0x3db48d34	0.08815995
68	0x3e1d0e37	0.15337454
69	0x3e034cee	0.12822315
70	0xbdec8375	-0.11548511
71	0x3d520f82	0.05128432
72	0x3e400c9c	0.1875481
73	0xbceb3687	-0.028712524
74	0x3e1c5c50	0.1526959
75	0xbe6b5f7c	-0.22985643
76	0xbdb6b6fd	-0.08921621
77	0x3cd0c571	0.025484772
78	0xbd98eb3a	-0.07466741
79	0x3d2e84af	0.042607006
80	0xbe71a64e	-0.23598596
81	0xbdc33077	-0.09530728
82	0x3d991c72	0.07476129
83	0x3e87e6d1	0.26543286
84	0x3e317db9	0.17333116
85	0x3df0594f	0.11735784
86	0xbddce9f4	-0.107868105
87	0x3cf3eb22	0.029775206
88	0xbd505875	-0.05086561
89	0x3e51964c	0.2046749
90	0xbe21785b	-0.15768568
91	0xbe164458	-0.14674509
92	0x3c8869d1	0.01665202
93	0xbe3a0fbe	-0.18170068
94	0x3d56b0b5	0.052414615
95	0x3e30e61b	0.17275278
96	0x3e3d68a0	0.18496943
97	0x3bf3dc45	0.0074420297
98	0xbe5ae520	-0.21376467
99	0x3dd7bb01	0.10533715
100	0xb9d1c0e8	-0.00040007313
101	0x3cf895dc	0.030344896
102	0xbe5dc890	-0.2165854
103	0xbd18c0fc	-0.03729342
104	0xbe5a9a79	-0.21347989
105	0x3dd11dd0	0.102107644
106	0xbe1fe3a4	-0.15614182
107	0xbe1a9e4c	-0.15099448
108	0x3deec96c	0.11659512
109	0x3df0b232	0.11752738
110	0xbd7ec616	-0.06220063
111	0x3e31aeef	0.17351888
112	0x3de2860e	0.11060725
113	0x3e21a579	0.15785779
114	0xbdacd763	-0.08439519
115	0x3e85eea6	0.26158637
116	0x3c98aded	0.018637622
117	0xbe0ea86e	-0.13931438
118	0xbd498d5e	-0.049207084
119	0x3de3a037	0.11114543
120	0x3b94f466	0.004545736
121	0xbe2e742c	-0.17036504
122	0x3dd77db4	0.10522023
123	0x3e52e0f9	0.20593633
124	0xbc953494	-0.018213548
125	0xbd2409aa	-0.04004828
126	0xbdb09882	-0.086228386
127	0xbe38ef32	-0.18059996

model.2.weight f4 [128, 128]
0	0xbd84d555	-0.06486002
1	0xbd5e3b5e	-0.054255836
2	0x3c510d3d	0.012759504
3	0x3d8560f1	0.06512631
4	0x3d0e39bc	0.03472303
5	0x3d9df6e9	0.0771311
6	0x3c27202b	0.010200541
7	0xbd266e34	-0.04063244
8	0x3d9d874f	0.07691824
9	0xbd5d793d	-0.0540707
10	0x3cb38579	0.02191423
11	0x3d03613e	0.03207516
12	0xbd1b4343	-0.037905943
13	0x3bc277f0	0.005934708
14	0x3cbbe3a2	0.022935692
15	0xbd006a89	-0.0313516
16	0x3d942ef6	0.072355196
17	0x3ce8895c	0.02838581
18	0x3dc80676	0.09766857
19	0xbd89e8a1	-0.067338236
20	0x3dc5ef1d	0.09664748
21	0x3d1a214a	0.037629403
22	0x3caaf70b	0.020869752
23	0x3d4bab48	0.049723893
24	0x3d835907	0.06413465
25	0x3d1e8b04	0.038706794
26	0x3d1a9a0d	0.03774457
27	0x3dc93348	0.09824234
28	0xbc8d528b	-0.017251274
29	0xbd265f6e	-0.040618353
30	0xbd173dbb	-0.036924105
31	0xbd56b3f7	-0.05241772
32	0x3cbaa5ae	0.02278408
33	0x3c4e333d	0.012585458
34	0xbd78bc27	-0.06072631
35	0xbd67d7db	-0.05660234
36	0x3d4dece7	0.050274756
37	0x3cca4d08	0.024694934
38	0x3c103571	0.008801804
39	0x3dd5ef95	0.10446087
40	0xbd3e5b99	-0.046474073
41	0xbb9fdaf3	-0.0048783957
42	0xbd034928	-0.03205219
43	0xbc486958	-0.012232147
44	0x3b4d34ea	0.0031312057
45	0xbd333e54	-0.043760613
46	0x3d27ec70	0.04099697
47	0xbccf59ae	-0.025311317
48	0x3de04c07	0.10952001
49	0xbd656b07	-0.056010272
50	0xbd37a30f	-0.04483324
51	0xbc77a87f	-0.015115856
52	0x3da355c9	0.079753466
53	0xbd295434	-0.041340068
54	0xbcc9e3c1	-0.024644734
55	0x3dc3aa43	0.09553959
56	0xbcb7dc46	-0.022443902
57	0xbb622811	-0.0034508745
58	0x3dc257bd	0.09489391
59	0xbd5ad6c1	-0.05342746
60	0xbd4e52f0	-0.050372064
61	0x3cbbc509	0.022921102
62	0xbd5d234a	-0.053988732
63	0x3d34fabf	0.044184443
64	0x3dc4b75f	0.09605288
65	0x3da6fd9a	0.081538394
66	0xbd16f349	-0.03685311
67	0x3d5ff4e2	0.054676898
68	0xbb0e56e6	-0.0021719276
69	0x3da3e4f9	0.080026574
70	0x3c5c837b	0.013459082
71	0x3d523a93	0.051325392
72	0x3ddc00fb	0.107423745
73	0xbc79e801	-0.015253068
74	0xbda7462a	-0.081676796
75	0x3cb5ae5d	0.02217787
76	0xbd12f66d	-0.03587954
77	0xbd72d94b	-0.059289258
78	0xbdad0da4	-0.08449867
79	0xbd32d441	-0.043659452
80	0x3c0fdd5b	0.008780803
81	0x3da73a3b	0.081654035
82	0x3d927160	0.07150531
83	0x3dce84e3	0.1008394
84	0x3d1bf8f1	0.038079206
85	0x3bcb9357	0.0062126326
86	0x3dd1672e	0.10224758
87	0x3db32c5a	0.08748694
88	0x3d113bfa	0.03545759
89	0x3cbb99dd	0.022900516
90	0x3d59d126	0.053177975
91	0xbd0fc745	-0.035102148
92	0x3d98d75b	0.07462951
93	0xbd5ba2c5	-0.053622026
94	0x3db93116	0.090425655
95	0xbd74d78b	-0.05977587
96	0x3c7d5858	0.015462957
97	0xbd90f199	-0.07077331
98	0xbd8affe0	-0.067870855
99	0xbda7b9bb	-0.08189722
100	0xbd546f9c	-0.05186425
101	0xbcd0b81f	-0.02547842
102	0x3d345059	0.044021938
103	0xbd6a902a	-0.05726639
104	0xbd9e8b1c	-0.07741377
105	0xbd4bcdc2	-0.049756773
106	0xbccb5d3e	-0.024824735
107	0x3ca0e1b7	0.01963888
108	0xbc535c65	-0.012900447
109	0x3d6c75de	0.057729594
110	0x3dba8b1f	0.091085665
111	0xbcf50305	-0.029908666
112	0xbd0ce201	-0.03439522
113	0xbc9285a6	-0.017885994
114	0x3c2bfa01	0.010496617
115	0xbd507b30	-0.05089873
116	0x3dc06a1d	0.093952395
117	0x3c23cfcd	0.009998274
118	0xbd381342	-0.04494024
119	0xbd0754d1	-0.03303987
120	0x3ddf7002	0.10910036
121	0xbc658c8b	-0.014010559
122	0xbd5ab854	-0.053398445
123	0xbd5276a2	-0.05138267
124	0x3d1b83ef	0.03796762
125	0xbc443628	-0.0119758025
126	0x3bf1823f	0.007370263
127	0x3d253637	0.040334906
128	0x3da18564	0.0788677
129	0xbd633ca2	-0.055477746
130	0x3d205cb0	0.039150894
131	0x3d2cf5a3	0.042226445
132	0x3d263d87	0.04058602
133	0x3dc8385e	0.09776376
134	0x3bd9879a	0.0066384794
135	0x3d350630	0.044195354
136	0xbc71d373	-0.014759886
137	0x3c068605	0.008210664
138	0x3dc048a0	0.09388852
139	0xbce9b9be	-0.028530952
140	0x3dba47f4	0.09095755
141	0xbdbff135	-0.093721785
142	0x3d757bab	0.059932392
143	0x3d691e49	0.056913648
144	0x3ba6a5b6	0.0050856723
145	0xbca33fea	-0.019927938
146	0x3d91660b	0.07099541
147	0x3c846cfc	0.016165249
148	0xbbba65c9	-0.0056884033
149	0x3cb2471d	0.021762425
150	0xbc648e40	-0.013949931
151	0x3d75233c	0.059848055
152	0x3cf5ae61	0.029990377
153	0xbd42a774	-0.047522977
154	0x3d640551	0.055669133
155	0x3d923c45	0.07140402
156	0xbd83e076	-0.06439297
157	0x3d8724d3	0.065988205
158	0x3d81977f	0.06327724
159	0xbd8b922e	-0.06814991
160	0xbd16c56c	-0.03680937
161	0x3d8e1f6f	0.06939589
162	0x3d6e0651	0.058111493
163	0x3d3e9380	0.046527386
164	0x3d07d2b3	0.033159923
165	0x3b856410	0.0040707663
166	0x3d9f9734	0.077925116
167	0xbd0597d6	-0.032615505
168	0xbda674ea	-0.08127768
169	0xbcd4a99c	-0.025959782
170	0xbb9d6b95	-0.0048040845
171	0x3cc99b6c	0.024610244
172	0x3da11cf3	0.0786685
173	0x3dcd6fdf	0.10031103
174	0x3d8af7ad	0.06785522
175	0xbcba96b5	-0.02277694
176	0x3da5e102	0.080995575
177	0x3d4a2a4a	0.049356736
178	0xbc773f43	-0.015090766
179	0x3bdf82e6	0.006821024
180	0x3cedd1eb	0.02903076
181	0x3d639746	0.055564187
182	0x3db22ce2	0.08699967
183	0xbd0383e6	-0.03210821
184	0xbcae7b36	-0.021298986
185	0x3ce92ac0	0.028462768
186	0x3b57a572	0.003290501
187	0x3da2ee6e	0.07955633
188	0x3d8a64aa	0.067574814
189	0x3d060ea1	0.032728795
190	0xbd42563c	-0.04744552
191	0xbd8e9f60	-0.06963992
192	0x3dcec1f2	0.10095586
193	0xbc44a83e	-0.012003003
194	0x3c227e74	0.009917844
195	0xbd8152eb	-0.063146435
196	0xbcea1857	-0.02857606
197	0xbbdd8275	-0.0067599365
198	0x3db5073c	0.088392705
199	0xbd951d93	-0.072810315
200	0x3dca5c23	0.09880855
201	0xbda901c2	-0.082522884
202	0x3b7b2df0	0.0038326941
203	0xbb1ffa8f	-0.002441082
204	0xbd911353	-0.07083764
205	0xbd8679d3	-0.06566205
206	0xbd158584	-0.036504284
207	0x3d9fdebb	0.07806154
208	0x3cb4b922	0.022060934
209	0x3d9dc08e	0.077027425
210	0xbd8bd765	-0.068281926
211	0x3ddf1862	0.108933225
212	0x3dc9178e	0.09818946
213	0xbd0818e0	-0.033226848
214	0x3db06073	0.08612146
215	0x3d2ad8eb	0.041710775
216	0x3cc062d4	0.023484625
217	0xbd4e88d9	-0.050423477
218	0x3dbb18d5	0.09135596
219	0xbcde78f8	-0.027157292
220	0xbd39a5b1	-0.04532403
221	0xbd20906f	-0.039200243
222	0xbc32136a	-0.0108688865
223	0x3c85d2d0	0.016335875
224	0x3b74be0e	0.0037344727
225	0x3c403bf0	0.01173304
226	0xbd04f48e	-0.032459788
227	0x3c3ed7cd	0.011648131
228	0x3d8816d7	0.06644981
229	0x3d9ec06c	0.07751545
230	0x3d006f7c	0.03135632
231	0xbcd4ec23	-0.025991505
232	0x3d98465b	0.07435294
233	0xbd75ed91	-0.060041014
234	0xbd6e9723	-0.058249604
235	0x3db066ed	0.086133815
236	0xbd4c78a3	-0.049919736
237	0x3d05560c	0.032552764
238	0xbd37a935	-0.044839103
239	0x3d58a198	0.052888483
240	0xbb9e0be2	-0.004823194
241	0xbb3a4c8a	-0.0028426968
242	0x3cc3f4c5	0.023920426
243	0x3d156027	0.03646865
244	0x3d384271	0.04498524
245	0x3c808d82	0.015692476
246	0xbab39294	-0.00137003
247	0xbd911406	-0.07083897
248	0x3de349b9	0.11098046
249	0x3b3a722f	0.0028449406
250	0x3c86858c	0.016421102
251	0x3d5790c3	0.05262829
252	0xbd80674a	-0.06269701
253	0x3cd58337	0.026063545
254	0x3d6fb44c	0.058521554
255	0xbd895412	-0.06705488

model.2.bias f4 [128]
0	0xbd1ef456	-0.038807236
1	0x3d3090e2	0.04310692
2	0x3d9ffeab	0.07812246
3	0x3d76b598	0.060231775
4	0x3dafadf3	0.085781
5	0x3bf94169	0.0076066745
6	0xbd4859ed	-0.048913885
7	0xbd4173d7	-0.047229614
8	0x3c92ac74	0.017904498
9	0x3dbc109a	0.09182854
10	0x3d168fcd	0.036758233
11	0x3e167c26	0.14695796
12	0x3d929d32	0.07158889
13	0x3d83d308	0.064367354
14	0x3da51840	0.08061266
15	0x3d5a5285	0.053301353
16	0x3da82ace	0.08211289
17	0x3bf4607a	0.00745779
18	0x3de0c104	0.10974315
19	0xbc5d84a0	-0.01352039
20	0x3dcb084b	0.09913691
21	0x3d05f662	0.032705672
22	0xbd68fdc3	-0.05688263
23	0x3c545ad9	0.012961113
24	0x3dc7d892	0.097581044
25	0xbd8c42f0	-0.06848705
26	0xbd262bde	-0.04056918
27	0x3d663046	0.05619838
28	0xbc611488	-0.013737805
29	0xbd84b2b0	-0.064793944
30	0x3e072241	0.1319666
31	0x3ce028c2	0.027363185
32	0x3d1a9e92	0.03774888
33	0x3c366f27	0.011134899
34	0x3dcf112b	0.101106964
35	0x3dd1541d	0.102211215
36	0xbd88591c	-0.06657621
37	0x3bcc7aef	0.0062402408
38	0xbd350314	-0.04419239
39	0x3d206b1a	0.03916464
40	0x3d0d688d	0.034523536
41	0xbd00de14	-0.03146179
42	0xbd0b2417	-0.033969965
43	0x3b8453c7	0.0040383074
44	0x3bb035ab	0.0053774915
45	0xbbb131da	-0.005407554
46	0x3ddb6c0e	0.10713969
47	0x3ad81ed1	0.0016488676
48	0xbd6de4ea	-0.058079638
49	0xbd8a7b0b	-0.0676175
50	0xbd419bb0	-0.047267616
51	0x3bc0e651	0.005886831
52	0xbd5c39f1	-0.053766195
53	0x3d6e19b2	0.058129974
54	0xbd9319f1	-0.07182682
55	0x3d0628ea	0.032753862
56	0xbd9a1007	-0.07522588
57	0xbc615671	-0.013753519
58	0x3bf65813	0.0075178235
59	0xbd987924	-0.07444981
60	0x3d2a4693	0.04157121
61	0x3d06c0cd	0.032898713
62	0x3d8442ac	0.06458029
63	0x3d6808ff	0.056649204
64	0x3db63332	0.088964835
65	0xbd425d10	-0.047452033
66	0x3d2a3151	0.041550938
67	0x3c41339e	0.011792092
68	0x3d8e07f5	0.069351114
69	0x3d2e4f8e	0.042556338
70	0x3d7ee652	0.06223137
71	0xbb8ee3da	-0.004360658
72	0x3a9c993c	0.0011947523
73	0x3b84dbf0	0.004054539
74	0xbd0c6b90	-0.034282267
75	0xbd2164f1	-0.039402906
76	0xbd966270	-0.07342994
77	0x3dd8f6bc	0.10593936
78	0x3cbb79bd	0.022885198
79	0xbd3a6503	-0.04550649
80	0xbcdd409d	-0.02700835
81	0xbd30a35a	-0.043124534
82	0xbcf05016	-0.029335063
83	0x3cda2afb	0.026631823
84	0x3c17ff97	0.009277246
85	0xbd52ea7a	-0.051493146
86	0xbd415b86	-0.047206424
87	0xbd256c15	-0.04038628
88	0xbcbf4cd6	-0.023352068
89	0x3d22d192	0.039750643
90	0x3db8f7d8	0.090316474
91	0x3d3c8b74	0.04603143
92	0x3d807731	0.06272734
93	0xbcae04bf	-0.021242497
94	0x3c6c1f62	0.014411779
95	0x3d1c5bf3	0.038173627
96	0xbd91895a	-0.07106276
97	0x3d700d7a	0.058606602
98	0xbd8a1070	-0.067414165
99	0x3d7878e5	0.06066217
100	0xbd6404b4	-0.055668548
101	0x3d6c5c09	0.05770496
102	0x3d0778a1	0.033074025
103	0xbb5e93ee	-0.0033962685
104	0xbc70134f	-0.014653041
105	0x3dd0cc5f	0.10195231
106	0xbdac787a	-0.084214166
107	0xbd40427c	-0.046938404
108	0xbd025c16	-0.0318261
109	0xbdceb9aa	-0.10094006
110	0xbbffc5e9	-0.007805575
111	0xbd4f29c2	-0.050576933
112	0x3c51ce6f	0.012805565
113	0x3d351c8f	0.04421669
114	0x3cee029c	0.029053979
115	0x3dc6e329	0.09711296
116	0x3bdc098b	0.006715005
117	0x3d5472a1	0.05186713
118	0x3d86dc37	0.065849714
119	0x3c14f33b	0.009091194
120	0x3ce3ad3b	0.027792564
121	0x3d781783	0.060569298
122	0x3d15b273	0.036547136
123	0x3d9bdb03	0.076101325
124	0x3ce4db0b	0.02793648
125	0x3dbfca6b	0.0936478
126	0x3dda91d7	0.10672348
127	0x3d55819a	0.05212555

model.4.weight f4 [128, 128]
0	0x3c4d6e71	0.012538538
1	0xbd440ce2	-0.04786385
2	0x3dbca5ad	0.09211288
3	0xbd307b6b	-0.04308645
4	0xbd76f3ba	-0.06029103
5	0xbb6f4349	-0.003650861
6	0x3cc643dc	0.02420228
7	0xbc51a0d3	-0.012794691
8	0xbc38fbbd	-0.011290488
9	0xbcb813fd	-0.022470469
10	0x3d8b7261	0.068089254
11	0x39f282d6	0.00046255317
12	0x3d74175e	0.059592597
13	0x3b949c39	0.0045352248
14	0xbd0e8215	-0.034792025
15	0xbd7bd087	-0.061478164
16	0xbd8d0349	-0.06885392
17	0x3bbc8fe2	0.005754457
18	0xbcaebd7f	-0.021330593
19	0x3dd73d3a	0.10509725
20	0x3d9ea94a	0.07747133
21	0xbc98ab2e	-0.018636312
22	0xbcdd6ab3	-0.027028417
23	0x3da9cd14	0.08291069
24	0x3d87cb34	0.06630555
25	0x3d628e90	0.05531174
26	0x3d5dea4a	0.054178514
27	0x3db6203f	0.08892869
28	0x3d6fe64e	0.058569245
29	0x3d8804b5	0.06641523
30	0x3d92890a	0.071550444
31	0x3d1acc7b	0.037792664
32	0x3db08722	0.086195245
33	0x3c0c750c	0.008572828
34	0xbd2abcaf	-0.04168385
35	0xbd73ffcb	-0.059570115
36	0xbc25f084	-0.010128144
37	0x3d1396c7	0.036032464
38	0xbdd7d360	-0.105383635
39	0xbd62f235	-0.055406768
40	0xbca314e3	-0.01990742
41	0xbd8a2ac3	-0.067464374
42	0x3c81d79e	0.015849885
43	0xbcb78fdd	-0.022407467
44	0x3da3a743	0.07990887
45	0x3da5acc0	0.0808959
46	0x3dcf0e25	0.1011012
47	0xbd9725ad	-0.07380233
48	0xbc293c39	-0.0103293
49	0xbda7ba2f	-0.081898086
50	0x3b24112e	0.0025034654
51	0x3cb9d68e	0.022685315
52	0x3da02fc8	0.078216136
53	0x3d84001c	0.06445333
54	0xbb8ac76f	-0.0042352
55	0xbd490849	-0.049080167
56	0x3892931c	6.989224e-05
57	0x3d3b0db2	0.045667358
58	0x3d9a7a4d	0.07542858
59	0xbcff6e4a	-0.03118052
60	0x3c8b3c94	0.01699666
61	0x3c2efddf	0.010680645
62	0x3d4b3891	0.049614493
63	0x3d279218	0.04091081
64	0x3c99f828	0.018795088
65	0xbd6e52d2	-0.058184452
66	0x3db13d65	0.08654288
67	0x3da48dd1	0.08034862
68	0x3db89070	0.09011924
69	0xbd557928	-0.052117497
70	0x3d640c1e	0.05567562
71	0xbd623777	-0.055228677
72	0x3ccae048	0.024765149
73	0x3d211dcd	0.03933506
74	0xbd7e7d15	-0.062131006
75	0xbda345fc	-0.07972333
76	0xbca9b6cb	-0.020717045
77	0x3d54b669	0.051931772
78	0xbc63f527	-0.013913429
79	0x3d1e6df3	0.038679074
80	0xbd8a59d6	-0.06755416
81	0x3d149adb	0.036280494
82	0xbd6f58f0	-0.058434427
83	0x3dacf8f9	0.08445925
84	0xbd9f0f30	-0.07766569
85	0x3c82f780	0.015987158
86	0x3d971836	0.07377665
87	0xbd4a2c9b	-0.049358945
88	0x3dca2c49	0.09871728
89	0x3d529c18	0.051418394
90	0x3d87e0fc	0.06634709
91	0x3dbc193d	0.09184501
92	0x3d00db66	0.031459235
93	0x3c5bc14f	0.013412788
94	0x3dee6042	0.116394535
95	0xbd522c5d	-0.05131184
96	0xbd8f7183	-0.070040725
97	0x3d35914b	0.044328015
98	0xbc034fec	-0.00801466
99	0xbd03dc32	-0.032192416
100	0xbd887c28	-0.06664306
101	0xbc85990a	-0.016308326
102	0xbd14557c	-0.036214337
103	0x3d63c7ff	0.055610653
104	0x3c8274db	0.015924862
105	0x3b41fe79	0.002960114
106	0x3d1c0722	0.03809274
107	0xbd8d193c	-0.06889579
108	0xbcbda1f9	-0.023148524
109	0xbb5e9cc2	-0.0033967947
110	0x3d8050d2	0.06265415
111	0x3ccc3001	0.024925234
112	0xbd3299b3	-0.04360361
113	0x3d417d89	0.04723886
114	0xbd8ceb88	-0.068808615
115	0x3a4661da	0.00075676816
116	0xbc556d34	-0.013026524
117	0x3ca6f27f	0.020379303
118	0x3cf125c0	0.029436946
119	0xbd7d16f9	-0.061789487
120	0xbd10d420	-0.03535855
121	0x3c17d232	0.009266423
122	0x3d8f4550	0.06995642
123	0x3ca86e7e	0.0205605
124	0xbcb7ee0f	-0.022452382
125	0x3d0ac9ac	0.033883736
126	0xbd9b806e	-0.075928554
127	0xbd4df01b	-0.05027781
128	0x3cd8aefc	0.026450627
129	0xbca6e54c	-0.02037301
130	0x3d726534	0.059178546
131	0x3db113b5	0.08646337
132	0x3c2d38de	0.01057264
133	0x3db3038f	0.08740913
134	0xbc1a7c68	-0.009429075
135	0x39c4bc09	0.0003752413
136	0xbdb89a2f	-0.09013783
137	0x3d7131da	0.058885433
138	0xbd5ecdd0	-0.054395497
139	0xbd2c2925	-0.042031426
140	0x3d8c9501	0.06864358
141	0xbccf63be	-0.025316115
142	0x3d460776	0.04834696
143	0xbb2971a1	-0.0025855082
144	0xbca4f9bf	-0.02013862
145	0x3d924bae	0.07143341
146	0x3d843784	0.06455901
147	0xbc8c1a4b	-0.017102381
148	0x3d9fcede	0.07803129
149	0x3d8417ab	0.06449827
150	0xbdadb364	-0.08481482
151	0x3da48e41	0.08034945
152	0x3da40325	0.08008412
153	0xbd509aaf	-0.050928768
154	0x3da0ec71	0.078575976
155	0x3d95aa80	0.07307911
156	0xbd8c7804	-0.06858829
157	0x3d09588f	0.03353172
158	0x3bd5eaa6	0.0065282164
159	0x3c0fca87	0.008776314
160	0xbd60674f	-0.054786023
161	0xbcbcc638	-0.023043737
162	0xbcae60e1	-0.02128643
163	0x3d8d1abc	0.06889865
164	0xbd71c366	-0.059024237
165	0xbd15a1cd	-0.03653126
166	0xbc648c81	-0.013949514
167	0x3ca19d28	0.019728258
168	0xbd96e9df	-0.07368826
169	0x3c920601	0.017825129
170	0x3d191712	0.037375517
171	0x3d0369e4	0.032083407
172	0x3c919b73	0.01777432
173	0x3d813905	0.06309704
174	0x3d716d97	0.058942404
175	0xbd2322ef	-0.039828237
176	0xbc478ea8	-0.012180008
177	0xbc5a9d81	-0.013343216
178	0xbd872988	-0.06599718
179	0xbd21c736	-0.039496623
180	0xbd6215d9	-0.055196617
181	0x3dc66862	0.09687878
182	0x3cffc231	0.031220527
183	0x3d84c3ae	0.064826354
184	0x3d60f80b	0.054924052
185	0x3d99a87e	0.075028405
186	0xbd897182	-0.06711103
187	0xbd0ae81f	-0.033912774
188	0xbd1eddcf	-0.038785752
189	0xbb6e5be0	-0.003637068
190	0xbd7c4955	-0.061593372
191	0x3d7f07a6	0.062263153
192	0xbd2a3b19	-0.041560266
193	0x3cb6e4ae	0.02232584
194	0x3d0627c9	0.032752786
195	0x3c638f43	0.013889137
196	0x3d2ce23e	0.04220795
197	0x3d8f6e1b	0.07003423
198	0x3cb0cbcb	0.021581551
199	0xbacbfaca	-0.0015562412
200	0x3d9eb2e6	0.07748966
201	0x3c57e291	0.013176576
202	0xbd7c15a8	-0.06154409
203	0xbd698fea	-0.057022013
204	0xbcfd2e4e	-0.030905869
205	0x3dc2ea7e	0.09517382
206	0xbd405366	-0.046954535
207	0x3d16b045	0.036789197
208	0xbda1db63	-0.07903173
209	0xbc9484bb	-0.018129697
210	0x3d8de55d	0.06928513
211	0xbd72c537	-0.05927011
212	0xbbd0f18b	-0.0063764504
213	0x3d77b88b	0.06047873
214	0x3d7ad367	0.061236765
215	0x3d446ab6	0.04795333
216	0xbc705488	-0.014668591
217	0xbd91add9	-0.07113237
218	0x3d03e789	0.03220323
219	0x3c97de66	0.018538665
220	0xbd905ad0	-0.07048571
221	0xbc902389	-0.01759507
222	0x3ca0bd60	0.019621551
223	0x3d1d0fb3	0.03834505
224	0xbdb06f2e	-0.08614956
225	0xbcece957	-0.028919859
226	0xb9d88684	-0.00041298952
227	0xbd3b169c	-0.04567586
228	0xbdbd9446	-0.092567965
229	0x3c294a13	0.010332602
230	0xbcbacf7a	-0.02280401
231	0xbdb8ebd7	-0.09029358
232	0xbd94dce6	-0.072686955
233	0xbc27e4f7	-0.010247461
234	0xbd9e5a91	-0.07732118
235	0xbd585ba6	-0.052821778
236	0xbbbced20	-0.005765572
237	0xbd333ba1	-0.04375804
238	0xbd53a4d1	-0.051670853
239	0xbd3cf204	-0.04612924
240	0xbdad64d9	-0.08466501
241	0xbd64a288	-0.055819064
242	0x3e05758f	0.13033126
243	0xbd2933cd	-0.041309167
244	0xb9fe55c7	-0.00048510564
245	0x3dbe5d4d	0.092951395
246	0xbd7cbab1	-0.06170148
247	0xbc12ad9a	-0.008952523
248	0xbcfae3f0	-0.030626267
249	0xbd13829b	-0.036013227
250	0xbd4d2091	-0.050079886
251	0xbcdebf52	-0.027190838
252	0xbd9f9326	-0.07791738
253	0xbd2c6c75	-0.04209562
254	0x3d99d178	0.07510656
255	0xbd2db46d	-0.042408396

model.4.bias f4 [128]
0	0x3b92945e	0.004473253
1	0x3d6aa45b	0.057285648
2	0x3d16da1e	0.036829107
3	0x3d9c2fe6	0.076263234
4	0xbd992370	-0.07477462
5	0x3d5cf417	0.05394372
6	0x3dadfa32	0.084949866
7	0x3cc52ea7	0.024070097
8	0xbbc3de68	-0.0059774406
9	0x3a848c01	0.0010112525
10	0xbc43dc8d	-0.011954439
11	0x3d519c4a	0.05117444
12	0xbd156a32	-0.03647823
13	0xbc31c4de	-0.010850159
14	0x3d0940fa	0.033509232
15	0xbc9a0753	-0.01880232
16	0xbbd9beea	-0.006645073
17	0x3cb4f62b	0.022090038
18	0xbd7daeb3	-0.061934184
19	0x3d9edfcc	0.077575296
20	0xbc8a665e	-0.016894516
21	0x3d5e97ad	0.054343868
22	0xbb90fb43	-0.004424484
23	0xbcb942bc	-0.02261483
24	0x3dc133a9	0.094336815
25	0xbc70bdfb	-0.014693732
26	0xbd803ccc	-0.06261596
27	0x3c283603	0.010266784
28	0xbd0a77ae	-0.03380554
29	0xbd8165e1	-0.0631826
30	0xbd99da8c	-0.07512388
31	0x3e08a42c	0.13343877
32	0x3d595301	0.053057674
33	0x3d7a547d	0.06111573
34	0x3d9d4fc6	0.07681231
35	0x3d8526e7	0.06501561
36	0x3d8da1a4	0.06915596
37	0xbddbe437	-0.10736888
38	0x3c5c22f2	0.013436066
39	0xbd648713	-0.05579288
40	0x3d5ddd97	0.054166403
41	0xbcad2e72	-0.02114031
42	0xbdaca808	-0.08430487
43	0x3d9b464c	0.075817674
44	0xbd93b0b6	-0.07211439
45	0xbd4e80d8	-0.050415844
46	0x3db9ecdb	0.0907838
47	0x3da8282e	0.08210789
48	0x3d62ae1e	0.055341832
49	0xbd10dd7d	-0.035367478
50	0x3d33bc90	0.043881
51	0x3dc373e6	0.0954359
52	0x3cd5c9c8	0.026097193
53	0xbd130c6e	-0.035900526
54	0x3d186f27	0.037215378
55	0x3d19800d	0.037475634
56	0x3d39ae4c	0.045332238
57	0x3d01e25a	0.031710006
58	0xbd154e87	-0.036451843
59	0x3d64513d	0.055741537
60	0x3da5f22b	0.081028305
61	0x3d23bbeb	0.039974134
62	0x3cfc50bc	0.030800216
63	0x3d25dcaf	0.040493663
64	0x3d2eea24	0.042703763
65	0x3cbd618a	0.0231178
66	0xbd8ce354	-0.06879297
67	0xbc692741	-0.01423055
68	0xbd0fd545	-0.0351155
69	0x3d806ff3	0.062713526
70	0x3cb2d95a	0.021832157
71	0x3bae12df	0.005312308
72	0x3d8f79ec	0.070056766
73	0x3b914ae4	0.0044339765
74	0xbc923fa2	-0.017852608
75	0xbb0989ad	-0.0020986602
76	0x3d949784	0.07255462
77	0x3c5d4c8e	0.013507022
78	0xb9dd4ddb	-0.00042210412
79	0x3d2cc3c8	0.0421789
80	0xbdc5da07	-0.09660726
81	0xbd4d2f96	-0.05009421
82	0xbd4d2130	-0.05008048
83	0x3c571ed3	0.013129908
84	0x3bb21c77	0.005435522
85	0xbd66abf8	-0.056316346
86	0x3da2f4b8	0.07956833
87	0x3d8979a6	0.06712656
88	0xbdb524a5	-0.0884488
89	0xbba14df2	-0.004922622
90	0x3dc6ffe9	0.0971678
91	0x3d8e40b1	0.06945933
92	0x3a2429cf	0.00062623335
93	0xbd95fee6	-0.07324009
94	0xbc5d5b9e	-0.013510613
95	0xbd6a84bf	-0.057255503
96	0x3d13c61d	0.036077607
97	0xbc9e2461	-0.019304456
98	0xbd9cdbd1	-0.07659114
99	0x3d92e910	0.071733594
100	0x3cfe22bd	0.031022424
101	0x3d106d56	0.03526052
102	0x3d80d650	0.06290877
103	0x3d56ce6a	0.052442946
104	0x3d4f8925	0.0506679
105	0xbc35409a	-0.0110627655
106	0xbd40b88f	-0.04705101
107	0x3dbd54ac	0.092446655
108	0xbd149f19	-0.03628454
109	0xbcafc227	-0.021454884
110	0xbd47a40e	-0.04874044
111	0x3c99b63f	0.01876366
112	0x3d22fd9d	0.039792646
113	0xbcf66ba2	-0.03008062
114	0xbd5c982d	-0.053856064
115	0xbd1dd31b	-0.038531404
116	0xbd8a9ca7	-0.0676816
117	0xbd22675e	-0.03964936
118	0x3cbcb1e7	0.02303405
119	0xbd85c2da	-0.065313056
120	0x3da682c2	0.08130409
121	0xbc5ffbce	-0.013670875
122	0x3d7cfd7d	0.061765183
123	0xbd6e14e0	-0.058125377
124	0x3ac951a9	0.001535942
125	0xbc81d7a9	-0.015849905
126	0x3dac9313	0.0842649
127	0x3d9db000	0.07699585

model.6.weight f4 [3, 128]
0	0xbd0ea15b	-0.03482185
1	0x3d821316	0.063512966
2	0x3d3f283b	0.046669226
3	0xbd6164d6	-0.055027805
4	0xbcee0cc6	-0.029058825
5	0x3bea98e0	0.0071593374
6	0x3ca954a1	0.020670237
7	0xbdabcb5b	-0.08388396
8	0xbd3e7e40	-0.04650712
9	0xbd6a0a7a	-0.057138897
10	0x3d68fda2	0.056882508
11	0xbd456d6b	-0.048200052
12	0x3c84eaa0	0.01622516
13	0xbd55c237	-0.05218717
14	0xbc7a9729	-0.015294828
15	0x3bbc224d	0.0057413937
16	0xbdc06168	-0.09393579
17	0xbd8ed45d	-0.06974099
18	0xbd933f9e	-0.071898684
19	0x3ca11481	0.019663097
20	0x3c7b5306	0.015339619
21	0x3d2d28bb	0.04227517
22	0xbd9d620b	-0.07684716
23	0xbd86109e	-0.06546138
24	0x3dcd3ef9	0.10021777
25	0x3dae53de	0.0851209
26	0x3cb4b668	0.022059634
27	0xbc4a62cb	-0.012352656
28	0x3d422268	0.047396094
29	0xbdb0cebb	-0.08633181
30	0xbcefaf17	-0.029258294
31	0x3cd4ebc2	0.025991324
32	0x3d8b412e	0.067995414
33	0xbc9d9d50	-0.019240052
34	0xbd7fa945	-0.062417287
35	0xbd1925f1	-0.0373897
36	0xbdd44150	-0.1036402
37	0xbd3d6a9e	-0.046244256
38	0xbda966de	-0.082715735
39	0xbd4ec43f	-0.050480124
40	0xbce35501	-0.027750494
41	0x3dbbba5b	0.09166404
42	0x3d8c5e20	0.068538904
43	0x3d38a70d	0.045081187
44	0xbc8ebcb4	-0.017423965
45	0xbcb64cf7	-0.022253497
46	0xbc5b787c	-0.013395425
47	0xbd6bf46d	-0.05760615
48	0x3ce1ca68	0.027562335
49	0xbc48b89e	-0.012251047
50	0xbdb1def9	-0.08685107
51	0x3d6b2407	0.057407405
52	0x3dbb610b	0.09149369
53	0x3dbc37f5	0.091903605
54	0xbc500248	-0.012695856
55	0x3d9d7d64	0.07689932
56	0xbdb4222c	-0.0879558
57	0xbe0173cb	-0.12641828
58	0x3d900d5b	0.07033797
59	0x3d2ba14f	0.041901883
60	0x3db5b6d0	0.08872759
61	0x3c8a6692	0.016894612
62	0x3c95b4a3	0.01827461
63	0xbd85da78	-0.0653581
64	0xbce00155	-0.027344385
65	0x3d8228e3	0.06355455
66	0x3d491015	0.049087603
67	0x3df01024	0.117218286
68	0xbdc0974d	-0.09403858
69	0xbc2c8589	-0.010529884
70	0xbd529717	-0.05141362
71	0x3b8fa42a	0.0043835836
72	0xbcbc8f22	-0.02301747
73	0xbda4968f	-0.08036529
74	0x3d7ba3db	0.06143556
75	0x3d8653aa	0.065589264
76	0xbda3436d	-0.07971845
77	0xbd8448db	-0.064592086
78	0xbdbd69f2	-0.09248723
79	0x3e081eeb	0.13293044
80	0xbd3b94b5	-0.045796115
81	0xbdb83d0d	-0.089960195
82	0xbdaf83e5	-0.08570079
83	0x3da3cdd7	0.07998245
84	0xbdae7b88	-0.085196555
85	0xbdb23062	-0.087006345
86	0x3dd2a441	0.10285235
87	0xbd36967c	-0.044577107
88	0xbd2341b8	-0.039857596
89	0x3db7039f	0.089362375
90	0xbd879a95	-0.06621281
91	0x3c96be37	0.018401248
92	0x3ca0f834	0.019649602
93	0xbdd93e14	-0.106075436
94	0x3d9a8186	0.07544236
95	0x3dd24237	0.10266536
96	0x3c8335ed	0.016016925
97	0xbdbdcdf6	-0.092677996
98	0x3db0a580	0.086253166
99	0x3cefa6f0	0.029254407
100	0x3d86dd46	0.06585173
101	0x3d8a64f9	0.0675754
102	0x3d8901ef	0.06689822
103	0x3dcb3c91	0.099236615
104	0xbd45ad40	-0.048260927
105	0xbddccac5	-0.10780863
106	0x3dbdfa49	0.09276254
107	0x3cdbc922	0.026829306
108	0x3d9dbf4d	0.07702503
109	0xbda84349	-0.082159586
110	0xbd04f7f5	-0.032463033
111	0xbda3711d	-0.07980559
112	0x3d230ccf	0.039807137
113	0xbce5e49e	-0.028063115
114	0x3dc08b55	0.094015755
115	0x3cd71e1f	0.02625948
116	0xbdc96c90	-0.0983516
117	0x3de16b5a	0.11006804
118	0x3bf5e354	0.0075039063
119	0xbd964b63	-0.073385976
120	0x3d76684f	0.06015807
121	0xbd6e75b3	-0.058217715
122	0xbcfcc67f	-0.030856369
123	0xbd26b173	-0.040696573
124	0xbd8e6e53	-0.069546364
125	0xbd32a757	-0.04361662
126	0xbc7c05f6	-0.015382281
127	0x3d631e39	0.055448744
128	0xbdbea1f5	-0.093082346
129	0x3c0d72e6	0.008633351
130	0xbc814a54	-0.015782513
131	0x3cb93783	0.022609478
132	0x3c4036bc	0.0117318
133	0xbd306355	-0.04306348
134	0x3d33852b	0.04382817
135	0x3dc42fee	0.09579454
136	0xb9a9defa	-0.00032400322
137	0x3dee020e	0.11621486
138	0x3d11a5a3	0.035558354
139	0xbc6cf8b7	-0.014463595
140	0x3d3e6693	0.04648454
141	0xbd8a854a	-0.06763704
142	0xbd62ffa2	-0.05541957
143	0xbd8f8dff	-0.070095055
144	0x3d82cc0f	0.06386577
145	0x3d0d9758	0.03456816
146	0xbbf12b01	-0.007359863
147	0xbda6c8c8	-0.08143765
148	0x3dafd698	0.085858524
149	0xbddb79e2	-0.10716607
150	0xbd6a7a32	-0.05724544
151	0x3ddea9a5	0.10872201
152	0x3ca2666c	0.01982423
153	0xbc4b7235	-0.012417366
154	0x3c248b94	0.010043044
155	0xbd1b5f10	-0.037932456
156	0x3db66f58	0.08907956
157	0x3d1342cd	0.035952378
158	0x3c7078da	0.014677251
159	0x3d27d69f	0.040976163
160	0xbd9db737	-0.07700961
161	0x3c44b431	0.012005852
162	0xbdd5c34c	-0.104376405
163	0x3cb74f50	0.022376686
164	0x3da22988	0.07918078
165	0xbc846576	-0.016161662
166	0xbd32b73f	-0.04363179
167	0x3c2014ec	0.009770613
168	0xbd2ebb1d	-0.042658914
169	0x3b258215	0.0025254537
170	0x3db0287d	0.086014725
171	0xbd2e8f78	-0.04261729
172	0xbc0c1163	-0.008549067
173	0x3cb5024f	0.022095827
174	0xbcbf24f1	-0.023333045
175	0x3c8dddeb	0.017317733
176	0x3deb06f7	0.11475938
177	0xbb504c77	-0.0031783858
178	0x3d9fbc7b	0.07799622
179	0xbd3ec6f9	-0.046576474
180	0xbd9892aa	-0.07449849
181	0x3db4288c	0.08796796
182	0xbd1bc9ef	-0.038034376
183	0xbd0f4d90	-0.03498608
184	0x3b88c9e1	0.0041744565
185	0xbc363805	-0.011121755
186	0xbde70bf8	-0.1128158
187	0xbd581ec3	-0.05276371
188	0x3dd0e87e	0.10200594
189	0x3d33599c	0.04378663
190	0xbd04dafd	-0.032435406
191	0x3d6c5042	0.057693727
192	0x3d06dbab	0.032924335
193	0xbde96ca5	-0.113976754
194	0x3d8ffafb	0.070302926
195	0xbdd4d243	-0.10391667
196	0xbda5b6f0	-0.08091533
197	0xbd3985b0	-0.04529351
198	0x3d936880	0.07197666
199	0xbd192cd5	-0.03739627
200	0x3ca1cda6	0.019751381
201	0x3dda2199	0.106509395
202	0x3d4401ba	0.04785321
203	0xbcea9466	-0.028635215
204	0x3daea843	0.08528187
205	0xbc831b66	-0.016004276
206	0xbd650de9	-0.05592147
207	0xbde15f88	-0.11004549
208	0xbd78cf1c	-0.06074439
209	0xbdbee5ef	-0.093212
210	0xbcc4d3ae	-0.024026718
211	0x3d894da8	0.06704265
212	0xbd782f53	-0.060592007
213	0xbcb5114d	-0.022102976
214	0x3caf2d46	0.021383893
215	0x3c9de18a	0.019272584
216	0x3d49dfac	0.049285576
217	0xbd0ed9e2	-0.034875758
218	0x3dd99ca6	0.106255814
219	0xbd7591be	-0.059953444
220	0x3d769fd1	0.060211007
221	0x3da1eaa8	0.07906085
222	0x3df6a60d	0.120433904
223	0x3d1326f2	0.035925813
224	0xbb9017b2	-0.004397356
225	0xbdc4fd10	-0.0961858
226	0xbd389930	-0.045067966
227	0xbdb46f0f	-0.08810245
228	0xbdbca19c	-0.09210512
229	0x3cc97c5c	0.024595432
230	0x3d1d6894	0.03842981
231	0x3da209aa	0.079119995
232	0xbd94f9ff	-0.072742455
233	0xbd4f1f73	-0.0505671
234	0xbdf61215	-0.120151676
235	0x3ca71b0b	0.020398637
236	0xbde54d03	-0.111963294
237	0x3c9c04ab	0.019045195
238	0x3d25be04	0.040464416
239	0x3cf37362	0.029718105
240	0xbd0f3836	-0.034965716
241	0x3d4e04d0	0.05029756
242	0x3d69e604	0.057104126
243	0xbdbdca64	-0.092671186
244	0x3d52252f	0.051304992
245	0x3d1428eb	0.036171835
246	0x3d9b036a	0.075690106
247	0x3c1ad336	0.009449771
248	0xbde6cfe5	-0.112701215
249	0x3d60bc08	0.05486682
250	0xbd5dbc2a	-0.054134525
251	0xbd9c1c22	-0.076225534
252	0xbcfedeae	-0.031112041
253	0xbd2082f5	-0.03918739
254	0xbc9edb36	-0.019391637
255	0xbd606a51	-0.05478889

model.6.bias f4 [3]
0	0x3c3399ff	0.0109620085
1	0x3bd9bcb7	0.006644811
2	0xbd95807d	-0.07299898
