exported_models/neural_networks/trained_models/mlp_dynamics.pth (torch, 22097 bytes, 6 tensors)

model.0.weight f4 [64, 5]
0	0x3dd1f80d	0.1025239
1	0xbefb877d	-0.49126807
2	0x3bc37a29	0.0059654904
3	0x3e564123	0.20923285
4	0xbef371cb	-0.47547755
5	0x3b6252e5	0.0034534272
6	0x3ea92c36	0.33041543
7	0x3c808c2b	0.015691837
8	0xbdf1ff68	-0.11816293
9	0x3e9de438	0.3083818
10	0x3d020045	0.03173854
11	0x3f11eb40	0.5699959
12	0x3e229689	0.15877737
13	0x3e3502b6	0.17676815
14	0x3d288e41	0.04115129
15	0x3e2d8c1a	0.16947976
16	0x3e4599a2	0.19296888
17	0xbe6db939	-0.23215188
18	0x3e11c4a8	0.14235175
19	0xbea04301	-0.3130112
20	0x3e54bc6d	0.20775004
21	0x3f12ed60	0.57393456
22	0x3bf70dd7	0.0075394916
23	0x389ee0ba	7.575886e-05
24	0x3d11c25e	0.035585754
25	0x3e8cd338	0.27504897
26	0x3ecedc6b	0.4040254
27	0x3e42b321	0.19013645
28	0x3e3cbfb0	0.18432498
29	0x3dfd969c	0.12382242
30	0x3e6691ed	0.22516604
31	0x3ed34ea2	0.4127093
32	0x3d622ceb	0.05521862
33	0x3e24f26e	0.16108105
34	0x3df8bcfb	0.1214542
35	0xbeffc98a	-0.4995845
36	0x3eadf5fc	0.33976734
37	0x3c6f26e2	0.014596673
38	0xbcc52bf1	-0.024068804
39	0xbe7ddf83	-0.24792294
40	0x3c06db7b	0.008231039
41	0x3e53b487	0.20674334
42	0xbef0dad5	-0.47041956
43	0x3d7c99dd	0.061670173
44	0xbe3889f8	-0.18021381
45	0x3e6e56d7	0.23275314
46	0xbcb74042	-0.022369508
47	0x3ee93206	0.45545977
48	0xbd39714f	-0.045274075
49	0x3dc0d04a	0.09414728
50	0xbed76650	-0.42070246
51	0x3d4aef12	0.0495444
52	0xbd1f7811	-0.038932864
53	0xbc14696c	-0.009058338
54	0xbc229e8e	-0.009925498
55	0x3c1c87be	0.009553848
56	0xbe8a8788	-0.27056527
57	0x3e993664	0.2992431
58	0x3d3ccfd8	0.046096653
59	0x3d9093fa	0.07059474
60	0x3966d580	0.00022014044
61	0xbe5080be	-0.20361611
62	0x3e96623b	0.2937182
63	0x3e7cc412	0.2468417
64	0xbec05c46	-0.375704
65	0x3ea54c7d	0.32284918
66	0xbd5565a9	-0.052098904
67	0xbe0c22f9	-0.13685216
68	0x3dc2a3cf	0.095039
69	0x3daac91a	0.08339138
70	0xbb9043bf	-0.004402607
71	0x3dada585	0.08478836
72	0x3ee8dbeb	0.45480284
73	0xbe6a98ae	-0.22909805
74	0x3e315226	0.17316493
75	0xbef522b7	-0.47878048
76	0x3d8c90d4	0.06863561
77	0x3ee297ac	0.4425634
78	0xbd943e53	-0.0723845
79	0xbdb28106	-0.087160155
80	0x3eea85d6	0.45805234
81	0x3dcadc5e	0.09905313
82	0x3f05400c	0.5205085
83	0x3df0aa01	0.11751176
84	0x3dbac00c	0.09118661
85	0x3dca0143	0.09863522
86	0xbebcdc16	-0.36886662
87	0x3dfb3c82	0.122674
88	0x3e2eada3	0.17058425
89	0x3e20210c	0.15637606
90	0xbe0becd9	-0.13664569
91	0xbec10eca	-0.37706596
92	0x3d08c021	0.033386353
93	0x3bb0608b	0.0053826026
94	0xbcc6be33	-0.024260616
95	0x3b34f372	0.0027610925
96	0x3d2b585e	0.04183232
97	0x3ef84454	0.4848963
98	0xbe881f2b	-0.2658628
99	0x3e3bbe29	0.18334259
100	0x3eb50ac5	0.3535978
101	0xbe90bc3f	-0.2826862
102	0xbe47e0b6	-0.19519314
103	0xbd1e6b77	-0.038676705
104	0x3dcdeaf4	0.100545794
105	0x3e16938f	0.14704727
106	0x3e4d6dab	0.20061366
107	0xbf09fdd0	-0.5390291
108	0xbd1eacca	-0.038739003
109	0xbc8e886e	-0.01739904
110	0xbdbfddb9	-0.09368462
111	0xbeaaeab3	-0.33382186
112	0x3d9c9ee6	0.07647495
113	0xbdc821f8	-0.09772104
114	0xbcd4f3fb	-0.025995245
115	0x3e45e03d	0.19323821
116	0x3ed4f9d3	0.4159685
117	0x3ec8769d	0.39152995
118	0x3e671125	0.22565134
119	0x3e22965e	0.15877673
120	0x3ea441df	0.32081506
121	0xbdd4b50c	-0.103860945
122	0xbe597280	-0.21235085
123	0xbeb40bc0	-0.35165215
124	0x3e1c8c2c	0.15287846
125	0x3d64b6a9	0.05583826
126	0x3f14fded	0.5819996
127	0xbe8c5af8	-0.27413154
128	0xbcb1a5ab	-0.021685442
129	0xbe0bcf47	-0.13653289
130	0xbf0b8e7b	-0.5451428
131	0xbecf0cd9	-0.4043949
132	0xbde46cc0	-0.11153555
133	0x3e93b21f	0.28846833
134	0x3e3a1a9b	0.18174212
135	0xbde5a0b4	-0.11212292
136	0x3ef15cd1	0.47141126
137	0x3dbb2bcc	0.09139213
138	0xbe3b90db	-0.18316977
139	0x3ef5b81a	0.4799202
140	0x3d250823	0.040290963
141	0x3e30486d	0.17215128
142	0xbe4da795	-0.20083459
143	0xbe314be9	-0.17314114
144	0x3f01a0a3	0.5063574
145	0x3d17f08f	0.03709465
146	0xbe82b78a	-0.25530654
147	0xbe905850	-0.28192377
148	0x3d75d782	0.060019977
149	0x3d4dd07e	0.05024766
150	0x3c97af0c	0.018516086
151	0xbe3ff9c0	-0.18747616
152	0x3dfb20a3	0.12262084
153	0x3db6f014	0.0893251
154	0xbec8a190	-0.39185762
155	0xbe4506e1	-0.19240905
156	0xbe69bc15	-0.22825654
157	0x3e9357c9	0.28777912
158	0xbe24da53	-0.16098909
159	0x3ebe1deb	0.371322
160	0x3d0e5df8	0.034757584
161	0xbe4f3043	-0.20233254
162	0x3cfed0ff	0.031105516
163	0x3e01ec60	0.12687826
164	0xbe6d8549	-0.23195376
165	0xbea254d3	-0.3170534
166	0x3da94d79	0.0826673
167	0x3b5897be	0.003304943
168	0x3e68d174	0.2273615
169	0x3f194a10	0.59878635
170	0x3d960e64	0.073269635
171	0xbe85986a	-0.26092845
172	0x3def08bc	0.11671588
173	0x3c750d62	0.014956804
174	0x3e95910f	0.29212233
175	0x3e7a8083	0.24463086
176	0xbec9a423	-0.3938304
177	0xbef69642	-0.48161513
178	0x3d3160bc	0.043305144
179	0x3d15f6e2	0.0366124
180	0x3ea78105	0.32715622
181	0xbc9bad02	-0.019003395
182	0xbec67396	-0.3876006
183	0x3da8bee7	0.08239537
184	0xbd23c2ed	-0.039980818
185	0x3e6b0bdf	0.22953747
186	0x3e535c9f	0.20640801
187	0x3cca21b7	0.02467428
188	0xbdf660b8	-0.120301664
189	0xbdb6ca0e	-0.089252576
190	0x3ecfb59e	0.4056825
191	0xbe1d3a58	-0.15354288
192	0xbaa7beff	-0.001279801
193	0x3d5d6b9d	0.054057706
194	0xbb855337	-0.004068758
195	0x3ca4bcd7	0.020109577
196	0x3dc661ef	0.09686648
197	0x3b635917	0.0034690553
198	0xbd1938fa	-0.037407853
199	0xbec16a51	-0.37776425
200	0xbd94167d	-0.07230852
201	0xbf234993	-0.6378414
202	0x3ea5a01a	0.3234871
203	0x3cd571d2	0.02605525
204	0x3e188adf	0.14896725
205	0x3e679467	0.22615205
206	0x3e82d0a2	0.255498
207	0x3e8bea76	0.27327317
208	0xbd26dd79	-0.040738557
209	0xbe1479aa	-0.14499536
210	0x3b9ef7e1	0.004851327
211	0xbe769441	-0.24079992
212	0xba4a4eac	-0.00077174115
213	0x3d835b98	0.064139545
214	0xbeb579a1	-0.35444358
215	0x3ed3f116	0.4139487
216	0xbd4085c6	-0.047002576
217	0x3d8eca27	0.06972151
218	0xbe2da78f	-0.1695845
219	0xbde5f1f1	-0.11227787
220	0x3e855441	0.26040843
221	0xbd7c9a23	-0.061670434
222	0x3c9b03d0	0.018922716
223	0xbe3afa45	-0.18259533
224	0xbf01ac3e	-0.50653446
225	0x3dc4ca10	0.09608853
226	0x3e8a023d	0.26954833
227	0xbf07ed03	-0.53096026
228	0x3ca15014	0.019691505
229	0xbbd74424	-0.0065694023
230	0x3d61c773	0.05512185
231	0x3ec77d1f	0.38962647
232	0xbc6ecdcb	-0.014575432
233	0xbd7fb52e	-0.062428646
234	0xbef997ff	-0.48748776
235	0x3c96fe79	0.018431889
236	0xbd8b08a0	-0.067887545
237	0xbf21e85e	-0.6324519
238	0x3ea7eaca	0.32796317
239	0xbe6eb1ba	-0.23309985
240	0xbd8270fd	-0.06369207
241	0xbe8ce18c	-0.2751583
242	0x3d83c92c	0.06434855
243	0xbd6c55d4	-0.05769904
244	0x3d21628c	0.039400622
245	0x3c314744	0.010820214
246	0x3da64f7f	0.081206314
247	0x3cd6e2ce	0.026231196
248	0xbe232d98	-0.15935361
249	0x3c068286	0.00820983
250	0x3e4c64d3	0.19960336
251	0x3c51da9b	0.012808467
252	0x3bcc172e	0.006228349
253	0xbd4200c7	-0.047364023
254	0x3d239ead	0.039946247
255	0x3c041abd	0.0080630155

model.0.bias f4 [64]
0	0x3eb6e450	0.35721064
1	0xbdaf56f3	-0.08561506
2	0x3f524575	0.82137233
3	0xbd8a3884	-0.06749061
4	0x3e04cdf6	0.12969193
5	0xbe02c66b	-0.12771003
6	0xbdb95ab8	-0.09050506
7	0xbf02ed4d	-0.5114334
8	0xba1c89ed	-0.000597148
9	0x3e1c485f	0.15261982
10	0x3f318547	0.6934399
11	0xbea7be44	-0.3276235
12	0xbe5025b3	-0.20326881
13	0x3eaebb2b	0.34127173
14	0xbd637271	-0.05552906
15	0x3efb6392	0.49099404
16	0xbdc410e5	-0.09573535
17	0x3f1d8b7b	0.61540955
18	0xbda939ef	-0.08263003
19	0xbda9fcb9	-0.08300156
20	0x3f1675bc	0.587734
21	0x3f052ac6	0.5201839
22	0xbec86fcc	-0.39147794
23	0xbdad9daa	-0.08477338
24	0x3eaaeb6c	0.33382738
25	0xbde5de91	-0.11224092
26	0x3eb70f66	0.35753936
27	0xbeb7a80c	-0.35870397
28	0x3eb3f7b3	0.35149917
29	0x3f17c303	0.5928194
30	0xbe759875	-0.23983939
31	0x3daa6d36	0.083216116
32	0x3e1e2eab	0.1544749
33	0x3f1fc2d2	0.6240665
34	0xbef90390	-0.4863553
35	0xbeb08ece	-0.3448395
36	0xbe6f5b0d	-0.23374577
37	0xbe1c26d1	-0.15249182
38	0xbea68ec5	-0.325308
39	0x3f5c71c0	0.8611107
40	0x3dfe18b5	0.12407056
41	0xbecd7917	-0.40131447
42	0x3e5d15dd	0.21590371
43	0x3ec0bc99	0.3764389
44	0xbf04a0e7	-0.5180802
45	0x3eeac103	0.4585038
46	0x3f52dd60	0.8236904
47	0x3dd4aa17	0.103840046
48	0xbc93d944	-0.018047936
49	0x3df9f8b2	0.12205638
50	0x3e2ed5ef	0.17073797
51	0x3f08a88e	0.53382194
52	0x3ecfe9fe	0.4060821
53	0xbea22f49	-0.316767
54	0x3f050133	0.51954955
55	0x3da1d85a	0.07902594
56	0x3e118ff9	0.14215077
57	0x3e89fd22	0.26950938
58	0x3ded13b0	0.11576021
59	0xbe2d66b5	-0.16933711
60	0xbe922f31	-0.2855163
61	0xbe6e7fb7	-0.23290907
62	0xbe884198	-0.26612544
63	0x3eacab4f	0.33724448

model.2.weight f4 [64, 64]
0	0xbd0fd218	-0.03511247
1	0x3d8aa874	0.06770411
2	0xbd2d295b	-0.042275768
3	0xbde08ab9	-0.10963959
4	0x3e108ef6	0.14117035
5	0xbb08792f	-0.0020824184
6	0x3d4a2929	0.04935566
7	0x3c9f0c6c	0.019415103
8	0xbd225ce0	-0.039639354
9	0xbd8605e0	-0.06544089
10	0x3e312323	0.1729856
11	0x3c94198b	0.018078586
12	0x3e8df304	0.2772447
13	0x3d61fa72	0.055170484
14	0xbdb578e4	-0.08860949
15	0x3cf14f9b	0.029456904
16	0xbe125f24	-0.14294106
17	0x3dd927b5	0.10603277
18	0xbc0c9027	-0.0085792905
19	0xbda7b517	-0.08188837
20	0xbda75ee5	-0.081723966
21	0xbdef8204	-0.116947204
22	0x3e5a6a96	0.21329722
23	0x3c5cca57	0.013475976
24	0xbe0f0844	-0.13967997
25	0x3e2b3562	0.16719583
26	0xbd12e952	-0.035867043
27	0xbdab9c99	-0.08379478
28	0x3e2f107a	0.17096129
29	0xbc569dae	-0.013099117
30	0xbcbd1a22	-0.02308375
31	0xbe5074df	-0.20357083
32	0xbd997db4	-0.07494679
33	0x3e55fe77	0.20897852
34	0xbdc97256	-0.09836261
35	0xbc1fd35d	-0.009754983
36	0xbccb35a1	-0.024805846
37	0x3e85c3cd	0.26125947
38	0xbaf07b02	-0.0018347206
39	0x3e1b40ef	0.15161489
40	0xbcac7c0f	-0.02105525
41	0xbe2927f6	-0.1651915
42	0x3d63b44c	0.055591866
43	0x3d43681a	0.0477067
44	0xbe6eb50f	-0.23311256
45	0x3e514b5a	0.204389
46	0x3e432576	0.19057259
47	0xbe0f82bf	-0.1401472
48	0x3d0253bd	0.03181814
49	0x3d7d13a9	0.061786328
50	0xbdadb771	-0.08482254
51	0xbb8993e7	-0.0041985395
52	0x3d655888	0.055992633
53	0x3dc62cba	0.096765
54	0x3dddfc50	0.108391404
55	0x3d0e94b4	0.034809783
56	0x3db0beb5	0.086301245
57	0x3d80bc49	0.062859125
58	0x3e31c932	0.17361906
59	0x3e5a539e	0.2132096
60	0xbe28af0f	-0.1647303
61	0x3e109f08	0.14123166
62	0xbecca5a0	-0.39970112
63	0x3d18e8f1	0.037331525
64	0xbd975f83	-0.07391264
65	0xbe0fa7ac	-0.14028805
66	0x3e1ad6c8	0.15120995
67	0xbe93e5f7	-0.28886387
68	0xbde406d3	-0.11134114
69	0xbe3d5edf	-0.18493222
70	0xbd207633	-0.039175224
71	0xbd9334be	-0.07187794
72	0x3d49e820	0.049293637
73	0xbd8173de	-0.06320928
74	0x3e948980	0.29011154
75	0x3df932e1	0.121679075
76	0x3d858839	0.06520123
77	0xbd1c6002	-0.038177498
78	0x3d1c2f2d	0.038130928
79	0x3df7130c	0.1206418
80	0xbd62a399	-0.0553318
81	0x3d9ba04d	0.07598934
82	0x3de01b9f	0.10942768
83	0x3cae7248	0.021294728
84	0xbcf1d425	-0.029520104
85	0xbe4c6ebb	-0.19964115
86	0xbd4c14c1	-0.04982448
87	0xbcdccf9d	-0.026954466
88	0xbd4ba41a	-0.049717046
89	0xbd3f64da	-0.04672704
90	0x3c5d2fe7	0.01350019
91	0xbda80466	-0.08203964
92	0x3dac1917	0.08403223
93	0x3d0b7d50	0.034055054
94	0x3d9733aa	0.07382901
95	0x3d63a469	0.055576716
96	0x3d38234e	0.044955544
97	0x3df6cfbb	0.1205134
98	0xbde81411	-0.11331952
99	0x3c226160	0.009910911
100	0x3dd72e48	0.10506874
101	0xbed0de18	-0.40794444
102	0xbad62d89	-0.0016340475
103	0x3e64ca6a	0.2234284
104	0x3b9f0028	0.0048523135
105	0xbda9a03b	-0.08282515
106	0x3c510c1d	0.012759236
107	0x3c90a532	0.017656896
108	0xbc858439	-0.0162984
109	0xbe242357	-0.16029106
110	0x3df5016b	0.11963161
111	0x3d43a126	0.047761105
112	0x3d463c01	0.048397068
113	0x3d8a468d	0.06751738
114	0xbdf83287	-0.12119012
115	0x3df0436b	0.11731609
116	0x3ca1193b	0.019665351
117	0xbc4e6836	-0.012598088
118	0xbde6a1c5	-0.11261324
119	0x3dea6869	0.11445696
120	0x3e421db2	0.1895664
121	0x3eaab7fb	0.3334349
122	0x3da75c16	0.08171861
123	0x388c9ad2	6.704558e-05
124	0xbe174913	-0.1477397
125	0xbdd86ac4	-0.10567239
126	0x3dff10f8	0.124544084
127	0xbcddab3b	-0.027059188
128	0x3dc75b39	0.09734196
129	0xbc4b653f	-0.012414276
130	0x3dc565ad	0.09638534
131	0x3d912131	0.07086409
132	0xbd770ad0	-0.060313046
133	0xbdf217cb	-0.118209444
134	0x3d953472	0.07285394
135	0xbb39b6c3	-0.0028337694
136	0x3d5be720	0.053687215
137	0xbe04db8b	-0.12974374
138	0x3e2d053c	0.16896528
139	0xbcdd790e	-0.027035262
140	0xbc7cb1c6	-0.015423244
141	0x3c0d1bfb	0.008612628
142	0xbd889977	-0.06669896
143	0xbdc16322	-0.09442736
144	0xbe3f7fb5	-0.1870106
145	0x3cf13668	0.029444888
146	0xbdaba5c0	-0.08381224
147	0xbda99e94	-0.082821995
148	0x3c94ce72	0.018164847
149	0x3d59ae7a	0.05314491
150	0xbdd8b344	-0.10581067
151	0xbe2245b1	-0.15846898
152	0x3d74ef23	0.05979837
153	0x3db59d9c	0.08867952
154	0xbc5fa66e	-0.01365052
155	0xbe1ee2df	-0.15516232
156	0x3df54ac1	0.11977149
157	0x3d54b22a	0.051927723
158	0xbeaf689c	-0.34259498
159	0xbe32f110	-0.1747477
160	0xbdfc064a	-0.12305887
161	0x3ddff604	0.10935596
162	0xbcfae5ed	-0.030627215
163	0x3d492636	0.049108706
164	0x3d7c2680	0.061560154
165	0x3ea2c93f	0.31794164
166	0x3d0e2e81	0.03471232
167	0xbcb11aff	-0.021619318
168	0x3d69f4a5	0.057118077
169	0xbd93e28e	-0.07220946
170	0x3e2256ab	0.15853374
171	0x3d07e077	0.03317305
172	0xbd078142	-0.033082254
173	0x3dc60687	0.09669214
174	0x3e063820	0.13107347
175	0x3e32568b	0.17415826
176	0x3c51c9f2	0.012804495
177	0xbcf14911	-0.029453786
178	0xbd1b998b	-0.037988227
179	0x3d75c1f2	0.059999414
180	0xbd1a9d24	-0.037747517
181	0xbcade029	-0.021225052
182	0x3ce3057a	0.027712572
183	0x3d04ecd7	0.03245243
184	0x3e3f91be	0.1870794
185	0x3e0fa37c	0.14027208
186	0xbd465733	-0.048423003
187	0xbe381829	-0.17977966
188	0xbd60d5bb	-0.05489133
189	0x3d4cb697	0.04997882
190	0xbf198788	-0.5997243
191	0xbc5fc177	-0.013656965
192	0xbc80b7ba	-0.015712608
193	0xbd511053	-0.05104096
194	0x3c012f16	0.007884761
195	0x3dd6b1ac	0.10483107
196	0x3ce0ee24	0.027457304
197	0xbccc7922	-0.024960104
198	0xbda1e69d	-0.07905314
199	0xbccc0675	-0.024905423
200	0x3d42a1be	0.04751753
201	0x3e5f6bc1	0.21818449
202	0xbd4e3b18	-0.050349325
203	0x3d6ac913	0.057320666
204	0x3d805d38	0.0626778
205	0x3d1b3394	0.037890986
206	0x3d6703f7	0.056400266
207	0xbd68b872	-0.056816526
208	0x3cf44d29	0.02982195
209	0x3c23d487	0.009999401
210	0x3e1b3f59	0.15160884
211	0xbd7a4f6f	-0.06111091
212	0xbd90d201	-0.07071305
213	0x3d972f99	0.073821254
214	0x3e6aa31f	0.22913788
215	0x3dc401e6	0.095706746
216	0xbd3f074b	-0.046637814
217	0x3bc32b49	0.0059560877
218	0x3d3c75b3	0.046010684
219	0x3dcdcab4	0.10048428
220	0x3dd5a83d	0.104324795
221	0x3de5d035	0.11221353
222	0x3db015f2	0.08597936
223	0x3d0397e4	0.032127276
224	0x3e21b741	0.15792562
225	0x3da1cf91	0.07900918
226	0x3deb16cc	0.114789575
227	0xbb2fd996	-0.0026832572
228	0xbd9844a2	-0.07434966
229	0x3c6ee4af	0.01458089
230	0x3cdcb1c0	0.026940227
231	0x3d9f2eab	0.07772573
232	0x3e04c3b9	0.12965287
233	0x3d8e2494	0.069405705
234	0x3e22117d	0.15826984
235	0x3e05d2ea	0.13068739
236	0x3d7fc5e8	0.062444597
237	0xbccad382	-0.024759058
238	0xbe438f36	-0.190976
239	0x3dd04315	0.10169045
240	0x3a9af492	0.0011822155
241	0xbd9d8625	-0.07691602
242	0xbd7d8418	-0.061893553
243	0x3d967d14	0.073480755
244	0xbd8b9ef7	-0.068174295
245	0xbcf010ae	-0.029304828
246	0x3dc1ab49	0.09456498
247	0x3d0b9028	0.034073025
248	0xbd6589f7	-0.056039777
249	0xbc17bb8d	-0.009261024
250	0x3d4f36a3	0.050589215
251	0xbd59d9a8	-0.05318609
252	0x3e2b50eb	0.16730087
253	0xbd74c763	-0.059760462
254	0x3e42ab23	0.19010596
255	0x3e1afe0d	0.15135975

model.2.bias f4 [64]
0	0xbd481a0b	-0.04885296
1	0x3dc606af	0.096692435
2	0x3e1db7a9	0.15402092
3	0x3e345991	0.17612292
4	0xbd1f5ea4	-0.038908616
5	0x3e4c18e9	0.19931377
6	0x3c3baad0	0.011454299
7	0x3f020b5c	0.50798583
8	0x3eaecfab	0.34142813
9	0x3db363ad	0.08759246
10	0x3da8ac98	0.08236045
11	0x3e813e4f	0.2524285
12	0x3e9f0e35	0.31065527
13	0x3c6b7030	0.014370009
14	0x3e660ede	0.22466609
15	0x3e8507e4	0.25982583
16	0x3e10e0cd	0.14148255
17	0x3d6ec72e	0.05829542
18	0x3d683e46	0.056700014
19	0x3e65f277	0.22455774
20	0x3daf3cf6	0.08556549
21	0xbd90a059	-0.07061834
22	0x3d2880c8	0.04113844
23	0xbde78d6d	-0.11306272
24	0x3d63fc55	0.055660564
25	0x3e3cc535	0.18434604
26	0x3e6477a1	0.2231126
27	0xbe1cab2c	-0.15299672
28	0x3dcb47fd	0.0992584
29	0x3e0bff71	0.13671662
30	0xbe5e3b2e	-0.21702263
31	0x3e72b95f	0.23703526
32	0xbd7e6efc	-0.06211756
33	0xbe30029c	-0.17188495
34	0x3e66b84b	0.2253124
35	0x3e091a2b	0.13388889
36	0x3eadb32e	0.33925766
37	0x3e9f8282	0.31154257
38	0x3e8a3873	0.26996192
39	0x3e580dc2	0.21098998
40	0xbe7b68b8	-0.24551666
41	0x3ea0c320	0.3139887
42	0x3e800e7f	0.2501106
43	0xbe3bda00	-0.18344879
44	0x3bb433be	0.005499332
45	0x3dc1a8ca	0.09456022
46	0xbe696a97	-0.22794567
47	0x3cd55cab	0.026045164
48	0xbdcf4771	-0.10121048
49	0x3e03540e	0.12825033
50	0x3ca5ff38	0.0202633
51	0x3ec2c68c	0.38042104
52	0x3e546dda	0.2074503
53	0xbe13ce5c	-0.14434189
54	0x3e87812b	0.26465735
55	0x3e6c8b7d	0.23100086
56	0x3e33b002	0.1754761
57	0x3e051d95	0.12999566
58	0xbe1dd17d	-0.15411945
59	0xbdf57864	-0.11985853
60	0x3d8d6e2f	0.069057815
61	0xbdc6db48	-0.09709793
62	0x3e8f3c5f	0.27975747
63	0x3e00469f	0.1252694

model.4.weight f4 [3, 64]
0	0xbd105ed1	-0.035246674
1	0xbd5e8978	-0.05433032
2	0x3d53899f	0.051644918
3	0x3d31d069	0.043411646
4	0xbe0d47e8	-0.13796961
5	0x3d809388	0.06278139
6	0x3e6261aa	0.22107568
7	0x3e7e9705	0.24862297
8	0x3dc3f65f	0.09568476
9	0xbe8cf618	-0.27531505
10	0xbdf0bec3	-0.11755135
11	0x3d66b828	0.05632797
12	0x3dfabd06	0.122430846
13	0xbdb14720	-0.08656144
14	0x3e343b1f	0.17600678
15	0xbb90f2e9	-0.0044234884
16	0x3d8e61c9	0.06952245
17	0xbc267a9b	-0.010161067
18	0x3e1ee713	0.15517835
19	0xbb909cdc	-0.0044132303
20	0xbbec157e	-0.0072047105
21	0xbdf8e346	-0.12152724
22	0xbe18114d	-0.1485035
23	0xbd213681	-0.03935862
24	0xbc7cde75	-0.015433897
25	0x3c8a4f61	0.016883554
26	0x3d447181	0.04795981
27	0x398cbbe6	0.00026842876
28	0xbdc2f8d5	-0.09520117
29	0x3c5d6b2a	0.013514319
30	0xbd4faaf6	-0.05070015
31	0x3dc342b3	0.09534206
32	0xbccd8182	-0.025086168
33	0xbd5a7555	-0.053334553
34	0x3e2ce5b0	0.16884494
35	0x3d34a8f8	0.044106454
36	0x3db44681	0.0880251
37	0x3e046fc6	0.12933263
38	0x3db2028b	0.08691891
39	0x3d4fa9e5	0.050699133
40	0x3d58f998	0.052972406
41	0xbad6f6ce	-0.0016400458
42	0x3d66f109	0.056382213
43	0xbe7344d5	-0.23756726
44	0xbd32882a	-0.043586887
45	0x3d8086c1	0.06275702
46	0xbda1af1f	-0.0789473
47	0xbe088908	-0.13333523
48	0xbd97a081	-0.074036606
49	0xbe57ffce	-0.21093675
50	0xbcce60c0	-0.025192618
51	0x3df90839	0.121597715
52	0xbd3609f6	-0.044443093
53	0xbd773226	-0.06035056
54	0x3dfc52dd	0.123204924
55	0x3e08aaa9	0.13346352
56	0xbc98b477	-0.01864074
57	0x3cc68ed0	0.02423802
58	0xbe19cb1f	-0.15018891
59	0xbd28c1fd	-0.041200627
60	0xbc134256	-0.008987984
61	0xbdc6392a	-0.09678872
62	0x3d904566	0.07044487
63	0x3e165348	0.14680207
64	0x3e3e2446	0.18568525
65	0xbdadaec6	-0.08480601
66	0x3dff3b7d	0.12462518
67	0xbd877fc1	-0.06616164
68	0x3dcdac68	0.100426495
69	0x3d574afe	0.052561752
70	0x3ca6618b	0.020310184
71	0xbd09bc57	-0.03362688
72	0x3e018d69	0.126516
73	0x3e76b0ec	0.24090928
74	0xbe9d6abe	-0.307455
75	0x3e039ea7	0.1285349
76	0x3def9f0f	0.1170026
77	0xbdc8a224	-0.09796551
78	0xbda07282	-0.07834341
79	0xbe3e740a	-0.18598953
80	0xbe04dddb	-0.12975256
81	0x3d256efc	0.040389046
82	0x3dcf33f6	0.10117333
83	0x3c844cf7	0.016149981
84	0x3e0abfa8	0.13549674
85	0x3cb58571	0.022158356
86	0x3dce1bfa	0.1006393
87	0xbe2a478d	-0.16628857
88	0xbdc2b6cd	-0.09507523
89	0xbd68b2cb	-0.056811135
90	0x3debffd9	0.115234084
91	0xbe1e65c5	-0.1546851
92	0x3dea2dc4	0.1143451
93	0xbdaf5cb1	-0.08562601
94	0xbc5fa527	-0.013650215
95	0x3db0dc85	0.08635811
96	0x3da5183a	0.080612615
97	0x3dfcbc44	0.12340596
98	0x3d250a23	0.04029287
99	0xbd632c01	-0.055461887
100	0xbd9dd1d1	-0.07706035
101	0x3dd1ef64	0.10250738
102	0xbd889e81	-0.06670857
103	0xbe134320	-0.14381075
104	0xbdb184d6	-0.086679146
105	0x3cf349ea	0.02969833
106	0xbd8e11d5	-0.06936995
107	0x3d7473cb	0.05968074
108	0x3db657f3	0.08903494
109	0xbd3197c0	-0.04335761
110	0xbe1bacaf	-0.15202592
111	0x3e5c0662	0.2148681
112	0x3e1f9fc7	0.15588294
113	0xbe069e53	-0.13146333
114	0x3d93ddb1	0.07220019
115	0xbe3f65c0	-0.18691158
116	0x3d441916	0.047875486
117	0xbdd1d253	-0.10245194
118	0x3e07a5de	0.13246867
119	0x3d24cee6	0.040236376
120	0xbe2d34f1	-0.16914727
121	0xbe115c04	-0.14195257
122	0x3df1d921	0.11808992
123	0x3e252139	0.16125955
124	0x3e0cea0c	0.13761157
125	0xbdacedf3	-0.08443823
126	0xbd9e18e0	-0.07719588
127	0xbca24e81	-0.019812824
128	0xbdaf5915	-0.08561913
129	0x3d91fc4f	0.07128202
130	0xbe4d683e	-0.20059296
131	0xbd3c800e	-0.04602056
132	0x3e16b503	0.14717488
133	0x3d61a498	0.05508861
134	0xbd65135f	-0.055926677
135	0xbd03abd3	-0.032146286
136	0x3d94ffa8	0.07275325
137	0x3c8a9963	0.016918844
138	0xbe340acd	-0.17582245
139	0xbe20dce7	-0.15709268
140	0x3d62bdc7	0.055356767
141	0xbdac617a	-0.0841703
142	0x3cba0ede	0.022712167
143	0x3e07d8b1	0.13266255
144	0x3e0a975b	0.135343
145	0x3da56490	0.080758214
146	0xbdce7eba	-0.10082765
147	0x3e1370ff	0.14398573
148	0xbb896719	-0.0041931984
149	0xbe0c3b39	-0.13694467
150	0x3e05a8fd	0.13052745
151	0xbdc3beb7	-0.0955786
152	0x3e224ee4	0.15850407
153	0xbd39ac4b	-0.045330327
154	0x3e27b2f0	0.16376853
155	0xbd38decc	-0.04513435
156	0xbd937a18	-0.07201022
157	0x3d9330e3	0.07187059
158	0x3c37c3b8	0.011216097
159	0x3de082d6	0.10962455
160	0x3d4cb522	0.04997743
161	0xbd55afa0	-0.052169442
162	0xbd111110	-0.035416663
163	0xbda13d83	-0.078730606
164	0x3e259d3e	0.16173264
165	0x3dc8aa22	0.09798075
166	0x3d015c9f	0.03158247
167	0x3bb141c8	0.005409453
168	0xbdbc6950	-0.09199774
169	0x3d396f33	0.045272063
170	0xbe61ce1a	-0.22051278
171	0x3e09e042	0.13464454
172	0x3d61f9a7	0.055169728
173	0xbde568ef	-0.11201655
174	0xbe04f994	-0.12985831
175	0xbe1e2762	-0.15444711
176	0x3d58396a	0.05278913
177	0x3ce81849	0.028331893
178	0x3bdd2157	0.006748359
179	0x3e0b1b56	0.13584647
180	0x3e18f037	0.14935385
181	0xbd1370a4	-0.035996094
182	0xbd2211c9	-0.039567742
183	0xbbb4482a	-0.0055017667
184	0x3e0865a7	0.13320027
185	0xbdce2ad4	-0.100667626
186	0xbcd60a24	-0.026127882
187	0xbd8e56cc	-0.06950149
188	0xbc8b1894	-0.016979493
189	0x3e158a40	0.1460352
190	0xbe648498	-0.22316206
191	0xbb8f290e	-0.004368908

model.4.bias f4 [3]
0	0x3dc70b0e	0.097189054
1	0xbc9936e3	-0.01870293
2	0x3d40e8c0	0.047096968
