exported_models/neural_networks/raw_mlp/trained_models/mlp_dynamics.pth (torch, 22097 bytes, 6 tensors)

model.0.weight f4 [64, 5]
0	0xbe30bb80	-0.17259026
1	0x3e8321fe	0.2561187
2	0x3efa78d1	0.489203
3	0xbea00e48	-0.31260896
4	0xbe0983bf	-0.13429163
5	0xbe7b77cd	-0.24557419
6	0xbe50d446	-0.20393476
7	0x3e5012b7	0.20319639
8	0x3e328d38	0.17436683
9	0x3e29a8b0	0.16568255
10	0x3e80d711	0.25164083
11	0xbe1927b7	-0.14956556
12	0x3e4187f2	0.18899515
13	0xbc24236a	-0.010018209
14	0xbe3c8dee	-0.18413517
15	0x3d8099f1	0.06279362
16	0x3ea38690	0.319386
17	0xbe45ca62	-0.19315484
18	0xbe0ea0ab	-0.13928477
19	0x3e499cae	0.19688675
20	0x3dbb4d24	0.09145573
21	0xbe7c0aca	-0.2461349
22	0xbb91e485	-0.0044522905
23	0x3de80e7a	0.11330886
24	0x3c3bd0db	0.011463369
25	0x3d36527c	0.044512257
26	0x3e991522	0.29898936
27	0xbe11ce0d	-0.14238758
28	0xbde3739b	-0.11106034
29	0x3e682d22	0.22673467
30	0x3ed81603	0.42204294
31	0x3ec36a33	0.3816696
32	0x3e8c7a30	0.27436972
33	0x3d9f46b2	0.07777156
34	0x3b2d6ca3	0.0026462458
35	0x3d8bead2	0.06831898
36	0xbe60986d	-0.21933146
37	0x3ecae63e	0.39628786
38	0xbe04fa55	-0.12986119
39	0x3ecfdb68	0.4059708
40	0x3e933452	0.28750855
41	0x3ebb0a2e	0.36531204
42	0x3e8ccc01	0.27499393
43	0x3e3cc62c	0.18434972
44	0x3e87d2da	0.26528054
45	0x3d769241	0.060198072
46	0x3e6bc44f	0.23024105
47	0x3e834a88	0.256428
48	0x3d3199a7	0.043359425
49	0x3dae2262	0.08502652
50	0x3e96048f	0.29300353
51	0xbe9cb486	-0.30606478
52	0x3ec524ab	0.38504538
53	0xbd873b1a	-0.066030696
54	0xbd1efe50	-0.03881675
55	0x3e7c7e24	0.24657494
56	0xbe1e08c8	-0.15433037
57	0x3ea3915f	0.31946847
58	0x3e09334e	0.13398477
59	0xbc57fb31	-0.013182447
60	0xbe8a9e01	-0.27073672
61	0x3c24e038	0.010063224
62	0xbe912d83	-0.28355035
63	0x3e595e27	0.21227323
64	0x3da49cc7	0.080377154
65	0x3ec2dd65	0.38059536
66	0x3ea44b6a	0.32088786
67	0xbd395538	-0.045247287
68	0x3ea68b35	0.32528082
69	0x3ea783bd	0.32717696
70	0xbea3eaa7	-0.32014963
71	0x3edb6bcf	0.4285569
72	0x3e316591	0.17323901
73	0xbd147492	-0.036243983
74	0xbcd3f75e	-0.02587479
75	0x3ef31b3b	0.47481713
76	0xbc853b21	-0.016263546
77	0xbe56e63b	-0.20986263
78	0xbe048fa4	-0.1294542
79	0x3d7b689c	0.06137906
80	0xbe901e02	-0.28147894
81	0xbd90c0a5	-0.07067994
82	0xbd56eaf4	-0.052470163
83	0xbe027316	-0.12739214
84	0xbe07092f	-0.13187097
85	0xbdaf5dae	-0.0856279
86	0xbe5a9670	-0.2134645
87	0xbefa6adb	-0.4890965
88	0xbd92ba64	-0.071644574
89	0xbdf79d4b	-0.12090548
90	0x3e6fc62d	0.23415442
91	0xbea178d1	-0.31537488
92	0xbe0084da	-0.12550679
93	0x3cdf785c	0.027279072
94	0x3c91cd23	0.017798012
95	0xbefa278d	-0.488583
96	0x3c97bd2d	0.018522823
97	0x3e5d9950	0.21640515
98	0x3e05a1c4	0.1304999
99	0xbd80bec0	-0.06286383
100	0x3db385a1	0.08765722
101	0xbc9d55d3	-0.019205963
102	0xbed60945	-0.41803947
103	0x3d2d83c6	0.042361997
104	0x3e78122b	0.2422568
105	0xbd754a18	-0.059885114
106	0xbeb572e0	-0.35439205
107	0xbec53369	-0.38515785
108	0x3df9fbf5	0.1220626
109	0x3e6512b3	0.22370414
110	0x3e6bf60d	0.2304308
111	0x3ed08d42	0.4073277
112	0x3e25d8bc	0.16195959
113	0x3e049353	0.12946825
114	0xbd2b31c1	-0.041795496
115	0xbee69662	-0.45036608
116	0xbe37ff80	-0.1796856
117	0x3ea14f3f	0.31505772
118	0x3e1ccb9b	0.15312044
119	0x3ce7663b	0.02824699
120	0xbed1e5d2	-0.4099565
121	0xbeb8c6ab	-0.36089072
122	0xbeccb6db	-0.39983258
123	0x3e52f780	0.20602226
124	0x3d6828ff	0.056679722
125	0x3dec9a94	0.11552921
126	0xbd4b02d4	-0.049563244
127	0x3ec74acf	0.38924262
128	0x3dadc6b4	0.08485165
129	0x3d5eed1d	0.054425348
130	0xbe106977	-0.14102732
131	0x3ec0f3ba	0.3768595
132	0x3bbe2d91	0.005803772
133	0xbe2ff647	-0.17183791
134	0xbc9c0577	-0.019045575
135	0xbe41a96a	-0.18912283
136	0x3e9ff4f4	0.31241572
137	0xbce0d634	-0.02744589
138	0x3d021e5c	0.031767234
139	0x3e3305f9	0.17482747
140	0xbd43df92	-0.047820635
141	0x3e14f9ea	0.1454846
142	0xbe860340	-0.26174355
143	0x3db6657b	0.089060746
144	0xbe878336	-0.26467294
145	0x3d6cf9ee	0.05785554
146	0x3e1c6159	0.1527151
147	0x3ead68c3	0.3386899
148	0x3d552aff	0.052042957
149	0x3db69180	0.08914471
150	0x3e236171	0.1595514
151	0x3e564364	0.20924145
152	0x3e9df95a	0.30854303
153	0x3e0373b6	0.12837109
154	0xbe75f4a9	-0.24019112
155	0xbe451c1a	-0.19249001
156	0xbeae8877	-0.3408849
157	0xbe0b031a	-0.13575402
158	0xbddfdb81	-0.10930539
159	0x3d0cbe10	0.034360945
160	0x3d994e3f	0.074856274
161	0x3dfaa7bc	0.12239024
162	0x3ca27428	0.019830778
163	0xbe1c5449	-0.15266527
164	0xbdb4e2d7	-0.08832329
165	0xbe93bf51	-0.288569
166	0xbc73a877	-0.014871708
167	0xbe141bda	-0.1446375
168	0xbdbb8715	-0.09156624
169	0x3d1aad2e	0.037762813
170	0xbec42555	-0.38309732
171	0x3e59e34e	0.21278116
172	0xbe95df33	-0.2927185
173	0x3c8f9bb8	0.017530307
174	0x3e96c9e8	0.29450917
175	0x3ea660d3	0.32495746
176	0x3da19212	0.07889189
177	0x3d73a77e	0.059485905
178	0x3e151e2d	0.14562292
179	0x3e1a8a0d	0.15091725
180	0xbdd7a737	-0.105299406
181	0x3e902196	0.28150624
182	0x3eaa0f39	0.3321474
183	0xbe767fd7	-0.24072205
184	0xbec930aa	-0.3929494
185	0xbd854d4f	-0.06508886
186	0x3ef46f16	0.47741002
187	0xbed75355	-0.42055765
188	0xbc89d1d0	-0.01682368
189	0x3ed5b30b	0.4173816
190	0xbee4da12	-0.44697624
191	0xbed4aef4	-0.4153973
192	0x3eb71270	0.35756254
193	0xbd9519b3	-0.07280292
194	0x3e592fa7	0.21209584
195	0x3eb0c899	0.34528044
196	0xbde20ea5	-0.110379495
197	0xbe0ac06f	-0.1354997
198	0x3c89315b	0.016747167
199	0x3e6e4fea	0.23272672
200	0xbc449d44	-0.012000386
201	0xbb5ca626	-0.0033668368
202	0xbe8a59f8	-0.27021766
203	0xbc80f784	-0.015743025
204	0xbd863a83	-0.06554129
205	0xbd501e4b	-0.05081014
206	0x3d8cf51a	0.06882687
207	0x3d44026b	0.04785387
208	0xbc1ce8d7	-0.009576998
209	0xbdbc468a	-0.09193142
210	0x3ed63ac8	0.41841722
211	0x3ec4f950	0.3847146
212	0xbea99416	-0.33120793
213	0x3d82ff28	0.063963234
214	0xbe4ab86e	-0.19796917
215	0x3e642357	0.22279106
216	0xbe703e6c	-0.23461312
217	0x3ca00370	0.01953289
218	0x3da060c6	0.07830958
219	0xbe57dc7f	-0.21080206
220	0x3ed20dc0	0.41026115
221	0xbd00e2af	-0.031466182
222	0x3eedf134	0.46473086
223	0xbea88255	-0.32911935
224	0xbdf9d6c0	-0.121991634
225	0xbed66ab9	-0.41878298
226	0xbec110ee	-0.3770823
227	0xbe8c9e98	-0.27464747
228	0xbda0fc40	-0.07860613
229	0xbb774d5f	-0.0037735326
230	0x3e54ad2d	0.20769186
231	0x3dcc74b7	0.09983199
232	0x3ec43747	0.38323423
233	0xbdf3501c	-0.11880514
234	0xbcfca369	-0.030839639
235	0x3eadecd9	0.33969763
236	0x3ea37515	0.31925264
237	0xbe8b8fa6	-0.27258033
238	0x3d75c6e9	0.06000415
239	0xbe26417f	-0.16235922
240	0x3c2be45e	0.010491459
241	0xbebf69e3	-0.37385473
242	0x3d8bc4e3	0.068246625
243	0xbdda4dea	-0.10659392
244	0xbe7f636c	-0.2494027
245	0xbe70ca03	-0.23514561
246	0x3eab5b74	0.3346821
247	0xbe77e654	-0.24208957
248	0xbda047ff	-0.07826232
249	0xbcfd570b	-0.030925294
250	0x3e8ff487	0.28116247
251	0xbece1b1b	-0.40255055
252	0x3e96a0af	0.29419467
253	0x3dbf2a5c	0.09334251
254	0x3d1df32a	0.038561977
255	0x3e0165ed	0.12636538

model.0.bias f4 [64]
0	0x3e6435c2	0.22286132
1	0x3ed81ba2	0.42208582
2	0xbd40e603	-0.047094356
3	0x3f400bae	0.7501782
4	0x3dcd9737	0.100386076
5	0xbe855159	-0.26038626
6	0xbe26eb8a	-0.16300789
7	0xbea9bb89	-0.3315089
8	0xbeb0b910	-0.3451619
9	0xbf20e30b	-0.6284644
10	0x3ef21981	0.47285083
11	0xbdaf556a	-0.08561213
12	0xbe300173	-0.17188053
13	0x3ee3f428	0.44522214
14	0xbdd12ee7	-0.10214024
15	0x3ed2d9ad	0.41181698
16	0x3e7ade89	0.24498953
17	0xbeb640e1	-0.35596374
18	0x3d99f95f	0.07518267
19	0xbed930e4	-0.42420113
20	0xbdc40dcc	-0.09572944
21	0x3e11e4be	0.14247414
22	0x3eadb2ec	0.3392557
23	0xbe4421cb	-0.19153516
24	0x3f10f8af	0.5662946
25	0xbf04c405	-0.518616
26	0xbe1a8b75	-0.15092261
27	0xbc7bb39d	-0.015362647
28	0x3e6091cd	0.21930619
29	0x3e7ec23f	0.24878787
30	0x3d77702d	0.060409714
31	0xbe920636	-0.28520364
32	0xbe02ded3	-0.12780313
33	0x3ea8ebb4	0.32992327
34	0x3dc06fff	0.093963616
35	0xbe90d9ba	-0.28291112
36	0xbdd8b72d	-0.10581813
37	0xbeaf6556	-0.34257
38	0x3dcec538	0.1009621
39	0xbe8e1977	-0.27753803
40	0x3f2cc407	0.67486614
41	0x3e9c65b0	0.3054633
42	0xbdc50912	-0.09620871
43	0x3d563836	0.0522997
44	0x3e883dca	0.2660964
45	0x3e24fe22	0.16112569
46	0xbee4d05c	-0.44690216
47	0xbda023b6	-0.07819311
48	0x3f03ec06	0.5153202
49	0x3c3b275f	0.011422961
50	0xbc5029a3	-0.0127052395
51	0xbe25d2df	-0.16193722
52	0xbee4038a	-0.4453395
53	0x3e8464cc	0.25858152
54	0x3e9faf26	0.31188315
55	0x3dbcf909	0.09227187
56	0xbd6cea15	-0.057840426
57	0x3da5b81b	0.08091756
58	0xbec84c62	-0.39120775
59	0x3ec21a09	0.37910488
60	0xbee478c4	-0.44623387
61	0xbda7e349	-0.08197648
62	0x3e273200	0.16327667
63	0xbe4b2e8e	-0.19841978

model.2.weight f4 [64, 64]
0	0xbd5ca013	-0.053863596
1	0xbd8434ad	-0.064553596
2	0xbdd4e424	-0.10395077
3	0x3e359ac4	0.1773482
4	0x3e11c9d4	0.14237148
5	0x3d39138d	0.04518466
6	0xbdb328f9	-0.08748049
7	0x3cf08a76	0.029362898
8	0x3d984007	0.07434087
9	0x3e6d17f6	0.23153672
10	0xbd97cc3d	-0.07412002
11	0x3df2aac9	0.11848981
12	0x3abf539c	0.0014597061
13	0xbb839779	-0.0040158597
14	0x3e2367c7	0.15957557
15	0x3d64fea7	0.055906918
16	0x3c570809	0.013124474
17	0x3d08f9d7	0.03344139
18	0xbd003b04	-0.03130628
19	0x3df35339	0.11881108
20	0x3dfca068	0.123352826
21	0xbc6171ad	-0.013760013
22	0xbcc68ea0	-0.02423793
23	0xbd251e50	-0.04031211
24	0x3ccddaf4	0.025128819
25	0x3e853629	0.26017883
26	0x3e0dd861	0.13852073
27	0x3c4fc0d0	0.012680247
28	0x3e15da2e	0.1463401
29	0xbe037bec	-0.12840241
30	0xbd220351	-0.039553944
31	0x3e09c977	0.13455759
32	0xbcdd4098	-0.02700834
33	0xbd3b35db	-0.045705657
34	0x3e22f15a	0.15912381
35	0x3c19a9c0	0.00937885
36	0x3dd909e3	0.10597589
37	0x3e03a84c	0.12857169
38	0x3ae65339	0.001757241
39	0xbd6ae500	-0.057347298
40	0x3dbee0fe	0.093202576
41	0x3c4be828	0.012445487
42	0x3e0529b3	0.13004188
43	0xbcafc305	-0.021455297
44	0x3ce3ae7a	0.027793158
45	0x3daa26c6	0.08308177
46	0x3c740c63	0.014895531
47	0x3db245ee	0.08704744
48	0x3dd46120	0.103700876
49	0x3d62e904	0.055398002
50	0x3d5aa1ee	0.053377084
51	0xbc861696	-0.016368192
52	0x3c9bceda	0.019019533
53	0x3bb740a7	0.005592424
54	0x3d682579	0.05667636
55	0xbd0f79e8	-0.03502837
56	0x3dde5631	0.108562835
57	0xbd475d82	-0.04867316
58	0xbc098dae	-0.0083955955
59	0x3e353bfe	0.17698666
60	0x3d4fb2e4	0.050707713
61	0xbc9da866	-0.019245338
62	0x3daf2d7b	0.085535966
63	0x3dc37e51	0.09545577
64	0x3e203a97	0.1564735
65	0xbd18244a	-0.037143983
66	0x3e1501a7	0.14551412
67	0x3dc78615	0.09742371
68	0xbd9bb96a	-0.07603724
69	0xbcbc7165	-0.02300329
70	0x3e5141da	0.20435277
71	0x3dcd1f25	0.10015706
72	0x3e229328	0.15876448
73	0x3d2589b2	0.04041452
74	0xbd002ed1	-0.031294648
75	0x3d515ec1	0.051115755
76	0x3de8e454	0.11371675
77	0x3dabc97a	0.08388038
78	0x3db54622	0.088512674
79	0x3d8cc4a6	0.06873445
80	0xbd90fa40	-0.070789814
81	0xbd245299	-0.040117834
82	0x3ceb57d8	0.02872841
83	0xbd8246e5	-0.06361178
84	0x3b1f5948	0.002431469
85	0x3dd4f5f4	0.10398474
86	0x3d8765b6	0.06611197
87	0xbceb51ac	-0.028725468
88	0x3d859178	0.065218866
89	0x3e3e372c	0.18575734
90	0x3e0f221a	0.13977852
91	0x3e17889e	0.14798209
92	0x3c3fd125	0.011707579
93	0xbcbc3063	-0.022972291
94	0x3e059475	0.13044913
95	0xbd368bd3	-0.04456694
96	0x3dee1731	0.11625517
97	0xbd5e57cf	-0.05428296
98	0x3e174e24	0.14775902
99	0xbb29c4de	-0.0025904696
100	0xbc6b5164	-0.014362667
101	0xbbe9d41f	-0.0071358825
102	0xbd966749	-0.07343919
103	0x3dca1c2b	0.09868654
104	0x3e8b54c8	0.2721312
105	0x3db5f74a	0.08885057
106	0x3e58fbdd	0.21189828
107	0x3d7cf0c4	0.06175305
108	0xbc659b94	-0.0140141435
109	0xbd344a85	-0.04401638
110	0x3c5a7ee9	0.013335922
111	0xbc8b79e1	-0.01702589
112	0x3db191d1	0.086703904
113	0x3e16e1f5	0.14734633
114	0xbd9cd0ca	-0.07657011
115	0x3d2b6378	0.041842908
116	0x3d5110fd	0.051041592
117	0xbd41145c	-0.047138557
118	0xbd737a56	-0.05944284
119	0x3da81123	0.082063936
120	0x3c88fa2a	0.01672085
121	0xbd7ce5dc	-0.06174265
122	0xbd717d8b	-0.058957618
123	0x3da64d2c	0.08120188
124	0x3b896496	0.004192899
125	0x3d391bf9	0.045192692
126	0x3c889726	0.016673636
127	0x3d9b199f	0.07573246
128	0xbdc6ce8b	-0.09707364
129	0xbc7054dd	-0.0146686705
130	0x3d9dba0a	0.077015
131	0xbd6e5b3e	-0.058192484
132	0x3e2aac02	0.16667178
133	0xbd4ea85c	-0.05045353
134	0x3d9c1cd0	0.07622683
135	0xbdda5175	-0.10660068
136	0xb9c7a093	-0.00038075875
137	0x3dcdddfc	0.10052106
138	0x3dd9963a	0.106243566
139	0x3daa4647	0.083141856
140	0xbda98c2a	-0.08278687
141	0xbda3e4c5	-0.08002619
142	0x3d8481b9	0.06470055
143	0x3def5bdc	0.11687443
144	0x3d806be1	0.06270576
145	0x3d4cdbd2	0.050014324
146	0x3e8a1d06	0.26975268
147	0x3d115695	0.03548296
148	0x3dc3326b	0.09531101
149	0x3ce116e3	0.027476734
150	0x3d2c8976	0.04212328
151	0xbce025f9	-0.027361857
152	0x3d679789	0.056541
153	0x3e150ec2	0.14556411
154	0xbd29fc48	-0.04150036
155	0x3e0c5d2c	0.13707417
156	0x3d3b3594	0.045705393
157	0xbc8c7d16	-0.01714949
158	0xbda6ac12	-0.081382886
159	0x3da68e52	0.08132614
160	0x3b48233e	0.0030538584
161	0xbd812093	-0.06305041
162	0x3dcfa16c	0.10138211
163	0x3ca8f7f7	0.020626051
164	0x3c9e35fd	0.019312853
165	0x3a2a5caa	0.00064987934
166	0x3d91ba48	0.071156085
167	0x3d1f3ea0	0.038878083
168	0x3e422467	0.18959199
169	0xbd90bb67	-0.07066994
170	0xbd3c3ce0	-0.045956492
171	0x3d3fae11	0.046796862
172	0x3d9151e6	0.07095699
173	0xbcc730f5	-0.024315337
174	0x3e1b486c	0.15164346
175	0x3d5a0005	0.053222675
176	0xbcc25ef2	-0.023726914
177	0xbe04dcbb	-0.12974827
178	0x3e52161d	0.20516248
179	0x3e10ff8f	0.14159988
180	0x3dc6f0c5	0.09713892
181	0xbcdfe9a1	-0.027333083
182	0x3dd6c161	0.10486103
183	0x3d4d4df9	0.05012319
184	0x3bd501a9	0.006500442
185	0x3e036956	0.12833151
186	0x3d1737b6	0.036918364
187	0x3d673f92	0.05645711
188	0xbe01d4f6	-0.12678894
189	0xbda29762	-0.0793903
190	0x3b706f59	0.0036687462
191	0x3d240956	0.040047966
192	0xbcfb6ec1	-0.03069246
193	0x3de46dad	0.111537315
194	0xbb85cae5	-0.004083025
195	0x3e07245b	0.13197462
196	0x3cdd07e2	0.026981298
197	0xbd8a6238	-0.06757015
198	0x3df17313	0.11789527
199	0x3d88d6ba	0.06681581
200	0x3e07eb36	0.1327332
201	0x3cee0d77	0.029059155
202	0x3da43500	0.080179214
203	0xbd827f1b	-0.063719
204	0x3d204ee6	0.039137743
205	0x3e008028	0.12548888
206	0xbe1b1ae2	-0.15146974
207	0x3e2e1c3a	0.17002955
208	0xbbf18f6f	-0.007371835
209	0xbb669cdb	-0.0035188708
210	0xbd3c3c25	-0.045955796
211	0xbd8dd3fc	-0.069251984
212	0xbd1912fe	-0.037371628
213	0x3e06611e	0.13122985
214	0x3e201d39	0.15636148
215	0x3cf0dd99	0.029402541
216	0x3c2e1e67	0.010627366
217	0xbd3c34a6	-0.045948647
218	0x3cc04005	0.023468027
219	0x3cb67c2c	0.022276007
220	0xbdd65c00	-0.10466766
221	0x3e2fcf64	0.17168957
222	0x3e3cb4df	0.18428372
223	0xbc9b06a9	-0.018924074
224	0xbc4dd598	-0.012563132
225	0xbcdfde6f	-0.027327744
226	0x3e059216	0.13044009
227	0x3e5a2ef9	0.21306981
228	0x3c1396ab	0.00900809
229	0xbdb74235	-0.08948175
230	0x3db137a3	0.0865319
231	0x3d146385	0.03622772
232	0xbe1b03d7	-0.15138184
233	0x3db2cc45	0.087303676
234	0x3dc4c70a	0.09608276
235	0xbd89b17b	-0.06723305
236	0x3e2e1b25	0.17002542
237	0x3db4824e	0.08813916
238	0x3d493f3f	0.04913258
239	0x3d9b2bef	0.07576739
240	0xbd9fd70b	-0.07804688
241	0xba66e898	-0.0008808463
242	0x3d16a2b4	0.03677626
243	0x3cdbe759	0.026843714
244	0x3d8e0b6e	0.06935774
245	0xbd249657	-0.040182438
246	0x3e86151d	0.26187983
247	0x3da94155	0.08264414
248	0xbc3a9c58	-0.011389814
249	0x3c94373b	0.018092742
250	0xbe14522c	-0.14484471
251	0x3da9bce2	0.0828798
252	0x3dbef784	0.093245536
253	0x3bd948cc	0.0066309925
254	0x3d027145	0.031846303
255	0xbdef29bf	-0.11677884

model.2.bias f4 [64]
0	0xbd6a660f	-0.057226237
1	0xbd2a96fa	-0.04164789
2	0x3c99379a	0.01870327
3	0x3d3f2c36	0.046673022
4	0xbd48f413	-0.049060892
5	0xbd836e06	-0.0641747
6	0xbdf3cbae	-0.11904083
7	0xbcd7178d	-0.026256347
8	0x3e1378dd	0.14401574
9	0x3df14517	0.11780756
10	0x3e800e61	0.2501097
11	0x3dd5029d	0.10400889
12	0xbe0f9e71	-0.14025284
13	0x3dde92e4	0.10867861
14	0xbce9b9ad	-0.02853092
15	0x3cc99fc8	0.024612322
16	0x3e98e209	0.2985995
17	0x3e7b9e6c	0.24572152
18	0x3d027615	0.031850893
19	0x3e4f71e9	0.20258297
20	0x3e08462a	0.13308015
21	0xbdd496bd	-0.103803135
22	0xbddc9deb	-0.10772308
23	0x3c7933e9	0.01521013
24	0x3dd14fc3	0.102202915
25	0x3dd974b4	0.106179625
26	0xbded78a7	-0.11595278
27	0xbdcfcd96	-0.10146634
28	0x3e2bfe7e	0.167963
29	0x3e0e6e8a	0.13909355
30	0xbdb1143e	-0.08646439
31	0x3e325d38	0.17418373
32	0xbcc10080	-0.023559809
33	0x3d10237e	0.035190098
34	0x3dbbfff1	0.09179676
35	0x3e489781	0.19589044
36	0x3d21a787	0.039466407
37	0x3e029dc8	0.12755501
38	0x3ccc30da	0.024925638
39	0x3dbf2cbe	0.09334706
40	0x3b3a855c	0.0028460836
41	0xbdc52412	-0.096260205
42	0x3da90996	0.082537815
43	0x3e9942ab	0.29933676
44	0x3ddd69ae	0.108111724
45	0x3e0216b9	0.1270398
46	0x3e5fbb91	0.21848895
47	0xbd30f841	-0.043205503
48	0x3d30707a	0.043076016
49	0x3e308714	0.17239028
50	0x3e9beec3	0.30455598
51	0x38c9646c	9.603132e-05
52	0x3d95f3b4	0.07321873
53	0x3d7e3106	0.06205847
54	0x3c059eb6	0.008155515
55	0x3d8c2847	0.0684362
56	0xbce1a55b	-0.027544668
57	0x3d01f2da	0.031725742
58	0x3d27591f	0.040856477
59	0x3e31182d	0.17294379
60	0x3b88bc55	0.0041728416
61	0x3abd18f5	0.0014426993
62	0x3e4bff78	0.19921672
63	0x3db6e6a9	0.08930714

model.4.weight f4 [3, 64]
0	0xbdfdbb32	-0.1238922
1	0x3de4eec3	0.11178353
2	0x3dc92d2d	0.0982307
3	0x3e80044a	0.25003272
4	0xbe0f3a38	-0.13987052
5	0x3d3ebba9	0.046565685
6	0x3d83fbfb	0.06444546
7	0x3c9c6af5	0.01909397
8	0xbe5bca52	-0.21463898
9	0xbd8f80c6	-0.070069835
10	0xbd859ef5	-0.06524459
11	0xbc0f79c3	-0.008757058
12	0x3a43ad66	0.0007464498
13	0xbe017924	-0.12643868
14	0xbe11c80e	-0.14236471
15	0x3e120731	0.14260556
16	0x3cbfdf74	0.02342198
17	0xbc43f195	-0.011959453
18	0x3be247ee	0.0069055473
19	0x3e132482	0.14369395
20	0xbe8ec45d	-0.27884188
21	0x3db849a5	0.089984216
22	0xbd732b55	-0.059367497
23	0x3b4184c6	0.0029528602
24	0x3d38d01c	0.045120344
25	0x3c77ffa4	0.015136633
26	0xbc4bcd43	-0.012439075
27	0xbbd6154a	-0.0065332996
28	0xbe0cf36a	-0.1376473
29	0xbc523797	-0.012830636
30	0xbde297de	-0.110641226
31	0x3c874778	0.016513571
32	0xbd3e1c5c	-0.046413764
33	0xbe2af28d	-0.16694088
34	0xbe5e1d78	-0.21690929
35	0xbe784e10	-0.24248528
36	0x3dde5f8c	0.10858068
37	0xbd4b0772	-0.049567647
38	0x3deacca9	0.11464817
39	0x3e6184b3	0.22023277
40	0xbe8a4fa1	-0.27013877
41	0x3cafc50f	0.02145627
42	0x3e81352f	0.25235888
43	0x3b6cf6ad	0.0036157772
44	0xbe39c3ba	-0.1814107
45	0xbe1975e3	-0.14986376
46	0xbb9f333e	-0.0048584035
47	0x3e8ae515	0.271279
48	0x3c7dcb68	0.01549039
49	0xbd68381e	-0.056694143
50	0x3dbc95f2	0.09208287
51	0x3cb9c936	0.022678953
52	0x3b3102ec	0.0027009798
53	0x3e12fe6a	0.14354864
54	0xbe349a46	-0.17636976
55	0xbd3c377e	-0.04595136
56	0x3e119a79	0.14219083
57	0xbc3818a3	-0.011236343
58	0x3e809897	0.25116417
59	0xbe5f5563	-0.21809916
60	0xbd713a50	-0.0588935
61	0xbe3ec360	-0.18629217
62	0xb5c396d0	-1.4572524e-06
63	0x3c359577	0.0110829985
64	0x3d47960c	0.04872708
65	0x3e386009	0.18005385
66	0xbe638d2b	-0.2222182
67	0xbd928bb9	-0.07155556
68	0xbe049596	-0.12947688
69	0xbe8d8190	-0.2763791
70	0xbe2aa3b8	-0.16664016
71	0x3e13f60c	0.14449328
72	0x3e57c62b	0.21071689
73	0xbd2c033a	-0.041995265
74	0x3c96620b	0.018357297
75	0xbd3c0c4f	-0.045910176
76	0x3b912752	0.004429736
77	0xbdc86474	-0.09784785
78	0xbe4ed33b	-0.20197766
79	0x3e033894	0.12814552
80	0x3cd7842c	0.026308142
81	0x3db00c12	0.08596052
82	0xbd43a905	-0.04776861
83	0x3e136d57	0.14397179
84	0x3dcfa275	0.10138408
85	0xbe6b5b1f	-0.22983979
86	0x3db61122	0.088899866
87	0x3b4e192d	0.0031448111
88	0xbd971da6	-0.07378702
89	0x3b141947	0.0022598074
90	0xbc10fc0d	-0.008849156
91	0x3b88638c	0.0041622575
92	0x3cdef3f0	0.027215928
93	0xbbeee8a7	-0.007290918
94	0x39ed777c	0.00045293185
95	0xbd7627b6	-0.060096465
96	0xbd75ebb2	-0.06003923
97	0x3e324fd7	0.17413269
98	0x3cf5b1ce	0.02999201
99	0x3ce9c7da	0.02853768
100	0xbe45313a	-0.1925706
101	0x3e1177bf	0.14205836
102	0xbe52ffc6	-0.20605382
103	0x3bbee241	0.0058253114
104	0x3b88f7e3	0.004179941
105	0xbc85b205	-0.016320238
106	0xbd11fd45	-0.035641927
107	0x3ccf0167	0.025269223
108	0xbd274f93	-0.040847372
109	0xba93cb80	-0.0011275858
110	0xb83b10a8	-4.4599787e-05
111	0x3e7b50c8	0.24542534
112	0x3e50bd24	0.20384651
113	0x3c7047d1	0.01466556
114	0xbd77559e	-0.060384385
115	0xbcac100c	-0.021003745
116	0x3cb0d6c9	0.021586793
117	0xbe75f440	-0.24018955
118	0xbe23a9d2	-0.1598275
119	0x3d9a48ad	0.07533393
120	0x3e2c788e	0.16842863
121	0xbc837204	-0.016045578
122	0xbd511cc3	-0.05105282
123	0x3e82935e	0.25503057
124	0xbe6a5f30	-0.22887874
125	0xbbd23568	-0.006415058
126	0x3ca65225	0.020302841
127	0xbcbf6442	-0.023363236
128	0xbe330160	-0.17480993
129	0xbdaaeabc	-0.08345553
130	0xbcbcf241	-0.023064734
131	0x3e0a6c8a	0.13517967
132	0xbd844907	-0.06459241
133	0xbba8bcc4	-0.0051494557
134	0xbc1be873	-0.009515869
135	0xbde04259	-0.10950155
136	0x3d8fb84c	0.07017574
137	0x3e02c479	0.12770261
138	0xbe61a19e	-0.22034308
139	0xbd9c039f	-0.07617878
140	0x3ce66060	0.028122127
141	0x3e0c1380	0.13679314
142	0x3ccfdb5d	0.025373155
143	0xbdd17876	-0.10228054
144	0xbe08c5e3	-0.13356738
145	0x3d22ffdb	0.039794784
146	0x3c221c89	0.009894499
147	0x3e0348d1	0.12820746
148	0x3e005e9b	0.12536089
149	0xbba5c09c	-0.005058361
150	0x3a87600d	0.0010328308
151	0x3c80b526	0.015711378
152	0x3e3eb5ac	0.1862399
153	0xbe2dae42	-0.16961005
154	0xbd7cf27d	-0.061754692
155	0x3e33ee6c	0.1757142
156	0x3dcd43d3	0.10022702
157	0xbe0479fe	-0.12937161
158	0x3d70d81a	0.05879984
159	0xbd9cae92	-0.07650484
160	0x3da011c7	0.07815891
161	0x3be537c0	0.0069951713
162	0x3dae0f86	0.084990546
163	0x3d8ad844	0.06779531
164	0xbe083735	-0.1330231
165	0xbdeb55af	-0.11490952
166	0xbb031960	-0.0020004138
167	0x3d917d82	0.07104017
168	0x3a19f456	0.00058728957
169	0xbb8be6a0	-0.004269436
170	0x3dbfafb5	0.09359685
171	0x3e337ed6	0.17528853
172	0xbae5284c	-0.0017483323
173	0xbc14c8e7	-0.009081102
174	0xbd30d1c3	-0.043168794
175	0x3be02723	0.006840603
176	0xbd50149c	-0.050800905
177	0x3e1fc136	0.15601048
178	0xbe27b389	-0.16377081
179	0xbcd1c46e	-0.02560636
180	0x3de90b4a	0.11379106
181	0xbce177fd	-0.027523035
182	0x3ac20732	0.001480317
183	0x3c887d4d	0.01666131
184	0xbaadc6cf	-0.0013258102
185	0xbe049243	-0.1294642
186	0x3cedf464	0.029047199
187	0x3dbfde54	0.093685776
188	0xbdcf343a	-0.10117383
189	0xbe2c2330	-0.16810298
190	0x3dac2c51	0.0840689
191	0xbdcf78f4	-0.10130492

model.4.bias f4 [3]
0	0xbd24f0ac	-0.040268585
1	0x3d6c1703	0.057639133
2	0x3dee99d6	0.116504356
