exported_models/neural_networks/raw_mlp/trained_models/model_epoch_30_batch_64_lr_0001_vs_30_hl_128_128_128_drop_1/mlp_dynamics.pth (torch, 140499 bytes, 8 tensors)

model.0.weight f4 [128, 5]
0.1926397 0.15900792 0.38759333 0.0014864322 0.0009431116 0.20214589 -0.35330254 -0.040039875
-0.008791735 -0.0013160662 -0.22520624 0.4437616 0.24947006 -0.005355257 0.008659936 0.34297696
-0.40473053 0.3486045 0.00373682 0.0048992694 0.19815162 -0.44187495 0.12586688 0.0037145382
-0.0010836449 -0.29004517 -0.26003417 -0.17121282 -0.0006299153 -0.0033792977 -0.41456163 0.25284335
0.053240955 0.033954684 -0.018990805 -0.19113675 -0.37480426 0.3738807 -0.0016307833 -0.00018286434
-0.35765135 -0.20491117 0.010829279 0.0025057276 0.0047770217 0.24881934 -0.3884839 0.4925852
0.010809051 0.009837044 0.12069976 -0.46358314 -0.033479594 0.0031554943 0.0022307793 0.32845777
-0.12946104 -0.08195622 0.0011868366 0.0016182429 0.2903116 -0.06446572 -0.37200597 2.2642442e-05
0.0016214439 0.19023806 0.47769693 0.030454503 -0.0013749828 0.0053961114 0.36571655 0.15336612
0.21696152 0.002840033 0.00026846654 0.48015997 -0.49600616 -0.43025872 -0.0064317505 0.000517991
-0.21099223 -0.12253953 0.32263795 -0.00041668685 -0.0015728023 0.18504651 -0.21434341 -0.4658973
0.011308442 -0.0021787207 -0.18384698 0.25144464 -0.38899472 -0.0010066509 -0.0073695956 -0.28000832
0.4473606 -0.0928173 -0.0040917792 0.0020483588 -0.429535 0.3038247 -0.4505492 -0.013973847
0.0046760235 0.1295324 0.10447616 0.3639886 0.0048497748 -0.0019762209 -0.38579857 0.48853078
0.11753971 0.011625187 -0.0038090649 -0.26532373 0.13796452 -0.4140965 -0.0030722776 -0.0024818527
0.28128073 -0.4855333 0.097879514 0.0047049946 -0.002801124 -0.26125216 0.5488473 0.40537587
-0.0031059624 0.0019997235 -0.37149608 -0.23470321 -0.20237963 0.00033194522 -0.0037476204 -0.25665382
0.23027276 0.39696243 -0.018972982 0.010443312 -0.15253799 0.46737608 -0.27746564 0.009880398
-0.008803358 0.2268945 0.2525875 0.036531407 -0.0009574586 -0.000113990565 0.22952375 -0.21702771
-0.47186968 0.004243258 -0.003351208 -0.27157214 0.03423865 0.17478453 -0.14487454 -0.122704536
-0.33793235 -0.50064045 0.4318628 0.007969183 0.009941632 -0.25217 0.31083438 0.2635782
6.0506245e-06 -0.0011723724 -0.19547798 0.42996114 -0.20776655 -0.003835936 -0.00081043184 -0.11332679
-0.36783254 0.18510339 -0.0011334069 0.0051894877 -0.18144529 -0.36379212 0.4260473 0.0033604961
-0.0041688187 0.43005309 0.29282963 -0.4260146 0.001772247 -0.00020571455 0.12756364 -0.16010928
-0.24713694 0.008881355 0.0020397522 -0.29879177 -0.026707064 0.19423723 0.002928838 -0.0061265216
-0.17717561 -0.11822522 -0.3701364 -0.0076224105 -0.003056886 0.19277743 -0.28384766 0.3550465
0.0015756502 0.0033992212 -0.5252992 0.18023546 -0.112658456 -0.0075017903 -0.0020247914 0.13413662
-0.3384614 0.25522783 -0.0018946801 -0.00045926898 -0.21131648 -0.37388498 -0.10943884 0.0061870986
-0.00028134047 0.397421 -0.05480459 0.44048455 -0.007902711 -0.003410465 -0.5465659 0.4024101
-0.15215077 -0.010409524 0.00080309686 -0.35588798 -0.03413517 -0.32986555 -0.004448539 -0.0017608464
-0.2657812 -0.36429486 -0.11244201 0.010676744 0.0021220504 0.16141698 -0.18222462 0.40386817
-0.008140661 -0.0005814724 -0.21453312 0.4082343 -0.3306505 -0.003218898 -0.0012959681 0.49159387
00000000: 5743 453e f9d2 223e a272 c63e 63d4 c23a
00000010: 263b 773a 55ff 4e3e 12e4 b4be da00 24bd
00000020: 360b 10bc db7f acba 779c 66be b834 e33e
00000030: 1475 7f3e 277b afbb 67e2 0d3c ad9a af3e
00000040: d738 cfbe 4a7c b23e 70e5 743b 0d8a a03b
00000050: 42e8 4a3e 6f3d e2be 3fe3 003e 9c6f 733b
00000060: 1709 8eba cd80 94be 3323 85be 6a52 2fbe
00000070: e620 25ba 3577 5dbb 6c41 d4be af74 813e
00000080: 3013 5a3d 1114 0b3d 9b92 9bbc 5ab9 43be
00000090: 58e6 bfbe 4b6d bf3e 02c0 d5ba 46bf 3fb9
000000a0: 141e b7be 3cd4 51be 4a6d 313c 2237 243b
000000b0: 9088 9c3b 7fca 7e3e 5de7 c6be 2134 fc3e
000000c0: 7218 313c 8e2b 213c 7031 f73d c55a edbe
000000d0: e621 09bd 69cc 4e3b 4432 123b 9e2b a83e
000000e0: 6f91 04be aad8 a7bd a18f 9b3a 391b d43a
000000f0: b9a3 943e 9a06 84bd 9177 bebe 46f0 bd37
00000100: a186 d43a c4cd 423e b194 f43e b97b f93c
00000110: c438 b4ba ddd1 b03b 333f bb3e 020c 1d3e
00000120: 292b 5e3e d91f 3a3b f8c0 8c39 87d7 f53e
00000130: 85f4 fdbe df4a dcbe 6fc1 d2bb cac9 073a
00000140: 590e 58be 01f6 fabd cd30 a53e c376 dab9
00000150: 7d26 ceba d57c 3d3e d77c 5bbe 178a eebe
00000160: 0b47 393c dec8 0ebb 6242 3cbe 5abd 803e
00000170: 512a c7be 99f1 83ba a67c f1bb 405d 8fbe
00000180: 730c e53e ff16 bebd 5514 86bb c23d 063b
00000190: 03ec dbbe e98e 9b3e 62ae e6be 90f2 64bc
000001a0: 5439 993b 24a4 043e 99f7 d53d b75c ba3e
000001b0: dcea 9e3b 7c83 01bb 6487 c5be b520 fa3e
000001c0: a9b8 f03d 9177 3e3c 81a1 79bb 83d8 87be
000001d0: 9246 0d3e 7504 d4be 4458 49bb 94a6 22bb
000001e0: 0704 903e d297 f8be 0e75 c83d 5b2c 9a3b
000001f0: 1093 37bb d8c2 85be 4281 0c3f 6d8d cf3e
00000200: 678d 4bbb cb0d 033b bc34 bebe 0a56 70be
00000210: 9b3c 4fbe ef08 ae39 a39a 75bb 2168 83be
00000220: 9fcc 6b3e a93e cb3e 3a6d 9bbc 6d1a 2b3c
00000230: eb32 1cbe eb4b ef3e fa0f 8ebe 65e1 213c
00000240: f63b 10bc 0857 683e 2653 813e f5a1 153d
00000250: f5fd 7aba 380e efb8 4608 6b3e 833c 5ebe
00000260: e798 f1be 070b 8b3b f19f 5bbb 810b 8bbe
00000270: d43d 0c3d b7fa 323e fe59 14be 844c fbbd
00000280: 7805 adbe f929 00bf 1f1d dd3e 2d91 023c
00000290: 3ae2 223c 6d1c 81be af25 9f3e b9f3 863e
000002a0: 7806 cb36 4aaa 99ba 612b 48be de23 dc3e
000002b0: c1c0 54be 5464 7bbb 2973 54ba e017 e8bd
000002c0: 8c54 bcbe be8b 3d3e d38e 94ba 940c aa3b
000002d0: cbcc 39be f642 babe df22 da3e c53b 5c3b
000002e0: 969a 88bb eb2f dc3e c4ed 953e 961e dabe
000002f0: be4a e83a 14b5 57b9 0ba0 023e b0f3 23be
00000300: 7711 7dbe 1a83 113c 5dad 053b 3cfb 98be
00000310: c6c8 dabc 20e6 463e bff1 3f3b fdc0 c8bb
00000320: 866d 35be 1020 f2bd 8582 bdbe 6ac5 f9bb
00000330: 0956 48bb 7267 453e 7b54 91be a8c8 b53e
00000340: 0c86 ce3a 78c5 5e3b 027a 06bf a58f 383e
00000350: 7ab9 e6bd 94d1 f5bb 5db2 04bb 1c5b 093e
00000360: d04a adbe 39ad 823e ea56 f8ba 0aca f0b9
00000370: 5963 58be da6d bfbe 7821 e0bd 25bd ca3b
00000380: e180 93b9 c47a cb3e c77a 60bd 3187 e13e
00000390: 5f7a 01bc 1c82 5fbb beeb 0bbf b208 ce3e
000003a0: 69cd 1bbe b58c 2abc eb86 523a f336 b6be
000003b0: 52d1 0bbd 23e4 a8be 0dc5 91bb 33cc e6ba
000003c0: 7914 88be db84 babe ff47 e6bd 83ed 2e3c
000003d0: 1912 0b3b 7e4a 253e 1799 3abe cfc7 ce3e
000003e0: 6860 05bc f46d 18ba 92ae 5bbe 1604 d13e
000003f0: 064b a9be 26f4 52bb 79dd a9ba 31b2 fb3e

model.0.bias f4 [128]
-0.16605929 -0.34588715 -0.34375215 -0.042975802 -0.14476039 -0.2897266 -0.3092181 -0.12925716
-0.08293763 -0.24906877 -0.40732196 -0.29631346 -0.3178787 -0.08058883 -0.45217928 -0.22681756
-0.021184005 -0.16073269 0.0040847566 -0.14036494 -0.34194544 -0.4439585 -0.31502706 0.07075611
-0.4115342 -0.28543594 -0.40317857 -0.33459273 -0.021186445 -0.03040467 -0.42047188 -0.41049114
-0.29610917 -0.102468 -0.08633908 -0.034440853 -0.10866993 -0.4140314 -0.40691966 0.030436462
-0.11049247 -0.04861872 -0.17990234 -0.063816786 -0.21703535 -0.19890141 -0.33735195 -0.08127697
-0.026300693 -0.20698658 -0.12928393 -0.43423575 -0.28172007 -0.4098063 -0.15729971 -0.32607582
-0.32995638 -0.026123535 -0.036082402 -0.45948455 0.049097985 -0.17033982 -0.13604349 0.053491022
-0.024821 -0.16352274 -0.12053171 -0.1464203 -0.43806186 -0.02351411 -0.027523482 -0.0464122
-0.0029376247 -0.15938412 -0.27113137 0.0026279455 -0.04403994 -0.29109997 -0.09639405 -0.17160666
-0.17644702 -0.36951882 -0.32413185 0.016629478 -0.24442112 -0.32195726 -0.28233445 -0.49641594
-0.2917362 -0.32429785 -0.12839195 -0.30768162 -0.21459736 -0.5309425 -0.03162285 -0.12041839
-0.29211232 -0.4099066 -0.10287409 -0.20068781 -0.0034800074 -0.2262181 -0.25111225 -0.4458828
-0.22350743 -0.51318914 -0.075870015 -0.23727323 -0.23750746 -0.37308496 -0.4953751 -0.31860617
-0.29614976 -0.12263161 -0.55821663 -0.25879148 -0.35079214 -0.29926857 -0.30590498 -0.1486394
-0.016911961 -0.2866225 -0.29209363 -0.24587369 -0.35224956 -0.1140274 -0.19632617 -0.47345284
00000000: 720b 2abe 1f18 b1be 4800 b0be 6507 30bd
00000010: 113c 14be 0b57 94be d651 9ebe fd5b 04be
00000020: 34db a9bd e20b 7fbe 818c d0be 66b6 97be
00000030: ffc0 a2be c20b a5bd 0b84 e7be dd42 68be
00000040: 148a adbc 1c97 24be 6cd9 853b d4bb 0fbe
00000050: 7913 afbe 874e e3be 3a4b a1be 94e8 903d
00000060: 9cb4 d2be a924 92be 6c6d cebe bd4f abbe
00000070: 328f adbc 3713 f9bc 1748 d7be e52b d2be
00000080: 9f9b 97be beda d1bd 8bd2 b0bd da11 0dbd
00000090: 578e debd ecfb d3be c657 d0be e355 f93c
000000a0: e049 e2bd 6c24 47bd 5238 38be 60b2 82bd
000000b0: 843e 5ebe d0ac 4bbe 65b9 acbe 8a74 a6bd
000000c0: 8d74 d7bc 4af4 53be 0263 04be 2654 debe
000000d0: 9d3d 90be 22d2 d1be 2d13 21be 69f3 a6be
000000e0: 0bf0 a8be 0601 d6bc 24cb 13bd 8f41 ebbe
000000f0: f81a 493d 906d 2ebe fc4e 0bbe 6719 5b3d
00000100: 6955 cbbc 8172 27be 54d9 f6bd 34ef 15be
00000110: a549 e0be aaa0 c0bc ed78 e1bc b81a 3ebd
00000120: 2a85 40bb 9735 23be bbd1 8abe 9c39 2c3b
00000130: 3963 34bd 0e0b 95be 3e6a c5bd a8b9 2fbe
00000140: 87ae 34be 9231 bdbe 9cf4 a5be 8b3a 883c
00000150: 8849 7abe 95d7 a4be 248e 90be 3b2a febe
00000160: 725e 95be 5e0a a6be 2e79 03be 7288 9dbe
00000170: 69bf 5bbe d9eb 07bf f686 01bd eb9d f6bd
00000180: bf8f 95be 47df d1be a7af d2bd 1b81 4dbe
00000190: d610 64bb b8a5 67be c991 80be c04a e4be
000001a0: 22df 64be 5d60 03bf bd61 9bbd c1f7 72be
000001b0: 2835 73be fe04 bfbe cea1 fdbe 5920 a3be
000001c0: f1a0 97be 4826 fbbd 49e7 0ebf 5180 84be
000001d0: 079b b3be bb39 99be 949f 9cbe ed34 18be
000001e0: f48a 8abc 2fc0 92be 4c8d 95be 50c6 7bbe
000001f0: 0e5a b4be 3387 e9bd ba09 49be 6968 f2be

model.3.weight f4 [128, 128]
-0.007604614 0.11336069 0.0086382255 -0.019370118 -0.032659948 0.089147 0.067958474 0.005130176
-0.069633126 0.10890124 0.035483867 0.07230025 0.05905082 -0.04211842 -0.030834725 -0.0026853806
0.022083135 0.027149595 -0.016132291 -0.03936328 0.06518104 0.009066205 -0.0038200081 0.0031875975
0.0900482 0.051510353 0.008355621 -0.012765507 -0.046017464 -0.052465 0.044791088 0.017117197
0.0372873 0.007980995 -0.03657584 0.007940609 0.035003554 -0.052079678 0.04165189 0.11356258
-0.0445303 0.10992866 -0.023646144 -0.010359053 -0.04799492 0.034045946 0.0049121655 -0.0041885986
-0.013528204 0.051381607 -0.04992908 0.12029585 -0.0022204546 0.04589819 0.005145386 0.07747787
0.11866399 -0.11711981 0.0122046 0.078889415 0.004382835 -0.07066571 0.0012588303 -0.009768805
-0.012544484 -0.75575435 0.038908504 0.0063425335 0.05455579 -0.10565323 -0.012362857 0.015003414
-0.40602 -0.042263668 -0.039312415 0.008718847 0.09236093 -0.029534776 -0.037546292 -0.20244882
0.011098979 -0.055948213 -0.06470253 -0.023692466 0.079013236 -0.19408903 0.02530512 0.03003723
-0.02457029 0.11635046 0.051651746 -0.32674536 -0.004166634 -0.07381976 -0.056436565 0.014313149
0.029611062 -0.23458548 -0.532489 0.032378357 -0.02605863 0.033826187 -0.036491886 -0.014198856
0.031666793 0.061916813 0.018350946 0.032054 0.057717748 0.040258132 -0.0692949 0.05826373
0.08788725 -0.014054478 -0.012111409 -0.0033092722 0.057030205 0.03702945 0.019656733 0.0077370023
-0.057038374 0.05937757 0.07652031 -0.046758026 -0.076869145 0.03217972 0.040976625 0.05538531
-0.00029019703 -0.8898728 0.10547389 -0.0008351515 0.0064909705 -0.002153162 0.046995685 -0.04271497
0.0073324423 0.0017039153 -0.42274776 -0.11791543 -0.037659615 -0.017751357 -0.040399235 -0.0006790399
-0.025030835 -0.0072180647 0.040319238 0.27276313 0.049971327 0.0033695397 0.07381121 0.0033383814
-0.4878129 0.015586409 0.021805454 -0.04379917 0.10271178 0.015682476 -0.02672585 -0.008193802
-0.030923277 0.097127676 0.17343707 0.01802546 -0.0360525 -0.0329721 -0.32500476 0.030962352
-0.0074101933 0.0042955806 0.061261475 0.00067494833 -0.011178027 0.013745522 -0.060201094 -0.0075564464
-0.0034187676 -0.012743765 0.0024575994 -0.039637364 -0.053363495 -0.053319696 0.048418168 0.0016885813
-0.021098977 0.015223987 0.008634382 -0.101658456 -0.0014804954 0.019676652 -0.0013919418 -0.0029898486
-0.016447157 0.04149783 0.01591954 -0.009004187 -0.017536094 0.024814097 0.012979648 0.012351633
0.0010554612 0.20224947 -0.0032405767 0.0019574468 0.05608104 -0.30233264 -0.015839472 0.032525975
0.023801109 0.038201958 -0.09038995 -0.0015743754 0.003063775 0.0005695121 -0.0181274 -0.35135555
-0.00741758 0.011401799 -0.0020214485 -0.025458928 -0.010128951 0.062645465 0.008290354 0.022434134
-0.09016363 -0.023013582 0.0349938 0.0022617688 0.0012423189 -0.01984821 -0.04895506 0.012109518
0.0031251705 -0.08312221 -0.0010786684 -0.06436308 0.012717865 -0.017388571 -0.010727962 -0.011453814
-0.02321491 -0.0063475827 -0.14840578 -0.03377288 -0.00636816 0.0024999678 0.016013648 -0.006040991
0.15183523 0.04866959 -0.021921188 -0.013954414 -0.024016982 -0.007141482 -0.016207522 0.02449386
00000000: 2030 f9bb a629 e83d 5887 0d3c 15ae 9ebc
00000010: 70c6 05bd b492 b63d d02d 8b3d 091b a83b
00000020: d09b 8ebd 9d07 df3d 8857 113d 2712 943d
00000030: 46df 713d 5d84 2cbd 1b99 fcbc 36fd 2fbb
00000040: b1e7 b43c d468 de3c de27 84bc 643b 21bd
00000050: a37d 853d 6b8a 143c 1a59 7abb 03e7 503b
00000060: 316b b83d 85fc 523d 04e6 083c 6b26 51bc
00000070: cf7c 3cbd 8ae5 56bd dc76 373d 5d39 8c3c
00000080: 91ba 183d b8c2 023c 8cd0 15bd 5419 023c
00000090: e35f 0f3d 8051 55bd 2c9b 2a3d 7f93 e83d
000000a0: 6765 36bd 4722 e13d 8fb5 c1bc 04b9 29bc
000000b0: 5296 44bd c373 0b3d 3bf6 a03b 8340 89bb
000000c0: 66a5 5dbc 8575 523d 6f82 4cbd ac5d f63d
000000d0: 0c85 11bb beff 3b3d a09a a83b b8ac 9e3d
000000e0: 1b06 f33d 83dc efbd cdf5 473c c690 a13d
000000f0: e29d 8f3b 2fb9 90bd 56ff a43a 560d 20bc
00000100: 6187 4dbc 1e79 41bf 865e 1f3d 07d5 cf3b
00000110: e475 5f3d b860 d8bd 958d 4abc e1d0 753c
00000120: dae1 cfbe ab1c 2dbd 0e06 21bd 7fd9 0e3c
00000130: ba27 bd3d eaf2 f1bc 24ca 19bd be4e 4fbe
00000140: 7ed8 353c f429 65bd c382 84bd b416 c2bc
00000150: b1d1 a13d 46bf 46be af4c cf3c a310 f63c
00000160: a247 c9bc 2649 ee3d c890 533d 2b4b a7be
00000170: 4288 88bb d02e 97bd 072a 67bd b381 6a3c
00000180: e692 f23c 2d37 70be 3351 08bf 2b9f 043d
00000190: e878 d5bc 548d 0a3d 8478 15bd 52a2 68bc
000001a0: 0ab5 013d 7c9c 7d3d b954 963c 0e4b 033d
000001b0: 7269 6c3d b6e5 243d 7cea 8dbd f3a5 6e3d
000001c0: 3bfe b33d c144 66bc ee6e 46bc 60e0 58bb
000001d0: 8198 693d 31ac 173d 2807 a13c ae86 fd3b
000001e0: 12a1 69bd e535 733d aeb6 9c3d 5885 3fbd
000001f0: 926d 9dbd e2ce 033d 1bd7 273d b5db 623d
00000200: 9625 98b9 b4ce 63bf b202 d83d 12ee 5aba
00000210: 35b2 d43b 101c 0dbb 8c7e 403d e4f5 2ebd
00000220: fc44 f03b e955 df3a 6572 d8be a57d f1bd
00000230: f840 1abd 4b6b 91bc ab79 25bd 9901 32ba
00000240: 770d cdbc 8485 ecbb c925 253d 9ca7 8b3e
00000250: bcae 4c3d 7fd3 5c3b 552a 973d bfc8 5a3b
00000260: 9dc2 f9be 235e 7f3c 5aa1 b23c c266 33bd
00000270: 8e5a d23d 8978 803c 2bf0 dabc 4c3f 06bc
00000280: d052 fdbc e0ea c63d 7d99 313e 21aa 933c
00000290: c9ab 13bd c10d 07bd 0667 a6be c2a4 fd3c
000002a0: 35d1 f2bb f1c1 8c3b 50ed 7a3d 04ef 303a
000002b0: 0b24 37bc e634 613c 6c95 76bd 119c f7bb
000002c0: 670d 60bb 39cb 50bc ad0f 213b ca5a 22bd
000002d0: ae93 5abd c165 5abd 2152 463d 6353 dd3a
000002e0: c3d7 acbc 086e 793c 3977 0d3c 4f32 d0bd
000002f0: 2f0d c2ba ee30 a13c d171 b6ba 56f1 43bb
00000300: 30bc 86bc a1f9 293d b269 823c 4c86 13bc
00000310: dba7 8fbc ef46 cb3c 97a8 543c 815e 4a3c
00000320: 6757 8a3a 7c1a 4f3e db5f 54bb 8248 003b
00000330: 3cb5 653d 58cb 9abe c8c1 81bc f539 053d
00000340: 8bfa c23c a879 1c3d 5e1e b9bd 465b ceba
00000350: 9dc9 483b 4f4b 153a ea7f 94bc e0e4 b3be
00000360: 2c0f f3bb 9cce 3a3c 477a 04bb 3e8f d0bc
00000370: e6f3 25bc 444c 803d 44d4 073c cac7 b73c
00000380: b6a7 b8bd fb86 bcbc a955 0f3d 2f3a 143b
00000390: 4ed5 a23a b798 a2bc 1a85 48bd 0067 463c
000003a0: a9cf 4c3b fa3b aabd 1b62 8dba cad0 83bd
000003b0: 985e 503c 7a72 8ebc 55c4 2fbc c7a8 3bbc
000003c0: 322d bebc 62ff cfbb aff7 17be 6e55 0abd
000003d0: ffab d0bb 80d6 233b 0e2f 833c 81f3 c5bb
000003e0: b27a 1b3e c459 473d 1094 b3bc 0ea1 64bc
000003f0: 43bf c4bc 1803 eabb a3c5 84bc 59a7 c83c

model.3.bias f4 [128]
-0.007343032 0.044070117 -0.05652908 -0.031459313 0.071801 0.07057957 0.023727573 0.038640063
0.031003436 0.045965534 0.09473817 0.08189421 0.03644241 0.048622 0.025988203 0.091842316
0.040263295 0.032486796 0.026448067 0.037590228 -0.036304824 0.036955077 0.032231875 0.015761862
0.039289802 0.043895707 0.042088494 0.03761324 0.041683014 -0.04607834 0.020596834 0.056292564
0.058857642 0.063455805 -0.09375242 0.049693845 0.010256497 0.017055526 -0.002685101 0.040378477
0.022407506 -0.08224945 -0.09143536 0.037054982 0.0347676 0.062390868 0.014647342 -0.08256694
0.06367071 0.059841707 -0.081928685 0.04692799 -0.04252387 0.059128266 -0.020856924 0.016158495
0.08080477 0.027099447 0.03239473 0.012213123 0.032200567 0.048423663 0.05355235 0.00953249
0.04518076 0.05311556 0.032819103 -0.061757717 0.050441056 0.010173208 0.052563984 -0.016605604
0.039721493 0.090913706 -0.048300628 -0.052697357 -0.003626013 -0.031446554 -0.054773264 -0.03195764
-0.03333163 -0.040831298 0.052269187 -8.178304e-05 -0.006218031 0.1539034 0.1362853 -0.02551838
-0.016259585 -0.14305948 0.043878064 -0.045781676 -0.03608434 -0.04081286 0.00723607 0.045954805
0.069872364 -0.002533409 0.07298334 -0.08591267 0.044950005 0.024881428 0.03673338 0.03440685
0.020233765 0.07108241 0.04336685 0.07964244 -0.029013224 0.010550543 0.036514692 -0.08939882
0.035074007 0.044958863 0.022541847 -0.0072051636 0.03240609 0.02468404 -0.04698026 0.060559697
0.056927264 -0.017150803 0.034241624 0.029545834 0.010776853 -0.027461562 0.036776602 0.019135864
00000000: d19d f0bb de82 343d 098b 67bd 7bdb 00bd
00000010: 670c 933d 068c 903d 5460 c23c 0b45 1e3d
00000020: ebfa fd3c 5b46 3c3d 1606 c23d 27b8 a73d
00000030: a344 153d dd27 473d 36e5 d43c d317 bc3d
00000040: 20eb 243d e010 053d 9ea9 d83c 36f8 193d
00000050: 5eb4 14bd 355e 173d 9205 043d 051f 813c
00000060: 58ee 203d fccb 333d fc64 2c3d 5710 1a3d
00000070: cfbb 2a3d a4bc 3cbd b1ba a83c 0893 663d
00000080: b614 713d 1ef5 813d 4501 c0bd c68b 4b3d
00000090: de0a 283c 08b8 8b3c 85f8 2fbb e763 253d
000000a0: f28f b73c 6672 a8bd 7642 bbbd f7c6 173d
000000b0: 7968 0e3d 918d 7f3d 68fb 6f3c db18 a9bd
000000c0: ca65 823d 941c 753d 3aca a7bd 9037 403d
000000d0: 822d 2ebd 7b30 723d 24dc aabc d25e 843c
000000e0: f97c a53d a9ff dd3c 56b0 043d 8d19 483c
000000f0: bee4 033d e457 463d b559 5b3d 292e 1c3c
00000100: 760f 393d b48f 593d 536d 063d a9f5 7cbd
00000110: 489b 4e3d 87ad 263c 554d 573d 7a08 88bc
00000120: 01b3 223d f730 ba3d e1d6 45bd 2fd9 57bd
00000130: 67a2 6dbb 1ace 00bd ee59 60bd 04e6 02bd
00000140: bf86 08bd b83e 27bd 3718 563d ef82 abb8
00000150: a0c0 cbbb da98 1d3e 608e 0b3e ec0b d1bc
00000160: d232 85bc 2f7e 12be 7cb9 333d 9185 3bbd
00000170: 2ccd 13bd 632b 27bd 8e1c ed3b 1b3b 3c3d
00000180: 3e19 8f3d 8d07 26bb 4a78 953d fbf2 afbd
00000190: 7f1d 383d 23d4 cb3c be75 163d 32ee 0c3d
000001a0: 48c1 a53c a893 913d 70a1 313d 931b a33d
000001b0: 24ad edbc 2fdc 2c3c 6e90 153d bb16 b7bd
000001c0: c3a9 0f3d c926 383d aea9 b83c 4b19 ecbb
000001d0: 40bc 043d 2f36 ca3c 606e 40bd 720d 783d
000001e0: 902c 693d d77f 8cbc f240 0c3d 1b0a f23c
000001f0: 6691 303c 12f7 e0bc 10a3 163d d1c2 9c3c

model.6.weight f4 [128, 128]
0.008318698 0.026260044 0.0010689545 -0.034896813 0.036368843 -0.012501565 -0.04310291 -0.39235964
0.048666142 -0.029299997 -0.034152076 -0.007960957 -0.03909379 -0.08502059 0.034440257 -0.01737798
-0.20959324 -0.00090081687 -0.054714926 -0.039730314 0.02959424 0.062859416 0.040374577 -0.010999965
-0.03241293 -0.032453585 0.03777778 -0.039728425 0.0033771014 0.047802743 0.05237552 0.0121925175
-0.015281241 -1.8686737 0.016345065 -0.21921715 0.01592941 -0.033867296 0.048238665 0.038931638
-0.2493401 0.040304355 0.07601524 -0.069997996 -0.02936112 -0.041531518 -0.0038745627 0.029641539
-0.7624558 0.0065345997 -0.020201227 0.042791884 -0.004726693 0.033780165 -0.047978945 -0.025537334
-0.12041243 0.040046945 -0.018437546 -0.020700013 0.044029746 0.062611796 -0.6674546 0.021595808
0.11357074 -0.028599236 0.07402146 -0.0066009453 -0.025998289 -0.022161048 -1.5258279 0.013943854
-0.0134532275 -0.0061606835 0.02388248 0.23596022 -0.04644831 0.06662396 0.082871266 -0.047586046
-0.05495875 0.05004312 0.051827636 0.029655801 -0.030239578 -0.4319999 0.022876685 -0.0009933639
0.002129906 0.3838989 0.033511523 0.061578177 0.009783906 0.022514053 0.0415743 0.035264704
-0.0063657626 0.027455436 -1.8734195 0.009404337 -0.019028556 0.007130905 0.0656222 0.06407125
-0.07539683 -0.0871232 0.0040401947 0.048985835 0.06255825 0.08426585 -0.024600854 0.019961335
0.047462143 0.047487173 -0.0104048075 0.11636464 0.038765267 0.065220326 -0.020154977 -0.0352105
0.00014339418 -0.025586305 -0.010870675 0.0641205 0.003111402 -0.098979436 -0.0041736253 -0.06779774
-0.012987525 -0.34673914 0.00034886808 0.024744306 0.023239916 -0.1860413 -0.030423509 0.030489687
0.026099902 0.043283846 -0.011226744 -0.103054665 -0.049017016 0.043666743 0.073559664 0.018045358
0.017834846 -0.020949237 0.016133543 0.0072305277 -0.043029863 -0.039957657 -0.08548395 -0.0812558
-0.057617035 -0.015862398 -0.08734281 0.0817574 -0.018775407 -0.0002911096 0.0154649 0.050549608
-0.007321073 0.053552616 -0.0060896478 0.09878881 -0.016981278 -0.013939028 0.082725 0.0067737913
0.09884098 -0.08379191 0.0075752432 0.06240305 0.034219652 -0.0007764265 0.029844508 -0.059398383
-0.0045991507 -0.04072797 -0.03829983 0.029722791 -0.057617176 -0.077058084 0.065724745 0.051455397
-0.026341679 -0.02925145 -0.003549084 -0.102632545 -0.06620832 0.04795809 -0.012996786 0.053162277
-0.049417373 -0.037760027 0.038793333 0.015032007 0.0032861177 -0.08451738 0.04184446 -0.028495552
0.054272067 -0.0075357873 0.06238368 0.02337373 2.6629365e-05 -0.028792247 -0.017377203 0.009895313
-0.036702648 -0.07350337 -0.024016539 0.06628826 0.038413603 -0.013771958 0.011979885 -0.069721654
-0.036273222 0.111339696 -0.099410266 -0.027332129 -0.020190025 -0.008372534 -0.08955958 0.043750245
-0.1274291 0.018302456 0.0086527895 0.07154745 -0.02816545 -0.0069086193 -0.3287467 0.1065444
0.062681556 0.0334713 -0.020358274 -0.039320294 -0.14027973 0.07399414 0.02362823 -0.036038227
-0.03686224 -0.03897096 0.01069651 -0.07675871 -0.017231701 -0.006378438 0.037644785 -0.25822955
0.033779193 -0.06076923 0.08547235 0.012916061 0.0731203 0.010548778 -0.067368396 -0.026390947
00000000: 264b 083c 4e1f d73c 291c 8c3a f6ef 0ebd
00000010: 7ff7 143d 5dd3 4cbc ad8c 30bd 5de3 c8be
00000020: 2656 473d 8c06 f0bc 0ce3 0bbd ac6e 02bc
00000030: cf20 20bd 461f aebd 3a11 0d3d 445c 8ebc
00000040: 9c9f 56be cc24 6cba c21c 60bd 41bc 22bd
00000050: 9f6f f23c 70bc 803d d05f 253d 3239 34bc
00000060: 6cc3 04bd 0dee 04bd e0bc 1a3d 46ba 22bd
00000070: 5c52 5d3b cfcc 433d b787 563d 20c3 473c
00000080: 2c5e 7abc b330 efbf 16e6 853c 767a 60be
00000090: 657e 823c 6fb8 0abd e895 453d c876 1f3d
000000a0: 0353 7fbe 2e16 253d e1ad 9b3d 1c5b 8fbd
000000b0: bb86 f0bc f41c 2abd 60ec 7dbb d0d2 f23c
000000c0: 4e30 43bf 3220 d63b 0b7d a5bc 8b46 2f3d
000000d0: 60e2 9abb 125d 0a3d 9285 44bd ac33 d1bc
000000e0: cb9a f6bd 4408 243d 560a 97bc 1393 a9bc
000000f0: 8958 343d 9d3a 803d 4ede 2abf b1e9 b03c
00000100: c797 e83d f248 eabc 9098 973d be4c d8bb
00000110: 5dfa d4bc 168b b5bc 544e c3bf c374 643c
00000120: ed6a 5cbc 8fdf c9bb 31a5 c33c 8e9f 713e
00000130: 9540 3ebd 2572 883d 69b8 a93d 96e9 42bd
00000140: 6d1c 61bd 04fa 4c3d 3749 543d b9f0 f23c
00000150: feb8 f7bc 172f ddbe e367 bb3c c333 82ba
00000160: e595 0b3b 668e c43e 6143 093d 6639 7c3d
00000170: ad4c 203c 646f b83c d049 2a3d b971 103d
00000180: e397 d0bb 39ea e03c 36cc efbf a614 1a3c
00000190: c6e1 9bbc 5eaa e93b ef64 863d ca37 833d
000001a0: a769 9abd a66d b2bd 9c63 843b 5fa5 483d
000001b0: 8a1e 803d 9393 ac3d bb87 c9bc f485 a33c
000001c0: aa67 423d e981 423d ed78 2abc 9650 ee3d
000001d0: 54c8 1e3d 3c92 853d 0d1c a5bc e338 10bd
000001e0: 155c 1639 5f9a d1bc ea1a 32bc 9c51 833d
000001f0: aae8 4b3b bbb5 cabd e8c2 88bb 8bd9 8abd
00000200: a1c9 54bc cb87 b1be 48e8 b639 92b4 ca3c
00000210: a361 be3c 9c81 3ebe b93a f9bc 82c5 f93c
00000220: 76cf d53c 674a 313d 61f0 37bc 530e d3bd
00000230: 11c6 48bd e6db 323d 73a6 963d dcd3 933c
00000240: 621a 923c bc9d abbc 7e2a 843c 10ee ec3b
00000250: 1540 30bd a4aa 23bd 3612 afbd 7169 a6bd
00000260: d7ff 6bbd dcf1 81bc cae0 b2bd 6c70 a73d
00000270: e2ce 99bc 12a0 98b9 7e60 7d3c 1b0d 4f3d
00000280: 9de5 efbb fd59 5b3d ab8b c7bb ca51 ca3d
00000290: 521c 8bbc 8560 64bc ba6b a93d aef6 dd3b
000002a0: 246d ca3d 189b abbd bf39 f83b 579a 7f3d
000002b0: e829 0c3d 1a89 4bba 787c f43c b84b 73bd
000002c0: 79b4 96bb 5fd2 26bd 48e0 1cbd 367d f33c
000002d0: fdff 6bbd a1d0 9dbd b29a 863d e5c2 523d
000002e0: 81ca d7bc bda0 efbc c097 68bb 0331 d2bd
000002f0: 3a98 87bd b46f 443d 79f0 54bc b0c0 593d
00000300: df69 4abd 42aa 1abd c2e5 1e3d cf48 763c
00000310: e85b 573b 7317 adbd 1965 2b3d 816f e9bc
00000320: 634c 5e3d c4ee f6bb 0886 7f3d 447a bf3c
00000330: 2062 df37 b8dd ebbc a35a 8ebc f31f 223c
00000340: 8455 16bd ef88 96bd 55be c4bc 24c2 873d
00000350: 9557 1d3d c7a3 61bc 4847 443c 3aca 8ebd
00000360: 3b93 14bd 1106 e43d 9c97 cbbd a1e7 dfbc
00000370: 8d65 a5bc f42c 09bc 036b b7bd 7533 333d
00000380: c67c 02be 08ef 953c 6ec4 0d3c 7887 923d
00000390: 3bbb e6bc b361 e2bb 7d51 a8be f333 da3d
000003a0: 305f 803d 3419 093d 65c6 a6bc 510e 21bd
000003b0: 7da5 0fbe 3d8a 973d fd8f c13c d29c 13bd
000003c0: dcfc 16bd 03a0 1fbd 6a40 2f3c ac33 9dbd
000003d0: 7f29 8dbc 3702 d1bb 6b31 1a3d aa36 84be
000003e0: 0d5c 0a3d 28e9 78bd 210c af3d e39d 533c
000003f0: 19c0 953d c8d4 2c3c 71f8 89bd d431 d8bc

model.6.bias f4 [128]
0.21932243 0.16859688 0.1740757 0.16035916 0.22629373 0.24140263 0.21804878 0.19038686
0.18144754 0.2028205 0.20348187 0.17761035 0.2736127 0.18112467 0.2246962 0.20012708
0.2652419 0.2195946 0.1927991 0.17689109 0.21810137 0.17424206 0.12078565 0.23629537
0.2234599 0.2110037 0.2600198 0.1740138 0.21341096 0.19294171 0.12428388 0.12425318
0.12714781 0.15127063 0.23455678 0.23138478 0.20245609 0.17181468 0.1590823 0.21719489
0.24714358 0.22956994 0.14308739 0.16955313 0.15967765 0.1878635 0.22956571 0.24957941
0.15951627 0.1455032 0.2352374 0.17975569 0.2309592 0.19145161 0.2180233 0.25966838
0.17468803 0.22277173 0.31144327 0.19200495 0.26740193 0.26714748 0.18775237 0.15948066
0.17337756 0.22537895 0.21377636 0.11650777 0.16700697 0.12515216 0.2565109 0.18250419
0.23794936 0.24011512 0.21833408 0.1958349 0.21001954 0.13944256 0.1448495 0.15355586
0.2042578 0.13206376 0.2711084 0.2008113 0.17687109 0.13910243 0.17350161 0.16236387
0.107284606 0.21725729 0.20387095 0.20386261 0.23836574 0.21338198 0.22444598 0.19208002
0.19573124 0.1974934 0.11710926 0.20455568 0.18437622 0.24828668 0.23649739 0.13508068
0.17757428 0.17700535 0.22210422 0.138387 0.21388352 0.17413352 0.11554592 0.24658701
0.17685066 0.22012985 0.18946305 0.26138863 0.120128624 0.18713637 0.21362227 0.2468186
0.22064635 0.11632794 0.113522924 0.2402686 0.23279284 0.15572572 0.17519525 0.18442968
00000000: 0f96 603e a9a4 2c3e e640 323e 3135 243e
00000010: 8bb9 673e 4032 773e 2e48 5f3e c6f4 423e
00000020: 62cd 393e 2db0 4f3e 8d5d 503e 7ddf 353e
00000030: f716 8c3e bf78 393e c316 663e 1dee 4c3e
00000040: c9cd 873e 68dd 603e 216d 453e f022 353e
00000050: f755 5f3e 836c 323e 785e f73d 6af7 713e
00000060: acd2 643e 5b11 583e 5121 853e ac30 323e
00000070: 6788 5a3e 8392 453e 8c88 fe3d 7478 fe3d
00000080: 0933 023e b0e6 1a3e a72f 703e 22f0 6c3e
00000090: a650 4f3e 30f0 2f3e 78e6 223e 5668 5e3e
000000a0: 3513 7d3e 6214 6b3e 8085 123e 569f 2d3e
000000b0: 8a82 233e 4a5f 403e 4613 6b3e bf91 7f3e
000000c0: 3c58 233e cafe 143e 13e2 703e e011 383e
000000d0: 9280 6c3e e40b 443e 8041 5f3e 41f3 843e
000000e0: 6be1 323e 461e 643e 7e75 9f3e f29c 443e
000000f0: e8e8 883e 8ec7 883e 2842 403e e64e 233e
00000100: e389 313e bdc9 663e 31e8 5a3e a09b ee3d
00000110: e003 2b3e e327 003e 6655 833e 61e2 3a3e
00000120: ffa8 733e bde0 753e f892 5f3e f288 483e
00000130: 5d0f 573e 08ca 0e3e 6d53 143e bf3d 1d3e
00000140: f528 513e b93b 073e b8ce 8a3e 7aa1 4d3e
00000150: b21d 353e de70 0e3e 68aa 313e b742 263e
00000160: 08b8 db3d b278 5e3e 8cc3 503e 5cc1 503e
00000170: 2616 743e ce80 5a3e 2bd5 653e a0b0 443e
00000180: c56d 483e b63b 4a3e fbd6 ef3d 0b77 513e
00000190: 1fcd 3c3e dd3e 7e3e 5f2c 723e 9752 0a3e
000001a0: 08d6 353e e440 353e 4a6f 633e 52b5 0d3e
000001b0: 4804 5b3e 0f50 323e 57a3 ec3d 4e81 7c3e
000001c0: 5718 353e b869 613e 9a02 423e bbd4 853e
000001d0: ff05 f63d ada0 3f3e ccbf 5a3e 04be 7c3e
000001e0: 1ef1 613e 583d ee3d b57e e83d f908 763e
000001f0: 3f61 6e3e 9076 1f3e 6266 333e 22db 3c3e

model.9.weight f4 [3, 128]
-0.0056477743 0.06684035 -0.08825678 -0.095205806 -0.04689262 0.13048194 -0.045841355 0.10190141
0.05221114 0.15926024 -0.04593909 -0.10397488 0.032660145 -0.10636445 0.026293976 -0.043353565
-0.03453027 -0.052250065 -0.079953015 -0.044101242 0.10803221 -0.07978282 0.0076847253 0.12722473
0.10707852 0.18491864 0.016101282 -0.09736268 0.080036744 0.095646195 -0.062487688 -0.091908045
0.010432977 0.0724304 0.020271836 -0.0550304 0.12921771 0.054889556 0.06811445 0.09874827
0.036235236 -0.064936295 -0.12205037 -0.060016118 -0.09942514 -0.056991406 0.18609841 0.11036215
0.14244752 -0.052757327 0.10198597 0.12726808 0.051729634 0.029768288 0.09491482 0.0016622626
-0.08104837 -0.04488537 0.037519537 -0.04198352 0.021620944 0.019670827 -0.090259746 0.016924037
-0.10187159 0.13879882 -0.03372786 0.07919127 0.06949306 -0.11079972 -0.0010136615 -0.07274311
-0.036080044 0.071087696 0.111374795 -0.0051704543 -0.08595434 0.08786713 0.049687862 -0.062209316
0.14162417 -0.06675037 0.044262607 -0.03012848 -0.04028607 0.01172339 0.09806601 -0.07310461
0.01227245 -0.049944796 -0.058986187 0.13748823 0.10165656 0.024452353 -0.054709952 0.15332519
-0.11408474 0.15047522 -0.10214791 -0.060546663 -0.061185665 -0.016270984 0.18456568 0.14059336
-0.056946676 0.1345498 0.044341814 -0.094525404 0.00377737 0.114132866 -0.08004098 0.054910395
-0.08003387 0.15273677 -0.0077926326 0.030783864 -0.064318195 -0.051613625 -0.0372719 0.014811507
0.047971692 0.0051980703 -0.14174047 0.024981247 -0.05858311 -0.07825408 -0.0822971 -0.05220323
0.09071559 -0.08833101 0.0096963765 -0.04159245 -0.04728612 0.09148831 0.0071773096 -0.149577
-0.18238077 -0.010377372 -0.08599488 -0.036559474 -0.09555838 -0.10691865 0.08631107 -0.054586627
0.043315113 -0.020820113 -0.03225669 0.10124181 0.09698976 0.02295724 0.051018987 0.09235665
-0.056793183 0.020834453 -0.08780464 0.0022085735 0.083652295 -0.11391808 -0.10134386 0.039265826
0.122066095 -0.14505793 0.09863249 0.04833129 0.03876718 0.115591615 0.14297329 -0.088032484
0.051563937 -0.051294897 0.007505718 0.04988793 -0.052171692 0.090508014 0.0039703967 -0.03302718
-0.022764117 0.13446613 0.095254436 0.08184926 0.05853802 -0.034119595 -0.12944116 -0.08826789
0.005144689 -0.03584391 -0.07808413 0.075230554 -0.016919577 -0.15174349 0.017528486 0.071145386
-0.030929593 0.054042533 0.0377792 -0.09560814 0.09371196 -0.08383178 -0.03541482 0.08618749
0.035277292 0.019738635 0.120516926 -0.16037394 -0.054889433 0.04815571 0.1250193 0.04508244
-0.024605503 0.10037228 -0.076106235 -0.06317096 0.08784327 -0.08590998 -0.0598783 -0.09876493
-0.10579539 -0.058932353 0.028993327 -0.07634686 -0.09576644 0.083139315 0.008398975 -0.00010695007
-0.06258392 0.07479625 0.049133 0.042750612 -0.08335656 -0.07415583 0.04157322 0.07448548
-0.0011673571 0.023670115 0.10891516 0.07456802 0.17525208 -0.052655865 0.05120462 -0.09344331
-0.023857828 -0.03720616 0.033208795 -0.09911534 -0.04519634 -0.091698006 -0.010950699 -0.14101686
0.07343249 0.107942246 0.047450975 -0.120951496 -0.044114433 0.10993368 -0.091327295 0.09728829
00000000: f710 b9bb 98e3 883d f8bf b4bd 43fb c2bd
00000010: 7a12 40bd 0f9d 053e 25c4 3bbd b0b1 d03d
00000020: 59db 553d 1e15 233e a12a 3cbd c8f0 d4bd
00000030: a5c6 053d 9bd5 d9bd 7766 d73c 8293 31bd
00000040: 9d6f 0dbd 2a04 56bd 68be a3bd 81a3 34bd
00000050: fe3f dd3d 2d65 a3bd 26d0 fb3b 3347 023e
00000060: fc4b db3d 505b 3d3e d6e6 833c 1666 c7bd
00000070: 4eea a33d 27e2 c33d 17f3 7fbd 493a bcbd
00000080: 14ef 2a3c 6456 943d 1f11 a63c 8f67 61bd
00000090: a651 043e dfd3 603d 977f 8b3d 883c ca3d
000000a0: 666b 143d 52fd 84bd 8bf5 f9bd 76d3 75bd
000000b0: 689f cbbd d26f 69bd 9590 3e3e 8d05 e23d
000000c0: c3dd 113e 1118 58bd 05de d03d 9052 023e
000000d0: 74e2 533d a0dc f33c b362 c23d 47e0 d93a
000000e0: b0fc a5bd b9d9 37bd 16ae 193d e9f6 2bbd
000000f0: 681e b13c b724 a13c 1ada b8bd 47a4 8a3c
00000100: 0da2 d0bd 4721 0e3e 3926 0abd 082f a23d
00000110: 6152 8e3d f7ea e2bd d6dc 84ba 57fa 94bd
00000120: abc8 13bd 6d96 913d 7818 e43d ea6c a9bb
00000130: d408 b0bd aff3 b33d 8085 4b3d 32cf 7ebd
00000140: ed05 113e 6bb4 88bd b54c 353d 01d0 f6bc
00000150: 0203 25bd 7613 403c d5d6 c83d dfb7 95bd
00000160: 6312 493c ea92 4cbd 809b 71bd b7c9 0c3e
00000170: 5131 d03d 4d50 c83c 8b17 60bd 4701 1d3e
00000180: 43a5 e9bd 2d16 1a3e ec32 d1bd c7ff 77bd
00000190: d29d 7abd ba4a 85bc c9fe 3c3e b5f7 0f3e
000001a0: eb40 69bd 6cc7 093e c39f 353d 8996 c1bd
000001b0: c18d 773b 7ebe e93d 86ec a3bd b9e9 603d
000001c0: cce8 a3bd 0767 1c3e 5759 ffbb 712e fc3c
000001d0: 42b9 83bd cf68 53bd 6baa 18bd f7ab 723c
000001e0: f77d 443d 9354 aa3b 6a24 11be 79a5 cc3c
000001f0: d8f4 6fbd ad43 a0bd 628b a8bd 0ed3 55bd
00000200: 18c9 b93d e3e6 b4bd 8ddd 1e3c d85c 2abd
00000210: 17af 41bd 395e bb3d a32f eb3b b72a 19be
00000220: 06c2 3abe da05 2abc 151e b0bd 63bf 15bd
00000230: 1db4 c3bd 2af8 dabd dcc3 b03d 3a96 5fbd
00000240: 306b 313d f18e aabc 971f 04bd de57 cf3d
00000250: 91a2 c63d d210 bc3c 49f9 503d 7c25 bd3d
00000260: f89f 68bd 04ad aa3c ebd2 b3bd b7bd 103b
00000270: e551 ab3d e24d e9bd 5f8d cfbd 34d5 203d
00000280: cafd f93d 118a 14be d5ff c93d 08f7 453d
00000290: 56ca 1e3d 4cbb ec3d 9767 123e 604a b4bd
000002a0: b534 533d 991a 52bd 87f2 f53b 4957 4c3d
000002b0: fcb1 55bd 445c b93d 1a1a 823b 8247 07bd
000002c0: d07b babc 7db1 093e c214 c33d 96a0 a73d
000002d0: 90c5 6f3d fdc0 0bbd 398c 04be ccc5 b4bd
000002e0: c894 a83b 10d1 12bd 93ea 9fbd 7a12 9a3d
000002f0: ed9a 8abc a562 1bbe e697 8f3c acb4 913d
00000300: 0f60 fdbc b45b 5d3d 5dbe 1a3d 33ce c3bd
00000310: 0eec bf3d ffaf abbd 210f 11bd 1183 b03d
00000320: ec7e 103d ebb2 a13c 94d1 f63d 1139 24be
00000330: bed3 60bd ec3e 453d 0f05 003e 5da8 383d
00000340: 7b91 c9bc fb8f cd3d 96dd 9bbd c75f 81bd
00000350: 2ce7 b33d 92f1 afbd f342 75bd 4545 cabd
00000360: 41ab d8bd 0d63 71bd 6a83 ed3c be5b 9cbd
00000370: 3221 c4bd f244 aa3d db9b 093c 624a e0b8
00000380: 002c 80bd c72e 993d af3f 493d 441b 2f3d
00000390: d8b6 aabd 03df 97bd ae48 2a3d d88b 983d
000003a0: 0102 99ba d4e7 c13c e90e df3d 1eb7 983d
000003b0: 4875 333e adad 57bd f0bb 513d 355f bfbd
000003c0: 7e71 c3bc 7d65 18bd f205 083d fcfc cabd
000003d0: cc1f 39bd 2acc bbbd 906a 33bc b966 10be
000003e0: c663 963d d310 dd3d f45b 423d 6bb5 f7bd
000003f0: 56b1 34bd e924 e13d ce09 bbbd 153f c73d

model.9.bias f4 [3]
0.0062603964 0.009816515 0.021445684
00000000: 0324 cd3b 73d5 203c dcae af3c
