exported_models/neural_networks/raw_mlp/trained_models/model_epoch_100_batch_64_lr_1e-05_vs_30_hl_64_64_64_64/mlp_dynamics.pth (torch, 56533 bytes, 10 tensors)

model.0.weight f4 [64, 5]
0.2729815 0.14940228 0.082493916 0.21909381 -0.12186467 -0.47036964 -0.22677301 -0.33848745
-0.27450335 -0.20744182 -0.09085105 0.359201 -0.44949856 -0.040447067 0.29340383 -0.40103716
0.21836244 0.3615468 -0.346998 0.01603191 0.11162346 -0.10568422 0.2760268 0.21039785
-0.17585565 0.1291076 -0.070490636 0.14982416 0.3640057 -0.3833701 -0.01662965 -0.31347165
0.41363692 0.13669027 0.13003446 -0.035185568 0.27724096 -0.24416399 0.011690795 0.17476748
0.33052367 -0.1490267 0.19660541 -0.03743414 0.117738 0.1078277 0.105775565 0.011049756
0.35769016 -0.27548164 0.41419536 -0.19396134 -0.26548943 -0.0488653 0.18358046 0.37638378
-0.4186248 -0.0649369 -0.029933782 -0.31203184 0.40769053 0.3181599 -0.06511155 -0.299602
0.29132527 -0.20211847 -0.19438626 -0.10565852 -0.025180727 0.042356662 0.47421485 -0.3248622
-0.02812475 -0.12292377 -0.07895221 -0.44544175 -0.5019385 -0.33887565 0.091766134 0.043202996
0.12262748 0.41711107 0.51529443 0.040569637 0.2225487 -0.27034056 -0.18502818 0.2487903
-0.41163048 0.29201832 -0.055429902 -0.0035701285 -0.32472357 -0.38927007 -0.31380835 -0.08562056
-0.030101035 -0.47378376 -0.10963114 0.2424956 0.24312566 0.20850484 -0.31132093 -0.09889997
-0.14778239 0.16299422 -0.3419722 -0.35067376 -0.08155499 -0.18476038 0.17245063 -0.20141062
-0.124272585 0.41122895 0.38590214 0.19671959 0.25280172 -0.012751814 0.3983992 -0.3218723
-0.2780733 -0.23592591 0.35463694 0.12125961 0.15600161 -0.31764922 0.35288233 0.05653057
0.025239702 0.26124784 0.2293967 -0.25241238 0.4606701 0.11135452 0.07941002 0.24908502
0.28212473 0.25871405 -0.12206878 -0.20796704 -0.3884808 0.32682505 0.09584642 0.28079748
-0.118580244 -0.3228544 -0.29004306 -0.14288573 0.11826001 -0.052999754 -0.39570424 -0.06201005
0.056817416 0.016929239 -0.021765942 0.13464834 -0.008297766 -0.34372523 0.07162452 -0.16728193
-0.44741186 0.022894198 -0.46479428 0.12751946 -0.14869013 -0.15467533 -0.050248012 0.4431905
0.06387716 -0.38595638 -0.3275737 -0.39723063 -0.25183925 -0.029148351 0.14383465 -0.30946374
-0.4561043 -0.3985738 0.025729958 0.16889873 0.4385499 0.36620876 0.038931035 -0.20884715
0.12757769 -0.34255835 -0.10412211 0.47654048 0.06402071 -0.15871565 -0.10230227 0.13274914
-0.2288481 -0.053161792 -0.05596629 -0.19369656 0.452004 0.398405 0.1339313 0.231409
0.34525526 -0.24331865 -0.27838036 0.31007108 -0.01608274 -0.31523234 0.31064123 0.14339313
-0.39034703 0.014893375 -0.49139965 0.25628385 0.2947918 0.05102128 -0.21228425 0.36213335
0.45393252 0.29507458 0.017759738 -0.15077619 -0.20617807 0.45585978 0.16594666 -0.2674754
0.22709064 -0.2779129 -0.2552968 -0.17271943 0.12822948 -0.023831189 0.2726572 0.34678102
0.30912304 0.0073449044 -0.25518072 -0.16527398 0.34946257 -0.30726653 0.0054631173 0.0068020574
-0.40802333 -0.34406668 -0.03397849 0.19662435 -0.11979292 -0.2000245 0.19482568 -0.47075477
-0.20684789 0.3086559 0.15373248 0.114663534 0.04044875 0.00034737328 0.26533726 -0.44724682
00000000: 3bc4 8b3e e9fc 183e 92f2 a83d 215a 603e
00000010: 2f94 f9bd 4ad4 f0be 2f37 68be 3a4e adbe
00000020: b48b 8cbe a16b 54be 1e10 babd 32e9 b73e
00000030: ad24 e6be d3ab 25bd 0739 963e be54 cdbe
00000040: 679a 5f3e aa1c b93e b9a9 b1be 5a55 833c
00000050: d79a e43d f870 d8bd 6253 8d3e 8972 573e
00000060: 8113 34be c834 043e 655d 90bd 816b 193e
00000070: f55e ba3e 1649 c4be e73a 88bc 5b7f a0be
00000080: 38c8 d33e 89f8 0b3e c127 053e be1e 10bd
00000090: 87f2 8d3e 2006 7abe c08a 3f3c 3ff6 323e
000000a0: 663a a93e 759a 18be ee52 493e 8a54 19bd
000000b0: 9f20 f13d c5d4 dc3d dca0 d83d 090a 353c
000000c0: 2a23 b73e ee0b 8dbe 6a11 d43e cd9d 46be
000000d0: 3bee 87be fb26 48bd 84fc 3b3e 60b5 c03e
000000e0: fd55 d6be a3fd 84bd b137 f5bc a3c2 9fbe
000000f0: d0bc d03e dbe5 a23e 3459 85bd 6f65 99be
00000100: 9628 953e 25f8 4ebe 310d 47be 7e63 d8bd
00000110: d047 cebc 2e7e 2d3d 4acc f23e 5754 a6be
00000120: e065 e6bc 75bf fbbd b2b1 a1bd f110 e4be
00000130: 0b7f 00bf 1c81 adbe e2ef bb3d a0f5 303d
00000140: 1e24 fb3d 958f d53e 56ea 033f 592c 263d
00000150: cee3 633e 146a 8abe 0778 3dbe e2c2 7e3e
00000160: 3bc1 d2be 6d83 953e 770a 63bd d1f8 69bb
00000170: 2b42 a6be 684e c7be 7dab a0be d559 afbd
00000180: 7296 f6bc c993 f2be 4b86 e0bd c450 783e
00000190: eff5 783e 4b82 553e 7565 9fbe 118c cabd
000001a0: 4454 17be f5e7 263e fb16 afbe 838b b3be
000001b0: 4d06 a7bd d331 3dbe e696 303e 963e 4ebe
000001c0: a082 febd 9a8c d23e f794 c53e dc70 493e
000001d0: 3a6f 813e fcec 50bc fbfa cb3e 72cc a4be
000001e0: a05f 8ebe 9096 71be f992 b53e f556 f83d
000001f0: e3be 1f3e eba2 a2be feac b43e 998c 673d
00000200: 7ec3 ce3c 47c2 853e f8e6 6a3e 323c 81be
00000210: f4dc eb3e d70d e43d b8a1 a23d 2510 7f3e
00000220: a772 903e 2b76 843e 32ff f9bd 50f5 54be
00000230: f5e6 c6be 9d55 a73e 214b c43d b0c4 8f3e
00000240: 33da f2bd 2c4d a5be 8680 94be a350 12be
00000250: 4e32 f23d 4516 59bd bf99 cabe 40fe 7dbd
00000260: 61b9 683d 30af 8a3c 7d4e b2bc 41e1 093e
00000270: 5af3 07bc c1fc afbe e0af 923d f44b 2bbe
00000280: 2b13 e5be 9d8c bb3c 84f9 edbe 7694 023e
00000290: 3a42 18be 3663 1ebe dcd0 4dbd dde9 e23e
000002a0: 07d2 823d 139c c5be bdb7 a7be d061 cbbe
000002b0: 13f1 80be 86c8 eebc 6449 133e 0872 9ebe
000002c0: 8186 e9be dd11 ccbe a2c7 d23c caf3 2c3e
000002d0: 9d89 e03e b77f bb3e 2676 1f3d 07dc 55be
000002e0: baa3 023e cf63 afbe f93d d5bd 1dfd f33e
000002f0: 4a1d 833d 5b86 22be da83 d1bd 64ef 073e
00000300: 2857 6abe 2ec0 59bd e93c 65bd 6458 46be
00000310: 116d e73e bdfb cb3e 4925 093e 7bf6 6c3e
00000320: 4cc5 b03e 8628 79be df87 8ebe a3c1 9e3e
00000330: f3bf 83bc 2266 a1be 5e0c 9f3e a6d5 123e
00000340: 91db c7be 5803 743c bc98 fbbe a337 833e
00000350: f3ee 963e b1fb 503d 0b61 59be 8b69 b93e
00000360: d869 e83e 0414 973e df7c 913c 1365 1abe
00000370: 5820 53be 7466 e93e eced 293e 89f2 88be
00000380: 738a 683e 9a4a 8ebe 43b6 82be 5ddd 30be
00000390: 974e 033e a039 c3bc b999 8b3e 488d b13e
000003a0: 6045 9e3e 86ad f03b 0ca7 82be 953d 29be
000003b0: c2ec b23e 0a52 9dbe f303 b33b cbe3 de3b
000003c0: 6fe8 d0be 8229 b0be 072d 0bbd e557 493e
000003d0: fe55 f5bd 39d3 4cbe 6280 473e c506 f1be
000003e0: efcf 53be 2508 9e3e 0c6c 1d3e b7d4 ea3d
000003f0: 97ad 253d a71f b639 49da 873e 89fd e4be

model.0.bias f4 [64]
-0.03476933 0.3048556 -0.35004523 -0.42158055 -0.34262988 0.11445687 0.338923 -0.24959423
0.5917883 0.42379507 -0.06475317 -0.058182202 -0.23011078 0.17003243 0.24972014 -0.15694104
0.45968127 -0.050766665 0.51850426 -0.3417914 0.3264294 -0.14327131 0.029736383 0.3960707
-0.3583906 0.049786486 0.37713373 -0.21168108 -0.054172173 -0.10048272 -0.2706534 0.34803507
-0.18205932 -0.33603913 -0.26401854 -0.37544063 -0.08577143 -0.35837537 -0.18174225 0.15933393
0.3881277 -0.23995715 0.07134132 0.31296653 -0.38720176 -0.40244836 0.44904387 0.20932004
0.07753346 0.48539817 -0.09228911 0.2521866 0.07590524 0.05998706 0.14182076 0.1573412
0.3689333 0.17776754 0.5033259 0.33298698 -0.24724345 -0.3011302 0.15800141 -0.34298664
00000000: 496a 0ebd 0916 9c3e 2139 b3be 68d9 d7be
00000010: 2f6d afbe 5d68 ea3d 5187 ad3e a195 7fbe
00000020: 707f 173f abfb d83e 4f9d 84bd 7650 6ebd
00000030: 29a2 6bbe fb1c 2e3e a3b6 7f3e 27b5 20be
00000040: 585b eb3e b5f0 4fbd b2bc 043f 48ff aebe
00000050: c121 a73e b7b5 12be b799 f33c c7c9 ca3e
00000060: f97e b7be eaec 4b3d ac17 c13e edc2 58be
00000070: a4e3 5dbd e2c9 cdbd 1593 8abe a731 b23e
00000080: c26d 3abe 520d acbe 702d 87be c139 c0be
00000090: eea8 afbd fa7c b7be a41a 3abe 6f28 233e
000000a0: adb8 c63e 54b7 75be 661b 923d 263d a03e
000000b0: 4f3f c6be b60d cebe 14e9 e53e fe57 563e
000000c0: ddc9 9e3d 1c86 f83e 1302 bdbd 9a1e 813e
000000d0: 3574 9b3d feb4 753d 7639 113e 0d1e 213e
000000e0: d3e4 bc3e b208 363e f7d9 003f 457d aa3e
000000f0: 632d 7dbe bd2d 9abe 1fcb 213e f29b afbe

model.2.weight f4 [64, 64]
0.013146801 0.054098763 -0.09015123 -0.045698658 0.10823267 -0.002329799 0.08127616 0.13649282
0.12689763 0.00023884882 -0.043191545 -0.10333288 0.052142188 -0.03588759 0.033091914 0.059370592
-0.09816867 -0.045129374 -0.037554897 0.07565083 -0.06230286 -0.0023490104 0.03903937 0.05467608
0.04234309 0.14289537 0.071700305 -0.03242936 0.12725751 0.13388446 0.12243872 0.065959066
0.06573516 0.09300341 0.050776675 0.03229288 -0.12124589 0.10385965 -0.087830715 0.01594139
-0.014241451 0.089294635 0.07665475 0.02996285 -0.06996432 -0.011717763 -0.10259131 -0.077205434
0.07937895 -0.06140309 0.0624909 0.060760725 0.1352723 0.098444864 0.10547443 -0.0003004711
0.012958626 0.05758605 -0.12764663 0.0044638263 -0.028372517 -0.043664206 0.05452057 0.28351247
0.001200729 -0.009342637 -0.14047574 0.07135682 0.13484809 -0.07547363 0.12063075 0.08464039
0.12140111 -0.021193588 0.17016299 0.15222433 0.095064685 -0.08567423 0.0154833235 0.1460597
-0.05355928 -0.0053422204 0.081307724 0.07396953 -0.08783135 -0.07570846 -0.102103345 0.14182262
0.098067164 -0.087426454 0.02053107 0.015594573 -0.061182648 -0.13952397 0.10040418 0.08660291
0.10893149 -0.0075703766 0.04847487 -0.044235073 -0.032184426 -0.1017214 0.065833084 -0.06691578
-0.0026687302 -0.0009588973 0.036501598 0.12305603 -0.034010224 -0.08957397 0.018821213 0.008104183
-0.027423339 -0.0728729 0.05981822 0.011138506 0.08222924 -0.023283329 0.12477316 -0.038816404
0.023676665 0.013626553 0.08897594 0.0517876 -0.04051546 -0.00555843 -0.11628418 0.0065961555
0.055531513 -0.02703006 0.18684359 -0.11470997 0.01755766 -0.07109242 0.10567193 -0.00862165
-0.025108123 0.08596976 0.19300246 -0.062362593 0.088081166 0.006704808 0.022369774 0.100834146
0.13794696 -0.07811162 0.13309668 -0.05371043 0.043181326 0.10353915 0.088444866 0.03107443
-0.04008902 -0.049581084 0.019513683 -0.082298055 -0.10521352 0.02512392 -0.0913522 0.06947763
-0.09767922 0.09348039 0.015034601 0.11141011 0.03264465 0.054000463 -0.010961962 0.018947907
0.043250423 0.13466123 -0.09448195 -0.074970864 0.034171034 -0.05352076 0.096934274 -0.066017725
0.08972078 0.05203191 0.05766476 0.008628015 0.000648152 -0.029849367 0.027473392 0.09298518
-0.05867297 0.08401829 0.036157355 0.03523837 -0.0166362 0.025685718 -0.1259154 -0.016383238
-0.06827431 -0.10027449 -0.11267325 -0.018013783 0.19820745 0.086578794 0.04800196 0.09181988
0.026834251 0.007926587 0.055746272 0.05794794 0.14186926 0.1263638 0.028196385 0.14864282
0.11900448 0.05306663 0.1212427 -0.048126213 0.13927795 0.012701569 0.09980032 0.0015528316
0.06499118 -0.07258964 0.006092862 0.11559827 0.032825757 0.07731835 -0.057737175 0.09628323
-0.09418633 0.06853572 0.085802786 0.09792184 0.02085299 0.11932308 0.06954561 0.0054889615
0.047588445 0.10793698 -0.1436967 -0.031909518 -0.045395575 0.04209193 -0.03349694 -0.14787461
0.0063112415 -0.010630367 0.06157672 0.03723081 0.10274692 -0.08425718 0.008526603 0.07045999
0.096074075 -0.06984484 0.033407334 -0.039883308 -0.02329565 -0.06274229 0.014639532 0.12086633
00000000: ae65 573c aa96 5d3d 35a1 b8bd 842e 3bbd
00000010: 17a9 dd3d 8baf 18bb 1e74 a63d c6c4 0b3e
00000020: 74f1 013e 7e73 7a39 9ee9 30bd 30a0 d3bd
00000030: 0c93 553d defe 12bd 638b 073d 942e 733d
00000040: a80c c9bd 94d9 38bd 2ad3 19bd d3ee 9a3d
00000050: 4931 7fbd dbf1 19bb bfe7 1f3d 06f4 5f3d
00000060: f36f 2d3d 2a53 123e 9cd7 923d a6d4 04bd
00000070: cb4f 023e 0219 093e 27c1 fa3d 8c15 873d
00000080: 28a0 863d 9278 be3d 34fb 4f3d 8a45 043d
00000090: c44f f8bd 5eb4 d43d 97e0 b3bd 8597 823c
000000a0: fa54 69bc 1be0 b63d 2afd 9c3d a774 f53c
000000b0: 7449 8fbd dcfb 3fbc 651b d2bd e21d 9ebd
000000c0: 6e91 a23d ce81 7bbd 75f6 7f3d 3de0 783d
000000d0: d284 0a3e 769d c93d fa02 d83d 8c88 9db9
000000e0: 6b50 543c 5adf 6b3d ccb5 02be 4a45 923b
000000f0: 7b6d e8bc 3dd9 32bd f650 5f3d 8c28 913e
00000100: c861 9d3a dc11 19bc dfd8 0fbe 8623 923d
00000110: 9e15 0a3e eb91 9abd 410d f73d f157 ad3d
00000120: 25a1 f83d 2d9e adbc 353f 2e3e b2e0 1b3e
00000130: 46b1 c23d f875 afbd c4ad 7d3c ad90 153e
00000140: fa60 5bbd cb0d afbb aa84 a63d 567d 973d
00000150: ece0 b3bd 090d 9bbd 8f1b d1bd f339 113e
00000160: 70d7 c83d a40c b3bd c630 a83c 6180 7f3c
00000170: a89a 7abd 5fdf 0ebe b5a0 cd3d de5c b13d
00000180: 7917 df3d ec10 f8bb 968d 463d d62f 35bd
00000190: d1d3 03bd 4f53 d0bd 7fd3 863d 240b 89bd
000001a0: dde5 2ebb 825e 7bba b382 153d cd04 fc3d
000001b0: 4e4e 0bbd 8f72 b7bd f22e 9a3c 68c7 043c
000001c0: e9a6 e0bc 633e 95bd f303 753d 487e 363c
000001d0: ce67 a83d aebc bebc 1289 ff3d f3fd 1ebd
000001e0: 91f5 c13c e841 5f3c 0539 b63d 3c1f 543d
000001f0: 8af3 25bd 7e23 b6bb 6626 eebd 9024 d83b
00000200: 0375 633d 256e ddbc ed53 3f3e 10ed eabd
00000210: 15d5 8f3c e798 91bd 866a d83d d241 0dbc
00000220: 8daf cdbc ea10 b03d 70a2 453e eb6f 7fbd
00000230: e663 b43d 02b4 db3b d140 b73c 2282 ce3d
00000240: f841 0d3e fcf8 9fbd 7f4a 083e 78ff 5bbd
00000250: e7de 303d 550c d43d 9522 b53d ce8f fe3c
00000260: 6234 24bd 8915 4bbd 29db 9f3c e28b a8bd
00000270: 307a d7bd aed0 cd3c dd16 bbbd 4a4a 8e3d
00000280: 0b0c c8bd a672 bf3d b053 763c fc2a e43d
00000290: 66b6 053d 972f 5d3d cd99 33bc a438 9b3c
000002a0: 5b27 313d a2e4 093e c17f c1bd 538a 99bd
000002b0: edf6 0b3d 9638 5bbd 7a85 c63d 4d34 87bd
000002c0: 87bf b73d 691f 553d e231 6c3d 855c 0d3c
000002d0: bfe8 293a a986 f4bc e10f e13c 046f be3d
000002e0: 1153 70bd c811 ac3d bc19 143d 1c56 103d
000002f0: a448 88bc db6a d23c f7ef 00be 2436 86bc
00000300: 67d3 8bbd b65c cdbd 3cc1 e6bd a491 93bc
00000310: e5f6 4a3e 3950 b13d b49d 443d 100c bc3d
00000320: 81d3 db3c 84de 013c 3456 643d d25a 6d3d
00000330: 2d46 113e 8365 013e 1bfc e63c d335 183e
00000340: 9fb8 f33d 655c 593d 184e f83d fe1f 45bd
00000350: e19e 0e3e 3e1a 503c 1c64 cc3d 6288 cb3a
00000360: 191a 853d e1a9 94bd a2a6 c73b c9be ec3d
00000370: 4d74 063d 1559 9e3d d17d 6cbd 2430 c53d
00000380: c3e4 c0bd 755c 8c3d 5fb9 af3d 3f8b c83d
00000390: e4d3 aa3c a95f f43d ee6d 8e3d bfdc b33b
000003a0: 1aec 423d 100e dd3d 3a25 13be 8eb3 02bd
000003b0: b6f0 39bd 9668 2c3d 1634 09bd 716c 17be
000003c0: 88ce ce3b fe2a 2ebc df37 7c3d 557f 183d
000003d0: fa6c d23d 078f acbd 2ab3 0b3c 544d 903d
000003e0: 7cc2 c43d d00a 8fbd 21d6 083d ae5c 23bd
000003f0: 85d6 bebc 087f 80bd a6da 6f3c c488 f73d

model.2.bias f4 [64]
0.0885515 0.12935482 0.0646275 0.13380855 0.06565253 0.066916764 -0.016223684 0.1104482
0.07183625 0.10635974 0.0071047093 0.043379903 0.15472683 0.013916889 -0.040709406 -0.083587594
0.06902757 -0.051035896 0.06186466 -0.05354264 -0.045791335 -0.021344982 -0.06745643 0.16155796
0.022789795 0.17438573 0.07582036 -0.075734764 0.046932433 -0.061752032 0.1617144 0.0619976
0.04515567 0.07625407 0.06778835 0.03799889 -0.04921674 -0.027958138 0.009902009 -0.023927229
0.07876473 -0.0051973583 0.0043458994 0.12392076 -0.08860341 0.121142976 -0.053898584 0.15298675
0.07156297 -0.11128485 -0.044737816 0.0945611 0.15285829 0.12351971 -0.050645646 0.060447432
-0.070726804 0.10317116 0.040333938 -0.055899385 -0.07517367 -0.04398807 0.17020206 -0.08659464
00000000: 7d5a b53d 9775 043e 6c5b 843d 1c05 093e
00000010: d574 863d a80b 893d 88e7 84bc aa32 e23d
00000020: e21e 933d 23d3 d93d 9fce e83b 20af 313d
00000030: b670 1e3e aa03 643c e8be 26bd f92f abbd
00000040: 545e 8d3d 040b 51bd cc65 7d3d 874f 5bbd
00000050: b28f 3bbd acdb aebc 9926 8abd 736f 253e
00000060: aab1 ba3c 2c92 323e b447 9b3d d41a 9bbd
00000070: 393c 403d b3ef 7cbd 7698 253e 32f1 7d3d
00000080: 27f5 383d 182b 9c3d 9ed4 8a3d b9a4 1b3d
00000090: 7e97 49bd 7708 e5bc 093c 223c 0903 c4bc
000000a0: 674f a13d 9a4e aabb 0c68 8e3b 2bca fd3d
000000b0: b475 b5bd cf19 f83d c3c4 5cbd 8fa8 1c3e
000000c0: 9b8f 923d 50e9 e3bd 003f 37bd 40a9 c13d
000000d0: e286 1c3e e7f7 fc3d cf71 4fbd ba97 773d
000000e0: 37d9 90bd 674b d33d 3335 253d c1f6 64bd
000000f0: a7f4 99bd d62c 34bd 7349 2e3e 8858 b1bd

model.4.weight f4 [64, 64]
0.08772339 -0.035779208 -0.055775255 -0.084098324 -0.027925342 -0.041156467 -0.0052694473 -0.11572078
0.08427828 0.050003946 -0.058299415 0.08576996 -0.02967519 0.097931236 -0.08434296 -0.061341237
0.054627344 0.05981431 -0.07445119 0.06416115 -0.07738091 -0.05391613 0.010531121 0.050642267
-0.03506605 0.017512476 -0.037817623 -0.12018394 -0.011068829 0.026567182 -0.02797323 0.13187976
0.06623318 0.05406732 -0.15860523 0.09245995 0.05821785 0.07374881 -0.09337218 -0.004884507
-0.0059257518 0.080648735 0.114931494 0.10163412 -0.1305461 0.11566748 -0.097433984 0.15737577
-0.07589531 0.009570446 -0.0545329 0.06296912 0.12823598 0.10599566 0.11693432 -0.07268782
-0.080300204 0.14833143 -0.076570824 -0.016258249 0.080024526 0.11944703 -0.07429592 -0.045487434
0.037542332 -0.013028543 0.08231381 0.017195908 -0.032549802 0.11175006 -0.048409346 -0.1701677
0.0288935 0.032850392 -0.018703781 0.029851386 0.09399501 -0.08288317 -0.080276735 0.10191698
0.0765843 0.1012889 0.031946495 -0.04457194 -0.101990156 -0.06533553 -0.10047686 0.12968615
-0.099203765 0.17507392 0.14990458 -0.12932242 0.0689082 0.064225934 0.098456286 -0.100671716
-0.03798941 0.052267928 -0.008552539 -0.0095753595 0.0074435975 0.038874663 -0.07376083 0.06309239
0.044849474 0.008245994 0.1133355 0.023269555 0.112509616 0.093120396 -0.03146431 0.17352778
0.09134255 -0.04415054 0.15610088 0.15107594 0.045057483 0.040902026 0.04340543 0.12217566
-0.022522483 0.022043288 0.12996486 0.08189605 -0.0042787427 -0.015472926 0.007107762 0.06642587
-0.002183593 -0.01572424 -0.055874173 0.0428681 0.09157221 0.11987553 -0.12726775 -0.102846704
0.038648535 -0.017431755 0.040366553 -0.044637725 -0.025489114 -0.12813607 -0.057500392 0.04117217
0.13016407 0.027419122 0.039223 0.0032366023 -0.045111705 -0.01729349 0.050142992 0.01224611
-0.0860025 0.11953724 0.17044513 0.05813568 0.0034933432 0.027573008 -0.0007198301 0.11588684
-0.055252172 0.07050456 0.08818246 0.06660912 0.09176007 -0.054962847 0.11652657 -0.046375453
0.13344418 -0.10239248 0.10575069 0.1429829 -0.029321628 0.120766476 -0.002214991 0.11253574
0.032470215 0.0031042707 0.0056637344 0.12708607 0.00025666563 0.097317286 0.09729157 0.108987786
0.053930156 0.028431257 -0.111640364 0.08870544 -0.05385477 0.036203198 -0.058918077 0.14426734
-0.072600745 0.14875491 0.1382437 0.118700735 0.0361001 -0.124063894 -0.029598147 0.030382011
0.13301514 0.029744193 0.050158918 0.15383452 -0.10409869 0.0034881346 0.100166425 0.117073864
0.15637003 -0.066551715 -0.04654012 0.021133082 0.114885665 0.096393205 0.05643937 -0.050782204
0.17104246 0.018569905 -0.056512672 -0.08079086 -0.09268207 0.13896675 0.09053955 -0.0198033
0.07790723 0.06656732 -0.025780143 0.09243811 0.04106911 0.04138533 -0.0671531 -0.060251262
0.06971617 -0.04970187 -0.06754239 0.009196714 -0.060299333 -0.05679741 0.097015634 0.09221213
-0.023110153 -0.11108173 0.042700503 0.095499575 0.04382601 0.14865384 0.15258019 -0.031984802
0.112938255 -0.03316653 0.058257785 -0.05707203 0.08979538 0.07580752 -0.06887758 0.09927751
00000000: 52a8 b33d 388d 12bd 9874 64bd be3b acbd
00000010: b0c3 e4bc af93 28bd 54ab acbb 04ff ecbd
00000020: 179a ac3d f0d0 4c3d 5ecb 6ebd 29a8 af3d
00000030: 6219 f3bc 2c90 c83d 00bc acbd f340 7bbd
00000040: ecc0 5f3d daff 743d de79 98bd ec66 833d
00000050: e279 9ebd 29d7 5cbd b98a 2c3c 446e 4f3d
00000060: 6ba1 0fbd 5376 8f3c a7e6 1abd ff22 f6bd
00000070: 095a 35bc 6ba3 d93c 1e28 e5bc 7d0b 073e
00000080: 43a5 873d b275 5d3d 6969 22be a45b bd3d
00000090: d775 6e3d 9e09 973d ea39 bfbd 370e a0bb
000000a0: cf2c c2bb 2a2b a53d 3461 eb3d 8d25 d03d
000000b0: e0ad 05be 12e3 ec3d 788b c7bd 1d27 213e
000000c0: 006f 9bbd 5ccd 1c3c e45d 5fbd f4f5 803d
000000d0: 4b50 033e 4114 d93d 437b ef3d 5add 94bd
000000e0: 6f74 a4bd 32e4 173e 2ad1 9cbd 0530 85bc
000000f0: e6e3 a33d a5a0 f43d 7628 98bd 0851 3abd
00000100: fdc5 193d ac75 55bc 2594 a83d 6fde 8c3c
00000110: f152 05bd 37dd e43d e148 46bd 7140 2ebe
00000120: 10b2 ec3c 228e 063d ac38 99bc e58a f43c
00000130: 7580 c03d a7be a9bd 2168 a4bd dab9 d03d
00000140: 3bd8 9c3d 8e70 cf3d 54da 023d 1191 36bd
00000150: 37e0 d0bd a2ce 85bd d0c6 cdbd 72cc 043e
00000160: 582b cbbd 9446 333e 9680 193e 196d 04be
00000170: be1f 8d3d e388 833d 73a3 c93d f92c cebd
00000180: c99a 1bbd e516 563d f31f 0cbc f8e1 1cbc
00000190: 6ce9 f33b 0a3b 1f3d eb0f 97bd 9536 813d
000001a0: 15b4 373d 351a 073c 711c e83d cb9f be3c
000001b0: 716b e63d e8b5 be3d b8e0 00bd 44b1 313e
000001c0: ce11 bb3d 32d7 34bd e9d8 1f3e a7b3 1a3e
000001d0: 328e 383d e288 273d e4c9 313d 3c37 fa3d
000001e0: 1281 b8bc 2094 b43c 8215 053e 1eb9 a73d
000001f0: b234 8cbb 2882 7dbc 3be8 e83b 490a 883d
00000200: 9d1a 0fbb 1fd0 80bc 51dc 64bd 7696 2f3d
00000210: 368a bb3d 4d81 f53d 7a52 02be 4ba1 d2bd
00000220: ed4d 1e3d 0acd 8ebc 6657 253d 0cd6 36bd
00000230: 8cce d0bc 1a36 03be 8885 6bbd 26a4 283d
00000240: bb49 053e 119e e03c 4ca8 203d 2d1d 543b
00000250: 0dc7 38bd 14ab 8dbc bd62 4d3d e8a3 483c
00000260: 1422 b0bd f1cf f43d 2b89 2e3e ae1f 6e3d
00000270: 93f0 643b cae0 e13c fbb2 3cba 1456 ed3d
00000280: 1a50 62bd b264 903d 0199 b43d 5d6a 883d
00000290: b4ec bb3d b920 61bd 7ba5 ee3d 30f4 3dbd
000002a0: 97a5 083e 26b3 d1bd d193 d83d 1c6a 123e
000002b0: e933 f0bc 6a54 f73d 6229 11bb 2379 e63d
000002c0: 7dff 043d 0571 4b3b d996 b93b da22 023e
000002d0: 1491 8639 494e c73d cd40 c73d fd34 df3d
000002e0: dee5 5c3d abe8 e83c b4a3 e4bd 33ab b53d
000002f0: d296 5cbd ce49 143d 1554 71bd d1ba 133e
00000300: b3af 94bd 3553 183e c28f 0d3e 5f19 f33d
00000310: b3dd 133d 3615 febd d077 f2bc b2e3 f83c
00000320: 1f35 083e 18aa f33c 7073 4d3d cc86 1d3e
00000330: b231 d5bd 3099 643b 0e24 cd3d 6cc4 ef3d
00000340: 771f 203e 444c 88bd daa0 3ebd 491f ad3c
00000350: 2d49 eb3d cd69 c53d f82c 673d 0001 50bd
00000360: c125 2f3e ea1f 983c d579 67bd ae75 a5bd
00000370: 19d0 bdbd 4d4d 0e3e cd6c b93d 883a a2bc
00000380: d38d 9f3d 7254 883d e130 d3bc 3150 bd3d
00000390: 1538 283d aa83 293d 9187 89bd 07ca 76bd
000003a0: 5ac7 8e3d 3094 4bbd aa53 8abd d0ad 163c
000003b0: 6ffc 76bd 67a4 68bd 22b0 c63d b7d9 bc3d
000003c0: 8151 bdbc d17e e3bd b9e6 2e3d 4895 c33d
000003d0: e782 333d b638 183e fb3d 1c3e 7f02 03bd
000003e0: 2c4c e73d a1d9 07bd b79f 6e3d 5cc4 69bd
000003f0: a4e6 b73d f940 9b3d b00f 8dbd 0252 cb3d

model.4.bias f4 [64]
-0.08759623 0.051138625 0.15093894 -0.03704929 0.109429836 0.05513434 -0.0060135373 0.05969716
-0.024541525 -0.058418 -0.028305866 -0.049148925 -0.015879944 0.15104567 0.0085050315 0.053194415
0.082458675 -0.03883461 -0.078949414 0.094048895 0.080018915 -0.071815126 -0.060699023 -0.08106277
-0.06100691 0.06827101 0.04642306 0.10072667 -0.06802018 -0.010052389 0.005726762 0.1174354
0.07232234 0.09987565 0.15811959 0.13700806 -0.025343059 0.06710391 0.13206732 0.10779807
-0.0817557 -0.10038343 0.010489507 -0.0022038303 -0.08266662 0.12706356 0.14622028 0.05795464
0.030983914 -0.07060009 -0.09672196 -0.14963003 -0.037987437 0.13398863 0.07974929 0.075610705
0.002781347 0.019817362 0.06620385 0.11721659 0.098649964 -0.051626053 -0.024375336 0.050625127
00000000: a765 b3bd bc76 513d bd8f 1a3e ffc0 17bd
00000010: c01c e03d 8cd4 613d 350d c5bb 0285 743d
00000020: 4f0b c9bc b647 6fbd b4e1 e7bc 6250 49bd
00000030: a816 82bc b7ab 1a3e b058 0b3c 63e2 593d
00000040: 18e0 a83d 0a11 1fbd 3bb0 a1bd b59c c03d
00000050: f5e0 a33d cf13 93bd 8a9f 78bd 3d04 a6bd
00000060: 62e2 79bd acd1 8b3d 1b26 3e3d c949 ce3d
00000070: 2a4e 8bbd c7b2 24bc 90a7 bb3b f981 f03d
00000080: bc1d 943d 9b8b cc3d 1aea 213e d74b 0c3e
00000090: 3f9c cfbc c66d 893d a83c 073e 3cc5 dc3d
000000a0: 886f a7bd d495 cdbd 2edc 2b3c 236e 10bb
000000b0: 1e4d a9bd f31c 023e c5ba 153e d861 6d3d
000000c0: fad1 fd3c c896 90bd 2a16 c6bd 9d38 19be
000000d0: b798 1bbd 5134 093e 9953 a33d c9d9 9a3d
000000e0: 4247 363b 0558 a23c e295 873d 400f f03d
000000f0: fe08 ca3d d775 53bd c9ae c7bc 4b5c 4f3d

model.6.weight f4 [64, 64]
0.1211521 0.11045036 0.10965044 0.098837 0.030565627 0.030788483 0.067186035 -0.025573086
-0.06099177 -0.054702904 -0.108628325 -0.0050671925 0.048527077 0.018283853 0.02386278 0.05623229
0.041619346 0.06429925 0.09052759 0.004332627 -0.058996286 0.10763557 0.06454903 -0.06543274
-0.07008097 0.062381912 -0.09028812 -0.024609806 0.05251706 0.08682668 -0.037216946 -0.068628184
0.08666409 0.09014702 -0.114281416 -0.044769276 0.112015195 0.080051795 -0.104871675 0.070741765
-0.09913939 0.0118419845 0.11009247 0.039074972 -0.16624095 0.0045618485 -0.137537 -0.013379853
-0.011778165 -0.12325773 0.085923776 -0.17119874 0.0973469 -0.00681882 -0.025245434 -0.035753075
0.0005530222 -0.075663805 -0.006761731 0.08711075 0.08696857 -0.12673044 -0.025388706 0.09334676
-0.010162364 0.13610807 0.06556984 0.15541716 0.09427381 0.102433346 -0.032161403 0.10180061
-0.03245426 0.031872485 -0.12527841 -0.04893486 -0.10884899 -0.017544435 -0.08510177 -0.060267523
-0.021122778 -0.019393243 -0.07820693 0.005255229 0.06687151 0.11086106 -0.03770451 0.031310342
0.09488183 0.16377912 0.12790936 0.013943821 -0.12981038 -0.0070904526 0.07455312 -0.041291416
-0.025635928 -0.095324494 0.06359244 -0.07391516 0.1038039 -0.016312705 -0.07822767 0.076042905
-0.028417539 -0.057655994 0.041589357 0.009865024 -0.16920558 -0.01068287 0.10192773 -0.036739517
-0.100328684 0.07444388 0.0065745236 -0.014328967 0.13848108 -0.00040153463 0.09273705 -0.027671942
0.13476759 -0.1064162 -0.07829471 -0.042605124 0.12317988 -0.10299732 -0.015287516 0.08735898
0.119150996 0.024088683 0.10180161 0.14395289 -0.08244647 0.050559323 0.054614455 0.12590432
0.090343274 0.0058790115 -0.097189836 0.05728407 -0.05558723 0.06524393 -0.075348884 -0.08760725
0.06269838 -0.025748452 0.099565424 -0.035164427 0.017996656 -0.039698813 0.017956212 0.12109117
-0.10194353 0.08194764 0.08873806 0.02296745 -0.0428905 -0.04790798 -0.022724198 0.099682525
0.015719788 -0.0016627462 0.013996328 -0.13734482 0.049116135 -0.06797794 0.019935824 -0.03329416
-0.123560846 -0.040427655 -0.016746566 0.08922232 0.012999741 0.025780087 -0.14485632 0.048034217
-0.05215551 -0.11515672 -0.05606775 0.07283185 0.008491658 0.035118192 0.16072516 0.050880577
0.03657738 0.10047686 -0.15783243 -0.030593907 -0.045799483 0.032349482 0.038291134 0.03495492
-0.043668214 0.04718413 0.0831106 -0.05247929 -0.09469077 0.08620831 -0.046723798 0.07497627
0.09792886 -0.015124199 -0.07103474 -0.053343397 0.09462208 -0.07260136 -0.027110994 0.10198959
-0.047941823 -0.1248302 -0.07084992 -0.080897495 0.11510188 -0.05791223 0.12917738 0.1581348
-0.12048236 -0.06001468 0.14429273 0.1373332 -0.11062563 0.076067254 0.05404954 -0.041514575
-0.112959966 0.101081595 0.12245129 -0.0896821 0.060947828 -0.07552576 0.10087584 0.012568555
-0.011122731 -0.06327484 0.006697875 -0.052899715 -0.024271537 -0.0162166 0.08813983 0.014755928
0.0007007171 -0.095367424 0.041192163 0.08043256 0.052234683 0.014508313 0.025887925 0.091483
0.038058426 -0.015157582 0.00044155688 -0.09221406 -0.062972344 0.09365679 0.0484521 -0.0977042
00000000: 981e f83d cc33 e23d 6990 e03d 0e6b ca3d
00000010: c464 fa3c 2138 fc3c d598 893d a67e d1bc
00000020: 82d2 79bd 2710 60bd 8778 debd b10a a6bb
00000030: 54c4 463d 05c8 953c e07b c33c d453 663d
00000040: 0c79 2a3d 53af 833d 8766 b93d b6f8 8d3b
00000050: 17a6 71bd 0a70 dc3d 4832 843d 9a01 86bd
00000060: 9d86 8fbd 2d84 7f3d fae8 b8bd 819a c9bc
00000070: 211c 573d 30d2 b13d cc70 18bd ef8c 8cbd
00000080: f17c b13d 009f b83d 600c eabd fd5f 37bd
00000090: 3968 e53d 32f2 a33d f6c6 d6bd 0fe1 903d
000000a0: 9809 cbbd e204 423c 2978 e13d 140d 203d
000000b0: 113b 2abe 8f7b 953b 80d6 0cbe 2c37 5bbc
000000c0: 34f9 40bc 8c6e fcbd cef8 af3d b94e 2fbe
000000d0: d05d c73d 6870 dfbb 83cf cebc d171 12bd
000000e0: b1f8 103a a0f5 9abd 8391 ddbb 1f67 b23d
000000f0: 941c b23d a0c5 01be fafb cfbc 962c bf3d
00000100: 0b80 26bc ea5f 0b3e 7b49 863d ad25 1f3e
00000110: a112 c13d 93c8 d13d adbb 03bd d77c d03d
00000120: c2ee 04bd b98c 023d fc48 00be eb6f 48bd
00000130: 38ec debd 59b9 8fbc d649 aebd 14db 76bd
00000140: ad09 adbc 94de 9ebc f42a a0bd 0e34 ac3b
00000150: eef3 883d 200b e33d 0b70 1abd 463f 003d
00000160: 6851 c23d b7b5 273e acfa 023e a074 643c
00000170: 03ed 04be 0757 e8bb 4eaf 983d 3021 29bd
00000180: 7002 d2bc 7d39 c3bd c13c 823d d560 97bd
00000190: 2497 d43d 39a2 85bc d435 a0bd 62bc 9b3d
000001a0: e6cb e8bc b128 6cbd 9a59 2a3d e9a0 213c
000001b0: 3a44 2dbe 3407 2fbc 7cbf d03d 2d7c 16bd
000001c0: 2079 cdbd 0876 983d 1a6f d73b 0bc4 6abc
000001d0: fccd 0d3e 1185 d2b9 ecec bd3d 45b0 e2bc
000001e0: 8400 0a3e bdf0 d9bd fa58 a0bd b682 2ebd
000001f0: bc45 fc3d 42f0 d2bd 7d78 7abc 44e9 b23d
00000200: 7005 f43d a155 c53c 5d7d d03d 6368 133e
00000210: b2d9 a8bd 4b17 4f3d 68b3 5f3d 10ed 003e
00000220: e505 b93d b9a4 c03b 770b c7bd b3a2 6a3d
00000230: 6faf 63bd 9c9e 853d 8450 9abd 6e6b b3bd
00000240: 0268 803d 6bee d2bc f5e8 cb3d 9308 10bd
00000250: b96d 933c 399b 22bd e818 933c a6fe f73d
00000260: c5c7 d0bd 2ad4 a73d 4dbc b53d 3c26 bc3c
00000270: f3ad 2fbd 283b 44bd 1928 babc 5a26 cc3d
00000280: c9c6 803c 81f0 d9ba db50 653c 1fa4 0cbe
00000290: 002e 493d 0538 8bbd 7450 a33c 755f 08bd
000002a0: 780d fdbd 7897 25bd 1830 89bc 31ba b63d
000002b0: defc 543c c330 d33c 3755 14be 87bf 443d
000002c0: 04a1 55bd 49d7 ebbd 4ca7 65bd dd28 953d
000002d0: 9820 0b3c 18d8 0f3d 2395 243e 2768 503d
000002e0: 2ad2 153d d0c6 cd3d d39e 21be 13a0 fabc
000002f0: 3d98 3bbd e480 043d 2ad7 1c3d e42c 0f3d
00000300: 71dd 32bd 2544 413d e435 aa3d 86f4 56bd
00000310: 3ced c1bd fc8d b03d 7461 3fbd 298d 993d
00000320: ed8e c83d 7dcb 77bc a97a 91bd 9b7e 5abd
00000330: 39c9 c13d 06b0 94bd e017 debc ebdf d03d
00000340: a55e 44bd faa6 ffbd c319 91bd 96ad a5bd
00000350: 89ba eb3d 6035 6dbd 1347 043e 17ee 213e
00000360: 75bf f6bd f4d1 75bd 79c1 133e 13a1 0c3e
00000370: b18f e2bd 26c9 9b3d 0d63 5d3d 300b 2abd
00000380: 8e57 e7bd de03 cf3d bec7 fa3d 40ab b7bd
00000390: 6ea4 793d 40ad 9abd fe97 ce3d 57ec 4d3c
000003a0: 1d3c 36bc 3d96 81bd d979 db3b 5fad 58bd
000003b0: 1ad5 c6bc add8 84bc a882 b43d d9c2 713c
000003c0: 54b0 373a ff4f c3bd 1db9 283d d3b9 a43d
000003d0: 09f4 553d 46b4 6d3c ea12 d43c 705b bb3d
000003e0: 27e3 1b3d 8257 78bc c380 e739 bada bcbd
000003f0: a5f7 80bd 22cf bf3d b675 463d 2419 c8bd

model.6.bias f4 [64]
0.09126312 -0.038390443 -0.0683337 0.13621253 -0.08174984 -0.07334715 -0.011304259 -0.097285226
0.06642332 -0.023722766 -0.02057165 -0.04511499 -0.07209616 -0.004253401 -0.109070174 0.10122793
-0.06041792 0.026130442 0.1336993 0.074153036 -0.046906855 0.106081575 -9.9118704e-05 -0.1727899
0.15240385 0.11471211 0.14369392 0.033821017 0.010190323 -0.038331762 0.101922005 0.04041995
0.0987637 0.10081808 -0.11046774 -0.06507182 0.05186601 0.13186848 0.007998796 0.09314329
-0.0461912 -0.0073506194 -0.08517709 -0.0036492 -0.0021998037 0.08383485 -0.0611861 -0.02127823
-0.022131156 -0.0024210203 -0.0056270654 0.092379 -0.059208382 0.03315194 0.08095358 0.09028683
0.029043203 0.14464512 -0.034937892 0.10177217 0.11037195 0.008006887 0.029370513 -0.11029267
00000000: 29e8 ba3d 4c3f 1dbd 8af2 8bbd 4c7b 0b3e
00000010: 766c a7bd 0837 96bd 8035 39bc 7a3d c7bd
00000020: f308 883d 3f56 c2bc e085 a8bc 7fca 38bd
00000030: 27a7 93bd 1d60 8bbb 2f60 dfbd 9750 cf3d
00000040: c878 77bd 820f d63c 78e8 083e 8cdd 973d
00000050: 6721 40bd 4c41 d93d f3dd cfb8 d6ef 30be
00000060: c10f 1c3e 2fee ea3d 8024 133e e887 0a3d
00000070: 50f5 263c c401 1dbd 7cbc d03d 648f 253d
00000080: 9f44 ca3d b679 ce3d e93c e2bd 6044 85bd
00000090: 7471 543d 8808 073e 620d 033c e9c1 be3d
000000a0: fc32 3dbd 77dd f0bb 5371 aebd 6b27 6fbb
000000b0: 952a 10bb 9bb1 ab3d 479e 7abd af4f aebc
000000c0: 664c b5bc fba9 1ebb 3f63 b8bb 3331 bd3d
000000d0: 7d84 72bd 54ca 073d feca a53d 4de8 b83d
000000e0: 03ec ed3c da1d 143e 091b 0fbd ed6d d03d
000000f0: b00a e23d 512f 033c 6e9a f03c 20e1 e1bd

model.8.weight f4 [3, 64]
0.098319806 -0.03446113 0.09342435 -0.06787523 -0.023557147 -0.06559587 0.099204436 0.055088475
0.047444638 0.14267942 -0.13158447 -0.17544925 0.032486405 0.14611241 -0.1435975 -0.15502356
-0.10947564 0.12210594 -0.16682468 0.14343394 -0.04728702 -0.14804299 0.05046014 -0.17877425
-0.16179307 -0.12154166 -0.012252411 -0.14613833 0.115498334 -0.047829814 -0.10535826 -0.036241587
0.11629418 0.059688497 0.06852164 0.0008296429 0.15590489 0.02672397 0.038877316 0.06224382
0.048384126 0.08909525 0.056028016 -0.15275766 0.112560086 0.103836656 0.05445086 0.06839295
-0.17234749 -0.0929816 0.017383607 0.06272686 0.08930905 -0.1198555 -0.12417786 -0.06587161
0.05819901 -0.033698346 -0.005846646 0.06554049 -0.034921862 -0.16808912 -0.110994644 0.12649745
0.13174047 0.17807439 0.021357697 0.0819387 0.013340708 -0.15006806 0.11033632 0.043677613
-0.07121658 0.04781569 -0.071188174 0.005910196 -0.1662465 0.18955958 0.1407291 -0.13810182
0.0025576055 -0.13766308 0.14216785 -0.13093139 0.09859211 -0.012669325 0.14102086 0.15245299
0.011995808 0.12364757 -0.108727954 0.1609424 -0.031067835 0.08614757 0.13805859 -0.11995663
-0.1529841 -0.14270636 -0.053882547 0.027100638 -0.12221326 -0.025572332 0.121230975 0.013486984
0.06449853 -0.097795956 0.10654944 -0.054995004 -0.05118016 -0.03903472 0.009532217 0.07209774
-0.018313421 -0.009636943 -0.0051771943 -0.02547469 0.0866822 0.13384646 0.037535843 -0.11943141
0.12274427 -0.07783458 0.10841246 0.12286825 0.031342424 -0.007075427 -0.07061777 0.14135857
-0.16645801 0.019440152 0.07480415 0.11385152 0.09684271 0.15654671 0.121808425 -0.010353446
0.13274686 0.12975036 -0.11106049 -0.085552074 0.07431923 -0.017634636 -0.044632707 0.015561535
-0.073230475 0.068588965 -0.07682171 0.121049605 0.061272293 -0.070152126 0.08414644 -0.023727473
-0.044788413 -0.014285596 0.157735 0.053561594 -0.12838505 0.04030893 0.00039001805 0.14922579
-0.04694435 0.03171998 0.071487665 -0.0026508388 -0.06960262 -0.15258221 0.14426568 0.14112595
-0.048159335 -0.037784886 0.04196811 -0.14228483 -0.1545979 0.03103539 -0.15656893 -0.10882665
-0.010671056 -0.027658539 0.14724608 0.030717315 -0.047077283 0.124070846 0.13699579 0.026798783
0.084712766 -0.1507489 -0.04587727 -0.07426753 0.027600361 0.08760826 -0.035377406 0.07750438
00000000: e55b c93d 1d27 0dbd 4455 bf3d 2b02 8bbd
00000010: ebfa c0bc 2157 86bd b22b cb3d 74a4 613d
00000020: 4f55 423d 8e1a 123e 14be 06be f8a8 33be
00000030: 7710 053d 7e9e 153e 390b 13be 7fbe 1ebe
00000040: c434 e0bd ae12 fa3d 17d4 2abe 59e0 123e
00000050: 09b0 41bd 9598 17be 4baf 4e3d 9910 37be
00000060: 15ad 25be d5ea f8bd 56be 48bc 49a5 15be
00000070: 648a ec3d 32e9 43bd 12c6 d7bd 0f72 14bd
00000080: a52b ee3d ed7b 743d 1355 8c3d 647c 593a
00000090: 88a5 1f3e 3aec da3c d23d 1f3d 60f3 7e3d
000000a0: 6f2e 463d 9277 b63d a27d 653d 816c 1cbe
000000b0: e785 e63d 50a8 d43d dd07 5f3d 9a11 8c3d
000000c0: dc7b 30be 236d bebd 1168 8e3c f176 803d
000000d0: aae7 b63d cd76 f5bd f650 febd b2e7 86bd
000000e0: 1662 6e3d 4707 0abd 3995 bfbb 183a 863d
000000f0: 3a0a 0fbd 8e1f 2cbe 2951 e3bd 8c88 013e
00000100: f9e6 063e 2259 363e 56f6 ae3c 7acf a73d
00000110: fc92 5a3c 71ab 19be 02f8 e13d 4ce7 323d
00000120: 00da 91bd 63da 433d 1bcb 91bd 51aa c13b
00000130: 863c 2abe e81b 423e 4a1b 103e 906a 0dbe
00000140: 809d 273b 8df7 0cbe 7394 113e e112 06be
00000150: a9ea c93d 0093 4fbc c667 103e a31c 1c3e
00000160: 118a 443c f03a fd3d c3ac debd 16ce 243e
00000170: f981 febc 236e b03d 3b5f 0d3e d2ab f5bd
00000180: dda7 1cbe 9e21 12be f2b3 5cbd 2802 de3c
00000190: f24a fabd 117d d1bc f247 f83d 83f8 5c3c
000001a0: ce17 843d 3f49 c8bd 9836 da3d 7142 61bd
000001b0: 4aa2 51bd dfe2 1fbd 042d 1c3c fba7 933d
000001c0: 0706 96bc 45e4 1dbc 74a5 a9bb 4cb0 d0bc
000001d0: 7086 b13d 0c0f 093e 2fbf 193d 7598 f4bd
000001e0: 5961 fb3d bc67 9fbd 5a07 de3d 59a2 fb3d
000001f0: ea60 003d fcd8 e7bb 0da0 90bd 4dc0 103e
00000200: f873 2abe f440 9f3c eb32 993d fc2a e93d
00000210: 7955 c63d c84d 203e b276 f93d 80a1 29bc
00000220: cbee 073e 47dd 043e af73 e3bd ed35 afbd
00000230: ae34 983d 8376 90bc c9d0 36bd cff5 7e3c
00000240: dcf9 95bd 5f78 8c3d b354 9dbd dbe8 f73d
00000250: a8f8 7a3d ebab 8fbd f854 ac3d 1e60 c2bc
00000260: 0e74 37bd 220e 6abc 4985 213e 6763 5b3d
00000270: 5f77 03be fa1a 253d 567b cc39 a5ce 183e
00000280: b848 40bd cfec 013d 2068 923d b2b9 2dbb
00000290: d28b 8ebd 833e 1cbe 62ba 133e 5283 103e
000002a0: b942 45bd 53c4 1abd c1e6 2b3d 1db3 11be
000002b0: e94e 1ebe ee3d fe3c 9b53 20be 82e0 debd
000002c0: a7d5 2ebc 2994 e2bc adc7 163e e1a2 fb3c
000002d0: 1cd4 40bd db18 fe3d a048 0c3e 1f89 db3c
000002e0: e37d ad3d eb5d 1abe cee9 3bbd 9319 98bd
000002f0: 271a e23c f66b b33d e6e7 10bd 9eba 9e3d

model.8.bias f4 [3]
0.072897695 -0.12811889 0.026355477
00000000: 634b 953d 9931 03be 71e7 d73c
